models/cnn_lstm_7f_best.pth (torch, 161181 bytes, 8 tensors)

cnn.0.weight f4 [64, 7, 7]
0.1006617 -0.011634856 -0.15374415 -0.020129213 -0.017455917 -0.02147724 -0.50928074 0.031601295
0.15331312 0.16982897 0.14839657 0.25230443 0.021762457 -0.06643753 -0.00704311 -0.037993953
0.22560024 0.007564439 0.10230288 -0.22196071 0.09756574 -0.16313845 0.026930396 -0.08562309
0.09956189 -0.06769324 0.09048562 0.1039452 0.0034064453 -0.1417241 0.03195306 0.08507728
0.14981356 0.04477078 0.12846033 0.0781587 0.038811464 -0.027743295 0.23441802 0.36614427
-0.2917619 -0.2733733 -0.028343143 0.20859669 0.42553467 0.26069185 0.50415033 -0.23820034
-0.10903564 -0.10126239 -0.11485997 0.0013540606 -0.08284799 0.072146736 0.065019436 -0.18462506
-0.18398716 -0.23229566 -0.2575084 -0.21779315 -0.26882783 -0.07843177 -0.26717284 0.06501984
-0.07704587 0.16346975 0.24463977 0.05846463 -0.058712687 -0.21601509 0.14572757 0.054379057
0.1656493 -0.017813804 -0.004285721 -0.035500497 -0.0021184667 -0.04166458 -0.05517472 0.0485018
0.100849375 -0.121558286 -0.032957964 -0.0511718 -0.2627534 -0.25925255 -0.11230571 -0.17003337
-0.12115911 -0.28383213 -0.2916512 -0.09971321 0.05337772 0.024679761 -0.040345937 -0.17969203
-0.32587993 -0.23597349 -0.08696546 -0.015501628 -0.08200514 -0.0052871895 -0.08425137 0.06532578
-0.01424011 0.11469078 0.18857716 -0.0066636605 0.072032064 -0.026468068 0.33921665 0.45550323
-0.08998353 0.159802 0.1419808 0.16217698 0.11299839 0.23754948 0.08626991 -0.20656607
-0.026048893 -0.1530708 -0.11572593 0.008404039 -0.0876504 0.08720927 0.0664868 -0.01326268
-0.022760771 -0.1293217 -0.023629665 -0.030823607 0.10955658 0.13291195 -0.07945564 -0.051945895
-0.25873357 0.032849733 0.22711721 0.34092975 0.098816335 -0.0047984323 -0.109089226 -0.15866059
-0.23108914 -0.10190654 0.1651346 -0.07025797 0.10209009 0.11197616 -0.02602228 0.08509941
0.10196422 -0.17619206 -0.0018327206 -0.05053837 -0.07674234 0.051398266 0.04223244 -0.022350745
0.22867064 -0.035036463 -0.058831453 -0.14965138 -0.0919632 0.06807874 0.020985154 0.040021762
-0.072004765 -0.0658078 0.011152079 0.042766616 0.0652555 -0.109154694 0.015900463 -0.036815222
0.08808285 0.047148928 -0.06486702 -0.008989784 -0.081921235 0.0638586 0.35878703 0.35660234
0.4375525 0.5231152 0.25218305 0.2750681 0.25795886 -0.12113825 -0.15050967 -0.10568074
-0.14428562 -0.15358451 -0.03932574 -0.23322867 0.096545875 0.031538375 0.05313055 0.050905347
-0.044901405 -0.11349831 0.08163827 -0.044437733 0.028205074 0.08176074 -0.073011614 0.20090622
0.04648326 0.035554558 -0.036782585 -0.06575347 -0.06963006 -0.07213698 0.10081036 0.06292492
0.15289727 -0.013648935 0.12859079 -0.032691266 -0.046313677 -0.19134466 -0.11175505 -0.19379757
0.082641095 0.1172159 -0.07664901 -0.017916203 0.025087075 0.02125334 -0.028092578 0.058428876
0.111910276 0.23211384 0.45799792 0.0731266 -0.006409257 0.2476527 -0.25974488 -0.18326545
0.03493715 0.26362467 -0.10637765 -0.08521249 -0.08674009 -0.11370497 0.008730528 0.109539755
-0.05781476 -0.09484509 0.055311218 -0.049601167 0.14562896 0.08702323 0.08442081 0.04624076
00000000: b927 ce3d 20a0 3ebc 1b6f 1dbe 05e6 a4bc
00000010: b6ff 8ebc 09f1 afbc 3960 02bf 5c70 013d
00000020: 1dfe 1c3e a5e7 2d3e 45f5 173e 0c2e 813e
00000030: 2e47 b23c 6610 88bd e4c9 e6bb 8c9f 1bbd
00000040: c003 673e 1ddf f73b 2c84 d13d ab49 63be
00000050: 8cd0 c73d c40d 27be 229d dc3c 295b afbd
00000060: 1be7 cb3d c1a2 8abd 8650 b93d 39e1 d43d
00000070: ab3e 5f3b 1f20 11be 36e1 023d ff3c ae3d
00000080: ba68 193e 9161 373d 1b8b 033e ab11 a03d
00000090: c5f8 1e3d e845 e3bc 470b 703e 4377 bb3e
000000a0: d161 95be 96f7 8bbe e12f e8bc 5f9a 553e
000000b0: aedf d93e 6779 853e ff0f 013f caea 73be
000000c0: 144e dfbd a862 cfbd b43b ebbd bc7a b13a
000000d0: 35ac a9bd abc1 933d e928 853d 5a0e 3dbe
000000e0: 2167 3cbe eade 6dbe 24d8 83be 2b05 5fbe
000000f0: cda3 89be d6a0 a0bd e1ca 88be 1f29 853d
00000100: 3aca 9dbd 9d64 273e d982 7a3e 9c78 6f3d
00000110: b77c 70bd 0f33 5dbe 9c39 153e 93bc 5e3d
00000120: f89f 293e 41ee 91bc 3c6f 8cbb f868 11bd
00000130: f9d5 0abb 7ba8 2abd e3fe 61bd d3a9 463d
00000140: 1e8a ce3d 8df3 f8bd eefe 06bd 8599 51bd
00000150: 9d87 86be c0bc 84be 8900 e6bd 3a1d 2ebe
00000160: 4422 f8bd 7252 91be 4e53 95be 7036 ccbd
00000170: 99a2 5a3d 362d ca3c c841 25bd 3001 38be
00000180: bcd9 a6be 09a3 71be f21a b2bd 8afa 7dbc
00000190: 50f2 a7bd 2940 adbb fb8b acbd 86c9 853d
000001a0: 5a4f 69bc 00e3 ea3d 5f1a 413e d65a dabb
000001b0: 8c85 933d 90d3 d8bc cead ad3e b837 e93e
000001c0: 4949 b8bd 23a3 233e 6a63 113e b911 263e
000001d0: b36b e73d 2c40 733e 47ae b03d 0e86 53be
000001e0: 7d64 d5bc 97be 1cbe b701 edbd 18b1 093c
000001f0: 0e82 b3bd c69a b23d 3b2a 883d b64b 59bc
00000200: cc74 babc e86c 04be 0093 c1bc ca81 fcbc
00000210: 335f e03d 121a 083e a3b9 a2bd 38c5 54bd
00000220: ba78 84be 718d 063d 6a91 683e 588e ae3e
00000230: 3860 ca3d 2b3c 9dbb 2c6a dfbd ec77 22be
00000240: a2a2 6cbe 60b4 d0bd 0b19 293e 69e3 8fbd
00000250: 9c14 d13d c253 e53d ad2c d5bc 9948 ae3d
00000260: 9ed2 d03d b16b 34be e637 f0ba 5201 4fbd
00000270: 172b 9dbd fd86 523d ecfb 2c3d e918 b7bc
00000280: a328 6a3e 6582 0fbd 40f9 70bd 363e 19be
00000290: 3457 bcbd de6c 8b3d 0fe9 ab3c dced 233d
000002a0: 3c77 93bd 3dc6 86bd 36b7 363c 0c2c 2f3d
000002b0: ada4 853d 7f8c dfbd b041 823c 8fcb 16bd
000002c0: c864 b43d 3c1f 413d 00d9 84bd e349 13bc
000002d0: 52c6 a7bd 4cc8 823d efb2 b73e 9594 b63e
000002e0: e206 e03e e1ea 053f 231e 813e bad5 8c3e
000002f0: 2f13 843e 5517 f8bd 351f 1abe 256f d8bd
00000300: 9cbf 13be 4245 1dbe 0714 21bd 7fd3 6ebe
00000310: d8b9 c53d 622e 013d 6b9f 593d 2082 503d
00000320: 89ea 37bd cd71 e8bd f731 a73d 5704 36bd
00000330: 540e e73c 2d72 a73d 1d87 95bd 5cba 4d3e
00000340: 3b65 3e3d a8a1 113d 56a9 16bd c1a9 86bd
00000350: 349a 8ebd 8ebc 93bd a975 ce3d c8de 803d
00000360: 1a91 1c3e c89f 5fbc 4ead 033e 47e7 05bd
00000370: 69b3 3dbd dbef 43be d5df e4bd df72 46be
00000380: bc3f a93d e40e f03d 28fa 9cbd 00c5 92bc
00000390: 6983 cd3c 7c1b ae3c 6822 e6bc 1e53 6f3d
000003a0: 3731 e53d 40af 6d3e b47e ea3e 66c3 953d
000003b0: bf04 d2bb ab98 7d3e 48fd 84be f0a9 3bbe
000003c0: 421a 0f3d d0f9 863e 86dc d9bd e383 aebd
000003d0: caa4 b1bd 27de e8bd 7d0a 0f3c 6156 e03d
000003e0: 2bcf 6cbd 243e c2bd 048e 623d 982a 4bbd
000003f0: c21f 153e 3c39 b23d d1e4 ac3d f366 3d3d

cnn.0.bias f4 [64]
-0.23268099 -0.09287341 -0.0397443 -0.22926608 -0.31930324 -0.2509876 0.088338435 0.25778645
-0.16304716 -0.0878597 -0.15003341 -0.25388741 -0.17725736 -0.17633104 -0.1990067 -0.06916815
-0.19109552 -0.031098746 0.041656703 -0.0755743 -0.017454533 -0.3508704 -0.30493942 -0.2580195
-0.018425975 0.05573947 -0.0404189 -0.11231902 -0.12922104 -0.034552723 -0.033946592 -0.30726823
-0.058446616 -0.038239524 -0.027412511 -0.10946736 -0.16296558 0.061671615 0.06562006 0.11172793
-0.35784587 0.038371194 0.109999284 -0.17036465 -0.3155325 -0.1517487 -0.0108880745 -0.27226496
-0.110878065 0.009468369 -0.05592301 -0.085056 -0.06959565 -0.13762462 -0.23777322 -0.12484638
-0.24163006 -0.049260773 -0.24201372 -0.078300394 -0.33690175 -0.26576415 -0.11370287 -0.09533099
00000000: ed43 6ebe 6a34 bebd ebca 22bd bac4 6abe
00000010: b77b a3be 7281 80be c8ea b43d 96fc 833e
00000020: d6f5 26be c9ef b3bd 5ca2 19be 88fd 81be
00000030: f482 35be 2090 34be 6ac8 4bbe 08a8 8dbd
00000040: 8bae 43be ccc2 febc 38a0 2a3d b3c6 9abd
00000050: cffc 8ebc 49a5 b3be 0521 9cbe 221b 84be
00000060: 12f2 96bc 124f 643d 4a8e 25bd 8407 e6bd
00000070: 8552 04be 2887 0dbd 950b 0bbd 4352 9dbe
00000080: b865 6fbd 0ca1 1cbd 3490 e0bc 6c30 e0bd
00000090: 73e0 26be 609b 7c3d cf63 863d 9dd1 e43d
000000a0: 9337 b7be 1d2b 1d3d 4e47 e13d 1274 2ebe
000000b0: 7a8d a1be 0364 1bbe e563 32bc 5066 8bbe
000000c0: 0a14 e3bd 3821 1b3c 870f 65bd d731 aebd
000000d0: 2a88 8ebd 78ed 0cbe d37a 73be 75af ffbd
000000e0: df6d 77be aac5 49bd 72d2 77be f55b a0bd
000000f0: 637e acbe 3d12 88be 0ddd e8bd e53c c3bd

lstm.weight_ih_l0 f4 [256, 64]
-0.117291085 -0.25227016 0.030107593 -0.0042031873 -0.09557001 -0.09530081 -0.020153737 0.1474561
-0.0238937 0.15412386 0.13572468 -0.23970884 0.21000324 0.06765749 0.024081305 -0.024977153
-0.038678035 0.247888 -0.18331623 -0.10212559 -0.23174895 -0.4038386 0.07568728 -0.19050568
-0.25633296 0.04246579 0.29019699 -0.08092859 0.00042152902 -0.14048083 -0.10961131 -0.4856624
0.1329437 0.010331683 -0.1039452 -0.15167804 -0.0030860829 -0.22318044 -0.13388276 -0.039152037
-0.21772042 -0.14594597 -0.4161247 -0.1238171 -0.06894368 -0.011015554 0.027903538 -0.2178555
-0.04599429 -0.02376893 -0.19119497 -0.120908 -0.36258763 -0.014213859 -0.07066346 0.23834853
0.11870462 0.023224141 0.16123107 -0.50871164 -0.1166339 -0.02532396 -0.055708144 0.08383149
0.088990696 -0.20759594 -0.019724857 -0.17877662 -0.08288921 -0.1204014 0.1759585 -0.21124019
-0.14238058 -0.018424122 0.071829215 -0.19506517 0.065408036 0.3208165 0.12152937 -0.32073358
-0.19449416 0.40663484 0.103482895 -0.066514455 0.009515911 0.2589596 -0.22160469 -0.0047013625
0.011182697 0.2484551 0.18280648 -0.16656291 -0.1422575 -0.40244997 0.009186553 -0.2608515
0.29913333 0.20188977 0.12497355 0.1734641 -0.0041513247 -0.07282296 -0.18177067 -0.24098606
0.37051755 -0.22708444 0.02635305 -0.08038661 -0.040871326 -0.20630124 -0.004673004 -0.00614002
0.00038150817 -0.09023394 -0.21155557 -0.066776395 0.02117511 0.2508991 -0.20351677 -0.21600117
0.23036633 -0.08848997 -0.11519491 0.1455755 -0.084638 0.038330875 0.048961837 -0.034350183
-0.23984782 -0.11741668 0.047068886 0.06759871 -0.020233456 0.027917452 -0.0077540036 -0.018866405
0.09691796 0.022140801 -0.055178717 -0.11054378 -0.11913928 -0.009516062 -0.15465783 -0.13314529
-0.041121025 -0.16232525 -0.036156256 -0.12625758 -0.13756041 -0.31224868 0.030145848 -0.062083527
-0.016988102 -0.14364472 -0.055751834 -0.27066723 0.023898222 -0.14314389 -0.062293034 0.05225823
-0.0231087 0.055602446 -0.47053412 -0.3154886 -0.37667957 -0.18351288 -0.26821837 -0.077217355
-0.27566677 -0.027317643 -0.1686957 -0.07887424 -0.23026514 -0.027314344 -0.12275626 -0.14162552
-0.2597714 -0.027178308 -0.086011454 0.014937068 -0.047676187 -0.09248868 -0.17214736 -0.04014608
-0.18825902 -0.09660788 -0.33506683 -0.12911592 0.08376203 -0.02067893 -0.10197787 -0.028152997
-0.18523125 0.030738125 -0.08029927 0.017915184 0.06459017 0.015926588 0.021722618 -0.01999843
0.1724038 -0.041478805 -0.06957499 0.025354655 -0.04954008 -0.14264147 -0.18996276 0.13939966
-0.076171055 0.0039611557 0.026833816 -0.09582015 0.14759396 -0.08318888 0.1553761 -0.0027662353
-0.07706145 0.039390802 0.07084118 -0.20021996 0.2645259 -0.049054764 -0.06770309 0.00014338107
-0.069792576 0.15441369 -0.04137069 -0.18142034 -0.3289789 -0.15183538 -0.06732935 -0.07167248
-0.2185778 0.13415822 -0.10986619 0.07030569 0.096212424 0.080191575 -0.22240695 -0.080893986
0.14585546 0.005074933 -0.18879317 0.18378992 -0.066908754 -0.08117525 -0.13988416 -0.07678942
-0.21088055 -0.1879424 0.11053802 -0.16804352 0.047911514 0.107368045 0.023166493 -0.08147165
00000000: 4f36 f0bd 8e29 81be 33a4 f63c e4ba 89bb
00000010: 36ba c3bd 122d c3bd 7319 a5bc bbfe 163e
00000020: b9bc c3bc a5d2 1d3e 69fb 0a3e 3c76 75be
00000030: 170b 573e 0390 8a3d 2846 c53c e39c ccbc
00000040: dc6c 1ebd 5ad6 7d3e 40b7 3bbe 3927 d1bd
00000050: 994f 6dbe efc3 cebe ef01 9b3d ec13 43be
00000060: 133e 83be 9cf0 2d3d b394 943e e3bd a5bd
00000070: ab00 dd39 35da 0fbe e57b e0bd bea8 f8be
00000080: 6522 083e 3846 293c 39e1 d4bd 7d51 1bbe
00000090: e13f 4abb 6a89 64be 9018 09be e35d 20bd
000000a0: 1af2 5ebe dc72 15be 4c0e d5be d293 fdbd
000000b0: 5832 8dbd 957a 34bc f695 e43c 8315 5fbe
000000c0: 8264 3cbd 0fb7 c2bc 9dc8 43be 9d9e f7bd
000000d0: 16a5 b9be 3fe1 68bc 01b8 90bd a311 743e
000000e0: 681b f33d 8e40 be3c c219 253e ed3a 02bf
000000f0: c1dd eebd 3274 cfbc 392e 64bd d8af ab3d
00000100: c140 b63d 0894 54be 0696 a1bc 3811 37be
00000110: d1c1 a9bd 0295 f6bd 772e 343e 594f 58be
00000120: 37cc 11be 2fee 96bc 321b 933d 2abf 47be
00000130: a6f4 853d 0f42 a43e 64e4 f83d 3137 a4be
00000140: 7a29 47be 7132 d03e d7ee d33d bb38 88bd
00000150: a0e8 1b3c 5a96 843e 57ec 62be e30d 9abb
00000160: a137 373c 046b 7e3e 9f31 3b3e 788f 2abe
00000170: f3ab 11be ec0d cebe 3283 163c 548e 85be
00000180: 0128 993e 31bc 4e3e 22f2 ff3d 93a0 313e
00000190: d607 88bb 3424 95bd 1722 3abe 0dc5 76be
000001a0: 7ab4 bd3e d388 68be 5ae2 d73c bca1 a4bd
000001b0: b168 27bd a240 53be 0020 99bb 3932 c9bb
000001c0: 2905 c839 92cc b8bd 06a2 58be 10c2 88bd
000001d0: 6d77 ad3c d975 803e b366 50be 692f 5dbe
000001e0: 27e5 6b3e 3b3a b5bd 4feb ebbd be11 153e
000001f0: b056 adbd d600 1d3d 358c 483d c7b2 0cbd
00000200: ab9a 75be 2878 f0bd 4ecb 403d 3171 8a3d
00000210: a2c0 a5bc 24b3 e43c 4c15 febb b88d 9abc
00000220: ec7c c63d a060 b53c 1403 62bd c764 e2bd
00000230: 4bff f3bd 42e9 1bbc 9f5e 1ebe 3d57 08be
00000240: 856e 28bd 9738 26be 9518 14bd ab49 01be
00000250: a3dc 0cbe 0fdf 9fbe 6df4 f63c 4c4b 7ebd
00000260: a22a 8bbc 9a17 13be 095c 64bd e594 8abe
00000270: 34c6 c33c 5094 12be fb26 7fbd ba0c 563d
00000280: 754e bdbc 64bf 633d d9e9 f0be b987 a1be
00000290: 25dc c0be cdea 3bbe eb53 89be 2224 9ebd
000002a0: 3224 8dbe 40c9 dfbc 91be 2cbe d188 a1bd
000002b0: a0ca 6bbe 55c2 dfbc a267 fbbd 4806 11be
000002c0: c200 85be 0ba5 debc c626 b0bd 9bba 743c
000002d0: 1b48 43bd b46a bdbd 6647 30be 3770 24bd
000002e0: f9c6 40be 5ada c5bd e18d abbe f736 04be
000002f0: 6d8b ab3d dc66 a9bc c6d9 d0bd 1da1 e6bc
00000300: 43ad 3dbe 85ce fb3c f273 a4bd ddc2 923c
00000310: da47 843d 7a78 823c a2f3 b13c bfd3 a3bc
00000320: 9f8a 303e aee5 29bd 557d 8ebd 91b4 cf3c
00000330: 8aea 4abd 9b10 12be 9985 42be c9be 0e3e
00000340: 92ff 9bbd 95cc 813b 97d2 db3c 5b3d c4bd
00000350: df22 173e ee5e aabd ea1a 1f3e ba49 35bb
00000360: 65d2 9dbd 4058 213d 2e15 913d 7606 4dbe
00000370: f06f 873e a6ed 48bd eba7 8abd 9058 1639
00000380: 69ef 8ebd 9f1e 1e3e 5074 29bd 41c6 39be
00000390: ec6f a8be bc7a 1bbe f8e3 89bd 05c9 92bd
000003a0: dcd2 5fbe c660 093e 8601 e1bd 6efc 8f3d
000003b0: 050b c53d 7b3b a43d a6be 63be bfab a5bd
000003c0: 225b 153e a04b a63b ff52 41be 6d33 3c3e
000003d0: 7507 89bd 363f a6bd cb3d 0fbe c543 9dbd
000003e0: 12f1 57be f973 40be c261 e23d 9a13 2cbe
000003f0: dd3e 443d c7e3 db3d a8c7 bd3c 9cda a6bd

lstm.weight_hh_l0 f4 [256, 64]
-0.15036458 0.40962067 0.003365299 0.32366937 0.19508749 -0.05377238 -0.14720057 0.023375476
0.008229714 -0.1764652 -0.026261743 -0.21337025 -0.35515144 -0.12106189 -0.019213278 -0.035098176
0.103637785 0.21699117 0.29959324 0.077006064 0.38253048 -0.4939034 -0.006380358 0.035508428
0.032852225 0.12776585 0.27585292 -0.018420452 0.24464647 0.18804881 0.22265132 0.21631826
-0.3937168 0.09264605 0.15029286 0.18959004 0.3059351 0.17143911 -0.43646264 0.16615205
-0.038910493 0.20319411 0.31163412 -0.1013412 -0.14660345 -0.16779564 -0.6050668 0.08241494
-0.064160585 0.08925086 -0.14041755 0.016585927 0.1850353 -0.6502345 -0.2559302 -0.14899
-0.1917689 0.14227669 0.12729874 0.45501754 -0.075165816 0.10466627 0.31727052 -0.36417696
0.035957154 -0.25480184 0.12653872 -0.025051039 0.5009501 0.008135287 -0.52203846 -0.030093962
0.048842732 -0.07203361 0.041180916 -0.11582195 0.28758723 0.12667155 0.11041149 0.03619828
-0.07756924 0.24574368 0.002538122 -0.26806897 -0.17205364 -0.059255797 0.040257137 0.13578328
-0.20507473 0.029633146 -0.31472135 -0.042037085 0.047688436 -0.029590515 0.17598309 -0.11200039
-0.32961407 -0.17256808 -0.10403952 -0.12766007 -0.011479898 0.059667453 0.314932 -0.26969135
0.15830423 -0.01096528 -0.38261446 -0.031288054 -0.007963331 -0.15609752 -0.09853995 -0.009643219
0.4395585 0.060621083 0.09055119 -0.13832772 -0.10974015 0.13457966 -0.03533684 0.07081605
-0.014303266 -0.017042689 0.17307231 0.11000379 0.15275227 0.099990495 0.12293908 -0.20498091
-0.3451709 0.2344302 -0.24142231 0.05621875 0.06372662 0.1958592 0.14155038 0.43533385
-0.08179627 0.25131324 0.07174414 0.018344918 0.056382556 0.28238258 -0.06265446 0.29117724
0.025434181 0.114270285 0.21589842 0.06039994 -0.1773145 -0.19427043 0.081817366 -0.061357662
-0.01620265 -0.1555545 -0.0038987705 -0.0886532 0.13378784 0.19996013 -0.14789805 -0.1126969
0.02727155 0.034559883 -0.33113042 -0.1153824 -0.0003958384 0.02288884 -0.20406064 0.010503487
-0.19033517 -0.016315518 0.008422497 0.18352701 -0.24329339 -0.31374487 -0.13130547 -0.14636725
0.01385979 -0.119988404 -0.27865827 -0.041978177 0.20536968 -0.1438273 0.22126278 -0.16811794
-0.19240165 0.10503965 -0.16225155 0.54277146 0.23691766 0.014298072 0.09303867 -0.257563
-0.29586864 -0.123900905 -0.12181407 0.11857725 0.22651853 -0.023173025 -0.3075387 0.18165086
0.0554493 -0.029457923 -0.17101453 0.019498808 -0.09172445 -0.02472352 -0.12971886 0.25677276
-0.094117075 0.14870068 0.23804127 -0.37840256 0.3245454 -0.11529171 0.075497925 0.21255177
0.09246416 0.09850852 -0.05361139 0.21290421 -0.2926276 -0.042725462 -0.04572437 0.06109717
0.27031276 0.18309169 -0.49952054 -0.2473935 0.07959051 -0.01614179 -0.23208489 0.259558
0.117430575 -0.033560913 0.8080931 0.5160755 -0.6340125 -0.29534242 -0.19122294 -0.11764256
-0.7856778 0.20697454 -0.24361986 0.0060426677 0.4712061 0.4205219 0.41209966 0.12376822
-0.13910367 -0.00014049791 0.10815155 0.7263123 0.03512167 -0.1875279 0.20545514 0.1749819
00000000: 2cf9 19be cdb9 d13e 598c 5c3b feb7 a53e
00000010: 04c5 473e 6d40 5cbd bfbb 16be ed7d bf3c
00000020: ecd5 063c 4bb3 34be de22 d7bc bb7d 5abe
00000030: 69d6 b5be 4cef f7bd 2a65 9dbc 1bc3 0fbd
00000040: 0c40 d43d ef32 5e3e 4964 993e 5bb5 9d3d
00000050: 09db c33e e8e0 fcbe 5212 d1bb 4971 113d
00000060: 0e90 063d 0dd5 023e 983c 8d3e 7de6 96bc
00000070: 9b84 7a3e de8f 403e b5fe 633e 8982 5d3e
00000080: 4095 c9be 36bd bd3d 5fe6 193e e423 423e
00000090: 87a3 9c3e bc8d 2f3e 0878 dfbe c323 2a3e
000000a0: 9c60 1fbd 1e12 503e 828e 9f3e fa8b cfbd
000000b0: 371f 16be 9fd2 2bbe a8e5 1abf 2ac9 a83d
000000c0: a066 83bd 28c9 b63d 9ec9 0fbe 36df 873c
000000d0: e579 3d3e c575 26bf 4809 83be d690 18be
000000e0: 115f 44be fbb0 113e 9a5a 023e 0ff8 e83e
000000f0: 89f0 99bd 455b d63d 4871 a23e 6775 babe
00000100: cf47 133d 6375 82be 5e93 013e d637 cdbc
00000110: 443e 003f de49 053c 50a4 05bf 9d87 f6bc
00000120: 510f 483d 5b86 93bd 52ad 283d 0f34 edbd
00000130: a23e 933e 30b6 013e 6b1f e23d a644 143d
00000140: 9fdc 9ebd 3ba4 7b3e 9f56 263b 5640 89be
00000150: d42e 30be 35b6 72bd abe4 243d c60a 0b3e
00000160: 1cff 51be 36c1 f23c 2823 a1be 142f 2cbd
00000170: f354 433d cf67 f2bc e934 343e 7660 e5bd
00000180: 2dc3 a8be b0b5 30be ac12 d5bd 52b9 02be
00000190: 2f16 3cbc dc65 743d c43e a13e fc14 8abe
000001a0: 811a 223e b8a7 33bc 0be6 c3be e727 00bd
000001b0: a278 02bc 07d8 1fbe 50cf c9bd 98fe 1dbc
000001c0: d00d e13e d04d 783d e772 b93d c8a5 0dbe
000001d0: 72bf e0bd 40cf 093e 5dbd 10bd 0108 913d
000001e0: 3f58 6abc 1c9d 8bbc de39 313e ab49 e13d
000001f0: 176b 1c3e d1c7 cc3d 7cc7 fb3d 84e6 51be
00000200: 3dba b0be 780e 703e 6937 77be a245 663d
00000210: 1a83 823d 508f 483e 95f2 103e 14e4 de3e
00000220: ce84 a7bd 21ac 803e 97ee 923d 1548 963c
00000230: 65f1 663d 7394 903e fb50 80bd 2f15 953e
00000240: 585b d03c 8a06 ea3d 7a14 5d3e ed65 773d
00000250: ef91 35be d4ee 46be dd8f a73d 2c52 7bbd
00000260: 6bbb 84bc ae49 1fbe 8482 7fbb cf8f b5bd
00000270: aeff 083e 59c2 4c3e 9672 17be a2cd e6bd
00000280: 9668 df3c aa8e 0d3d ed89 a9be 9c4d ecbd
00000290: 8888 cfb9 6081 bb3c 46f5 50be d116 2c3c
000002a0: 39e7 42be 1fa8 85bc 83fe 093c 81ee 3b3e
000002b0: e721 79be 2ba3 a0be f174 06be 4ce1 15be
000002c0: 2c14 633c 7bbc f5bd 4cac 8ebe 4ff1 2bbd
000002d0: 6e4c 523e 7747 13be b692 623e 1c27 2cbe
000002e0: f004 45be 071f d73d 4525 26be 12f3 0a3f
000002f0: 8b9a 723e 7642 6a3c 0f8b be3d 4cdf 83be
00000300: 187c 97be c2bf fdbd a879 f9bd a1d8 f23d
00000310: 79f4 673e 5bd5 bdbc b675 9dbe af02 3a3e
00000320: ce1e 633d be51 f1bc 6f1e 2fbe f7bb 9f3c
00000330: 07da bbbd fb88 cabc 05d5 04be b877 833e
00000340: 74c0 c0bd fe44 183e 17c1 733e fbbd c1be
00000350: d12a a63e 0f1e ecbd a89e 9a3d 2ca7 593e
00000360: d95d bd3d d6be c93d 9e97 5bbd 9003 5a3e
00000370: 49d3 95be e500 2fbd 7a49 3bbd 0741 7a3d
00000380: 6f66 8a3e 637c 3b3e 28c1 ffbe b954 7dbe
00000390: 5900 a33d ca3b 84bc a9a7 6dbe c9e4 843e
000003a0: 717f f03d 2b77 09bd 30df 4e3f 861d 043f
000003b0: a54e 22bf 1f37 97be f2cf 43be 95ee f0bd
000003c0: 2e22 49bf 22f1 533e 7c77 79be 9201 c63b
000003d0: ed41 f13e a54e d73e bafe d23e 317a fd3d
000003e0: 3171 0ebe 9f52 13b9 8f7e dd3d 9aef 393f
000003f0: bedb 0f3d 5007 40be d562 523e 752e 333e

lstm.bias_ih_l0 f4 [256]
0.085551865 -0.077454984 -0.044701677 -0.024912616 -0.16745289 -0.101905145 -0.12715156 -0.05339558
-0.22742969 -0.1018312 -0.09560077 -0.047147166 -0.16110523 -0.06712278 -0.23923911 -0.058892474
-0.18102323 -0.073330134 -0.18572253 -0.24939543 -0.07230423 -0.024421519 -0.023435421 -0.054195963
-0.2820577 -0.22648704 0.02130678 -0.11590206 -0.23376817 0.08761134 -0.10499458 -0.16234693
-0.19414657 -0.063870974 -0.29488125 -0.25457522 -0.22582847 -0.05084079 -0.20069805 0.014405805
-0.23388484 -0.25920188 -0.20066154 0.012760923 -0.025050297 -0.08369587 -0.1691762 -0.031545144
-0.23280251 -0.2626653 -0.114063956 -0.08572402 -0.07413987 -0.14500952 -0.29328662 -0.16963136
-0.09458408 -0.26894146 -0.032119017 0.054211807 -0.16285788 -0.21229203 -0.13694121 0.07543315
-0.19878647 -0.09407471 -0.14968145 -0.28015476 0.26169428 -0.31326067 0.12484908 -0.13896257
-0.33299673 0.074359074 -0.279496 -0.04163544 -0.3248147 -0.10750879 -0.05139819 0.029203301
-0.13164864 -0.36880672 -0.004683108 -0.10739398 -0.28845182 -0.10505351 -0.1730993 -0.062785566
0.09276306 -0.32208046 -0.12991123 -0.0692326 -0.22647358 -0.1905453 -0.098125726 -0.19166477
-0.25139442 -0.06391947 -0.09205504 -0.108562194 -0.04196575 -0.14998063 -0.26411036 -0.09128191
-0.15448081 -0.21874201 -0.22190635 -0.22702841 -0.111714706 -0.20070766 -0.19657673 -0.23191093
-0.1627613 -0.19577885 -0.087352715 -0.10957211 -0.24372128 -0.05752193 -0.19382498 -0.0144041395
-0.19305646 -0.1461886 0.03721713 -0.14275344 -0.20060448 -0.12367111 -0.2511233 -0.3455278
0.07310836 0.08643283 0.03825161 -0.049952965 -0.12534288 -0.04721094 0.11755188 0.05632119
0.0775624 -0.114546284 -0.022349076 -0.014017005 0.039428007 -0.03741833 -0.08300426 -0.030520888
0.043057356 -0.042719875 -0.014076315 -0.027970495 0.003789639 -0.064049624 -0.03065128 0.017664086
-0.025703501 -0.10375693 0.15452889 0.012070541 0.038311597 -0.06415998 -0.07226973 -0.037632708
0.02488719 -0.0035209788 -0.09104396 -0.01963737 0.00066793035 0.106470905 0.07277213 -0.074863076
0.075613454 0.11098732 0.13755557 -0.05777402 0.07875334 -0.012389703 -0.011339128 0.12292351
-0.028543778 -0.017821524 -0.007399352 0.090686396 0.0726982 0.082903475 0.001407948 0.100389235
0.1229274 0.092392035 0.04892712 -0.057264898 0.03382955 0.09593029 0.11130409 -0.01488406
-0.11513153 -0.21557769 -0.16885424 -0.03020565 -0.11582495 -0.27950412 -0.3432011 -0.045833822
-0.07365923 -0.040732045 -0.17571852 -0.16094701 -0.1146927 -0.12640163 -0.18323752 -0.019311346
-0.25672767 -0.2028263 -0.17942946 -0.25216955 -0.22085896 -0.1703842 -0.27149168 -0.18682382
-0.0334118 -0.027165644 -0.075707704 -0.30962518 -0.09888496 -0.072390094 -0.23439267 -0.13671109
-0.16109513 -0.18211894 -0.044198986 -0.060405355 -0.2384397 -0.2292933 0.006296424 -0.13247067
-0.24900451 -0.14677946 -0.21458656 -0.10599418 -0.17623532 -0.23571643 -0.048194166 -0.06483556
-0.07328727 -0.17767343 -0.2381083 -0.09761812 -0.08965748 -0.24563132 -0.1540318 -0.15744816
-0.06417414 -0.14742589 -0.14867114 -0.09330859 -0.09161024 -0.27862093 -0.20397599 -0.19657357
00000000: d135 af3d b8a0 9ebd 1b19 37bd 8b15 ccbc
00000010: c578 2bbe a5b3 d0bd 0534 02be 53b5 5abd
00000020: 54e3 68be e08c d0bd 56ca c3bd 631d 41bd
00000030: c5f8 24be ab77 89bd 19fb 74be 3c39 71bd
00000040: 275e 39be 1c2e 96bd 0c2e 3ebe 8461 7fbe
00000050: 3d14 94bd a30f c8bc a4fb bfbc 96fc 5dbd
00000060: de69 90be 38ec 67be 8e8b ae3c 0f5e edbd
00000070: ec60 6fbe 936d b33d 6607 d7bd 463e 26be
00000080: 5cce 46be c9ce 82bd adfa 96be af57 82be
00000090: 943f 67be 6f3e 50bd ca83 4dbe 5306 6c3c
000000a0: 827f 6fbe 1cb6 84be 387a 4dbe 3113 513c
000000b0: 4836 cdbc be68 abbd 873c 2dbe 7b35 01bd
000000c0: c863 6ebe 117c 86be 5d9a e9bd 1390 afbd
000000d0: a5d6 97bd 607d 14be aa29 96be d8b3 2dbe
000000e0: 4cb5 c1bd b2b2 89be 3b8f 03bd 330d 5e3d
000000f0: 37c4 26be 1563 59be 513a 0cbe b27c 9a3d
00000100: ae8e 4bbe 3eaa c0bd 1846 19be 7270 8fbe
00000110: cbfc 853e b463 a0be e0b0 ff3d 344c 0ebe
00000120: 8c7e aabe 9249 983d 1a1a 8fbe ec89 2abd
00000130: 1d4e a6be 922d dcbd e986 52bd c33b ef3c
00000140: e7ce 06be 3cd4 bcbe c274 99bb 60f1 dbbd
00000150: f5af 93be 4b26 d7bd f140 31be b895 80bd
00000160: 8ffa bd3d bbe7 a4be 7307 05be d2c9 8dbd
00000170: b1e8 67be 4f1e 43be 24f6 c8bd c543 44be
00000180: c5b6 80be 36e8 82bd 5a87 bcbd db55 debd
00000190: 47e4 2bbd 8694 19be 7939 87be 03f2 babd
000001a0: 3830 1ebe e8fd 5fbe 6b3b 63be 237a 68be
000001b0: aeca e4bd 4f86 4dbe 694b 49be 0f7a 6dbe
000001c0: e6aa 26be 407a 48be fbe5 b2bd 5867 e0bd
000001d0: 1292 79be 1e9c 6bbd 0e7a 46be 57ff 6bbc
000001e0: 98b0 45be 77b2 15be fd70 183d f52d 12be
000001f0: 436b 4dbe 4747 fdbd 3c93 80be 05e9 b0be
00000200: d6b9 953d b203 b13d b8ad 1c3d 7b9b 4cbd
00000210: e259 00be 4260 41bd 0abf f03d 0cb1 663d
00000220: 09d9 9e3d 3e97 eabd 6915 b7bc 95a7 65bc
00000230: 437f 213d f643 19bd 23fe a9bd f106 fabc
00000240: e95c 303d 09fb 2ebd 58a0 66bc 6122 e5bc
00000250: 985b 783b 732c 83bd 6518 fbbc 46b4 903c
00000260: 2690 d2bc 837e d4bd d23c 1e3e 85c3 453c
00000270: 9fec 1c3d 4f66 83bd 2702 94bd c124 1abd
00000280: 38e0 cb3c 39c0 66bb 4175 babd 8dde a0bc
00000290: 0c18 2f3a 6b0d da3d 8e09 953d d051 99bd
000002a0: 3adb 9a3d 524d e33d 5edb 0c3e 73a4 6cbd
000002b0: 6e49 a13d 2efe 4abc c0c7 39bc 52bf fb3d
000002c0: a4d4 e9bc 72fe 91bc 4376 f2bb cab9 b93d
000002d0: cbe2 943d 4cc9 a93d e58a b83a df98 cd3d
000002e0: 5cc1 fb3d 0938 bd3d ce67 483d 998e 6abd
000002f0: db90 0a3d 1a77 c43d 66f3 e33d 46dc 73bc
00000300: 14ca ebbd 66c0 5cbe 20e8 2cbe d771 f7bc
00000310: a235 edbd 2a1b 8fbe 0eb8 afbe 3fbc 3bbd
00000320: a6da 96bd a5d6 26bd 8eef 33be 4bcf 24be
00000330: 02e4 eabd 6e6f 01be 9ea2 3bbe d432 9ebc
00000340: cf71 83be b3b1 4fbe 5bbc 37be 5e1c 81be
00000350: da28 62be 3279 2ebe f500 8bbe be4e 3fbe
00000360: d0da 08bd 7c8a debc a40c 9bbd 3187 9ebe
00000370: 3384 cabd 4241 94bd a204 70be fefd 0bbe
00000380: 1ff6 24be 637d 3abe ff09 35bd 9b6b 77bd
00000390: 8929 74be ddcb 6abe 3c52 ce3b 64a6 07be
000003a0: 0afb 7ebe 5b4d 16be 94bc 5bbe 7a13 d9bd
000003b0: 0877 34be a65f 71be 3f67 45bd 82c8 84bd
000003c0: a317 96bd 06f0 35be aad2 73be 02ec c7bd
000003d0: 579e b7bd c786 7bbe 83ba 1dbe 173a 21be
000003e0: bb6d 83bd d0f6 16be 3f3d 18be 9318 bfbd
000003f0: 269e bbbd 67a7 8ebe 15df 50be 954a 49be

lstm.bias_hh_l0 f4 [256]
-0.08687213 0.00021636755 -0.14542371 -0.11395182 -0.27757752 -0.2734903 -0.3338399 -0.07339678
-0.2109401 -0.29159135 -0.11453428 -0.2143231 -0.19083412 -0.1001834 -0.17245418 -0.10619076
-0.2763223 -0.08171316 -0.17154239 -0.18754703 -0.13033213 -0.0849014 -0.1512282 -0.23501779
-0.07107979 -0.18809678 -0.20052311 -0.10833658 -0.097816974 -0.0606262 -0.24829523 -0.012354982
-0.15467636 -0.29865757 -0.32587966 -0.14451198 -0.11192186 -0.022730121 -0.19366269 -0.06800924
-0.2562212 -0.10080493 -0.12753803 -0.0066921962 -0.04401352 -0.085645914 -0.1555619 -0.21046755
-0.11043641 -0.08299587 -0.11761126 0.002023846 -0.15040216 -0.08690476 -0.1322493 -0.19406378
-0.074479274 -0.1629951 -0.07886976 -0.1862723 -0.058112226 -0.25393623 -0.06319938 0.049521297
-0.3389721 -0.025489753 -0.30185652 -0.2170569 0.2825314 -0.24198575 0.08507614 -0.07436169
-0.26815596 0.07175762 -0.20905066 -0.24123064 -0.3522221 -0.06551976 -0.12720834 -0.006729637
-0.3111282 -0.3602941 -0.00020198246 -0.22867507 -0.3020456 -0.21945263 -0.33116296 -0.17184402
0.012300975 -0.16951537 -0.20344256 -0.20884037 -0.28880477 -0.26588988 -0.06573898 -0.21554457
-0.23381145 -0.052269768 0.10260475 -0.1955561 -0.058158547 -0.23450637 -0.09696243 -0.14578052
-0.15006159 -0.23596005 0.021293124 -0.3883763 -0.076370165 -0.09407421 -0.4281739 -0.18571164
-0.23027197 -0.06212527 -0.24105644 -0.23863739 -0.19496387 -0.21111952 -0.099324115 -0.16592614
-0.21031637 -0.23054077 -0.048305217 -0.097221375 -0.17418405 -0.14487694 -0.17958413 -0.31523192
-0.06441109 -0.0648691 -0.0054077203 -0.07452246 0.07629128 0.08133838 -0.06854342 0.016089184
0.062012807 -0.14689976 0.11189706 0.030965982 0.030317573 0.03164382 -0.017241443 0.024291014
-0.068778045 -0.14697506 0.12212161 0.11193444 0.03633278 0.05422537 -0.08569743 0.0047050086
0.0827996 0.050794046 -0.014655689 0.061349336 -0.061596345 0.03437002 0.04450869 0.049495168
-0.096378356 -0.05779413 0.030605014 8.841503e-05 0.029894862 0.02529384 -0.059933476 0.03276155
0.09028903 -0.050006337 0.065223284 0.01833095 0.10790617 0.0026646205 0.026874859 -0.07895637
0.035505686 0.01811738 -0.007791281 -0.012791742 -0.07064579 0.035728194 -0.026077647 -0.07389706
-0.06843965 0.057609774 0.09868171 -0.071410075 -0.006707526 -0.024976896 0.059566084 0.019741677
0.009287021 0.008525343 -0.14500664 -0.22581337 -0.09285944 -0.2538947 -0.23600058 -0.23409912
-0.059580028 -0.19886139 -0.20270377 -0.20784049 -0.30807438 -0.25102615 -0.08632477 -0.22819199
-0.052849315 -0.15953137 -0.1492372 -0.2962623 -0.10204014 -0.13427565 -0.2606029 -0.22469643
-0.026714856 -0.03142616 -0.05391236 -0.27548733 -0.12225616 -0.12817752 -0.2595069 -0.17107117
-0.2286067 -0.14326519 -0.17804313 -0.117699064 -0.15202096 -0.03148776 -0.09006246 -0.101015605
-0.06279379 -0.19065212 -0.113958456 -0.21951856 -0.055175383 -0.22792463 -0.10999639 -0.12648867
-0.095463894 -0.21719153 -0.1726697 -0.09578052 -0.11445668 -0.1317974 -0.20789662 -0.20185374
-0.25474468 -0.31296447 -0.10568205 -0.15869096 -0.10546181 -0.33274007 -0.15452334 -0.11200183
00000000: 04ea b1bd b9e0 6239 f4e9 14be 925f e9bd
00000010: a41e 8ebe ec06 8cbe 10ed aabe 0d51 96bd
00000020: ae00 58be 764b 95be f390 eabd 8477 5bbe
00000030: 056a 43be f42c cdbd d497 30be 8b7a d9bd
00000040: 1e7a 8dbe 3b59 a7bd cfa8 2fbe 540c 40be
00000050: c975 05be c9e0 adbd 91db 1abe 81a8 70be
00000060: 4892 91bd 719c 40be ee55 4dbe 92df ddbd
00000070: 4454 c8bd 2e53 78bd 1b41 7ebe 8d6c 4abc
00000080: 7b63 1ebe a5e9 98be b3d9 a6be f3fa 13be
00000090: 4a37 e5bd 8534 babc 834f 46be 6e48 8bbd
000000a0: 6d2f 83be d172 cebd 5499 02be 364a dbbb
000000b0: 8547 34bd 2067 afbd 9e4b 1fbe ce84 57be
000000c0: 7c2c e2bd bdf9 a9bd 2cde f0bd 80a2 043b
000000d0: 0603 1abe 1ffb b1bd 5c6c 07be a8b8 46be
000000e0: 9788 98bd 30e8 26be 7886 a1bd 2abe 3ebe
000000f0: 1607 6ebd ee03 82be ad6e 81bd d8d6 4a3d
00000100: c08d adbe e3cf d0bc f08c 9abe 2a44 5ebe
00000110: f5a7 903e 1dcb 77be 663c ae3d f14a 98bd
00000120: bd4b 89be a9f5 923d 6011 56be 2a05 77be
00000130: 7556 b4be 392f 86bd e742 02be 4984 dcbb
00000140: 324c 9fbe 7878 b8be 41cb 53b9 cc29 6abe
00000150: b9a5 9abe 31b8 60be 318e a9be e1f7 2fbe
00000160: 078a 493c 7095 2dbe 3f53 50be 40da 55be
00000170: 38de 93be b822 88be 29a2 86bd b7b7 5cbe
00000180: 456c 6fbe d318 56bd 7022 d23d dc3f 48be
00000190: a837 6ebd 7022 70be 3d94 c6bd 7d47 15be
000001a0: bfa9 19be 839f 71be eb6e ae3c 42d9 c6be
000001b0: f667 9cbd fba9 c0bd 9c39 dbbe 312b 3ebe
000001c0: 6acc 6bbe 1177 7ebd 80d7 76be 5c5d 74be
000001d0: 9ca4 47be b72f 58be 716a cbbd 8be8 29be
000001e0: 2d5d 57be e112 6cbe b1db 45bd 001c c7bd
000001f0: 4e5d 32be 9f5a 14be e7e4 37be 1466 a1be
00000200: f6e9 83bd 17da 84bd 3f33 b1bb 3b9f 98bd
00000210: 9a3e 9c3d bd94 a63d 7e60 8cbd 77cd 833c
00000220: 2401 7e3d e46c 16be 492a e53d 5fac fd3c
00000230: 8f5c f83c f39c 013d ed3d 8dbc f3fd c63c
00000240: 81db 8cbd a180 16be e51a fa3d e23d e53d
00000250: aed1 143d 6c1b 5e3d 2282 afbd 792c 9a3b
00000260: d692 a93d 6b0d 503d 6a1e 70bc 7149 7b3d
00000270: 734c 7cbd 94c7 0c3d be4e 363d 72bb 4a3d
00000280: 0462 c5bd 8ab9 6cbd 5eb7 fa3c 756b b938
00000290: 12e6 f43c 0735 cf3c ce7c 75bd fa30 063d
000002a0: 74e9 b83d 72d3 4cbd c993 853d ca2a 963c
000002b0: e9fd dc3d eaa0 2e3b aa28 dc3c e1b3 a1bd
000002c0: 696e 113d e66a 943c 014e ffbb 7494 51bc
000002d0: bdae 90bd ba57 123d caa0 d5bc 5757 97bd
000002e0: 162a 8cbd 3af8 6b3d a319 ca3d 723f 92bd
000002f0: ceca dbbb 599c ccbc 91fb 733d 4cb9 a13c
00000300: 9728 183c e1ad 0b3c 9f7c 14be 9f3b 67be
00000310: 172d bebd 7cfe 81be 23aa 71be aeb7 6fbe
00000320: 300a 74bd 52a2 4bbe 9491 4fbe 23d4 54be
00000330: edbb 9dbe 8086 80be 0acb b0bd 29ab 69be
00000340: 8678 58bd 315c 23be a3d1 18be b1af 97be
00000350: 6cfa d0bd 8e7f 09be be6d 85be d216 66be
00000360: 1dd9 dabc b8b8 00bd 35d3 5cbd ad0c 8dbe
00000370: 7061 fabd f840 03be 17de 84be 482d 2fbe
00000380: e017 6abe 1cb4 12be f050 36be 350c f1bd
00000390: 62ab 1bbe 4ff9 00bd ab72 b8bd 45e1 cebd
000003a0: 089a 80bd 4f3a 43be 0d63 e9bd 79c9 60be
000003b0: 95ff 61bd 1365 69be ca45 e1bd 3f86 01be
000003c0: 9382 c3bd 7567 5ebe 53d0 30be 9428 c4bd
000003d0: 4468 eabd e6f5 06be dae2 54be bfb2 4ebe
000003e0: e56d 82be e13c a0be d56f d8bd e27f 22be
000003f0: 5dfc d7bd e85c aabe 5e3b 1ebe 3761 e5bd

fc.weight f4 [48, 64]
0.026206367 -0.0065043215 -0.0062342375 -0.032234825 0.0040878756 0.43774474 -0.040659435 -0.05515744
0.10820341 -0.02939702 -0.028810099 0.1904409 -0.07380718 -0.12309494 -0.107274115 0.08037153
-0.05833042 0.025262421 -0.11330689 -0.0123100355 0.13385065 0.16014835 0.3126717 0.17745847
0.026310047 -0.0402901 0.0648268 0.0090495795 0.036569595 -0.16804382 0.038626328 -0.052525766
-0.090408 0.02732413 -0.026280673 -0.015051494 0.17181182 0.050526857 0.004271721 0.0017250638
0.09007564 0.06048995 0.000456692 -0.052164283 0.0011498242 0.018586902 0.023508398 0.02376811
0.0039547607 0.0914684 0.033810325 -0.037624825 -0.008080328 -0.018331878 -0.05652817 -0.012759471
-0.10011279 -0.040710133 -0.038186446 0.034021243 0.026036376 0.06511794 -0.051886357 -0.0115965605
0.061688736 -0.22448713 -0.026893396 0.18511876 0.030550035 0.09271636 -0.11043873 -0.09826162
0.22951421 -0.008783804 0.06081132 -0.11767054 0.0057273936 -0.24954157 -0.2008109 -0.049714096
-0.08434014 0.54655623 -0.05072607 0.06357358 0.17653106 -0.17287892 0.063218474 0.09068608
0.03324902 -0.12614022 0.22525747 0.14844958 -0.17023683 -0.478003 0.009059056 0.068736635
0.12574919 -0.21557534 0.023431484 0.26715788 0.1592824 -0.08174457 0.27630693 0.026228117
-0.21057376 0.047499083 0.06563284 -0.041368816 0.24085872 -0.030403735 0.05431308 -0.109526165
-0.18355384 0.055521354 -0.025005152 0.025428355 -0.03234816 -0.15657927 0.064220205 0.11211959
-0.097594455 -0.033180427 0.04365563 -0.003271137 -0.12721398 0.009956637 0.16300839 -0.30844888
0.056551196 -0.0072015715 0.035752706 0.008513436 0.015329374 0.44746035 -0.029046802 -0.03630467
0.08840548 -0.02337394 -0.062474295 0.06848742 -0.101050645 -0.055548336 -0.03480754 0.05548614
0.002164255 -0.047100767 -0.014791072 0.017387396 0.07173189 0.121095784 0.29713777 0.109297514
0.0039105657 -0.025039885 0.06871531 -0.022538962 -0.01125886 -0.14647354 -0.046172116 -0.034587454
-0.10746124 0.11716042 0.00053243217 0.11478114 0.077524215 0.007872792 0.008372852 0.002023044
0.05583287 -0.0067392155 0.03591317 -0.032003336 0.025302151 0.021713309 -0.0013040972 0.023995114
0.01987189 0.116552725 0.02824434 0.04364791 0.0018124627 0.0124741215 -0.032245297 -0.103943735
-0.018338041 -0.004683787 0.0084521035 0.035698824 0.048744585 0.06566428 -0.0059814304 -0.045025136
-0.008933623 -0.2432325 -0.09302114 0.04339621 0.05372583 0.07075576 -0.14547412 -0.06508919
0.16204731 -0.0413637 0.17970763 -0.005146183 -0.112279125 -0.09148009 -0.0281665 0.03470193
-0.049530074 -0.3878533 -0.008078137 -0.033580184 0.014407476 -0.03041279 0.09714536 0.072803594
0.030507071 0.09142447 0.17705427 0.22648093 -0.17947844 -0.4664084 0.08870312 0.08675993
-0.02731739 -0.04945777 0.03749266 0.004681274 -0.0007277181 -0.11276589 0.15253486 0.12695758
0.062198877 -0.002670818 0.10576233 -0.09877498 0.16805328 -0.1635664 -0.034528427 -0.08302689
-0.20974095 0.32947052 0.02124485 0.10827111 -0.07137337 0.08222543 -0.02559881 0.10338944
0.087675616 0.05892676 0.19775221 -0.053453766 -0.11223671 -0.029478848 0.3252064 -0.39590946
00000000: bcae d63c 3422 d5bb 9348 ccbb aa08 04bd
00000010: 96f3 853b 1420 e03e 828a 26bd c5ec 61bd
00000020: c099 dd3d 05d2 f0bc 2803 ecbc f002 433e
00000030: 3828 97bd 3319 fcbd 88b2 dbbd d499 a43d
00000040: e1eb 6ebd 23f3 ce3c 710d e8bd 08b0 49bc
00000050: 2510 093e eefd 233e 8116 a03e acb7 353e
00000060: 2b88 d73c 3b07 25bd eac3 843d b044 143c
00000070: 00ca 153d ae13 2cbe a436 1e3d 4225 57bd
00000080: d427 b9bd dbd6 df3c 914a d7bc 8b9a 76bc
00000090: 70ef 2f3e 40f5 4e3d cbf9 8b3b 891b e23a
000000a0: 9479 b83d 4fc4 773d 2a70 ef39 37aa 55bd
000000b0: b3b5 963a 8f43 983c af94 c03c 57b5 c23c
000000c0: f096 813b c953 bb3d b27c 0a3d 7d1c 1abd
000000d0: 5a63 04bc bc2c 96bc 158a 67bd 1a0d 51bc
000000e0: ef07 cdbd abbf 26bd 6469 1cbd dc59 0b3d
000000f0: 3d4a d53c 8e5c 853d ca86 54bd 80ff 3dbc
00000100: 54ad 7c3d f4df 65be 8a4f dcbc c68f 3d3e
00000110: 1144 fa3c 13e2 bd3d b32d e2bd 633d c9bd
00000120: c605 6b3e f2e9 0fbc 4a15 793d 41fd f0bd
00000130: dcac bb3b d387 7fbe 5fa1 4dbe 02a1 4bbd
00000140: 86ba acbd 1ceb 0b3f 24c6 4fbd dd32 823d
00000150: 8fc4 343e 2c07 31be b078 813d a0b9 b93d
00000160: 2030 083d e72a 01be e5a9 663e 2b03 183e
00000170: 9052 2ebe cfbc f4be 6f6c 143c cbc5 8c3d
00000180: 65c4 003e c8bf 5cbe 62f3 bf3c ebc8 883e
00000190: ed1a 233e b269 a7bd 1a78 8d3e 59dc d63c
000001a0: a6a0 57be 668e 423d 836a 863d 5972 29bd
000001b0: aba3 763e 4111 f9bc 6477 5e3d 414f e0bd
000001c0: 8af5 3bbe 5c6a 633d 9bd7 ccbc 204f d03c
000001d0: 817f 04bd 5156 20be e285 833d f59e e53d
000001e0: 9adf c7bd 33e8 07bd 3fd0 323d 9260 56bb
000001f0: 6244 02be 2a21 233c aceb 263e 03ed 9dbe
00000200: 3aa2 673d 29fb ebbb 6e71 123d f07b 0b3c
00000210: 0e28 7b3c 8619 e53e 8ff3 edbc 35b4 14bd
00000220: ef0d b53d b47a bfbc 0ce5 7fbd 2243 8c3d
00000230: a4f3 cebd a786 63bd 5a92 0ebd 6f45 633d
00000240: 2cd6 0d3b bcec 40bd 4156 72bc 0370 8e3c
00000250: 2be8 923d 1101 f83d 7122 983e 60d7 df3d
00000260: 3424 803b 7220 cdbc 9dba 8c3d a1a3 b8bc
00000270: 1577 38bc 29fd 15be f91e 3dbd 93ab 0dbd
00000280: a314 dcbd cdf1 ef3d eb92 0b3a 6012 eb3d
00000290: 04c5 9e3d e2fc 003c 492e 093c 0c95 043b
000002a0: 02b1 643d a3d4 dcbb b019 133d ee15 03bd
000002b0: 7546 cf3c 1ce0 b13c 3eee aaba 6791 c43c
000002c0: 60ca a23c 32b3 ee3d ad60 e73c 27c8 323d
000002d0: 2890 ed3a 4260 4c3c a513 04bd 74e0 d4bd
000002e0: a939 96bc 747a 99bb b17a 0a3c ee38 123d
000002f0: 67a8 473d fe7a 863d e0ff c3bb 476c 38bd
00000300: 555e 12bc f111 79be de81 bebd 39c0 313d
00000310: 9e0f 5c3d 65e8 903d 2bf7 14be 7b4d 85bd
00000320: bbef 253e fc6c 29bd 4705 383e 50a1 a8bb
00000330: 99f2 e5bd ea59 bbbd 6fbd e6bc 9c23 0e3d
00000340: 0ce0 4abd b594 c6be 2a5a 04bc 608b 09bd
00000350: 560d 6c3c 3e24 f9bc 26f4 c63d 0d1a 953d
00000360: f7e9 f93c c13c bb3d b74d 353e 9eea 673e
00000370: 32c9 37be 15cd eebe fba9 b53d 31af b13d
00000380: b8c8 dfbc 3b94 4abd e791 193d 5f65 993b
00000390: 56c4 3eba cef1 e6bd 1932 1c3e 2b01 023e
000003a0: 40c4 7e3d e408 2fbb ec99 d83d 894a cabd
000003b0: 2916 2c3e f37d 27be ae6d 0dbd 010a aabd
000003c0: 55c6 56be 5cb0 a83e ae09 ae3c 3ebd dd3d
000003d0: 342c 92bd ce65 a83d 98b4 d1bc d8bd d33d
000003e0: 468f b33d 305d 713d 8e7f 4a3e 56f2 5abd
000003f0: 5cdc e5bd a07d f1bc 7481 a63e a5b4 cabe

fc.bias f4 [48]
0.032836463 0.12636529 0.038607772 0.14560099 0.04283033 0.13931642 0.05768951 0.14962277
0.06483025 0.15862033 0.07508349 0.16330743 0.078349955 0.16407542 0.08142415 0.1658983
0.08344061 0.16608542 0.08309307 0.16682315 0.07931196 0.16949113 0.07899612 0.17116413
0.07170781 0.15386052 0.07109703 0.15503402 0.06982974 0.15365186 0.06924942 0.1637415
0.06674381 0.16052641 0.060639244 0.14085965 0.060694672 0.13726604 0.06114043 0.1295356
0.059695255 0.12743613 0.058248356 0.12624045 0.05675249 0.1386598 0.055532522 0.14451623
00000000: 877f 063d e765 013e 2f23 1e3d 6d18 153e
00000010: db6e 2f3d f7a8 0e3e d64b 6c3d b636 193e
00000020: b9c5 843d 5e6d 223e 5fc5 993d 103a 273e
00000030: f175 a03d 6303 283e b4c1 a63d 3ee1 293e
00000040: e9e2 aa3d 4c12 2a3e b32c aa3d b0d3 2a3e
00000050: 4f6e a23d 158f 2d3e b8c8 a13d a645 2f3e
00000060: 8bdb 923d 9d8d 1d3e 529b 913d 3dc1 1e3e
00000070: e502 8f3d ea56 1d3e a4d2 8d3d daab 273e
00000080: fbb0 883d 0961 243e db60 783d 833d 103e
00000090: fa9a 783d 788f 0c3e 636e 7a3d fba4 043e
000000a0: 0383 743d 9e7e 023e d495 6e3d 2d45 013e
000000b0: 4d75 683d d6fc 0d3e 1276 633d 10fc 133e
