models/cnn_lstm_L1_best.pth (torch, 109405 bytes, 8 tensors)

cnn.0.weight f4 [32, 9, 4]
000000 f3 8c b4 3c 82 b1 1f bb ce cc 8a be ca 9a 26 be
       0.022039866 -0.0024367278 -0.2710938 -0.16269985
000010 aa ac 1c be 65 7f b9 bd f8 91 1e 3e 2e b5 78 3d
       -0.15300241 -0.09057502 0.1548537 0.06071966
000020 a8 e0 eb bd 11 a7 31 be 2e d3 30 bd a6 df 2e be
       -0.11517459 -0.17348887 -0.043170147 -0.17077503
000030 ef 93 0d be 4e 22 3a be 91 03 2f 3d 51 91 23 be
       -0.13825963 -0.18177149 0.04272801 -0.15973403
000040 54 6f 59 be 48 d8 4f 3d b1 55 27 be 30 71 1b be
       -0.21233875 0.05074337 -0.16341282 -0.15179896
000050 a9 a0 5e 3d ed 87 ee 3d 63 27 f2 3d 34 ca 70 3e
       0.054352436 0.116470195 0.11823919 0.23514634
000060 12 b7 8f 3d 80 ca 40 3e d1 a6 15 3e 91 bf 8b 3e
       0.0701734 0.18827248 0.14614417 0.2729459
000070 20 5c 60 be 3c 33 dd bc ef 54 47 be c3 50 e0 bb
       -0.21910143 -0.02700197 -0.19465993 -0.006845565
000080 b6 2c ca 3d f2 f7 9a 3e 04 8d 9e bd 76 e6 8d bd
       0.09871809 0.30267292 -0.0774174 -0.069287226
000090 35 44 19 3e 58 30 48 3e 20 7a 7f 3d 1c a0 ad 3d
       0.14967425 0.19549692 0.062372327 0.08477804
0000a0 26 47 e8 bd f3 19 23 be c0 33 a9 bd c2 50 1d 3d
       -0.113416955 -0.15927868 -0.08261824 0.038407095
0000b0 47 6c 35 3b 99 48 bc bd f7 7d 7b bd 5d 0e 34 3d
       0.0027682947 -0.091935344 -0.061399426 0.04395901
0000c0 e2 04 95 bd fd 57 8d bd eb 4e 86 3e 7c d4 97 bb
       -0.07276322 -0.06901548 0.26232085 -0.0046334844
0000d0 99 b1 1c 3e 45 e3 6d 3e de ba bf bd d3 7f 64 be
       0.15302123 0.23231228 -0.09361814 -0.22314386
0000e0 d7 69 27 3d 68 1d a8 bd bd 36 23 bd 30 67 c3 3d
       0.04087242 -0.08208734 -0.039847124 0.09541166
0000f0 c8 e1 65 3d 01 60 1d bd 4e b6 90 3d 60 3f 28 be
       0.056123525 -0.038421635 0.07066022 -0.16430426
000100 68 f5 63 3c 00 1d b1 be e2 f6 0f bf 80 49 cc be
       0.01391349 -0.34592438 -0.5623609 -0.39899826
000110 a0 36 a1 be d8 e6 dc be 70 f6 46 bf c5 f1 09 bf
       -0.31486988 -0.4314487 -0.77719784 -0.53884536
000120 e2 58 10 bc 77 55 14 bd 0e ac 2f 3d 43 97 34 3e
       -0.008810254 -0.036214318 0.042888694 0.17635827
000130 9f 3d 41 be 1f 40 ab bd 74 19 98 bd 43 50 35 be
       -0.18871163 -0.083618395 -0.0742673 -0.17706399
000140 d1 e5 fa bd 33 1e bc 3d 4f 9c f7 bd 96 d8 d6 bd
       -0.12250865 0.091854475 -0.120903604 -0.10490529
000150 df 4b 91 be c3 2c 8c be 6d 79 af be 8f b6 bd be
       -0.28378198 -0.273779 -0.34272328 -0.37053344
000160 c8 10 3b 3e 76 cb 8c 3c f8 99 fe bd c1 85 cb 3e
       0.1826812 0.017186861 -0.12431711 0.39750484
000170 f4 2d e8 bd df f0 aa bc d0 51 ba 3d 7b a2 23 bc
       -0.1133689 -0.02086681 0.09097636 -0.009987469
000180 cb a6 a1 bc 61 16 31 bd f3 a1 cb 3d 85 73 0e be
       -0.019732853 -0.043234233 0.09942999 -0.13911255
000190 c2 80 dc bb ec b6 19 bd 60 07 0b 3e 37 02 bf bb
       -0.0067292163 -0.037527964 0.13577032 -0.0058291215
0001a0 12 ef 6b bd e2 78 ed 3d 70 c2 17 3f 0d 32 6f 3e
       -0.057601042 0.11595322 0.59281063 0.23358937
0001b0 bd 45 1a 3e a7 5d a1 3d 32 7b 5b bd 40 25 89 be
       0.15065666 0.07879191 -0.053584285 -0.26786232
0001c0 7f 3b 38 be b9 34 d0 bd da 99 86 3c 15 c7 73 3d
       -0.17991446 -0.10166306 0.016430784 0.05951603
0001d0 3d 49 19 3d e4 94 43 be 72 22 b7 bb 46 dc 9a bd
       0.03742336 -0.19099766 -0.005588823 -0.07561545
0001e0 9b 00 5b be ac c5 00 be 01 d7 20 bd d3 bc 99 3d
       -0.2138695 -0.12575406 -0.039267544 0.075067185
0001f0 2f 19 94 3e 33 94 71 3d 43 86 68 3e 9f 5c 7c 3e
       0.28925464 0.058979224 0.22707467 0.24644707
000200 5e 25 19 3e d3 e1 10 be 61 29 3d bc 2d 08 2d bd
       0.1495566 -0.14148645 -0.01154551 -0.042244125
000210 31 d4 12 be ff c6 20 3d f8 b1 aa bd d7 4b 3f 3e
       -0.14338757 0.039252277 -0.08334726 0.18681274
000220 21 76 e0 3d c5 43 33 3c 57 ff b0 be 02 ac f6 3c
       0.10960031 0.0109414505 -0.3456981 0.030111317
000230 0d 3c eb bd 63 f1 92 be 72 41 2f bf 1d e9 30 bf
       -0.11486063 -0.28699788 -0.68459237 -0.691057
000240 3e 9d 8e bd f7 77 31 be 6d ac f4 be fd ef bb be
       -0.06963585 -0.17330919 -0.477878 -0.36706534
000250 9a 8e fa bd 29 95 8a bc 21 66 83 bc cc e8 73 be
       -0.1223423 -0.016916828 -0.01603991 -0.23819274
000260 74 8e 98 bc 2c 35 f4 bd 3f 99 96 bd b9 f3 10 be
       -0.018622614 -0.11924204 -0.07353448 -0.14155473
000270 2a 39 33 3d ef 4b 63 3d b6 32 94 3e eb d6 34 3e
       0.043755688 0.055492338 0.2894494 0.1766011
000280 2d 23 da 3e 4b 0b 8a 3e 01 3c 9d 3e 88 5b 76 3e
       0.42604962 0.2696174 0.30709842 0.24058354
000290 83 3f 76 bd 7e 39 85 3d bd ff b7 bb 7e bd e7 3b
       -0.060119163 0.065051064 -0.005615203 0.00707215
0002a0 1a bc ef 3c e8 05 bc 3d ca 36 37 bc 2a 3f dd bd
       0.029264499 0.09180814 -0.011182496 -0.10803063
0002b0 e9 8f d6 3e 0c b4 0a 3d 13 89 0e bf fd 4f a3 be
       0.4190667 0.033863112 -0.5567791 -0.31896964
0002c0 4a e5 54 3e 48 75 db be 4d 28 39 bf bd 5c 1f bf
       0.20790592 -0.42862916 -0.7232712 -0.6225088
0002d0 72 fb 97 bc 68 05 0d be 69 ef 87 bd 94 4f f1 bd
       -0.018552516 -0.13771594 -0.06637461 -0.117827564
0002e0 69 8f 41 be 95 6c 4c 3c d4 70 aa bd 89 13 92 be
       -0.18902363 0.01247706 -0.083223015 -0.2853053
0002f0 4e ea 36 be 69 90 d6 3d de fa 0e be 71 bf c6 3c
       -0.17862818 0.10476763 -0.13962886 0.024261208
000300 af af d2 3e 8a 0c 8c 3e c5 33 ac 3e e9 6a 8b 3e
       0.4114966 0.27353317 0.33633247 0.27230003
000310 74 7b 88 be aa 7d 5d be c3 8f d2 be e3 e3 a2 be
       -0.26656687 -0.21629968 -0.41125306 -0.3181449
000320 1a ac 24 3e 88 5f f6 bd 9b b3 22 3d 9a e6 5c bd
       0.16081277 -0.1202994 0.039722066 -0.053930856
000330 b4 e5 1f 3d b7 b3 6c bd 9b 9d 97 bd aa 44 46 3d
       0.03903742 -0.057788577 -0.07403108 0.048405327
000340 c5 16 d3 bd 8c f9 a5 3c 8b 1a 11 be 89 44 49 bd
       -0.10307077 0.020260595 -0.14170282 -0.049137626
000350 63 bc c5 bd ae fb 02 3e f1 8c 0a 3f f8 44 34 3d
       -0.096550725 0.1279132 0.5412131 0.044011086
000360 16 27 7b bd 57 c2 4f bc 63 97 31 3d 53 15 9e 3c
       -0.061316572 -0.012680612 0.043357264 0.019297278
000370 4d e2 d4 3d 7f 4a 0d 3e 8d 75 55 3d 60 ee 43 3c
       0.10394726 0.13797949 0.05211406 0.0119586885
000380 07 da 9c bd 52 4d 19 be dc cf cf bd c8 7d 7e bd
       -0.07658773 -0.14970902 -0.10147068 -0.062131673
000390 36 fb ca 3d 9b 89 1e 3d 7f f6 14 be 80 91 fe bc
       0.09911196 0.03870545 -0.14547156 -0.03107524
0003a0 f8 be 3d be 59 74 63 3b 14 5c 17 3e 58 d5 79 bb
       -0.1852988 0.00347068 0.14781219 -0.0038121548
0003b0 6c 3d 49 3c 61 72 b3 bd cd af 8c 3d 17 03 89 3d
       0.0122827105 -0.087620504 0.06869469 0.066900425
0003c0 95 f2 aa bd ea 9b 15 3e 61 77 e7 bd fc cf 0d bd
       -0.0834705 0.14610258 -0.113020666 -0.034622177
0003d0 ac 4f 85 3e b6 85 33 3f 56 3e e6 3e 3d 1d 7b 3e
       0.26037347 0.701259 0.44969434 0.24522872
0003e0 4c af b6 bd a5 bc 3a bd 73 30 36 3e b2 97 a0 3d
       -0.08920154 -0.04559006 0.1779192 0.078414336
0003f0 55 59 3f 3d a8 f1 d8 bd 96 d8 cc bd b8 98 dd bd
       0.046716053 -0.10592967 -0.10002248 -0.108201444

cnn.0.bias f4 [32]
000000 8e bb 23 3d e5 ee c3 bb 8b 9b 93 3d 71 f2 e6 bc
       0.039973788 -0.005979406 0.07207402 -0.028191777
000010 47 ff 17 3d c5 4e 3a be fd 8c 91 bc 79 b1 8d 3c
       0.037108686 -0.1819411 -0.017767424 0.01729654
000020 a7 20 07 3d 52 77 4f 3d ae 21 83 be 60 e9 83 be
       0.032990124 0.050650902 -0.25611633 -0.25763988
000030 a8 ed 5b 3e 2a a7 9f bd b8 47 1d bd ba 0e 6c be
       0.21477377 -0.07795556 -0.038398474 -0.23052493
000040 69 3b 60 3e 50 3a 15 bd 19 4d ae bd bf 86 94 bd
       0.21897663 -0.036432564 -0.08510799 -0.07252263
000050 df 96 ea 3d c2 27 2c 3b 96 a3 81 3e b4 b9 82 bd
       0.114545576 0.0026268815 0.2532012 -0.06383076
000060 1a 73 49 3c 06 fb ae 3d 19 d2 4e bd 0b 25 83 bd
       0.012295509 0.08543973 -0.050493333 -0.0640355
000070 e2 4b 04 be 7b a5 28 bc 4e 04 15 3e f8 3d 25 3e
       -0.12919572 -0.01029336 0.14552423 0.1613692

lstm.weight_ih_l0 f4 [256, 32]
000000 51 e7 6f 3c 88 b9 4a be eb c4 fc bc b9 ff e8 3d
       0.0146425525 -0.19797337 -0.030855617 0.113769
000010 9d df b5 bd dd 86 87 be ea 3a 61 bc 30 49 1e bd
       -0.088805415 -0.2647008 -0.013746956 -0.038644016
000020 c3 f8 2f be 5c 0a 29 be 6c 0d 07 3e dd cb 9b bd
       -0.17184739 -0.16507858 0.13188714 -0.07607243
000030 f5 04 eb bd f7 ac 03 3e 7a 69 25 be 41 e7 64 bc
       -0.11475555 0.1285895 -0.16153517 -0.013971151
000040 8e 85 80 bd 0c 26 6d 3e 20 c6 f5 bd 2b c8 94 be
       -0.062754735 0.23159045 -0.1200068 -0.29058966
000050 67 e3 93 bd 5a 92 12 3e d2 82 87 bd d0 67 b8 3d
       -0.07221108 0.14313641 -0.06616749 0.09004176
000060 ff a1 8a be 2b e7 ea 3d 79 c2 63 bd d9 af 73 be
       -0.27076718 0.11469873 -0.055605385 -0.2379755
000070 5d 92 39 bd 5c 2d 4b be e6 c6 b8 bd c9 77 85 be
       -0.0453056 -0.19841522 -0.09022312 -0.2606795
000080 c8 3a 9d bd ad ea 31 be a4 91 40 be e3 e8 bd 3c
       -0.07677227 -0.17374678 -0.18805557 0.023182338
000090 f9 c5 9b be 8f 4f ce 3b ca f3 ce 3c 5a 45 51 bd
       -0.3042448 0.006296105 0.025262732 -0.05109153
0000a0 57 e1 5a be bd 01 bb bd e0 e3 f4 ba 26 5d 1c bc
       -0.21375023 -0.09131191 -0.0018683635 -0.009543693
0000b0 8a ae 99 be 40 e8 8f 3c 65 34 b1 3c f5 54 0e 3d
       -0.30015975 0.0175668 0.021631429 0.03474899
0000c0 88 fc 22 be f8 ca 77 be db b6 b4 bc 69 7d 7c be
       -0.15916646 -0.2419852 -0.022059849 -0.24657215
0000d0 1a f7 92 be 6d 96 8d 3a 95 0f e0 bd b0 81 02 3e
       -0.2870415 0.0010802277 -0.10940472 0.12744784
0000e0 98 ed 2a be 44 b6 24 3e 7a be 67 3d c7 6f 03 3e
       -0.16692197 0.16085154 0.056578137 0.12835608
0000f0 83 a7 0f bc f2 4d 52 bd dc 05 2e bd 75 80 95 be
       -0.008767965 -0.051343866 -0.042486057 -0.29199567
000100 f9 79 69 3e 33 40 18 bf fb 6a 43 3c d1 28 02 bf
       0.22800435 -0.5947296 0.011927362 -0.5084353
000110 c6 21 89 be 33 0a 5f be 6f 56 c2 3d 3a e9 77 3e
       -0.2678358 -0.21781234 0.09489142 0.24210063
000120 55 27 6e be 21 fd 8e 3e 74 4a 99 bd b7 a5 06 3e
       -0.23257191 0.27927497 -0.07484904 0.13149153
000130 94 df 3d be a9 67 c5 3d b9 66 b4 3e c5 5b 13 3f
       -0.1854232 0.09638912 0.3523462 0.57561904
000140 45 dc 84 be a1 4b 72 3e ed a2 d2 3c 2b c0 46 be
       -0.25949302 0.23661663 0.025712455 -0.19409244
000150 3d b3 06 bf a8 e9 f7 be 30 0d 9f be 1a b1 8e 3d
       -0.52617246 -0.48420453 -0.3106475 0.06967373
000160 4e c6 ec bc c8 f0 84 3e 3d a5 00 be 81 37 df 3e
       -0.028903153 0.25964952 -0.12563033 0.43597034
000170 d3 26 e9 3e ec e5 c9 be ea ad a1 be 7a 9f df be
       0.45537433 -0.3943323 -0.31577998 -0.43676358
000180 ec c5 2c 3e 6e db ec be 44 54 03 3f c3 cd be be
       0.16872376 -0.46261162 0.51300454 -0.3726636
000190 a1 f1 2c 3e 29 ca ad be a9 81 d6 3e f8 81 b6 3d
       0.16889049 -0.33943298 0.41895798 0.08911508
0001a0 c1 c7 7e be 05 bc f3 bd 47 e2 f5 3e 89 6b 2f bc
       -0.24880888 -0.11901096 0.48024198 -0.010706791
0001b0 e0 52 82 be 31 88 8e 3e 75 5b f4 bd 09 93 80 be
       -0.25453854 0.2783828 -0.119315065 -0.2511218
0001c0 3e ed ee be 0c 74 e0 bd b6 7e 9c be e6 80 2d bc
       -0.46665376 -0.10959634 -0.30565423 -0.010589814
0001d0 10 32 95 be 82 4d ca 3c d2 a6 03 3e 0f 5f fd 3d
       -0.29139757 0.024695162 0.12856606 0.123716466
0001e0 3e 1a 06 be e9 37 54 be ad a1 a5 3e 3b 23 2a be
       -0.13095948 -0.20724453 0.3234991 -0.16615002
0001f0 be 00 17 3e 76 9f 6a 3e 22 db 9c be 78 69 a8 be
       0.14746377 0.22912392 -0.30635935 -0.32892966
000200 84 2a 9f bc 7c 2e 99 bd 75 03 b5 bd 9e 51 50 3d
       -0.019429453 -0.07479569 -0.0883855 0.050859086
000210 74 69 d9 bd 53 5d 7e be 92 58 72 be c5 bd 78 bd
       -0.10615817 -0.24840288 -0.236666 -0.060727853
000220 52 df 51 bd 2f ae a3 be bd 39 7b bd 79 91 70 3e
       -0.051238365 -0.3196883 -0.06133436 0.23492993
000230 6d 4d cd bb 9c be 91 be 38 dc 8c bc 08 3c 41 3e
       -0.0062653334 -0.28465736 -0.017194852 0.18870556
000240 4d bd 01 3b 4e 7d 37 3e 62 5d b6 bd a6 1e b3 bd
       0.001979667 0.17918894 -0.0890453 -0.0874608
000250 cf 57 dc 3d aa 51 00 be bb 98 ed bd d8 8c 12 be
       0.10758936 -0.12531152 -0.11601397 -0.1431154
000260 69 9d 51 3e 96 4e 60 3c 38 15 04 bd 15 ea 00 3e
       0.20470203 0.013690611 -0.0322468 0.12589295
000270 06 36 89 bd ec 65 8b bb 9c 9a d2 3d 52 59 4e 3e
       -0.06699757 -0.0042540934 0.10283396 0.2015126
000280 2f f2 20 3d 44 1b 2b 3c be b1 7c be 57 21 79 be
       0.039293464 0.010443512 -0.24677178 -0.24329124
000290 5c 00 2b bf cc 32 14 be f8 1f 83 bd 26 dc 6d bd
       -0.66797423 -0.14472502 -0.06402582 -0.058071278
0002a0 fa 83 12 bf 55 4a 0f be 4b 7d 25 be 5c 25 34 3d
       -0.5723263 -0.13993199 -0.16161077 0.04398094
0002b0 1c 65 e6 be 02 97 14 3d 67 92 a3 bd b1 3d e3 bc
       -0.44999015 0.036276825 -0.079869084 -0.027739378
0002c0 75 cb cb be 1b db 1e be 53 51 15 be 12 a4 7a 3d
       -0.39803663 -0.1551327 -0.14581804 0.061191626
0002d0 65 81 1a be e7 15 00 bd 7c fa 1d be 34 84 0e 3e
       -0.15088423 -0.031270888 -0.15427583 0.13917619
0002e0 16 e2 63 3c 6b 74 83 bd 59 d7 74 be 31 ac ac bc
       0.013908884 -0.06418689 -0.23910274 -0.021078201
0002f0 fa 1d 9f 3d 13 4b 98 bd 3c e0 99 be a3 79 05 bf
       0.077693895 -0.07436194 -0.3005389 -0.5213873
000300 75 18 29 be 08 8b ee bd a4 08 e6 bd 1b ec 92 be
       -0.16513236 -0.11647612 -0.11232117 -0.2869576
000310 8c 3e fe be 1a a5 57 be 39 68 ab 39 1e 18 13 3e
       -0.49657094 -0.21059075 0.00032693314 0.14364669
000320 a5 1a 6d be b0 f8 29 bd db 99 05 3e 03 e9 94 3e
       -0.23154695 -0.041496933 0.13046972 0.29084024
000330 c1 8a db be da ac 07 3e 43 5e 9b 3d ca e7 e6 3d
       -0.42879298 0.13249531 0.07586338 0.11274679
000340 40 98 66 be 0f fd 8f be 7b ea d3 3c 0a 99 de bc
       -0.22519016 -0.28122756 0.025868645 -0.027172584
000350 70 dd b0 bd a7 be 4a be e1 7a 8d be 58 90 97 bc
       -0.08635986 -0.1979929 -0.27632812 -0.018501446
000360 64 26 25 be 0b 0c 80 3e 38 8e b4 be 4c b2 0f 3e
       -0.16127926 0.25009188 -0.35264754 0.14032859
000370 30 cc 9f bc e9 54 63 bd d2 9a 0b bf bc 9d d2 be
       -0.019506544 -0.0555009 -0.5453311 -0.41135967
000380 f0 29 3c 3e e0 db 94 be a8 f0 cd 3b 7d f4 e2 be
       0.18375373 -0.29074 0.006284792 -0.44327155
000390 6b bb 81 be 93 40 27 bc 49 98 d4 3c c2 e6 88 3d
       -0.253383 -0.010208267 0.025951521 0.066846386
0003a0 b8 ef c4 be ec 78 6a bd ed e3 4f be 20 5c 8a 3d
       -0.3846414 -0.057244226 -0.2030179 0.06755853
0003b0 b2 0a 84 be 88 ae a8 3b 0d ac 02 be c3 c3 e8 bd
       -0.2578941 0.005147759 -0.12760945 -0.113654636
0003c0 49 06 a4 be 13 42 18 be f2 4c 30 be 1e b1 0e 3d
       -0.32036045 -0.14868955 -0.17216852 0.03483688
0003d0 cf 66 9d be 6b f4 27 be 28 4b 25 3d d5 b7 97 3e
       -0.307425 -0.16401832 0.040354878 0.2963244
0003e0 f5 a2 00 be 92 07 80 3c 10 a8 6b be f9 43 59 bc
       -0.12562163 0.01562861 -0.2301333 -0.013260835
0003f0 ba 5b 64 3d ca 80 d5 bd 99 b9 25 bd b0 4d 54 be
       0.05575154 -0.10424955 -0.040460203 -0.2073276

lstm.weight_hh_l0 f4 [256, 64]
000000 9d b6 f3 bd ff 4d 4e 3e 98 60 26 3e 8c 18 29 3e
       -0.11900065 0.2014694 0.16247785 0.1651327
000010 29 bb 9b be 79 cb ed bd 48 ad 07 3d ce 9d 9a be
       -0.3041623 -0.11611075 0.03312424 -0.3019852
000020 79 b0 bd be 43 fa 19 3e af 18 58 bc 76 d3 cd 3d
       -0.370487 0.15036874 -0.013189479 0.100500986
000030 c2 cd dc 3d 10 37 84 3d 2f 1b 92 3e 25 9f d8 bd
       0.10781433 0.06455815 0.28536364 -0.105772294
000040 92 b5 33 bd 54 8b 68 be 4f 4e ea be 3b 45 70 be
       -0.04387433 -0.227094 -0.4576287 -0.2346391
000050 aa 58 15 be 39 b9 10 be d8 36 b1 bc 71 03 44 be
       -0.14584604 -0.14133157 -0.021632597 -0.19141938
000060 30 d1 ba 3e 09 44 87 3d 37 ea 61 bd 06 1f 09 3e
       0.36487722 0.066047736 -0.055155005 0.13390741
000070 ce 1b 09 3e 16 ac f6 bd 6e 2b 26 3e ba c3 29 3d
       0.13389513 -0.120445415 0.16227505 0.041446425
000080 d3 11 50 3e 99 1b a4 3d 1d a6 f4 3d 19 6c 83 3e
       0.203193 0.08013076 0.11945746 0.2566841
000090 7d 8b 00 3c 54 75 8d 3d 63 86 dc bd f9 c5 a2 bd
       0.007845757 0.06907144 -0.1076782 -0.079479165
0000a0 f1 1e ec 3a 04 8c 50 bc 9f 13 58 bd 10 0c 22 be
       0.0018014592 -0.012728695 -0.052753087 -0.15824914
0000b0 02 0c 73 bd b7 e1 23 3e e5 cf e9 be 00 d5 81 be
       -0.059337623 0.16004072 -0.45666423 -0.2535782
0000c0 92 aa 52 bd 0b 59 c4 bd 66 f8 c9 bd e7 01 7f 3e
       -0.0514322 -0.09587296 -0.09861831 0.2490307
0000d0 5f 27 98 3d 22 c3 4c 3d f3 db b3 bd 46 9b 84 bd
       0.074293844 0.04999078 -0.08782186 -0.064749286
0000e0 7b ec b1 3d 45 22 c4 3d 10 24 77 3d 63 e0 c6 bd
       0.08687683 0.09576849 0.060337126 -0.09710767
0000f0 38 2c 29 bd 85 8c 0b be 20 73 b9 3c 1c 00 43 bd
       -0.041301936 -0.13627823 0.022637904 -0.047607526
000100 2b b8 f1 bd 39 cc a8 bd c5 23 2d be 8f 4f 54 3d
       -0.118027054 -0.082420774 -0.16908176 0.051833685
000110 fa e9 ff 3d 63 a9 0c 3d 16 d4 4e bd 15 d4 1d 3d
       0.12495799 0.034341227 -0.05049523 0.038532335
000120 1f c5 30 be 5c 20 22 3e c4 ab b9 3c c4 74 2d be
       -0.17262696 0.15832657 0.022664912 -0.16939074
000130 de 04 e7 3d 5b 14 11 bd 3f bb cf bc 2e 86 5a 3e
       0.11280225 -0.035419803 -0.02535784 0.21340248
000140 44 f8 8c bd d8 18 73 3d f4 e0 98 3c 51 25 2d 3d
       -0.068832904 0.059349865 0.018661954 0.042271916
000150 5d 30 b5 3c d6 4c e5 3c 0b be a6 3d 68 1d b5 3d
       0.022117788 0.02799074 0.081417166 0.088434994
000160 48 85 0a 3e 4c 06 3d 3d 62 2b a8 bd 19 7e ca bd
       0.13527405 0.046148583 -0.082113996 -0.098873325
000170 ea 30 51 3d ab 9b 8a be 89 08 05 3c c1 3f 45 3e
       0.05107204 -0.2707189 0.008119711 0.19262601
000180 41 84 4b bb ce 8d b7 bd 40 37 d2 3d ce 50 9e 3d
       -0.0031054171 -0.08962594 0.10264444 0.07730256
000190 da 55 83 3e ee ee 81 bc 1e 68 fd 3c a8 82 ad 3d
       0.25651437 -0.015861 0.030933436 0.08472186
0001a0 95 6a 08 be ae 20 57 bd 5d cc 57 bd cd 64 9f 3b
       -0.13321908 -0.0525214 -0.05268513 0.0048643113
0001b0 8e c3 31 3d d2 3a 0f 3e 72 18 ba 3b 1b b2 26 bc
       0.043399386 0.13987282 0.0056791836 -0.0101743
0001c0 62 7b 3d 3d 8a a3 9e bd 14 eb 25 be 85 88 61 be
       0.046260245 -0.07746036 -0.16202956 -0.22024734
0001d0 61 a2 b7 3d 44 c8 96 3d 9c 63 c0 bd 59 fc 2a bd
       0.08966518 0.073624164 -0.09393999 -0.041744564
0001e0 46 28 2e 3e 4b c9 0a bc e0 01 83 3d 42 81 02 be
       0.1700755 -0.008470844 0.06396842 -0.1274462
0001f0 75 a0 f7 39 54 cc 0d be 92 9e 6d 3d a2 a2 04 3e
       0.0004723106 -0.13847476 0.058012553 0.12952664
000200 f2 88 9c bc c6 8d 7e 3e 55 93 8d be 28 5b 0c be
       -0.01910827 0.2485877 -0.27651468 -0.13706648
000210 15 3a 8f be 76 10 c8 be e4 e6 48 3d 6c a1 2d 3e
       -0.27974 -0.3907506 0.04904832 0.16956109
000220 29 11 d5 be cf 3a 6f 3e bd 04 d2 3d e5 41 9e 3d
       -0.41614655 0.23362277 0.1025481 0.07727412
000230 5c f8 d5 3e 5b 63 96 3d 04 09 75 be 01 3f 6f 3e
       0.41791046 0.07343169 -0.2392922 0.23363878
000240 ef 8a 90 bc 48 18 fe 3c 3d 5c af bd ca e4 4f be
       -0.017644374 0.031017438 -0.08562515 -0.2030212
000250 1c 2f cc 3e c9 9b 0b be 10 34 02 3e 5d 5a 20 be
       0.39879692 -0.13633646 0.12715173 -0.15659471
000260 3a aa b3 3e 1d 3b e0 3e 79 92 45 bd 7d 33 6c be
       0.3509081 0.437951 -0.04823539 -0.23066516
000270 c8 a7 d2 3e 97 67 dd 3e 6a af 7d 3e 3a 7d a9 3e
       0.41143632 0.43243095 0.24773946 0.33103353
000280 1c cf e3 3d 9b 40 b4 3d cd d3 6d 3e 21 80 88 3e
       0.11123487 0.08801385 0.23225327 0.26660255
000290 7f a2 d7 3e d7 36 ad bd e8 32 f2 bd 18 40 c1 3d
       0.42116162 -0.084577255 -0.11826116 0.09436053
0002a0 96 90 ee bc ab 83 d4 3d 4e f4 5c 3e 0a 61 fc 3d
       -0.029121678 0.10376676 0.2157757 0.12323196
0002b0 85 20 e5 3d 8a cb 74 3e d3 46 a6 bd 50 b5 ae be
       0.11187843 0.23905769 -0.081189774 -0.34122705
0002c0 4c bd 9b be 65 ec 03 3e 16 6a c0 bd 76 c8 42 be
       -0.3041786 0.12883146 -0.09395234 -0.19021782
0002d0 cb f4 33 bd 34 5b ec 3e 70 ac 20 be 1c c2 be 3d
       -0.043934625 0.46163332 -0.1569078 0.09314367
0002e0 3f 26 2b 3e 3f fa f6 3c 87 fa be bd 39 ce b4 be
       0.16713808 0.030148624 -0.09325128 -0.35313585
0002f0 96 1e 7f 3e 9a 3a 6d be cc a4 e2 be 65 e6 a0 be
       0.24914011 -0.23166886 -0.44266355 -0.31425777
000300 4e f4 b2 bd e9 81 4c 3e 64 7f 4f 3e fa 2f 60 3d
       -0.08738004 0.19971432 0.2026344 0.054733254
000310 a2 52 0c bf 2d b2 63 be 5f 4d 3f be 8c 57 26 be
       -0.5481359 -0.22235937 -0.18681858 -0.16244334
000320 c5 53 17 be 00 f3 4b 3e 37 87 c4 3d 26 49 eb 3d
       -0.1477805 0.19916916 0.09596103 0.11488561
000330 e4 b7 eb bc 87 82 4f 3e ca f6 02 3e ee e2 2a bf
       -0.02877421 0.20264636 0.12789455 -0.6675252
000340 c0 9c 8b 3e 21 fd d1 be d7 16 f0 be 3b 25 97 be
       0.27268028 -0.41013435 -0.46892425 -0.29520592
000350 bd 12 e5 be 2d 18 bf be 0c 36 3b be 65 31 ab be
       -0.4474086 -0.37323132 -0.18282336 -0.33436123
000360 fc 9e 6e 3e 95 53 3f be a8 e2 33 bd e3 e8 b8 3e
       0.23302835 -0.18684228 -0.043917328 0.36115178
000370 ac 1b 12 be cf 98 2f be 2b 72 b7 be 7c 14 80 3e
       -0.14268368 -0.17148136 -0.3582929 0.25015628
000380 74 2e 2e 3f d8 78 21 3e 7b aa d1 3e 33 1c 1f 3f
       0.6803963 0.15768754 0.4095038 0.62152404
000390 46 80 71 be dc 40 dd bd b4 55 01 be 54 2f 1c bf
       -0.23584089 -0.108033866 -0.1263035 -0.61009717
0003a0 dd 9b f1 3e e8 8e 98 bc b5 20 2f bd de b0 0b bf
       0.47189227 -0.01862283 -0.0427558 -0.5456675
0003b0 5a 77 01 bf f8 a5 52 3e f2 ce b2 be c7 de 06 bf
       -0.5057274 0.20571125 -0.34923512 -0.5268368
0003c0 6e 3a 5e be f9 20 c2 bd 2f 52 7e 3e 71 36 33 3f
       -0.21701977 -0.09478945 0.24836038 0.70004946
0003d0 69 ce 93 3d b0 9e 69 3e f2 6d 45 be db 35 1c 3e
       0.07217104 0.2281444 -0.19280222 0.15254919
0003e0 d5 d2 1a be a5 3f 9f 3d ae a0 aa bc 4a 0d a7 bd
       -0.15119489 0.07775811 -0.020828571 -0.081568316
0003f0 51 f6 8d be ab c9 b6 3d a2 33 1d be e3 58 86 bb
       -0.27726987 0.08925184 -0.15351728 -0.0040999516

lstm.bias_ih_l0 f4 [256]
000000 a8 a9 5b 3b d3 d4 e1 bd 00 73 41 be 25 e9 5f 3b
       0.003351787 -0.11026921 -0.18891525 0.0034166065
000010 16 a8 4d bd 96 f7 cc bd 3e 6c 3b 3d b1 b9 98 bd
       -0.050209127 -0.10008161 0.045757525 -0.07457293
000020 d9 c4 25 bd 84 78 7b bd 14 df ff ba 28 29 39 3c
       -0.04047093 -0.06139423 -0.0019521439 0.011301316
000030 eb f6 e1 bd 37 3a af bc a3 e5 4e bd 24 55 1d 3e
       -0.11033424 -0.021390064 -0.050511967 0.1536451
000040 52 44 8a bd 8d ef 96 be 04 f5 f8 3b a0 6f 07 be
       -0.06751312 -0.29479638 0.0075975675 -0.13226175
000050 0a 12 10 3e 15 3a 95 3c ee 33 25 3e 70 3b 30 3d
       0.14069381 0.018216172 0.16133091 0.043025434
000060 64 d4 61 bd 34 d8 f1 bd 1a 61 21 be 16 74 36 3e
       -0.055134192 -0.118088156 -0.15759698 0.17817721
000070 2b 56 f3 bd cd 21 42 bc e9 b2 e2 bc 5f 41 1d be
       -0.118816696 -0.011848879 -0.027673202 -0.15356968
000080 a6 b6 55 3d aa f0 20 bd 6a c1 4a be a2 54 f0 3d
       0.05217614 -0.039292015 -0.19800344 0.117348924
000090 87 57 0d 3d 12 a1 06 bd 5c a3 4c 3c 34 30 83 3d
       0.0345073 -0.032868452 0.01249012 0.064056784
0000a0 30 9a 9f 3d 88 d3 82 bd 50 94 ac bd 01 85 dd bc
       0.07793081 -0.06388003 -0.08426726 -0.02704096
0000b0 76 15 3a bc b6 29 39 be f6 0c 1c be d6 17 98 3d
       -0.011357656 -0.18082318 -0.15239319 0.07426421
0000c0 69 08 42 be 44 d1 8d bd fa 80 a8 3b 84 51 a3 3d
       -0.1894852 -0.0692468 0.0051423283 0.07974532
0000d0 42 0c 62 bd 28 9e 34 bc 48 56 9f bb 03 d1 32 be
       -0.05518747 -0.0110240355 -0.0048625804 -0.17462544
0000e0 6a 95 7b be 83 56 a8 3c 8e 5d 24 be ff b3 74 bc
       -0.24568716 0.020549065 -0.16051313 -0.014935493
0000f0 ec 06 c1 bd 26 62 05 be 9c 74 c7 3a ba 55 8f 3c
       -0.09425148 -0.13025722 0.0015217247 0.017496932
000100 d1 82 8e bd 07 5c 35 3d 26 8a 8c bd 36 db 85 be
       -0.06958545 0.044277217 -0.06862287 -0.26143807
000110 3e c6 38 bd e0 59 8b be 8c 86 75 be 5e d8 d5 bd
       -0.045110933 -0.27217007 -0.23977107 -0.104416594
000120 47 69 93 be 0c 62 01 be 5c 52 97 bc de 9c ae 3d
       -0.28791258 -0.12635058 -0.01847189 0.08526014
000130 9b 4e b4 bd 22 9c 4e be 1a bd f1 bd 63 12 15 be
       -0.08804055 -0.20176747 -0.118036464 -0.14557795
000140 20 e9 12 3d 06 1f 26 be d9 4d f8 bd 5c 69 e0 bd
       0.035866857 -0.16222772 -0.12124223 -0.10957596
000150 3c 48 79 bd 91 11 55 be 1e b3 3a be b6 75 2b be
       -0.060859904 -0.20807482 -0.1823239 -0.16744122
000160 1e 06 49 bc 3c 65 2d be e5 f7 27 bd 8d 99 7f be
       -0.012269525 -0.16933149 -0.041007895 -0.24960919
000170 19 43 c1 bd 9b c9 bd 3d ec 8c eb bd f0 94 00 bd
       -0.09436626 0.09266969 -0.11501488 -0.031392038
000180 2f 7f 37 be 8b 91 50 be 53 28 8b bc b6 47 6c be
       -0.1791961 -0.2036802 -0.016987002 -0.2307423
000190 ab 50 16 3d 4e 8f 39 bd 10 d9 ab bc 89 69 42 be
       0.036698025 -0.04530268 -0.020977527 -0.18985571
0001a0 83 bb 11 be 44 88 8d 3b 62 2c ec bd 07 26 77 be
       -0.14231686 0.0043192226 -0.11531903 -0.241356
0001b0 84 3b 01 be 89 dc ce bd a1 97 f2 bd 54 a7 b5 bd
       -0.1262036 -0.101006575 -0.11845327 -0.08869806
0001c0 89 97 bf bd b6 6e f9 bd f0 6c 4b be 9b ff ac 38
       -0.09355075 -0.121793196 -0.19865775 8.249209e-05
0001d0 c6 16 66 bd 5b e0 77 be b4 c4 26 be 97 a2 9e bd
       -0.056174062 -0.24206679 -0.16285974 -0.07745855
0001e0 c4 43 c2 bc 17 88 36 bd 7a b5 6a be 62 bc c5 be
       -0.023713954 -0.04456338 -0.2292079 -0.38620287
0001f0 73 a1 07 3d e2 98 48 bc 22 be 83 be 41 80 29 be
       0.033112954 -0.012243481 -0.25730997 -0.16552831
000200 ec d7 1a 3c b3 e6 04 bb 24 50 a8 bd 01 8a 02 be
       0.009450894 -0.002027911 -0.082184106 -0.12747957
000210 4e 12 66 3d 8a 64 bd 3c b8 9b 6d bd 7c aa 50 3d
       0.0561698 0.02311923 -0.058009833 0.050943837
000220 39 72 fe 3d e5 a0 a0 3d e1 81 29 3d c9 b1 0d 3d
       0.1242413 0.07843188 0.041383628 0.034593377
000230 7b 65 e4 bd cc 33 b8 3c e2 4b 10 3e 64 d1 b4 bc
       -0.11152168 0.022485636 0.14091447 -0.022072501
000240 27 76 df 3c 7a 39 6e 3d 99 a6 f3 bd 2c a4 b7 3b
       0.02727802 0.058160283 -0.1189701 0.0056042876
000250 03 68 ad 3c f7 d5 2d 3d 1c d7 18 3e 3c 6e 85 bd
       0.02116776 0.04244038 0.14925808 -0.06515166
000260 82 17 7e bd f8 89 bd 3a 78 af da 3d 94 44 2f 3e
       -0.062034138 0.0014460674 0.10677999 0.17116004
000270 e0 30 33 bd 36 e4 80 3c 70 85 93 3d 64 b9 a9 3d
       -0.043747783 0.01573382 0.072031856 0.082873136
000280 68 52 c8 bd 6b ce 6c bb e5 7b 8d 3d 02 29 1a bd
       -0.09781343 -0.0036133777 0.06908397 -0.037636764
000290 a1 3a a6 bc 95 41 66 bb e0 5f a3 bd fd 3d de bc
       -0.020291628 -0.0035134305 -0.07977271 -0.027129168
0002a0 d8 ee 0e 3e 4d 92 1b bd b6 45 d3 3d bc 00 cc bd
       0.13958299 -0.03798132 0.10316031 -0.099610776
0002b0 4e 19 89 bd c9 75 e8 bd 94 e2 15 be b8 de d5 3c
       -0.066942796 -0.11350591 -0.14637214 0.026107177
0002c0 48 81 9a bd 6e e4 ab 3d f9 03 83 3d 9e b8 5e bd
       -0.0754419 0.08393179 0.06397242 -0.054375283
0002d0 27 54 2e bd ed c6 a0 3d ef 6b a8 bb 13 b4 f1 3d
       -0.042560723 0.07850442 -0.00513982 0.118019246
0002e0 2e 9f 9a 3d f1 e4 01 3d e4 88 76 bd 64 ad c8 3d
       0.07549892 0.031712476 -0.060189143 0.09798697
0002f0 3c b6 ac 3c 6a 89 ab bd 44 45 02 be 26 75 e4 bd
       0.02108299 -0.08375819 -0.12721735 -0.11155157
000300 28 71 05 be 69 f1 0f bd fa 55 48 be 89 7b e7 3d
       -0.13031447 -0.035142336 -0.19564047 0.11302859
000310 51 c1 1c bd 74 0d 0e bd dd 5a b5 bc 6e f3 01 bd
       -0.0382703 -0.0346808 -0.022138054 -0.031726293
000320 c0 f6 02 be 7d 77 50 be 22 a9 3d bd b8 cb 24 bb
       -0.1278944 -0.20358081 -0.046303876 -0.002514584
000330 8b e9 c0 bd a4 4d 5c be a8 04 29 3d 7d dd 6d bd
       -0.09419545 -0.21513993 0.041264206 -0.058072556
000340 55 e2 1f 3d 0d 78 98 be 70 ce 4b 3c 4e 30 68 bc
       0.039034206 -0.2977909 0.012439355 -0.014171673
000350 89 b7 69 3e 90 db 21 bd 5e 05 e5 3c 07 85 3a be
       0.2282392 -0.03951603 0.02795666 -0.18214808
000360 9b a7 80 bd 27 11 77 bd 7a da 34 be bb 96 9f bc
       -0.06281968 -0.060319092 -0.17661467 -0.019481054
000370 91 de ec 3c 63 31 c7 bc fa 5e b9 bd 03 d3 9f bd
       0.028914722 -0.024315542 -0.090513185 -0.07803919
000380 42 37 9a bd 67 59 05 be 17 5d 1b be ca a5 1c 3e
       -0.07530071 -0.13022386 -0.1517223 0.15297619
000390 14 bb 2b bd 43 98 14 be f4 3d 09 be 80 f3 52 bd
       -0.04192646 -0.14511208 -0.1340254 -0.05150175
0003a0 e6 35 96 3c 46 76 ab bc 25 fd 64 be 0e 96 87 bd
       0.018336248 -0.02093042 -0.22362192 -0.066204175
0003b0 8e c8 6e bd f3 3f 1c be 02 46 12 be 69 99 36 bd
       -0.058296733 -0.1525877 -0.14284518 -0.044579897
0003c0 f3 f3 02 be 5f 7d 43 be 03 d8 66 bb b5 03 7b 3d
       -0.12788372 -0.19090794 -0.0035223968 0.061282832
0003d0 a2 e5 82 bd a8 05 bc bc 12 75 ba 3c 55 30 92 bd
       -0.06391455 -0.022951916 0.022760902 -0.07138125
0003e0 f7 f3 be bd 53 de 11 be e8 74 49 bd 87 2e 22 bd
       -0.09323876 -0.14244966 -0.049183756 -0.039595153
0003f0 64 88 10 bd 44 61 c5 3c 63 86 18 be db 92 f6 3c
       -0.035286322 0.024094231 -0.14895014 0.030099323

lstm.bias_hh_l0 f4 [256]
000000 5a 72 0d be c1 87 01 bd ce 5a 58 bd 53 0d c8 3b
       -0.13813153 -0.031623606 -0.052820973 0.006105104
000010 bd 24 5f 3d 5e 3b 1a be d4 86 72 bd 03 6f e5 bd
       0.054478396 -0.1506171 -0.059210613 -0.112028144
000020 cf 5a 8c 3c 13 a9 81 bd c1 5a 03 3b 77 8d b1 bd
       0.017133145 -0.063310765 0.0020043107 -0.086695604
000030 b0 43 93 bd 90 24 b1 bc 2d a1 0e be fa 2a 2c 3d
       -0.07190645 -0.02162388 -0.13928671 0.042033173
000040 8c 61 5e 3c 1f be 93 be 32 e2 cc bc b4 db 21 3d
       0.013573062 -0.28855988 -0.025010202 0.039516166
000050 8c 21 22 3e 52 bc 25 be 4d ff f3 bb 8c 6e 51 3d
       0.1583311 -0.1618512 -0.0074462057 0.051130816
000060 d1 43 b2 bb 8a 99 11 be 6e 1b 56 be a5 ea 0b 3d
       -0.0054402133 -0.14218727 -0.20908901 0.03415932
000070 81 75 e4 3c 6e b1 bc 3d 4d d4 a7 3d 45 04 ef 3c
       0.027888061 0.092135295 0.0819479 0.02917684
000080 81 9b 56 bc 2b fe c1 bc 77 40 3d be 55 99 85 3e
       -0.013098598 -0.023680767 -0.18481623 0.26093546
000090 b9 fb af bd 74 6a 51 bd e5 31 66 be 9a c0 ad 3c
       -0.08592934 -0.051126912 -0.22479971 0.021210004
0000a0 32 5b 4c bd 7a fb 1b bc 06 d7 6d 3b ea d4 1c 3e
       -0.049891658 -0.009520406 0.0036291494 0.15315595
0000b0 49 e5 df bc ee 33 25 be bb 94 5a bb 5a 7a 8e bd
       -0.027331011 -0.16133091 -0.003335281 -0.069569305
0000c0 21 d9 01 be c5 a4 75 3c 3a 6f 0d be 42 f8 a0 bd
       -0.12680484 0.014992897 -0.13811961 -0.078598514
0000d0 a2 47 bf 3d ef 54 31 3d 58 0c 34 3d 99 4f 13 3d
       0.09339835 0.04329389 0.043957084 0.035964582
0000e0 78 24 33 be a1 84 d0 bb c2 14 e2 bd e3 ce ec 3b
       -0.1749438 -0.006363467 -0.110391155 0.0072268113
0000f0 22 41 df bb 95 b0 96 3d 03 2c 03 be 7d 1a f1 3c
       -0.0068131844 0.07357899 -0.12809758 0.029431576
000100 61 b4 0a be 6c a1 8e bd 21 95 42 be 33 f7 8d be
       -0.13545372 -0.069643825 -0.190022 -0.2772766
000110 1d 27 5e be 17 1e 55 be 17 a0 ec bd 38 61 6b bd
       -0.21694608 -0.2081226 -0.11553972 -0.057465762
000120 67 06 9d be 2e b8 49 be ce 4f a2 bd 8c 70 ad 3d
       -0.30668947 -0.19699165 -0.07925378 0.08468732
000130 98 aa 32 be 47 54 dc bd da 4a bd bd db 03 62 bd
       -0.17447889 -0.10758262 -0.092427924 -0.055179458
000140 44 43 25 bd 96 20 02 be c9 43 10 be d3 82 41 bd
       -0.040347353 -0.12707743 -0.14088358 -0.047243904
000150 ef e6 2d bc f8 d5 b3 bd 13 76 0e be 9b f1 15 be
       -0.010614141 -0.08781046 -0.13912229 -0.14642946
000160 84 60 2e be f8 ad 74 3c e7 ed 8c bd 25 8a 52 be
       -0.17029005 0.0149340555 -0.06881314 -0.2056051
000170 5a 6a 0a be 45 a7 02 bc 72 fa 68 be 43 f4 a5 bd
       -0.13517132 -0.0079744505 -0.22751787 -0.0810323
000180 8e 3d 9c bd d3 1a bc bc 1d d9 97 bd 41 4f 6c be
       -0.07628928 -0.02296201 -0.07414458 -0.23077108
000190 8c c5 97 bd e3 c8 d3 bc 3c 8c dc bd e1 8b 2a be
       -0.07410726 -0.025852626 -0.10768935 -0.16654922
0001a0 c6 51 87 bd b9 56 47 be a7 28 d4 bd 2d 1c 7b be
       -0.06607394 -0.19466676 -0.10359316 -0.24522467
0001b0 80 ca 74 3c eb de dc bd 85 5d f2 bd 52 0e 01 be
       0.014940858 -0.10784706 -0.11834244 -0.12603119
0001c0 7f 83 03 be 6b 6b e2 bd cf 82 29 be 93 59 59 3d
       -0.1284313 -0.110556446 -0.16553806 0.05306394
0001d0 a1 e2 c5 bd 37 a4 f1 bd 74 78 f7 b8 8e 24 06 bd
       -0.09662367 -0.117988996 -0.00011800314 -0.032749705
0001e0 17 df d4 bc ff 77 df bd e9 7f 80 be 1b 77 8b be
       -0.025985284 -0.10911559 -0.25097588 -0.27239308
0001f0 e0 a6 0f 3d ee c7 46 be 2a 85 02 be 07 35 3e be
       0.035071254 -0.19412205 -0.1274611 -0.18574916
000200 e3 00 37 bd 45 7c 0b 3e 76 c2 b1 bd 99 72 fa bd
       -0.04467858 0.13621624 -0.086796686 -0.12228889
000210 3a dc b1 bd 54 f8 77 bd b9 97 bd bd 4a 8b 50 bd
       -0.08684583 -0.06053956 -0.092574544 -0.050914086
000220 ca 6b a3 bb ad 78 33 3d db cf 3a 3d 5e f1 e3 3d
       -0.0049872147 0.043816257 0.045608383 0.111300215
000230 93 d3 ea 3d 06 af 0a 3e 0b 03 15 3d 5f 18 96 bc
       0.11466136 0.13543329 0.036379855 -0.018322168
000240 98 02 e0 3d cf ea 28 3c 76 78 d7 bd d0 df df bd
       0.10937995 0.010309889 -0.10521023 -0.10931361
000250 97 26 cb bd fa f1 6d bc 23 1d ad bc da 97 86 3d
       -0.0991947 -0.014523024 -0.021132058 0.06571932
000260 b3 50 0a 3e 6d c3 77 3d ec ba 8c bd 5e 57 da 3d
       0.13507347 0.060489107 -0.0687159 0.10661195
000270 ee 67 f9 3c 27 0f 09 be c7 77 5b bd 59 db d0 bc
       0.030445065 -0.13384686 -0.053581025 -0.025495218
000280 61 0f 0b 3e e5 dc 6a bc 25 75 2a bd 56 70 1d 3e
       0.13580085 -0.014334892 -0.041615624 0.15374884
000290 91 49 7e bd a3 7b cf 3c ad fd 68 3d 58 d5 05 be
       -0.062081877 0.02532751 0.05688255 -0.13069665
0002a0 4a 7e b0 3d 84 b4 24 bd 05 d1 7d bb 80 76 76 bd
       0.08617838 -0.040211216 -0.0038729322 -0.060171604
0002b0 d2 2f ad bd 16 0d df 3d a8 07 ba 3c 57 61 fd bd
       -0.084563866 0.10891168 0.022708729 -0.12372082
0002c0 f8 4b 7f bd 1e 4b 61 bc 51 e4 c8 3d f6 ed b8 bd
       -0.06232831 -0.0137508195 0.09809173 -0.090297624
0002d0 03 43 21 3d c7 17 ba bc a2 6e c7 bd e3 01 6e 3d
       0.039370548 -0.022716416 -0.097378984 0.058107268
0002e0 3a c6 6f bd 3f 08 84 3d 06 64 94 3d 75 30 78 bc
       -0.058538653 0.06446885 0.072456405 -0.015148272
0002f0 9f 26 ba bc f0 63 87 3c 34 08 de 3d 29 4f 90 3d
       -0.022723494 0.016527146 0.10841408 0.070463486
000300 4a 35 a5 bd d3 7d 4f bd d7 01 e3 bd 2b fd 6d 3c
       -0.08066805 -0.050657105 -0.11084335 0.014525692
000310 d6 9e 8b 3d bb d1 d5 bc 4f c8 4c be fb 22 63 3c
       0.06817405 -0.026100984 -0.19998287 0.01386332
000320 b7 05 8f 3c 1a d8 86 bd 2e 39 35 bd 83 57 6a bd
       0.01745878 -0.06584187 -0.044243984 -0.057212364
000330 44 07 4f bd b0 87 3d be 2b 62 cc 3d 29 2f 34 3e
       -0.05054404 -0.18508792 0.099796616 0.17596115
000340 b4 a6 29 bd 76 a7 48 be cb de d7 bc 99 61 62 3d
       -0.041418746 -0.19595131 -0.026351353 0.055268858
000350 63 d2 89 3e 11 5f 32 bc 1d ca 8b bc 7f d9 0c be
       0.26918325 -0.010886923 -0.017064149 -0.13754843
000360 3d 74 67 3d 8c 7d 23 be 6e 8a 50 be 69 18 a6 bd
       0.056507338 -0.15965861 -0.20365307 -0.081101246
000370 35 33 80 3c 70 53 a7 bd e0 69 ac bd b6 a6 41 be
       0.015649417 -0.08170211 -0.084186316 -0.18911251
000380 1b 99 d5 bd e0 99 17 be 0d 0d 02 be bf 3d 22 3e
       -0.10429593 -0.14804792 -0.12700291 0.15843867
000390 9f 17 27 bd d1 6c eb bd d4 72 19 be 5b 34 00 bd
       -0.04079401 -0.114953645 -0.1498521 -0.03129993
0003a0 3d dd b6 bd d6 c4 f4 bd d8 18 06 be 85 80 6b 3d
       -0.089289166 -0.11951606 -0.13095415 0.057495613
0003b0 d7 47 0b 3d 04 bc 3b be c0 fa b2 bd 35 8a 2d bd
       0.03400406 -0.18333441 -0.08739233 -0.042368133
0003c0 f3 a5 37 be 07 2c 23 bc 51 a7 90 3c 0f 94 60 bd
       -0.17934398 -0.009959227 0.017657908 -0.0548287
0003d0 60 ab 71 3b 43 e3 9a bd b5 93 80 3c e0 27 48 3d
       0.003687583 -0.07562878 0.015695432 0.048866153
0003e0 ed fc 99 be 86 77 49 3a 6c f6 f7 bd 67 ff 42 be
       -0.3007578 0.0007685352 -0.12107548 -0.19042741
0003f0 08 ea 9d bb 4f 9f 46 bd 44 6f 9c bd e7 e8 1a be
       -0.0048191585 -0.048491772 -0.0763841 -0.15127908

fc.weight f4 [6, 64]
000000 3f 52 07 be f4 43 04 3e 25 93 56 3e 0b 3f 2f 3c
       -0.13214968 0.12916547 0.20954569 0.010696183
000010 26 ac 26 bd ee 59 5a bd a9 c2 f6 3d f6 f0 5e bb
       -0.040691517 -0.05330842 0.12048847 -0.0034018136
000020 8d 42 17 bd b3 3b ee 3d 70 80 94 bd 6c fa b4 bd
       -0.036928702 0.116324805 -0.0725106 -0.08836827
000030 6c 76 7a 3b b3 b3 ff 3c 5b a5 9a 3d 28 0e 27 3c
       0.0038217558 0.031213617 0.0755107 0.010196246
000040 c7 24 d5 3d c0 80 13 bd 8a 80 9f bc d4 15 a7 bd
       0.10407405 -0.036011457 -0.019470472 -0.0815846
000050 8a ea 65 3d 54 bb 49 3b 66 b6 c7 bd 77 4c b5 bd
       0.056131877 0.0030781822 -0.097515866 -0.08852475
000060 1c 60 46 bc 7f e3 5e bc 49 6d 2e bb ce d7 db bc
       -0.012107875 -0.013604044 -0.0026615432 -0.026836302
000070 23 4f 85 bd cb 0f 17 3d 4f f3 b9 bd 35 90 2a bd
       -0.06509235 0.036880296 -0.090796106 -0.041641433
000080 4a 34 db 3c 16 0d 1d bc 01 a2 07 3b 23 aa 7f 3d
       0.026758332 -0.009585639 0.0020695927 0.062418114
000090 93 d3 b0 3c 0d 38 a9 3d 52 91 4d bd 7b ce 46 3a
       0.021585261 0.08262644 -0.050187416 0.00075838686
0000a0 5f d3 a8 3d b2 cc 25 3e c5 ed 97 3c da cd ce 3d
       0.08243441 0.16191366 0.018545995 0.10097857
0000b0 51 78 a9 bc ca 0e 38 3d f6 6a 0f 3c c7 bc 47 bd
       -0.020687254 0.04493598 0.008753529 -0.048764016
0000c0 8f e9 cd 3d b3 e7 14 3e e2 fc a8 bd 08 e4 f4 39
       0.100543134 0.14541511 -0.082513586 0.00046709203
0000d0 b0 b7 dd 3c 60 23 5a bc 86 00 c8 bd 83 36 d8 3d
       0.027065128 -0.013314098 -0.09765725 0.10557272
0000e0 75 02 3c bd fd 47 e9 3d 0d 66 98 bd 47 04 0b bd
       -0.04590078 0.11390684 -0.0744134 -0.033939626
0000f0 36 21 1b 3d 5f 2f 3a 3d 7d 8d c8 3d 15 2f f3 bc
       0.03787347 0.045455333 0.09792612 -0.029685536
000100 54 ed 81 bc 68 5a db 3d 1d 34 23 bd 5b dd 1a be
       -0.015860237 0.10710603 -0.03984462 -0.15123503
000110 8e f8 4b be 0c 24 8f 3d 9f 8c f2 3d e6 af 02 be
       -0.19919035 0.06989297 0.118432276 -0.12762412
000120 e0 18 90 be d8 ca 1a be 4e 77 02 3e 70 fa 1b 3e
       -0.28143978 -0.15116441 0.12740824 0.15232253
000130 21 4e 14 3e 5c 3e fd bd 06 df 16 3e b7 31 7d bd
       0.14482929 -0.1236541 0.14733514 -0.06181499
000140 e8 25 bf bc 7c 17 96 3c c1 ec 1c 3d 2e af 73 3b
       -0.023333505 0.018321745 0.038311724 0.0037183273
000150 36 3c 93 3e 0d 5e c4 39 46 d9 f5 3d 6d 30 44 3e
       0.28756875 0.00037454106 0.12004332 0.19159098
000160 49 27 01 3c e6 5c 7d bd 0e c2 ff ba 1d a8 64 bd
       0.0078829015 -0.061856173 -0.0019512789 -0.055824388
000170 20 79 c6 3d 95 22 05 3c 7f 84 b0 bd 8c ce e6 bd
       0.096910715 0.008125921 -0.086190216 -0.112698644
000180 4d a7 bb 3d 45 64 21 bd 37 08 1c 3d 31 ff e5 3c
       0.091627695 -0.039402265 0.03809377 0.028075786
000190 88 00 2d 3d a2 7f ac 3d 31 af cc bd f5 a5 7a 3d
       0.042236835 0.084227815 -0.099943526 0.061193425
0001a0 58 0f 93 3d 1a 48 89 3d d3 f5 83 3a 7f 3f 2e 3e
       0.07180661 0.067032054 0.0010067768 0.1701641
0001b0 4e 80 0a bd 61 10 af 3d e8 68 42 bd 8c 6b 9f bd
       -0.033813767 0.08548046 -0.047463328 -0.07784185
0001c0 37 e4 e0 bc 12 b7 79 3d f9 8e 0b 3e 9c e2 34 3e
       -0.027452571 0.060965605 0.13628758 0.1766457
0001d0 cc 49 d0 3c 35 00 08 3e 60 ef 55 3d 4b 83 fc 3d
       0.025425814 0.13281329 0.05223024 0.1232973
0001e0 f3 33 04 3d 6e 08 2e bc 36 59 26 3e 9b 11 28 be
       0.032276105 -0.010622127 0.16244969 -0.16412966
0001f0 12 31 82 bd b4 85 18 bd 5e 6b b3 3d 49 2d ff bc
       -0.06357016 -0.037236884 0.08760713 -0.031149523
000200 61 6e 00 3d f8 4e ff 3a ca 66 37 3e 7b 33 05 3b
       0.031355266 0.001947849 0.17910305 0.0020324874
000210 d4 8c 70 bd 0c 92 2e 3c b5 3a 82 3d 40 72 b0 3d
       -0.058728054 0.0106549375 0.06358854 0.086155415
000220 bc 37 2b 3c c5 12 c3 3d 4e 15 be 3d cb 06 0e 3e
       0.0104503 0.095250644 0.09281407 0.13869779
000230 16 5f 3e bd 0c 0c c9 3d f8 87 cd 3c bf 38 5c 3c
       -0.0464774 0.09816751 0.025089249 0.013441264
000240 c4 cb 11 3e 99 9b b3 3c 0f 9a 25 3d 95 e8 ef bc
       0.14237887 0.02192478 0.040430125 -0.029285708
000250 93 9a 74 3a 42 a8 7a bd 33 be 29 3c 8b 2c 2f 3d
       0.00093308947 -0.06119562 0.010360288 0.04276709
000260 a5 be 91 3d 91 ea 12 3d ce 60 b8 3d 00 be f8 bc
       0.07116441 0.03586823 0.09002839 -0.030364037
000270 dc 76 a8 3d d4 f1 0e 3c f7 d0 07 3e 95 bd ea bc
       0.082257956 0.0087246485 0.13263308 -0.028654853
000280 1c d8 9d 3b ce 0e e0 3d 94 52 56 bb d3 60 04 3d
       0.004817022 0.10940324 -0.003270303 0.0323189
000290 35 68 89 3c a1 f4 d9 3d ef a9 58 3d 2a 3f 1b 3d
       0.016773323 0.106423624 0.052896436 0.037902035
0002a0 b5 5e ac 3d a8 0f 27 3e 36 2f bb 3c 49 9d fe 3b
       0.084165014 0.16314566 0.02284966 0.0077702147
0002b0 cf 45 63 bd 46 d4 07 bd 4a 4d 39 bd d3 57 33 3a
       -0.055486497 -0.033161424 -0.045239724 0.0006841395
0002c0 50 8b a1 bd 1f 08 d5 3d 94 bc df 3d 12 92 89 bc
       -0.078879 0.104019396 0.1092464 -0.016793285
0002d0 3d fe 50 bd 31 34 8d 3c 87 72 14 bd 6b 64 86 3d
       -0.05102371 0.0172368 -0.036242034 0.06562122
0002e0 0d 62 52 3d 1f 1b 0e 3e 18 c9 84 3d 86 45 07 bd
       0.05136304 0.13877533 0.06483668 -0.033025287
0002f0 b8 cb df bb ec 77 fe bd 30 a8 0f 3d e3 d2 df bd
       -0.006829705 -0.12425217 0.035072505 -0.10928895
000300 01 e7 b9 bd 6a 02 c9 3d 52 6b 13 3c 24 ed 9b be
       -0.090772636 0.098149136 0.008997755 -0.3045436
000310 ca 54 65 be 02 99 c5 3d 15 cd 2f 3b e2 6a b0 3c
       -0.22395626 0.096483245 0.002682512 0.02153534
000320 6e 1c 93 3d 93 33 ee ba 47 f7 ac bd 7a 41 60 3e
       0.07183157 -0.0018173329 -0.08445602 0.21899977
000330 a7 21 0b bd dc b8 ac 3d 1d 99 a3 bd 31 a4 48 be
       -0.03396764 0.08433697 -0.079881884 -0.19593884
000340 78 89 0a 3e ae e3 21 bd d6 98 4f be e5 d2 1b be
       0.13529003 -0.039523773 -0.20273146 -0.15217169
000350 c7 87 cc 3d 53 da b0 3c e4 8e 0e 3e c5 3b ac bd
       0.09986835 0.02158848 0.13921696 -0.08409838
000360 aa 6b b1 3c 95 57 ae bd c6 2d 9e bd 76 35 91 be
       0.021657784 -0.08512799 -0.07723574 -0.283611
000370 1e e3 b7 3d 9c 53 9b 3d 0c 10 5d 3e 72 5f 36 bd
       0.08978866 0.075843066 0.21588153 -0.044524617
000380 31 0d 8b 3d de 3a 1c 3c 25 5d 48 bd 72 d6 24 3d
       0.067896254 0.009535519 -0.048916955 0.040243573
000390 38 08 c0 3c 2f 4d 9e bb 70 22 e3 bc a0 3e 44 be
       0.023441419 -0.0048309783 -0.027726382 -0.19164515
0003a0 c7 c1 5c 3e 0a cd b3 bc e6 ad 07 3d cd dd 8c 3c
       0.21558295 -0.021948356 0.033124827 0.017195607
0003b0 43 5a 84 be a8 55 e3 3d 44 78 0a 3d 06 3d b1 bc
       -0.25850114 0.11100322 0.0338061 -0.021635544
0003c0 35 ef 75 bd 44 e3 d9 3d 0c b1 4b 3e 23 fd 06 3d
       -0.06004258 0.106390506 0.19891757 0.032956254
0003d0 a6 67 0d bd 0a 5b d3 3d f5 0c 1d bd 16 aa 4a 3d
       -0.034522675 0.10320099 -0.038342435 0.049478613
0003e0 8c fa cf 3c c1 b5 f0 3c 04 bc 10 bd b6 73 35 3e
       0.025388025 0.029383542 -0.035335556 0.17719921
0003f0 ee 06 36 bd 42 20 bb 3d 83 b4 2a 3b 8a 88 08 3c
       -0.044440202 0.09137012 0.0026047535 0.008333335

fc.bias f4 [6]
000000 6e 6d 46 3d 7b 87 d2 3d a0 53 e4 3c e5 36 f9 3d
       0.048444204 0.10279747 0.027871907 0.121686734
000010 69 ef 12 3d 56 9b 4d 3e
       0.03587285 0.20078787
