models/cnn_lstm_L1_best.pth (torch, 156637 bytes, 12 tensors)

cnn.0.weight f4 [32, 9, 3]
00000000: 484e 00be e4b9 e9bd ed11 473e e161 4c3e
00000010: 3166 8c3e e0f2 fa3b f39a 4e3e 8b27 0e3e
00000020: 735d 423e e66c ef3c 6304 17bc 475f 23be
00000030: 8160 473c 5d5a 09be 482e 1c3e 30a0 f63d
00000040: c906 a1bb a64f 8c3e 9503 c63e 94ab 123e
00000050: 22b4 1e3e b492 233e edb9 50bd 5770 5d3d
00000060: 572a a4bd 3d0c 5cbe c647 8bbe bac6 903d
00000070: c92c 343d 0d65 583e f302 48bd 813c d6bb
00000080: b138 d03c 8d3a ddbd 8009 6e3e ca23 9a3e
00000090: 811f 97be 560f 01bf f7ea 03bf 3c77 e63c
000000a0: bb75 c73d dae1 233e 3129 c7be 22b9 16be
000000b0: 1e8a a83d 6b99 343e 247c 5c3e 73a6 033f
000000c0: b440 233c f060 34bd 6084 14bd 7daa a33d
000000d0: 2012 a23d f631 0cbd 6f84 433d 5376 9abd
000000e0: 4794 11be 7722 c1be 2f8f 8ebe bd24 6fbe
000000f0: f8d1 793d 518e 443d 6556 52bd 4932 2c3e
00000100: f167 c53d 49f4 debc 1dd2 263e afff a13b
00000110: 45c7 f1bc 1b5d af3e 0760 493e b9b0 203d
00000120: 45c8 d4be c967 71be 9d7f b23d 42f1 943d
00000130: 3560 2b3d 2790 183e 2368 6bba ad5c 823c
00000140: c6f2 413d cb3f dcbd 3539 613e e7b5 1e3b
00000150: da52 4cbe 7b87 8a3c d8cc 03bd 12f3 04be
00000160: 0fa5 78bd 6790 79bd 1835 ec3a fd6e 803e
00000170: 9ca2 17be ad02 c2bd 7b05 203d 2f18 51bd
00000180: 1c72 55bc a1ae 58bc a9e0 443e 083c 38bc
00000190: b00b 32be 1340 a3be 56e7 8c3c b704 233e
000001a0: 8bcc 943d c748 1ebd d31b 02bd 6e46 6dbd
000001b0: 1fcd 8abd b497 dcbd a8ac 0ebd 68e0 56be
000001c0: 7a5d f0bd 9fad 363b c7bd df3c fc02 0c3d
000001d0: dac3 dfbb 771d a83d 3820 80be 50fa e3bc
000001e0: e000 afbb 654d 0c3d c834 5b3e 9c38 aa3e
000001f0: 031a 093e 3af3 f73d 945a 83be b5ac a5bc
00000200: dc63 5ebe f531 1d3e 22ad cd3d a31f 513e
00000210: f33d b03c 9337 6dbd 1d79 6c3e 29f2 cdbd
00000220: 8596 213e 6fce 4b3e 951a f8bd f7df 1abe
00000230: 7881 5bbe 0099 7d3d 977a 83bd e839 003e
00000240: 83cc 0bbd 8bcf 313e fc78 133d 9115 f4bd
00000250: 349c 5d3d ca36 1bbd 421d 493e 414d 1e3e
00000260: 4a50 0ebe 914b 8dbe aff5 67be fc74 88be
00000270: d603 a8bd 114c 893a 0802 133e b194 02be
00000280: 71fa 26be dfca 12be 279b 26bd 83a5 153e
00000290: ea56 28be 1789 973d 0fe1 b2bd e55f 43bd
000002a0: 07a5 243d 87c4 a63d 9a30 3ebd cef1 6cbe
000002b0: 993c bebd def8 62be f231 13be 0641 cc3d
000002c0: 91ef 683d 0f41 46be ef4e b9bc a9e4 3abe
000002d0: 1ec9 033f 1400 083f d487 1d3e c563 a13d
000002e0: 374b d3bc 4cbe 8a3e 87a4 463e f37d 0d3d
000002f0: a7b7 013e 7ead b1bc 9074 c73d 0264 3e3d
00000300: 9e33 73be 90b4 b8be a04e 45be 27d2 043c
00000310: a5bd 853b 13ae a5bd a63e 82be f611 113d
00000320: 58e2 98bd d95d 3ebd 13eb debd ef75 3d3d
00000330: e6fc 733d d89c 84bd 9132 c63c 9d86 88be
00000340: be27 abbc 8887 25be e9ea 8f3b eb93 f43c
00000350: 9833 7ebd 3f73 3d3c a941 233e 63ff 923e
00000360: 919f 913d d5e2 123e c82f 133e c5c3 5bbe
00000370: c3ac 36be 9daf 28bc db2d 21bd f5ef 283e
00000380: 2f83 6b3e e26f 0cbf 54d9 01bf c388 3cbf
00000390: 4174 1c3d a57f 443b 060f f4bd 7421 93be
000003a0: 4d67 a8bd f90b 8cbe df82 a73d 46fd 5c3d
000003b0: 5135 06be 78e5 e73d d78c b6bd a787 02bd
000003c0: 6f4a 1c3e 7346 34be 9fc3 053d 1049 243d
000003d0: ccc4 0f3c a10a 513d 67f6 113b fbc2 a23e
000003e0: f85f c03e e1c0 c83c f0df 953d 4a73 743d
000003f0: d754 523e 7fc1 253e b947 913c dfa3 9dbd
-0.12529862 -0.11412409 0.19440432 0.19959213 0.27421716 0.0076583475 0.20176296 0.13882272
0.1898096 0.029226732 -0.0092173545 -0.15954314 0.012169004 -0.13413377 0.1525203 0.12042272
-0.004914139 0.27404517 0.38674608 0.14323264 0.15498403 0.15973932 -0.050958563 0.054062214
-0.08015888 -0.21489044 -0.27203196 0.07069154 0.043988023 0.21132298 -0.048830938 -0.0065379743
0.025417658 -0.10802183 0.23245811 0.3010543 -0.29516223 -0.50414026 -0.515304 0.028133027
0.09739252 0.16004124 -0.38898614 -0.1471906 0.08229469 0.1763665 0.21531731 0.51425856
0.009964157 -0.04403776 -0.036259055 0.079915024 0.07913613 -0.034227334 0.04773372 -0.075421
-0.1421672 -0.37721607 -0.27843615 -0.23353858 0.060991257 0.047987286 -0.051351923 0.16816057
0.09638966 -0.027216094 0.1629109 0.00494381 -0.029513964 0.3425072 0.19665538 0.039231036
-0.41559044 -0.23574747 0.087157466 0.07272579 0.041839797 0.1489874 -0.0008980056 0.015913332
0.047350667 -0.10754355 0.21994479 0.002421731 -0.1995348 0.016910305 -0.032177776 -0.12983349
-0.060704287 -0.06092873 0.0018021194 0.25084677 -0.14808124 -0.094731666 0.039067727 -0.051048454
-0.013027694 -0.0132252285 0.19226326 -0.011244781 -0.17387271 -0.31884822 0.017200153 0.15919767
0.07265576 -0.038643625 -0.031764816 -0.057928495 -0.06777405 -0.107711226 -0.034832627 -0.20984042
-0.11736579 0.0027874482 0.027312173 0.034182534 -0.0068287672 0.08208745 -0.2502458 -0.02782932
-0.0053406805 0.034253497 0.21406853 0.33246315 0.13388829 0.12106939 -0.25655043 -0.020223955
-0.21717781 0.15351088 0.10042788 0.20422225 0.021513915 -0.057914328 0.23093076 -0.10055954
0.15780075 0.19902967 -0.12114445 -0.15124498 -0.21436107 0.06191349 -0.064198665 0.1252209
-0.034130584 0.17364328 0.03600405 -0.11918176 0.054104045 -0.037894048 0.19640067 0.15459158
-0.13897815 -0.27596715 -0.22652315 -0.26651752 -0.08203857 0.001047494 0.14356244 -0.12752034
-0.16306473 -0.14335202 -0.04067531 0.14613919 -0.16439405 0.07399195 -0.08734333 -0.047698874
0.040196445 0.08142953 -0.04643307 -0.23139116 -0.09288902 -0.22165248 -0.14374521 0.0997334
0.056869093 -0.19360755 -0.022620646 -0.1825129 0.51478755 0.5312512 0.15383846 0.07880358
-0.025792701 0.2709831 0.193987 0.034543943 0.12667714 -0.021689173 0.097390294 0.046482094
-0.23750159 -0.36075258 -0.19268274 0.008106745 0.0040814453 -0.08089843 -0.25438422 0.03541752
-0.07465047 -0.04647622 -0.108846806 0.04625505 0.059567355 -0.06475228 0.024194034 -0.26665202
-0.020892974 -0.16164982 0.004392017 0.029855689 -0.062060922 0.011563121 0.15943016 0.2871047
0.07110513 0.14344342 0.14373696 -0.21461399 -0.17839341 -0.010295776 -0.03935037 0.16497786
0.22999261 -0.5485822 -0.5072224 -0.7364618 0.038196806 0.0029983309 -0.11916928 -0.2873646
-0.08222828 -0.27352884 0.081792586 0.053952478 -0.13106276 0.113230646 -0.08913582 -0.03186765
0.15262769 -0.17604999 0.032657262 0.04010874 0.008774947 0.051035527 0.0022272111 0.31789383
0.37573218 0.024506034 0.07318103 0.05968026 0.20540176 0.16187094 0.017734395 -0.076972716

cnn.0.bias f4 [32]
00000000: 29da ed3c b94f 1ebe de6f 333c e146 e93d
00000010: 8959 f8bd a211 9ebd 7890 913e 4749 22bd
00000020: b133 fbbd e788 9abd 6a66 533d c606 b8bd
00000030: 7642 223e 723b a13d a1bd ad3d e18c 5bbb
00000040: 052c a2bd ed46 0f3e f6f6 2bbe 06c9 10bd
00000050: 4dd2 843d f309 b7bd 4433 173e 8cfe 263d
00000060: 645a b63d a1d9 063d 2772 333e 013d f83c
00000070: 9d87 26be a219 233e 58e2 dabc ef20 1a3d
0.029034691 -0.154601 0.010951964 0.11390472 -0.121264525 -0.07718207 0.28430533 -0.039620664
-0.12265719 -0.07545643 0.05161134 -0.08985667 0.15845665 0.078726664 0.084834345 -0.0033500718
-0.07918552 0.139919 -0.16793427 -0.03534796 0.06485424 -0.089374445 0.1476565 0.0407701
0.089039594 0.03292239 0.17524014 0.030302526 -0.1626267 0.15927747 -0.026719257 0.037629064

lstm.weight_ih_l0 f4 [200, 32]
00000000: 9734 423e 4924 423e 723d 493d c358 263e
00000010: 4269 54bd 1785 a53d 8c33 913c 58bb a93e
00000020: 4632 a33c f385 ae3d 8151 2dbe 82df 1b3c
00000030: 580e 033a 6fef 523e 8366 363e d554 8b3e
00000040: 9c7c dc3d 4374 ef3d ddfc c93d e171 263e
00000050: dd0a 1abe 3234 ee3d 2c95 74bd 916c dabc
00000060: ec3f 13bc 846b 83bd 65b0 123c 4cd1 f13b
00000070: e47e 94bd 7fa9 213e c389 d83d 2cae c73a
00000080: 94cb 27bd 5fea 9dbd d04b 2ebe abc8 a1bc
00000090: 7ea3 673d 3eda bf3c c5c3 b3bc 4637 e1bc
000000a0: 5515 92bd c809 27be 695f 75be 2f35 62be
000000b0: d331 1abe 4b3e 90be 8dee f6bd 7313 8fbe
000000c0: 9766 6fbe e807 1f3d b265 eabd a7d0 1ebe
000000d0: 9ab8 1abe 5284 4e3d b398 673e ab32 1a3c
000000e0: 464d 37be 91f9 83be 8cc8 48be a858 7f3c
000000f0: 7d3f edbd 24b4 33be 9d7d 6dbe a5eb 2abe
00000100: 9783 aebd d125 273e 1593 453c 1d87 72bc
00000110: 4df4 99be 4b20 003e c8ab f93c ece4 aa3d
00000120: 06c3 c03e 021d 5abe fd5b 82be 65ab 86be
00000130: 0433 4dbd 1dd0 8f3e 9e11 d6bc 9a22 743e
00000140: 40e4 0f3e a231 f73d ba86 0ebe ad73 45bd
00000150: 7e11 83bd dfc7 07be 7217 f83d ed56 d6bd
00000160: 06b9 21be eba4 c6bb 539f b3be 8579 3fbe
00000170: fe1b cc3d 28a8 57be 264c ec3d 26b8 02be
00000180: 9121 09be cd83 1dbe 4282 433b fa6d 36bd
00000190: 7916 5c3e 2612 b33d 10fa 26be de9c cebd
000001a0: d384 673d 3759 273e 940f 0e3c a4c2 28bd
000001b0: 03b6 553d 7a4a c5bc 3c2a 353e a26b ff3d
000001c0: 7048 0f3e 9f0b 1b3e f182 373e 8609 983e
000001d0: a26a 353d afd7 483e 20a5 543e 4ded de3d
000001e0: 6d5b 2dbe 6ce4 acbd acb1 10be 2674 0ebe
000001f0: 272f 06be 1dce dabc 09c2 243e 0439 59be
00000200: 2208 893d cd59 18be 743f ee3d 69c2 033e
00000210: 1139 48be 9686 ae3c c699 e9bd 6173 173e
00000220: 1e64 83bd 577e ffbd 04ed 63bd 7bf3 77be
00000230: c248 a7bd b3ff 96be 4d67 7a3e 3b80 56be
00000240: 0be7 4abd 9824 4d3e 568b 2a3e bfe1 e1bd
00000250: f694 b53c 7bf0 8b3c d4ab 37be 5eb4 7b3e
00000260: 2cd5 d23d 8c84 5bbe 7054 d5bd a506 b63d
00000270: 65f4 ea3d 033f 273d 4be7 e43d 4467 253d
00000280: 362c 19be 14ea 56be a32e 82bd 2913 f83c
00000290: 51f6 07be e3ae f3bd 4051 cdbd d32a 34be
000002a0: 17f1 c5be 52c6 19be fbe7 0dbe 97cf 0bbe
000002b0: c8c7 acbd 56f5 2fbf c73a 40be f175 83be
000002c0: 2988 78bd 7fff 15be 426a eebc a4e8 50be
000002d0: c295 043e 5259 a4be 8100 b2be e83a c7bd
000002e0: 85bc f43c 77de 07be fcd4 2cbe dd3e 04be
000002f0: 32b0 a9bd 448e 7a3d 0ca4 b7bd 9960 0bbc
00000300: 5350 0bbe 9de1 a0bd fcaa 2fbd 1bb7 b2bd
00000310: 1d45 033e bdb6 903c 27ab c23c 7e99 4d3d
00000320: 197f 82be 1a83 77bd 08ef 9abd 9dec 08bd
00000330: 802f b4bb fdd2 5abe 78db 913d 1cdc 67be
00000340: 24bd a8bd 02c6 ccbd 39b9 073e 3eae 14be
00000350: 0a86 a3bd 7f64 283d 672e 54be 63a5 823d
00000360: 921b 30be 66b0 1b3d 3958 94bd 45f0 53be
00000370: 202c 1bbe 0d08 f63c d898 96bc df42 11be
00000380: 3c77 983e babe 353e 017a 7f3d 6a86 84bd
00000390: c381 20be 0ad5 fd3c df90 4e3e 19b0 afbc
000003a0: 1492 09be 866c 32be a31b c73d a068 84bd
000003b0: 5a1b 653e 2a0e ffbd f68f 7f3d 9efd d7bd
000003c0: fe9b 98bb 5e47 6f3d 90bf 51bc 547f 0abe
000003d0: c9a2 6b3e a8b5 463e 8f6c c6be cc36 ac3e
000003e0: a5a7 90bd 94f9 4b3d ac9f 5b3e 49d6 083e
000003f0: 70be b93c 0494 803e 1f03 a83d 69a0 113d
0.18965374 0.18959154 0.049130864 0.16244797 -0.051858194 0.080820255 0.017724775 0.33150744
0.019921433 0.085216425 -0.16925623 0.009513738 0.0004999391 0.20599149 0.17812543 0.2721316
0.10765955 0.11692097 0.09862683 0.16254379 -0.15043207 0.11631049 -0.059712574 -0.026663097
-0.008987408 -0.06416991 0.008953189 0.0073796865 -0.07250765 0.15787314 0.10573151 0.0015234402
-0.04096563 -0.07710718 -0.17021108 -0.019749006 0.056552403 0.023419496 -0.021943936 -0.027492177
-0.07132975 -0.16312325 -0.23962177 -0.220906 -0.15058069 -0.28172526 -0.12057219 -0.27944526
-0.23378979 0.0388259 -0.11445178 -0.15509282 -0.15109482 0.05041916 0.22616844 0.009411494
-0.17900571 -0.25776342 -0.19607753 0.015585102 -0.11584375 -0.17549187 -0.23192449 -0.16691454
-0.085211925 0.1632302 0.012058993 -0.014802721 -0.300692 0.12512319 0.03047742 0.08344445
0.3764879 -0.21300128 -0.25460806 -0.2630264 -0.05009748 0.28088465 -0.026131447 0.23841324
0.14051914 0.120700136 -0.13918582 -0.04820602 -0.06399821 -0.13259839 0.12113847 -0.104657985
-0.15793237 -0.00606214 -0.35082492 -0.186987 0.099662766 -0.2106024 0.11537962 -0.1276556
-0.13391711 -0.1538231 0.0029832278 -0.044538476 0.21492948 0.08743696 -0.16306329 -0.10088514
0.056523155 0.16342627 0.008670706 -0.04120125 0.052175533 -0.024083365 0.17691892 0.12471701
0.13992476 0.15141152 0.17921044 0.29694766 0.044291146 0.19613527 0.20766115 0.10885105
-0.16929407 -0.084420055 -0.14130276 -0.13911495 -0.13103925 -0.02670961 0.16089644 -0.21213156
0.06691004 -0.14878006 0.116331965 0.1286713 -0.19553019 0.02130441 -0.11406283 0.14790107
-0.0641558 -0.12475269 -0.055645958 -0.24213974 -0.08168174 -0.29491958 0.24453469 -0.20947354
-0.049536746 0.2003349 0.16654715 -0.11029386 0.022165757 0.017082443 -0.17936641 0.24580523
0.102945656 -0.21437281 -0.10416496 0.08887986 0.11472396 0.040831577 0.11176928 0.040381685
-0.14958271 -0.20987731 -0.063565515 0.030282574 -0.13277556 -0.11898591 -0.10025263 -0.17594461
-0.386605 -0.1501706 -0.13858025 -0.13653408 -0.08436543 -0.6873373 -0.18772422 -0.2567592
-0.060676727 -0.14648245 -0.029103402 -0.20401245 0.12947753 -0.32099396 -0.3476601 -0.09728032
0.02987505 -0.13268457 -0.16878122 -0.12914605 -0.0828556 0.06117083 -0.08966836 -0.008506917
-0.1360486 -0.07855532 -0.042887673 -0.08726331 0.12819333 0.017665261 0.023763252 0.05019521
-0.25487593 -0.060427763 -0.07565123 -0.033428777 -0.0054988265 -0.21369548 0.071219385 -0.22642559
-0.08239201 -0.099987045 0.1325425 -0.14519593 -0.0798455 0.041111466 -0.20720826 0.06379201
-0.17198017 0.038010024 -0.0724339 -0.20697124 -0.15153551 0.030033136 -0.018383428 -0.14185666
0.2977847 0.17748538 0.06237221 -0.0647095 -0.156745 0.030985374 0.20172451 -0.021446275
-0.1343463 -0.17424211 0.09722068 -0.06465268 0.22373715 -0.124538735 0.06239315 -0.105464205
-0.0046572676 0.05841767 -0.01280202 -0.13525134 0.23011316 0.19405234 -0.387547 0.33635557
-0.07063226 0.049798563 0.21447629 0.13362993 0.022673815 0.25112927 0.0820372 0.03555337

lstm.weight_hh_l0 f4 [200, 50]
00000000: b54b 793d 28f7 40bd a868 07bc beb1 adbd
00000010: a1d3 35bd fa2b d5bd fbb2 813e 5d62 173d
00000020: b579 273d 1528 d9bc 16f7 06bd dfa8 a8bc
00000030: ddd6 7ebd c5e3 37bd 90c7 283e af8f 9c3d
00000040: 40c8 843e 916e 953d 0e8e 98be d9d9 98bd
00000050: 223c 013d c8e7 143e aeb6 363d 072f a1be
00000060: ad15 1dbe ec9e 13be 7076 ae3d e565 1c3e
00000070: 6895 bb3d 105d 123e 4a43 003e e3fd 0b3a
00000080: fe79 243e a8ff 183d 7708 e4bd e2fd a4bd
00000090: 9989 c3bd fb86 43bd 7d5b 8bbd 89c1 103e
000000a0: 2dba 17be a962 7abd 647b 91be 8740 2fbe
000000b0: f179 3fbc 7b3c e4bd 7ac5 193e 2dcf 37be
000000c0: 39d2 d6bd 01bf 733d b1c2 af3d b57d d73d
000000d0: de2c cfbd cb2f 4abe fd06 673d 8b2b 903d
000000e0: a72e edbd c592 8bbd c16b c3bc 42e7 f8bd
000000f0: 427d 71bd 5c42 d7bd 11f7 0cbd 4f7f 153e
00000100: aee8 2abe 6dc7 a8bd ebc4 f73d a04c 4abe
00000110: 9357 05be 2e92 413e 4984 3abe eb92 cd3d
00000120: 3615 d2bd 3461 14be 3f68 ae3d 80d5 b73d
00000130: cd19 30bc 9b77 fa3d 9dc5 6dbd 0e62 a2bd
00000140: ab0f 81bd f7a0 ac3c d552 a2bd 5ad4 e8bd
00000150: 9915 f43d 91af 28be 9604 1d3e 0980 02bc
00000160: c11f 91bd a5ad ec3c 67b3 f83b 8386 9d3d
00000170: 0e47 313e 4651 d8bd 14e2 643d 7bac 5ebd
00000180: b6a4 d63d a1d0 8e3d c9c1 693c ef22 76bd
00000190: afda 8c3c 354c 12be 2b7f abbd 5e1a cebc
000001a0: 57e4 b33d bd9a e93d 8422 2b3e 97d9 3abe
000001b0: d887 12be 6775 893d 6805 8bbd abed 023e
000001c0: a6aa 3e3d 799a 253e 6805 59be 75a9 cd3d
000001d0: 1c49 d1bd 5244 a73d 4a10 91be b005 133e
000001e0: d238 8ebc e148 72bd 173a 17bd 5db7 4b3d
000001f0: 191b 593e 99eb c1bd d4e9 44be 1c73 323c
00000200: 17ab f1bc 73f0 13be a3f2 3cbd 1a51 fa3d
00000210: 4c85 1b3e 0ad2 5abc 3482 f03d 714c 30be
00000220: 192e afbd 228a 14be 765e 403d 36db e03a
00000230: 570f f4bc 7c94 80bd 85d7 ef3a 460d 0a3e
00000240: 0bc6 b43d 61b6 8f3c a57d 8a3d 7a4e 46bd
00000250: eb58 6c3a 0c31 b4bd b85e e93e b642 373e
00000260: 34f5 a0be 3c17 5ebd 2115 e0bd 6c83 b7bc
00000270: 000c 033e fee8 ffbd 825f 2b3e d31d 1dbe
00000280: 4899 5c3d 7163 383d dd01 babd e119 02bc
00000290: 4f29 c53d d3b3 a23d 42ee 1b3e 1331 f13d
000002a0: 4ec6 b2be ae2b 1f3e d52a 42be 5bb9 8e3e
000002b0: d69d c33d ab16 df3b c92a 7c3e 375a 23bd
000002c0: 0b37 0c3e 7869 2fbc 14b1 6f3e d74a 84bb
000002d0: a10b 583e 1103 5c3d ddba bbbe 779b d13d
000002e0: eb1d 23be ef0a 15be a1bc 33bd aeb0 813e
000002f0: e1f1 883d 787b d7bc ee74 5abe 063d 04bd
00000300: d752 84bc 55ee 5cbe 4e0a c03d ae2d 1c3c
00000310: 3e46 143d 075d c6bd 397d b3be 1393 b83c
00000320: 000e 553e 512d a83d cc76 98be 9c0d 23be
00000330: 4e87 75bd f205 42bd caf6 083d d5df a3bd
00000340: c48d 153e 743c 543d 9925 d43d eb41 6d3e
00000350: 6602 123e e1c6 38be 750a 8f3d cf46 343e
00000360: b1de 0f3e 7e63 96bd 4e89 c6bd e182 d2bd
00000370: 7b76 34be d837 923d cf14 093e 3026 bc3b
00000380: e1b8 94bd e74c 89bb a238 283e a792 bcbd
00000390: 5897 09bd dfbd ad3c 589f 0dbe c350 0ebe
000003a0: aea2 103e a71f d83b acdb f63c 39f6 d5bd
000003b0: 11d3 123c 6e15 023e 6a55 03be b501 f33c
000003c0: 8671 e3bc 318f 99bd 5686 35be 3e77 f7bd
000003d0: 3710 3a3e 611f 05be d46f 9f3d 3ca5 493e
000003e0: 8cba ccbd c161 203d d739 da3a ce82 d8bc
000003f0: f112 e4bd 6ab2 2a3e 0d3a a83d cd12 e1bc
0.060863215 -0.047110707 -0.008264698 -0.08481167 -0.04439128 -0.104087785 0.25331864 0.03695904
0.040887553 -0.02650837 -0.032950483 -0.020588337 -0.06221663 -0.044894952 0.16482377 0.07644593
0.2593403 0.072964795 -0.2979588 -0.07463426 0.031551488 0.14541543 0.04460781 -0.31481192
-0.153403 -0.14416093 0.08518684 0.15273245 0.09159356 0.14293313 0.12525669 0.0005340261
0.16062161 0.037353188 -0.11134427 -0.08056237 -0.09547729 -0.04773615 -0.068045594 0.14136328
-0.14817114 -0.061129246 -0.28414452 -0.17114459 -0.011686788 -0.11144348 0.15016738 -0.17950125
-0.104893155 0.059508327 0.08582056 0.105220236 -0.101159796 -0.19744794 0.05640315 0.07039555
-0.11581164 -0.068151034 -0.023855092 -0.12153484 -0.058957346 -0.10510704 -0.03441531 0.14599346
-0.16690323 -0.082411624 0.12098106 -0.19755793 -0.13021688 0.1890342 -0.18214525 0.10037788
-0.10257952 -0.14490205 0.08515977 0.08976269 -0.010748339 0.12229844 -0.058049787 -0.07928859
-0.063018166 0.021072848 -0.07925955 -0.11368628 0.11918182 -0.16473223 0.1533378 -0.007965096
-0.07086135 0.028891394 0.007589746 0.07691672 0.17312261 -0.10562377 0.055879667 -0.05436371
0.10480635 0.069733866 0.014267393 -0.06009191 0.01719412 -0.14286883 -0.08373865 -0.025159057
0.08783787 0.11406467 0.16712385 -0.18247066 -0.14309633 0.06711846 -0.067881405 0.12785976
0.04654946 0.16172208 -0.21193469 0.10042087 -0.10219023 0.08167328 -0.2833274 0.14357638
-0.017361078 -0.059151534 -0.036920633 0.049735416 0.21201743 -0.09468765 -0.19229823 0.010891702
-0.029500527 -0.14447193 -0.046129834 0.122225 0.15187567 -0.013355741 0.11743584 -0.1721666
-0.08553714 -0.14505818 0.046965085 0.0017155174 -0.02979247 -0.06278321 0.0018298483 0.13481626
0.08826836 0.01754302 0.06762246 -0.048414685 0.00090159354 -0.087984174 0.45580077 0.17896542
-0.31437075 -0.054221377 -0.1094153 -0.022401534 0.12797546 -0.124956116 0.16735652 -0.15343408
0.053857118 0.04501671 -0.09082387 -0.00794074 0.096270196 0.07944455 0.15227607 0.11776938
-0.3491692 0.15544006 -0.18961652 0.2787579 0.09551589 0.006808122 0.24625696 -0.039880957
0.13692872 -0.010706298 0.23407394 -0.004037242 0.21098186 0.05371386 -0.36666003 0.10234731
-0.15929382 -0.14554952 -0.043881062 0.25330108 0.0668676 -0.026303992 -0.21333668 -0.03228476
-0.016152782 -0.21575291 0.093769655 0.009532375 0.0361998 -0.09685712 -0.35056475 0.022531068
0.20806122 0.082117684 -0.29778135 -0.1592316 -0.05994349 -0.04736895 0.03343848 -0.08001677
0.1460486 0.051815465 0.10358734 0.23169677 0.14258727 -0.18044616 0.069844164 0.17605136
0.14049794 -0.073431954 -0.096941575 -0.102788694 -0.17623322 0.071395576 0.13386844 0.005741857
-0.07261825 -0.0041900757 0.16427854 -0.09207659 -0.0335916 0.021208702 -0.13830316 -0.13897996
0.14124557 0.00659557 0.030134045 -0.10447354 0.008961455 0.12703487 -0.12825552 0.0296639
-0.027764093 -0.07498015 -0.17727026 -0.120832905 0.18170248 -0.13000251 0.077850014 0.19691938
-0.099965185 0.039155725 0.0016649318 -0.02642956 -0.11136425 0.16669622 0.08214197 -0.027474785

lstm.bias_ih_l0 f4 [200]
00000000: a775 a43d e779 fcbc 997a e6bd 30ba 193d
00000010: 44a0 e6bb 21fc babd 90f2 09be 57dd 83bc
00000020: 1b72 5bbd 9feb cfbd dcd1 16be 4608 983c
00000030: 611a 2ebd a677 413d f165 0fbd fcbb 27bd
00000040: 9f11 033e 59c5 cb3d 7eef a53d be2d 1d3e
00000050: 25bd 45bd 9c26 2ebe 8fbe 0fbd 4f57 963d
00000060: 8678 5abe d26e a13d ad19 43be de34 30bd
00000070: 46db dfbb 7241 25be 64b6 14be 290c 6f3d
00000080: 818a d53e cdfb 753e 0665 5c3d d27b 483e
00000090: a574 c0bd 2d72 32be 8bcf dbbd 9ad0 873c
000000a0: dd56 9bbc b0f0 2abe 8f98 d23c 131a acba
000000b0: 88ae e6bd ca63 28bc ffbb ee3d 8c6a a43d
000000c0: 6cca 6cbd c818 b0b6 7be7 113d fa79 e6bd
000000d0: af12 08be df1e 76bd 061b 6bbd b251 efbd
000000e0: 0e85 32bc e0a9 a7bd 8f35 083e 711a f33c
000000f0: 894e c73c 4565 48be 5fe4 ca3c 0236 0abe
00000100: e15a 013e 2598 82bd 22e0 8e3c 06af 723d
00000110: 9b25 9739 5ff4 81be 58bf 293d d412 39be
00000120: 6873 2cbe fa33 473d 73f2 00bd e32e 17be
00000130: 4af8 12bd fe6f e2bd 3a85 99bd 5085 9f3d
00000140: 7dc4 733c eb8d 1ebe b5ca cebd 3b29 e5bd
00000150: a69a 87bd 2a05 0c3e 3730 5b3b c50c 0cbe
00000160: a273 2abe 70d7 43be 3a01 2ebe f516 643d
00000170: 159f 38be e078 01be d601 96bb 77f6 50bd
00000180: 3ab8 3ebe 587e 273a 6722 e9bd dd15 083c
00000190: 71de 263c 4014 febc 5908 8cbd cfc4 ff3d
000001a0: 2530 f0bd c5c0 53bd 8fd4 d5bd 5084 68bd
000001b0: fd47 a53b d77d 5bbd 7d11 b73d d8d5 a83b
000001c0: adcd 1c3d 16f4 fe3c a863 82bd adcb d73d
000001d0: 700c 5dbd 0bf0 80bd 5bfc a53d 0796 24bd
000001e0: 4eeb a33d 56c1 e5bc a4cf 84bd a72c febc
000001f0: b183 a8bd ca92 8c3d 6af4 c9bd ad8d 07bc
00000200: e0a2 533d 2541 0ebe 3bcf 2fbd 07ad ccbd
00000210: fb08 8f3d 4abb f83d e911 30bb 4050 b7bd
00000220: bd7b 093e 646f 6e3d 741d 253c 0d2a 40be
00000230: 28ca 883d 3998 ac3d 5532 8fbd 49f9 a6bd
00000240: cf64 eebd bbe0 ec3d 93db 99bd 77c4 9cbd
00000250: a15f a03d 2491 fdbd 4011 56be 15f3 50bd
00000260: 2145 613d 1179 d1bd 7726 e7bd c63a 14be
00000270: c033 37be 75ea 3b3d da09 6c3c 305d 01be
00000280: 6e6d 21bd 9920 a33c 41f2 a5bd 7377 0cbe
00000290: 0f1f d5bb f6ff 84be 44ff ccbc a0b0 31be
000002a0: 8520 5dba d67b 823d 161e c53d 9f29 87bd
000002b0: 538b b33c b9b5 f4bd 74a8 35be 1c13 a6bd
000002c0: c53e 233d cf9e 01bd a92e 30be 931e 8dbe
000002d0: 5e7f 33be 31f5 07bd cee1 0d3e 239e 443c
000002e0: fcd4 41be 4811 2fbe 8a98 04bd 6f50 98bc
000002f0: ea33 aabd 9932 d8bc fbc5 0dbe 654e 3bbe
00000300: 5bbf d43d 9e3e 20bc c43f 3bbd 0c94 3a3d
00000310: f5f0 36bd 684d 01be 97f8 e7bd 2e9c 17be
0.08030253 -0.030819846 -0.112538524 0.037531078 -0.007038148 -0.09130121 -0.13471437 -0.016096754
-0.053575616 -0.10152363 -0.14728492 0.018558633 -0.042505626 0.047233246 -0.03500933 -0.04095076
0.1279969 0.099497505 0.0810232 0.1534948 -0.048276085 -0.17006916 -0.03509384 0.073408715
-0.21335039 0.078824654 -0.19052763 -0.043019168 -0.0068315594 -0.16138247 -0.14522702 0.058361206
0.41707233 0.24021836 0.05380728 0.19578484 -0.09397248 -0.17426367 -0.10732945 0.016578961
-0.018962318 -0.16693377 0.025707511 -0.0013130329 -0.11263758 -0.010277698 0.11656951 0.08028135
-0.057810232 -5.2480937e-06 0.035621148 -0.11253734 -0.13288377 -0.060088035 -0.05739882 -0.11685504
-0.0108959805 -0.08186698 0.13301681 0.029675694 0.02432944 -0.19569881 0.024767099 -0.13497165
0.12632324 -0.063766755 0.01744086 0.059248947 0.00028828983 -0.25381753 0.041442245 -0.18073589
-0.16840899 0.048633553 -0.031481218 -0.1476398 -0.03588132 -0.11056517 -0.07496114 0.07789099
0.014878389 -0.15483825 -0.10097257 -0.11189505 -0.06621294 0.13673845 0.0033445486 -0.13676746
-0.16645673 -0.19125152 -0.16992655 0.055685956 -0.18029435 -0.12643766 -0.0045778556 -0.051016297
-0.18624964 0.0006389371 -0.11383515 0.008305994 0.01018487 -0.031015515 -0.0683753 0.1248871
-0.11727933 -0.05169751 -0.10440933 -0.056766808 0.005043982 -0.053586807 0.089388825 0.0051524453
0.038282085 0.031122249 -0.06366664 0.10536895 -0.05396694 -0.062957846 0.081047736 -0.04018214
0.08003865 -0.028046291 -0.06484917 -0.031027151 -0.08228243 0.06863935 -0.098610714 -0.008273524
0.051669 -0.13892038 -0.04292224 -0.0999394 0.06984135 0.121450976 -0.0026866144 -0.08950853
0.13426109 0.0582117 0.010077823 -0.18766041 0.06679183 0.08427472 -0.06992022 -0.08153016
-0.116403215 0.115663014 -0.075125836 -0.0765466 0.0783074 -0.12381199 -0.20905018 -0.05101307
0.054997567 -0.1022817 -0.112866335 -0.14475545 -0.17890835 0.045877893 0.014406646 -0.12633204
-0.039411 0.019913005 -0.08102847 -0.13717441 -0.0065039466 -0.25976533 -0.025024064 -0.17352533
-0.0008435327 0.06371276 0.09624879 -0.065997355 0.02191702 -0.11948723 -0.17740041 -0.081091136
0.039854784 -0.031645592 -0.172053 -0.2756239 -0.17529055 -0.033192817 0.13855669 0.012000593
-0.18928903 -0.17096436 -0.032372035 -0.018593041 -0.08310683 -0.026391314 -0.13845055 -0.18291624
0.10388061 -0.009780554 -0.04571511 0.045551345 -0.04466339 -0.12627184 -0.113267116 -0.14805672

lstm.bias_hh_l0 f4 [200]
00000000: e76c 81bd 40b9 673c a54e 2b3d cc9e 343d
00000010: 2143 1bbe d0ef 39be e1f9 54be 029a 0abd
00000020: c764 1abe 3cad 28bd 0b9d 15be 00e4 9d3d
00000030: 79dc 1cbe b75c 353d 07ba 6f3e 4677 3e3c
00000040: dee7 783d aac2 703d 69a1 253c 8f2b f93b
00000050: f206 e9bc 66dd c5bd 87c2 06be 13ee 553e
00000060: 62da 2ebe 9ea7 aebb 18df 56be 38fa 19be
00000070: fc92 f23b 47fb 903b 467f 61be bab7 803e
00000080: 28e2 d83e 59b5 fa3d 7683 f6bc 26a5 d83d
00000090: fcc7 083b 5e23 05be ab6d d9bc a653 a33a
000000a0: f7dc 55be fe51 04be bdbe cf3c 405e f7bc
000000b0: 6aa0 6d3d 0c3e 1dbe c0b9 143c c884 423e
000000c0: 9909 2bbe e768 e3bd cc5d c03d 4260 bab8
000000d0: bb3c 7cbe a6f0 d0bd 9ef2 9cbd dde6 32bb
000000e0: 6e35 15be e451 9abd a29a e1bd 422a a5bc
000000f0: b7cc e9bd a997 7cbe 070a 073e 1740 27be
00000100: aa6d 9f3b e355 3dbe a57e 35be d06c a5bd
00000110: a93c 02bd f29e 5bbe d24b afbd fc3b a9bc
00000120: 8713 edbc a076 f2bd f845 44bb a1a3 03bd
00000130: 56d2 8fbd f2d3 25be 3e5d ad3d cb08 bfbd
00000140: 307b abbd 7d70 fcbd ff62 e63b 9c8c 04be
00000150: 078a 1fbe a6d0 1abd e67c 4dbe e2db 01be
00000160: 3fb5 b0bc d1b1 55bd fd37 afbd a347 30be
00000170: a3db 743d c0c6 65bd 869e 7e3d ea37 21be
00000180: f348 3fbe 68df 803d 763e 45bd 0a70 12be
00000190: 7128 32bc 04a1 723d 6706 9a3c a007 d3bd
000001a0: 3a98 50bc 58fb 85bd 6808 e73c 0163 55b7
000001b0: 9a7b 2e3d 054e bfbd 6014 683d 219c f03d
000001c0: 875d a43c 2f5f 923d 8361 b33d 27ae fe3b
000001d0: 3563 c4bc 936e 21bd 59d1 7a3d 7f90 6dbe
000001e0: 65c4 153e d345 5c3d 18d5 0bbe dbe5 5a3d
000001f0: 240a 47bd f2d9 10bd 99f7 24be b9cb 713d
00000200: 6083 cd3c d391 3a3d a5a0 13bd 5a9e 48bc
00000210: c6d9 3d3e 9896 a9bc 7897 5f3d a9c0 433d
00000220: 79bd 2f3d 88cb b83d 657e a93d f92a 813d
00000230: fd2b ba3d 4141 f53c fcbe d5bd 8054 fdbd
00000240: cc07 a23c 60fc a8bc 1a71 8f3c fe34 0e3c
00000250: 175d 6ebd 51b3 88bd b46b d5bd 5f15 86bd
00000260: 4334 a53d 0744 173e 2255 5dbd a95a 2c3d
00000270: b1a0 2dbe 3ad8 17bd b08d bd3c c1ce abbd
00000280: 66d5 48be 0172 c3bd e2dd 1abe 0399 f53b
00000290: ef73 6e3c 1ef4 283c 481c fbbd 97e8 c7bd
000002a0: c803 963d 73bb 873d 8ef5 5bba 7c8a 663d
000002b0: b4b6 cbbd b00c e1bd f879 63bd 2468 1bbe
000002c0: 0464 41bc a2b4 10be af91 11be 5e22 80be
000002d0: f0c0 46be f3db 77bc f60a 5f3e eba5 ac3d
000002e0: 6a49 2bbe 4de2 ef3c c058 1bbd 4578 0fbe
000002f0: 5043 f8bd 8557 2dbd bc6a 44be d186 dbbc
00000300: 8305 9cbd e54f fbbc fe71 8f3d 4e2b 77bb
00000310: 2d4a 113d 3850 f1bd 48c8 66bd 5b04 973d
-0.063195996 0.014143288 0.04182305 0.044096753 -0.15162326 -0.18157887 -0.20798446 -0.03383828
-0.15077506 -0.041180834 -0.14610688 0.07709503 -0.15318479 0.044277873 0.23410808 0.011625117
0.060768 0.058779396 0.010109284 0.0076040695 -0.028445695 -0.09661369 -0.13160144 0.208916
-0.17075494 -0.00533004 -0.20983541 -0.15036857 0.007402776 0.004424486 -0.22021207 0.25140172
0.42360044 0.122416206 -0.030091982 0.105783746 0.0020871153 -0.13001773 -0.026541552 0.0012460842
-0.20885073 -0.12921903 0.025359506 -0.03019631 0.05801431 -0.153557 0.009077489 0.18995965
-0.1670288 -0.11103993 0.0939289 -8.8871006e-05 -0.24632542 -0.1020215 -0.07663463 -0.002729825
-0.14571163 -0.07535151 -0.11015822 -0.020161752 -0.114159994 -0.24667229 0.13187419 -0.16333042
0.004865368 -0.18489794 -0.17724092 -0.08077395 -0.03179613 -0.21447352 -0.085593835 -0.020658486
-0.028939975 -0.11839032 -0.0029948931 -0.03213847 -0.0702254 -0.16194132 0.0846505 -0.09327849
-0.083731055 -0.12326143 0.007030844 -0.12944263 -0.15579997 -0.03779664 -0.20067176 -0.12681535
-0.0215708 -0.052171532 -0.08555601 -0.17214827 0.059779774 -0.056097746 0.0621629 -0.15743986
-0.18680172 0.06292611 -0.04815527 -0.14300552 -0.0108739 0.059235588 0.018801881 -0.10304189
-0.012731606 -0.06542081 0.02820225 -1.27188405e-05 0.042598344 -0.09341053 0.056660056 0.11748529
0.020064129 0.07147061 0.08758833 0.0077722254 -0.023973087 -0.039412092 0.061234806 -0.23199652
0.146257 0.053777527 -0.13655508 0.053441864 -0.048593655 -0.0353641 -0.16110076 0.059032176
0.025087059 0.045549225 -0.036041874 -0.012244785 0.18540105 -0.020701692 0.05458781 0.047791157
0.042905305 0.090231955 0.08276061 0.063070245 0.09090421 0.029938342 -0.10436818 -0.12369633
0.019779108 -0.020628154 0.017509986 0.0086796265 -0.058194246 -0.06674827 -0.10420933 -0.06547045
0.08066609 0.14772044 -0.054036267 0.042078648 -0.1695583 -0.037071444 0.02313885 -0.083890446
-0.19612655 -0.09543229 -0.15123704 0.007495047 0.014554008 0.010312108 -0.122612536 -0.0976116
0.0732494 0.0662755 -0.00083907775 0.056284413 -0.09946957 -0.10988748 -0.05553624 -0.15176445
-0.011803631 -0.14131406 -0.1421573 -0.2502622 -0.19409537 -0.015128124 0.21781525 0.08430084
-0.16727224 0.029282713 -0.037926435 -0.14010723 -0.12122214 -0.042319793 -0.19181341 -0.026797684
-0.07618239 -0.030677745 0.07004164 -0.003771502 0.03547113 -0.11782879 -0.056343347 0.073738776

lstm.weight_ih_l1 f4 [200, 50]
00000000: 6999 983c 902a f2bd b9a8 01be e99e a33e
00000010: 8384 473e 57dd debd 14f1 a8bd a43b b8bd
00000020: 604c 01be 8383 93be b5ac 873b 3265 28bd
00000030: 74ea 7b3d 30b8 b8bd 74d5 33be bc1c 68bd
00000040: 60dc 15bd 52ea 0b3e 468c b03c c7e2 6cbe
00000050: 73c9 223e 9670 83be 2005 433e 5daf afbd
00000060: 216e 41bd 6dce ac3d ac5d bf3e 5594 bfbd
00000070: 0eb4 d5bd 5b61 5c3e 3377 c8bd 0545 1f3e
00000080: f235 033f fce9 fb3e 5c8c 6c3e a2a0 a1bd
00000090: 47e5 a23d 401f 31bc 1f71 413e b9fb 1fbe
000000a0: 7100 593d 4178 a6be f4d7 bfbe 04c7 4e3e
000000b0: 30b6 7a3c 0a63 05be ecde 073e 9c00 36bd
000000c0: 4a5f 8c3e ba45 0ebe ce96 b33e 2d2a c83b
000000d0: 3b15 0c3e ad0e 57bc e496 bdbd fa6c dbbd
000000e0: d775 b8bd 7e6b 3cbe e4a6 c4bd 0859 8ebe
000000f0: ceb3 48bb f09d babd 555a 143e 8f05 003e
00000100: 06db 65be 46d0 2dbe 6fd6 073d 99cc c9bd
00000110: a459 3dbe 2087 463c 1e84 de3d dc9e 56be
00000120: 5d74 9a3d cc03 7f3d 4b3d 523e ff63 30be
00000130: 9e70 e2bd 0871 313d 00fa 233d 0ae3 00bd
00000140: 8d68 acbd 80e9 973e aa51 493e aaea 9f3e
00000150: dd9a 7f3d 9789 a0be aa62 8cbd 31bf 23be
00000160: e2b8 39bd 8a81 0abd b87c 2bbd e6a0 b6bd
00000170: 6c58 233d f49d 063e 3b78 493e 9e79 6f3e
00000180: e7a5 963e 6f7e c73d 8745 68bc d825 2a3a
00000190: c174 9d3e fdea 033d eedc c6bc 91b0 87bb
000001a0: 2919 143e 768b 9a3d e605 ce3d 2f19 c1be
000001b0: 8dd2 50bd 3db0 91be 3e9d b6bd 9ca6 4b3e
000001c0: 91b4 443e 6603 cbbd 9b41 443e f6de e1bd
000001d0: 236e 003e 902e fd3d 6def 97be f0fa 0f3e
000001e0: c20c a1bd b8ad ce3a f33e ea3b dfc7 d4bd
000001f0: abd8 963c f2d9 b63d ac01 c4bc e1cc 523c
00000200: 1365 453d 3c23 14be b258 93bd d770 e53d
00000210: ed8a c4bd 1308 843e 10ff 1e3d 8dae e9bd
00000220: 929e e13d b05e 98ba ea6a 79bd d6b7 0e3e
00000230: 444a fabd f5a4 213c 900e f23d b685 55be
00000240: fbf7 4dbc 6a2d 8cbd 6651 293d 54ae 0dbe
00000250: c85a 64bd 4c18 bcbd ac32 453e bb09 13be
00000260: 35c6 21bd e6ac 1ebe 622c 143e 669f 423e
00000270: b85c 43be cf7a 12be 8938 cebd 5a49 95be
00000280: 60f0 a63d ffce c7bd b9ce 9d3d 2140 3b3e
00000290: 7d3c d8bd cb9c 743c a85d b63e 16e2 68be
000002a0: 34bb d5bd 0ad7 5abe f209 08be 8849 513e
000002b0: 31a6 c3bd 4833 1bbe ac50 483e 914a 063e
000002c0: 1bc0 263e 6630 84bd edf1 2f3c b810 9fbc
000002d0: d328 b03d c2d9 913e a7d5 913e dd51 8d3e
000002e0: 2959 6a3e 5b13 3dbe 2764 3f3e 6298 4bbc
000002f0: ed4b fabd 38d7 40be 43cd bdbd f68a 09bc
00000300: 8af0 963d a695 78bd 0a53 17be 44b6 24bd
00000310: f6c1 653d fb8a 81bc 3cba 23be 6526 e6bb
00000320: f483 593e 8333 f6bd 81b2 3f3d a2d3 883c
00000330: f74a 1a3d 4b75 d73d 109e 05be 8bf6 fabe
00000340: 1b24 5fbd 1114 84be 109c e93d 6ce0 4dbe
00000350: 5513 95bd 3a09 363e 3bc8 08be 0103 08bd
00000360: c7ed 5a3e b09a 32be 31e0 a8bd 80c0 31bd
00000370: 7371 21be b8ec 27bb 77d1 bdbd 5702 01be
00000380: 72dc c03e b3e5 4f3e 73f0 f3bc ffae 313e
00000390: 8785 0d3e ff9c 26be 69c3 39bc c433 6d3e
000003a0: e391 89bd 1c1c b83e aef0 9dbc 0464 36be
000003b0: 899b c4bc 555d 42be ae65 5bbd 0d0b f2bd
000003c0: 56a6 52bd b373 d93d 9716 1e3d da3e f83d
000003d0: 8ff8 5c3c 891b 44bd 58f9 b63e 5aa5 733c
000003e0: 59ea 493e 2732 59ba d42c d33c 21e8 6abe
000003f0: a1dd 44be d8fc 28bd 7d66 44bd 7f1b 98bd
0.01862784 -0.118245244 -0.12662019 0.31957176 0.19484143 -0.10882061 -0.08249107 -0.089957505
-0.12626791 -0.28811273 0.0041404613 -0.041112132 0.06150289 -0.09019506 -0.17561895 -0.05666803
-0.03658712 0.13663605 0.021551263 -0.23133384 0.1589716 -0.25671834 0.19044924 -0.0857837
-0.047224168 0.0843781 0.37376153 -0.09354464 -0.10434733 0.21521513 -0.097883604 0.15553673
0.5125419 0.49201953 0.23100418 -0.078919664 0.079538874 -0.010810673 0.18890809 -0.15623368
0.052978937 -0.3251362 -0.37469447 0.20193106 0.015302226 -0.13026062 0.13268632 -0.044434175
0.2741645 -0.13893786 0.35075992 0.0061085434 0.13679974 -0.013126058 -0.09257296 -0.10714145
-0.09006851 -0.1840038 -0.09602144 -0.278023 -0.003062475 -0.091121554 0.14487584 0.1250212
-0.22446832 -0.16973981 0.033163484 -0.09853477 -0.18491226 0.012117177 0.10865043 -0.20959038
0.07541726 0.06225948 0.20531194 -0.17225645 -0.11056636 0.043320686 0.04003334 -0.03146652
-0.08418379 0.29670334 0.19660059 0.31233722 0.06240355 -0.31354973 -0.06854756 -0.15990902
-0.045342334 -0.033814944 -0.041866988 -0.08917408 0.039879248 0.13146192 0.1967477 0.23386237
0.29423448 0.09740912 -0.014176733 0.00064906245 0.3075314 0.032206524 -0.02427527 -0.0041409214
0.14462723 0.07546131 0.10059719 -0.37714526 -0.050982047 -0.28454772 -0.0891671 0.19887775
0.19209506 -0.099127576 0.19165652 -0.110288545 0.12542014 0.12362397 -0.29674855 0.14060569
-0.078637615 0.0015768325 0.0071486174 -0.10389685 0.018413862 0.089282885 -0.023926578 0.01286623
0.048192095 -0.14466566 -0.07194652 0.11203163 -0.095968105 0.2578741 0.038817465 -0.11410246
0.11016573 -0.0011624899 -0.060892977 0.13937315 -0.12221196 0.009865989 0.11819184 -0.20851788
-0.01257133 -0.068445995 0.041337393 -0.13836032 -0.05575064 -0.09184322 0.19257611 -0.1435918
-0.039495666 -0.15495643 0.14470056 0.19006118 -0.19078338 -0.1430466 -0.10069377 -0.29157525
0.08151317 -0.09756278 0.07705445 0.18286182 -0.10558412 0.0149299605 0.3561833 -0.22742495
-0.10436097 -0.21371093 -0.13285044 0.20438206 -0.09553183 -0.15156281 0.19562024 0.13114382
0.1628422 -0.06454544 0.010738832 -0.019417152 0.086015366 0.2848645 0.28483316 0.2760152
0.22885574 -0.18464415 0.18690549 -0.012426468 -0.12221513 -0.188321 -0.09267666 -0.008394947
0.07370098 -0.06068959 -0.1477777 -0.040212885 0.05609318 -0.015813341 -0.15989012 -0.00702362
0.21241742 -0.12021544 0.046801094 0.016702477 0.03766915 0.10520419 -0.13048577 -0.49016222
-0.054477792 -0.2579656 0.1140672 -0.20105141 -0.07279078 0.17776957 -0.13357632 -0.03320599
0.21379767 -0.17441821 -0.08245886 -0.043396473 -0.15765934 -0.0025623273 -0.09268468 -0.12598549
0.37668186 0.20302467 -0.029777741 0.17351912 0.13820468 -0.16270827 -0.011338093 0.23164278
-0.06717279 0.35958946 -0.019279804 -0.1781159 -0.023999946 -0.18980916 -0.053563766 -0.11818514
-0.05142816 0.10617771 0.038595762 0.12121363 0.013486995 -0.047877822 0.3573711 0.014870966
0.19718303 -0.00082853663 0.025778212 -0.22940113 -0.1922517 -0.041256756 -0.047949303 -0.074271195

lstm.weight_hh_l1 f4 [200, 50]
00000000: 1600 3b3e 10f0 59bd b7ae 4d3e 26ee 883e
00000010: b220 a2be cbe4 083d b08b 333e d986 0c3e
00000020: 9db5 8dbe bdb1 b0be 71ea 1ebe 04fc 643c
00000030: be53 7fbe d75c df3e 09f1 103d 50d4 c83c
00000040: 398f 98be dd93 603d acc6 5c3d f2ae 06be
00000050: 62db 893f d71e 95be ee72 103e 10de 2bbe
00000060: b7e7 0ebd 0353 3bbe 046f bcbe 6d6d 06bc
00000070: 1f93 553d e026 25be 1460 813d 16bd 823d
00000080: d12c 55be 00f4 98be 76d1 d5bd aa55 80be
00000090: 8bcc acbe 6ecd 8b3d e4aa ddbd 7230 8d3e
000000a0: 3d5e bb3d a273 b13c 41f5 a9bd eaf5 72be
000000b0: 3a5f 32be 7027 2c3e 510f 00be 1918 cc3d
000000c0: 5291 623d a5de 0c3e 5642 34bd d828 983d
000000d0: ae70 0fbe 2062 c9bd e2b0 913e d54a 09be
000000e0: ce90 a23e 4da8 323e 129b 233b d314 183e
000000f0: bff2 5cbe 5019 563e 96bf 1e3e b775 7bbd
00000100: f6fd 3c3e 4fd6 a13e 7e55 37bd 9a41 ffbd
00000110: 139c 80bd 2a88 133e ccac 673e 1f09 173e
00000120: e647 41be e9d9 dbbd 1e53 2d3d fc32 1bbd
00000130: b52d b53c d28f bfbd 22eb 8a3d d2f6 1e3d
00000140: 32d9 22be 056b 20be d318 8a3d 0059 203d
00000150: 74a5 293e 6d4b 0cbc 5f61 83bd 65b2 3c3e
00000160: 684a 8cbd 1b98 2ebe e8dd 1f3e 90e3 0c3e
00000170: 59ef c0bc eaec 5ebe 0ad5 dabc a810 73be
00000180: 6b3b 11bd 0c0e 86bd c6f0 8b3e e8cc 22be
00000190: 14fe 173d 0d7e 1a3e 7205 1c3d ac1e 8d3d
000001a0: d4bc 643e 5270 0ebe 8ddd 343e e40e 443e
000001b0: df5c d73d 24fe a33e d431 65bc ca65 773e
000001c0: 746c 713b 6aab 4ebc bb32 ea3d 59af 863e
000001d0: fe97 943e f436 2cbd b940 8dbd 4624 d2bd
000001e0: 36d1 b6be 4433 0e3c 2785 953e 991a 96bb
000001f0: 3d73 7dbe 9506 dbbd ccef 223c 49c1 d23d
00000200: 2fd4 893d af6f 123e ac12 c13b 548a 53bd
00000210: e547 37bd 409f 413e 1437 86bd a3e9 963e
00000220: 5b43 893e 7ded 953d 0661 27be 45fd 29bc
00000230: 2deb 25be d713 1ebc e859 65bd bf54 6dbe
00000240: 5cbb 31be 3ebd d6bc 29b6 f13d d6bd f63d
00000250: 49e6 483e 8c0a 02be aae1 d2bc e25d 003e
00000260: c158 86be b51e 73be c136 b43d c579 1bbe
00000270: 0049 393e 36a0 97bd 239d 2e3e a800 0e3e
00000280: cd53 88bd 8cd7 bc3a c7f8 483e 1f0a 5cbe
00000290: abf0 b93c 8478 2d3d 0332 903d 8f2f 90be
000002a0: 6023 b9bd 7516 d4bd 7cc6 a43d 2753 763b
000002b0: d91e fabc 2e99 ed3d b5a4 eebd d5f7 c93d
000002c0: da3a f63c 18a7 b63d 3c93 26bb 8210 6a3e
000002d0: aba2 60bd 137d 073f 73ea 2f3e ca69 91bd
000002e0: 23a7 983e 3e73 20bc 4ea5 2f3e 7351 453d
000002f0: 8b25 9e3d 84dc 773e 32e5 853e 503e 91bc
00000300: ca68 a43d c7f8 80bc ceb4 ecbc 1b80 27be
00000310: 9fe3 233e 1c78 3d3e a203 553e fd59 8fbd
00000320: 1c50 8dbd 7348 6a3e c049 47be 86c1 1ebd
00000330: 9a0e 1d3e e218 5bbe 5504 ba3e 341f c7bc
00000340: 48f2 b0bd 9893 4cbc 22e9 4dbe 71ac 8a3e
00000350: cec6 cf3d 2699 dfbd 39cb c8bc 5794 4f3d
00000360: fb32 b53d ef40 d2be 14a8 aebe 4d0e e1bd
00000370: cb6f b6bd 4261 6d3e 878d bf3d 58c8 f1bd
00000380: 7c2b 25be f1b9 61bd af50 efbd ba94 193e
00000390: bc1e 9f3d cb82 3cbc f1ed 643c b973 c63c
000003a0: 9663 fc3d a2cb 3e3e 52c5 6b3e 15ef 153e
000003b0: 9471 ab3c c261 323d 1df7 fbbc ceef debd
000003c0: 1e48 84bd eb0f 813d 5fd5 743d ee43 b43d
000003d0: 3271 273e 2b12 96be 8035 0f3d 671d f83c
000003e0: 9018 0b3d 29ac 37be 8f94 cabd 34cd 2b3d
000003f0: f852 b7bd b7cd 25be dc17 4e3e cc4e 8ebe
0.18261752 -0.053207457 0.2008618 0.26744193 -0.3166557 0.03342132 0.17533755 0.13723315
-0.27677622 -0.34510604 -0.1551912 0.013976101 -0.24934289 0.4362552 0.03538612 0.024515301
-0.2979677 0.054828513 0.053900406 -0.13152674 1.0770075 -0.2912509 0.14106342 -0.16783929
-0.03488895 -0.18293385 -0.36803448 -0.0082048 0.05214226 -0.16128111 0.063171536 0.063837215
-0.20817877 -0.29873657 -0.10440342 -0.25065356 -0.33749804 0.06826292 -0.108236104 0.27576023
0.09148834 0.021661583 -0.082987316 -0.23726621 -0.17419139 0.16811919 -0.12505843 0.09965534
0.05531437 0.13756807 -0.044008575 0.07429665 -0.14007828 -0.09833169 0.28455263 -0.13407452
0.31751102 0.17447014 0.0024964255 0.14851694 -0.21576975 0.20908093 0.15502772 -0.06139156
0.18456253 0.31608817 -0.044759266 -0.124636844 -0.06279769 0.14407411 0.2262451 0.14749573
-0.18875083 -0.107349224 0.042315595 -0.03789042 0.022116521 -0.093536034 0.06783129 0.038809605
-0.15903166 -0.15665825 0.06743016 0.039147377 0.16567022 -0.008562905 -0.064150564 0.18427427
-0.06850129 -0.17050211 0.15611994 0.13758683 -0.02355163 -0.21770063 -0.026712913 -0.23736823
-0.035457056 -0.06545648 0.27332133 -0.15898478 0.037107542 0.15087147 0.03809113 0.06890616
0.22337657 -0.13910034 0.1766264 0.19146305 0.10515761 0.3202983 -0.013988931 0.24159923
0.0036838325 -0.0126141105 0.11435457 0.26305655 0.2902221 -0.042044595 -0.068971105 -0.10260825
-0.3570649 0.008679215 0.2920315 -0.0045808074 -0.24750991 -0.10694615 0.009944867 0.102907725
0.06729924 0.14300416 0.0058921184 -0.05164559 -0.0447463 0.18908405 -0.06553474 0.29475126
0.268092 0.07320688 -0.16345605 -0.010375326 -0.16202994 -0.009648285 -0.055993944 -0.2317686
-0.17356628 -0.026213285 0.118023224 0.12047927 0.19619097 -0.12699336 -0.02574237 0.12535813
-0.2623959 -0.23742183 0.08799506 -0.1518317 0.18094254 -0.07403605 0.1705213 0.13867438
-0.06656609 0.00144075 0.19626151 -0.21488236 0.022697767 0.04235126 0.07040789 -0.28161284
-0.0903995 -0.10355846 0.080456704 0.0037586184 -0.030532287 0.11601482 -0.11652509 0.09861723
0.03005736 0.08918589 -0.0025417348 0.2285786 -0.054842632 0.52925223 0.17179279 -0.07100256
0.29815015 -0.009793101 0.17152902 0.04817338 0.077220045 0.24205214 0.26151425 -0.017729908
0.080277994 -0.015743626 -0.028894808 -0.16357462 0.160048 0.1850285 0.20802167 -0.06999586
-0.06900045 0.228792 -0.19461727 -0.038758777 0.15337601 -0.21396211 0.3633143 -0.024306871
-0.086399615 -0.012486361 -0.20108464 0.27084687 0.10145341 -0.109178826 -0.024510967 0.050678577
0.088476144 -0.41065165 -0.34112608 -0.10989056 -0.089080416 0.23181632 0.09353166 -0.11805791
-0.16129869 -0.05510897 -0.11685311 0.14998141 0.07769534 -0.011505793 0.013972745 0.024225103
0.12323682 0.18632367 0.2302449 0.14641984 0.020928182 0.04355026 -0.030757481 -0.10885583
-0.06459068 0.06301864 0.0597738 0.08802019 0.16351774 -0.29310736 0.03496313 0.030287458
0.03395897 -0.17936768 -0.098916166 0.041943744 -0.08951372 -0.16191755 0.20126289 -0.27794492

lstm.bias_ih_l1 f4 [200]
00000000: 0c32 0e3e 3831 cabd acf8 b83d 340d 58be
00000010: d2b4 d2bd 19cf 75be 684e ddbd 27a4 213e
00000020: d72f adbc 4ff0 53be 5b94 58be 7c4e 81be
00000030: b469 7abe 0f4b c5bd 87f1 38be 4362 aebb
00000040: 8392 51be 57fd 34be 089f e4bd e88c e0bd
00000050: f2ab 453e a6ec b7bd aa9d 32be 1a3c 8bbe
00000060: 5406 76bc 328c 17be 1bae 4abe 21f9 37be
00000070: 0bfc 86be 6577 19be 3ec5 9bbd aa53 ab3d
00000080: 6e6a fdbc 8c21 4e3c bd90 41bd 9c77 1bbe
00000090: f172 9f3d d58b 03be aea2 d5bd 4df3 bbbe
000000a0: 7af2 45be f76e 82be b511 4dbe fa5e 96be
000000b0: cfd4 a5be 77ad 83be c54a 4cbe 2c49 6ebc
000000c0: bb51 693d 5085 b6bd a3c3 d4be 4f74 88be
000000d0: a6db b03c d57d 26be 97dc 9dbe 30f0 98bd
000000e0: 9cef 7bbe bafe cfbd 47ec 5fbe 4f7a 46be
000000f0: c417 87bd 1e70 90be 7b7e 4ebe 657e d4bc
00000100: a0c5 0ebe 919f f4bd 5897 07be 0a2a 8cbd
00000110: 42c3 febd b85d 94bd 6316 e2be 9ed6 e6bd
00000120: f33b afbe 0b1a f6bc f736 81be 6cdf f9bd
00000130: b727 73be c078 86be c6b4 81bd 103d 1fbd
00000140: 50f3 59be 99e3 9abe a293 ae3d ce14 e0bc
00000150: 2549 2bbc f712 14be 40a3 1ebe f6cd 33be
00000160: 76fe dbbd 3b22 83bd 8192 57be ebba 793c
00000170: 2245 a0bd 425a 55be 7d16 97be b58d 65be
00000180: e84d a2bd b446 943d 4f23 8d3c 4023 03bd
00000190: 3560 41bc 6819 8cbd a3be ed3d 6fdc 273e
000001a0: 4d00 6abd 26cb f23c d965 d23d 76df e53d
000001b0: f761 38be ccea 4abd f701 95bb 2567 873d
000001c0: 8cfa db3d e43d 563c 9ba2 b0bd 28a3 843c
000001d0: eaa1 a7bd 48c8 b03c c04b 833e 7cad 483d
000001e0: ad3a 83bb fd5b c8bd 61f2 34bd 1730 023d
000001f0: 6577 b33c c40c bebc b199 b13d 246d 21bd
00000200: a243 6dbd 8281 073e 9c19 803d 9f4d 2cbe
00000210: eb36 81be 0711 08be 8f5f 0bbe 523b 84bd
00000220: af36 2ebd e993 cd3b 1305 17be 0d0f 41bb
00000230: cf8d d2bc 540a efbd 2d1e 0fba 607a 013e
00000240: b58e 833d 762f ca3d 5c55 9fbd 76d4 893d
00000250: 3409 2cbd d3b8 ca3d d9c0 803d a55f b0be
00000260: 36a4 e5bd 41e0 27be 8c0a 78be 9f43 3dbe
00000270: e54e 27be 0499 91bd a0ac 3bbb ac22 84be
00000280: 267b 25be 676d acbe 30a6 b0be 273f 58be
00000290: 5e7e 58be 86d4 78bc 481e 99be dd07 eabd
000002a0: 1233 393c 3aa5 11be ccff 0abd 92a1 8ebe
000002b0: b43d 66be 7509 11be c4f8 21be cdba 153d
000002c0: e570 78be 945a 3abe e12b 84be 0b37 e4bd
000002d0: 8117 aabe a77a 06bc c866 b73c 3876 15be
000002e0: f9b6 67be 39ff a6bd 62c3 4dbd b823 8cbe
000002f0: fec5 17be 1fc5 a5be 7bb5 92bd e27f 90be
00000300: 3ec8 30be cc21 90be ff3a c1be ba18 9fbe
00000310: f0b1 7abe 34ac 3fbe e0a0 14be 39fa 463c
0.13886279 -0.09872669 0.090318054 -0.21098787 -0.10288395 -0.24004783 -0.108059704 0.15785275
-0.021140976 -0.20697139 -0.21150343 -0.2525519 -0.24454385 -0.09633457 -0.18060885 -0.0053217723
-0.20466046 -0.17674766 -0.11163145 -0.10964376 0.19303873 -0.08980684 -0.17442957 -0.2719429
-0.015016157 -0.14799574 -0.19792978 -0.17966129 -0.2636417 -0.14986952 -0.0760598 0.08365567
-0.030934539 0.01258124 -0.047257174 -0.15182346 0.07785595 -0.1284631 -0.10431419 -0.3670906
-0.19330779 -0.25475284 -0.20026286 -0.29369336 -0.32388923 -0.2571828 -0.19950397 -0.014543813
0.05696271 -0.08912146 -0.4155551 -0.26651236 0.021589112 -0.16258939 -0.3083236 -0.07467687
-0.24603122 -0.10156007 -0.21867476 -0.19382595 -0.0659633 -0.2821054 -0.20165436 -0.025939176
-0.13942575 -0.119444974 -0.13241327 -0.06843956 -0.12439586 -0.07244438 -0.44157705 -0.11271404
-0.34225425 -0.030041715 -0.25237247 -0.122008175 -0.23745619 -0.26264 -0.06333308 -0.038876593
-0.21284223 -0.30251768 0.085242525 -0.02735367 -0.010454451 -0.1446036 -0.15491962 -0.17559037
-0.10741894 -0.06403013 -0.2105198 0.015242319 -0.07825686 -0.20835212 -0.29509345 -0.22417338
-0.07925016 0.07240048 0.01722875 -0.03201604 -0.011802723 -0.06840783 0.11608627 0.16392682
-0.057129193 0.029637884 0.10273332 0.112242624 -0.1800612 -0.049540326 -0.0045473534 0.0661147
0.107411474 0.013076279 -0.086247645 0.01619108 -0.081851795 0.021579877 0.2564373 0.048993573
-0.0040047974 -0.0978317 -0.044176463 0.031784143 0.021907518 -0.023199446 0.086718924 -0.039410725
-0.057925828 0.13232997 0.062548846 -0.16826485 -0.25237212 -0.13287745 -0.13610671 -0.06456627
-0.04253262 0.006273736 -0.1474803 -0.0029458434 -0.025702385 -0.11671892 -0.00054595136 0.12644339
0.064237036 0.09872334 -0.07779953 0.06729977 -0.042000964 0.09898534 0.06286783 -0.3444797
-0.112129614 -0.1639414 -0.24222773 -0.18482827 -0.1633869 -0.071092635 -0.0028636828 -0.25807703
-0.16160259 -0.33677217 -0.3450179 -0.2111784 -0.21141955 -0.015187388 -0.29905915 -0.11427281
0.01130368 -0.14223185 -0.033935353 -0.27857643 -0.22484475 -0.14163764 -0.15817553 0.0365551
-0.24261816 -0.18198615 -0.25814727 -0.11143311 -0.33221057 -0.008207954 0.022387877 -0.14595878
-0.22628392 -0.081541486 -0.05023516 -0.27371 -0.14821622 -0.32376954 -0.07163521 -0.28222567
-0.17263886 -0.28150785 -0.37740323 -0.31073552 -0.2448194 -0.18718034 -0.14514494 0.012144619
