models/cnn_lstm_4f_best.pth (torch, 155805 bytes, 8 tensors)

cnn.0.weight f4 [64, 4, 7]
000000 70 88 95 bc 50 fa 1a be ef 7e 8a 3d 36 df 0a 3e
       -0.018253535 -0.15134549 0.06762492 0.1356171
000010 92 eb 88 3d 03 b0 3a 3d 62 b3 17 3e eb b0 54 3d
       0.066855565 0.045578014 0.14814523 0.051926535
000020 8a dd c0 bc 12 ab fc bd 5d c5 ae 3c b6 5c 99 bd
       -0.023543138 -0.123373166 0.021334345 -0.07488386
000030 87 f4 72 3e 2a 55 2c bd 74 49 33 be 03 45 a9 3c
       0.23726092 -0.042073406 -0.17508489 0.02066279
000040 1c 6c 25 be 65 38 3e 3e 30 d6 14 3e f4 ee ef 3d
       -0.16154522 0.185762 0.14534831 0.117154986
000050 96 84 78 3e c5 04 00 bf a4 1d e3 be 08 d8 81 be
       0.24269328 -0.5000728 -0.44358552 -0.2536013
000060 a1 47 98 3e b7 8b c2 3e a3 e0 55 3e 9d 0c 8e 3d
       0.2974215 0.3799722 0.20886473 0.069359995
000070 8e 41 7c 3d 61 cd be bd 2f 99 29 3e a3 17 86 bc
       0.061585955 -0.09316517 0.16562341 -0.016368693
000080 8a 89 4a be 52 dd f2 3d 94 ad 25 3e c4 3c 89 bd
       -0.1977903 0.1185862 0.16179496 -0.06701043
000090 b6 e2 29 bd e6 f3 bb 3d 64 47 30 be b9 54 2a 3d
       -0.041475974 0.09177379 -0.17214733 0.041584704
0000a0 7c b7 6f 3d 56 dc 13 3e 93 c0 28 bd 41 c1 06 3e
       0.058524594 0.1443952 -0.041199278 0.13159658
0000b0 f8 48 4f 3d 15 ee 6b 3e c0 e5 76 3d 6a 6f 97 3d
       0.050606698 0.2304004 0.0602777 0.073942974
0000c0 bc e0 15 be 89 70 86 be d7 9e c5 3d 9f e8 1d 3e
       -0.1463651 -0.26257733 0.09649437 0.15420769
0000d0 97 36 ca 3e 02 f6 b3 3e 1b 38 15 3f 1a 1c 1b 3f
       0.39494774 0.35148627 0.58288735 0.60589755
0000e0 c3 c8 51 3e 7d ae a7 bd d5 e9 27 3e ed a5 51 3e
       0.20486741 -0.08187578 0.16397794 0.20473452
0000f0 12 5f f5 ba fe ac 79 bd c6 96 a7 3d fe 23 a9 bd
       -0.001872035 -0.060955994 0.081830546 -0.08258818
000100 cf 25 aa bd f0 15 cf 3b b0 7d db 3d 15 5b 99 bd
       -0.08307993 0.006319754 0.10717332 -0.07488076
000110 24 ca 22 3e e9 d5 2a 3e 42 a8 33 3e 41 57 14 3e
       0.15897423 0.16683163 0.17544654 0.1448641
000120 4a 0b 6d be 32 36 d7 be 23 bc 18 bf f7 4e cc bd
       -0.23148838 -0.42033535 -0.59662074 -0.09975999
000130 89 49 f5 3d b1 6e ea 3e 72 0f 09 3f 58 b4 a0 3e
       0.11976916 0.45787576 0.5353919 0.3138759
000140 7e 29 72 be ff f9 c9 be d2 2d 8a be 24 4d f4 be
       -0.2364864 -0.39448544 -0.26988083 -0.47715104
000150 8f 55 0f 3c ef f0 d9 3c 90 ec 70 3d b2 e9 2b 3c
       0.008748426 0.026604144 0.058819354 0.010492729
000160 95 41 14 3e 59 20 2f be 7b 1d 8e be 31 8d 3b 3e
       0.14478143 -0.17102183 -0.27756867 0.18315579
000170 88 7b bc 3d 5a e4 12 3e 73 14 1c be 51 bc 3d 3e
       0.09203249 0.14344922 -0.15242176 0.18528868
000180 1d e3 d8 3c 45 8f 03 3e 65 8b 21 3e 6b 55 7d 3d
       0.026475484 0.12847622 0.15775831 0.06184904
000190 c7 95 8f 3d 75 c2 af be 24 4f 06 bf 81 3d 4a bf
       0.0701099 -0.34328046 -0.5246451 -0.790001
0001a0 d8 4c 59 bf cc a7 a8 3e c5 0d c0 bc 55 c2 b2 be
       -0.8488288 0.3294052 -0.023444066 -0.3491389
0001b0 61 1a a2 bf 7d 3b f6 bf 1a 53 73 bf 7a da 4a bf
       -1.26643 -1.9236904 -0.9504868 -0.7923962
0001c0 07 05 32 3e ce 6f 4c 3e a6 b5 56 3d c2 cd 2d be
       0.1738473 0.19964525 0.052419327 -0.16973022
0001d0 68 0f f7 3d d7 e0 32 be a7 5f 93 3e ea 2a 59 be
       0.120634854 -0.17468582 0.28783914 -0.21207777
0001e0 88 09 93 be 6e 47 52 be c8 25 b4 bd 54 7c fc bd
       -0.2871821 -0.20535061 -0.08796269 -0.12328401
0001f0 6c ff ba 3d ca 30 36 bd cb 94 a0 3c 80 2a a0 bd
       0.09130749 -0.044480123 0.0196022 -0.07820606
000200 0b dd 1e be b9 7b 79 be 57 de 3c be c2 04 c5 bd
       -0.15514009 -0.24363603 -0.18444191 -0.09620048
000210 35 4a 98 be 7a fa 39 3e 7c 70 b4 3d 28 12 19 3c
       -0.29744115 0.18161955 0.08810517 0.009342708
000220 dd 30 58 be f4 f2 b0 be 49 6d 03 be a3 c8 d4 be
       -0.2111239 -0.3456036 -0.12834658 -0.41559324
000230 40 47 89 be 9a aa 08 be 08 7b 76 bc df 57 38 be
       -0.26812172 -0.1334633 -0.015043981 -0.1800227
000240 6c 19 5e bc 60 05 5c 3d ad 15 53 be 30 88 09 3e
       -0.013555866 0.053716063 -0.20613737 0.13430858
000250 34 a6 c7 3d d8 e5 07 3d fe 71 f3 3d 0e 0f 05 3d
       0.097484976 0.03317818 0.11886977 0.03248506
000260 35 24 5a be 66 af 64 be 13 00 b1 3c ad 3a 8f bd
       -0.21302874 -0.22332534 0.02160648 -0.069936134
000270 a2 a8 a7 3d 6f cf 0d be 3c bc af be 96 d9 28 be
       0.08186461 -0.13848661 -0.343233 -0.16489252
000280 2f b9 29 be 4a 78 bf 3d 6e 55 4d 3e e8 16 06 3d
       -0.16574548 0.09349115 0.2005212 0.03273669
000290 3b 0f ae be c2 33 46 bf 8f f6 77 bf 28 b2 30 bf
       -0.33995995 -0.77422726 -0.96860594 -0.69021845
0002a0 8c ae c9 bd 09 9d 10 be 24 f5 c3 bd 84 36 ee bd
       -0.09847745 -0.14122404 -0.09568241 -0.11631492
0002b0 08 99 e4 3d cd 2a 53 be 9d 15 5d bd 75 9d 4e 3b
       0.11162001 -0.20621796 -0.05397569 0.0031526957
0002c0 95 0b 1c 3e c6 fd d3 3d 82 79 13 3e 01 12 9b bd
       0.15238793 0.10351138 0.1440182 -0.07571793
0002d0 d6 b0 49 be 8c d7 5c be 8c 8a 12 be 21 82 99 3a
       -0.19696364 -0.215666 -0.14310664 0.0011711755
0002e0 9f bf 0b be ff 5e 2d be 15 59 83 bd d3 6d 74 bd
       -0.13647316 -0.1693077 -0.064134754 -0.05967505
0002f0 88 66 47 be 98 6f 46 be 55 40 30 3d 84 86 0c 3e
       -0.19472706 -0.19378507 0.0430301 0.13723189
000300 00 bf 91 3e d8 76 93 bc 66 8c df 3d cc 2b 22 3c
       0.28466034 -0.018001005 0.10915451 0.009898137
000310 95 da 85 3e 30 03 60 3e af b0 02 be be 4e d7 bd
       0.26143327 0.21876216 -0.12762712 -0.10513066
000320 6d d1 06 be ea 88 61 3d 22 7a 3e 3b db 07 33 3d
       -0.13165827 0.055062212 0.0029064496 0.043708663
000330 37 72 42 3b 18 32 06 3e 2f 48 05 3e 38 35 4d 3e
       0.0029670128 0.13105047 0.13015817 0.20039833
000340 be a6 0e 3d 8b fd 87 3d 29 f2 05 be fa 8b 1f bc
       0.034826986 0.06640156 -0.13080658 -0.009737963
000350 d7 34 92 bd 67 ec c5 3e da 6e ca bd 23 86 db 3d
       -0.07138985 0.38656923 -0.098844245 0.10718944
000360 19 0f 11 bd c7 80 a7 3d 8b 3a 85 bb cb 5c c5 bd
       -0.03541479 0.08178859 -0.0040658168 -0.096368395
000370 86 0d 9f 3e fe 6f b3 bd 8b de 5a 3d 23 d9 00 be
       0.31065005 -0.08761595 0.05343489 -0.12582831
000380 63 83 80 be d9 16 3b 3b 08 25 d2 bc 7b de 85 be
       -0.2510024 0.0028547554 -0.025652424 -0.26146302
000390 84 76 59 be bb 39 37 be 61 8b 79 be e6 a7 30 be
       -0.21236616 -0.17893116 -0.24369575 -0.17251548
0003a0 48 dc 38 be 8b 90 1c 3e 9b 48 84 bd 6f 4b ea bd
       -0.1805278 0.15289514 -0.06459161 -0.11440169
0003b0 6a 3e ab bd ab 36 e0 3d 61 bd 2c 3d b6 0b 28 bd
       -0.08361514 0.10947927 0.042172793 -0.041026793
0003c0 87 42 ec 3d 81 b4 9c bd 04 a3 f8 bc 47 36 83 be
       0.115361266 -0.07651616 -0.03035117 -0.25627348
0003d0 93 0d 31 bc c5 43 8a be eb 2f 49 be e8 21 0a 3e
       -0.010806459 -0.2700483 -0.19647186 0.13489497
0003e0 4e b6 a8 bb cc d8 69 3e 7b d4 98 3d b6 fb b0 3e
       -0.0051486855 0.22836608 0.074624024 0.3456704
0003f0 48 4f 2f 3c 40 e2 26 be ac 53 e0 3d c2 1d 90 3d
       0.0107000545 -0.16297245 0.10953459 0.07036926

cnn.0.bias f4 [64]
000000 85 84 ec 3c 86 85 34 be c9 cd bc bd f2 03 6d bc
       0.028871784 -0.1762906 -0.09218938 -0.014466273
000010 dd 23 31 3e 35 4b 13 be 65 95 f3 bc 02 49 1f be
       0.17298837 -0.14384158 -0.029734323 -0.15555194
000020 39 bc 0f be 48 47 bc bd 3f ac 2f be cf d6 8b be
       -0.14036645 -0.09193283 -0.1715555 -0.27312323
000030 98 e7 7a bd 0f 86 ad bd 23 de 8f bc c0 e2 b0 bd
       -0.06125602 -0.08472835 -0.017561978 -0.08636999
000040 36 7b e9 bd fb 30 41 be 48 6e 41 be f7 ed 9f bd
       -0.11400454 -0.18866341 -0.18889725 -0.0780906
000050 46 34 ad bd 50 91 7a bd 28 74 52 3d db d7 04 be
       -0.08457236 -0.061173737 0.051380306 -0.12972967
000060 d4 8d 4b be 2d 3d 91 bd c9 ec 61 3d 0f 7b 2b be
       -0.19878322 -0.070917465 0.055157457 -0.16746162
000070 5f cf 1c be ba 54 86 be 3a b7 03 3d 89 0a b9 3d
       -0.15313481 -0.26236516 0.03215716 0.090352125
000080 f0 0d 18 3d 38 c5 b6 3d ef f8 01 be f6 5d cf bd
       0.037122667 0.08924335 -0.12692617 -0.101253435
000090 f1 5a ca bd ce fc 24 be 6d 4d 5d bc 2f ae b4 bb
       -0.09880627 -0.16112062 -0.013507229 -0.0055139284
0000a0 68 92 08 bd ee 77 38 bc b8 76 de 3d 86 13 b9 bc
       -0.03334275 -0.011259062 0.108624876 -0.022592317
0000b0 c3 b1 8b 3e 38 00 15 be 8f 01 f7 bd 62 b8 5f be
       0.2728406 -0.14550865 -0.12060844 -0.2184768
0000c0 d6 29 01 bd b0 3f 86 bd 8b 2e a7 bd 28 c6 ca bd
       -0.03153404 -0.06555116 -0.08163174 -0.099010766
0000d0 3f 6d 06 be 23 33 00 bd 9d 30 86 be ad 15 60 be
       -0.13127612 -0.031298768 -0.26208964 -0.21883269
0000e0 b9 31 0f bb 06 fd e9 bd 98 95 7f be 75 67 56 be
       -0.0021849705 -0.114252135 -0.24959409 -0.20937903
0000f0 73 01 92 bc e8 49 39 3e d6 3a d4 bd a4 ba 68 be
       -0.017822957 0.18094599 -0.103627846 -0.22727448

lstm.weight_ih_l0 f4 [256, 64]
000000 5f c2 ef bd 46 09 94 3d 71 87 57 3d 8b cd 7a be
       -0.11706995 0.07228331 0.0526194 -0.24492471
000010 a9 40 70 be 9d 5f 13 3e f4 e9 0e 3e bb 0d 20 3c
       -0.23462166 0.14391942 0.13956434 0.009768899
000020 7f ed f2 3d d9 9f 24 3e 90 5d bf bd 2a 1e 5b 3d
       0.11861705 0.16076602 -0.093440175 0.053495564
000030 82 98 6a bd e2 36 68 be 34 32 06 be d7 4f 3d bd
       -0.05727435 -0.22677186 -0.13105088 -0.04621872
000040 dd e9 a9 bd 7c e9 1f be 67 0b 9c bd 19 8b 26 bd
       -0.08296559 -0.15616411 -0.07619362 -0.040659998
000050 e2 64 1f bd b6 99 4d 3d d1 f6 e3 bd 42 37 f1 bc
       -0.03891457 0.05019542 -0.11131061 -0.029445294
000060 a5 75 4a 3d 0b 17 e6 bb 36 1f 20 3e 93 46 1d be
       0.0494286 -0.00702179 0.15636906 -0.15358953
000070 d2 8e 0a be ea 81 fb ba 40 1f 42 be 7d 3f 18 be
       -0.13531044 -0.0019188498 -0.18957233 -0.14867969
000080 2f be a6 bc 53 05 cc 3d b1 12 16 be 1e 1f 12 be
       -0.020354358 0.09961953 -0.14655568 -0.14269683
000090 d5 af 2c 3d 3f 87 e2 3d 3a ab 00 be cc 7b b2 bd
       0.042159874 0.110609524 -0.12565318 -0.08715019
0000a0 5d 25 31 bd 21 dc 2e be 16 de bd bd 56 b0 13 bd
       -0.043248523 -0.1707616 -0.09270875 -0.03605684
0000b0 1f f6 48 be 42 57 92 3d 5d d1 82 be 45 5b 00 bd
       -0.19625138 0.07145549 -0.25550357 -0.03133704
0000c0 97 fa da 3b 91 bd d1 bc 3b 66 c1 be 61 fa 38 bd
       0.0066827047 -0.025603088 -0.37773308 -0.045160655
0000d0 22 24 03 be 4f 53 8b 3d 92 3f 5d be c0 36 9e bc
       -0.12806752 0.06802999 -0.21606281 -0.019313216
0000e0 ae 48 e8 3c 69 48 53 bd 6d 00 0e 3d a7 c4 10 bd
       0.028354969 -0.051582728 0.034668375 -0.035343792
0000f0 dd 53 5a be d1 9f 0a 3e fb d0 d4 bb 83 d4 c5 be
       -0.21321054 0.13537528 -0.006494639 -0.38638696
000100 4b ae 8b 3e 0a fc 32 be df 6c ca 3d 7b 3f 90 be
       0.27281412 -0.17478958 0.09884047 -0.28173432
000110 5a 66 41 be b1 bb 45 be e5 6d 90 3c 5a f3 e1 be
       -0.188867 -0.1930988 0.017630527 -0.44130975
000120 f3 25 8b bd b5 25 18 bd b6 f9 36 be ee 7f 7c be
       -0.067943476 -0.037145335 -0.17868695 -0.24658176
000130 48 43 b8 3b f3 81 b7 be 46 f4 6f bd a8 89 04 3e
       0.005623255 -0.3584133 -0.058582567 0.12943137
000140 2c 80 1f 3d bd d0 d4 be 30 23 30 bd f0 41 55 be
       0.038940594 -0.41565505 -0.043002307 -0.20825934
000150 93 29 c5 bd 3d ad b1 3c a5 65 52 3c 69 fb 6d be
       -0.0962707 0.021689052 0.012841617 -0.23240437
000160 b1 f8 0c 3e 97 e6 23 bc 40 80 14 3e 39 85 92 bc
       0.13766743 -0.010003707 0.14502048 -0.017885791
000170 fa a7 8b 3c 9d e1 e8 bd 47 ad c4 3c 07 5e 1f bd
       0.01704787 -0.11371157 0.024008406 -0.03890803
000180 df 2f bf 3e e4 ca 56 bd dd 52 0a be 85 38 15 be
       0.3734121 -0.052439585 -0.13508172 -0.14572342
000190 ff 5a 5a 3d 2b 40 53 bf 4a 09 bd bc 21 4a a4 3d
       0.053309437 -0.8251979 -0.023075718 0.080219515
0001a0 09 12 9e be ba 76 36 be 32 d5 ec be f9 52 a7 be
       -0.30873135 -0.17818728 -0.46256405 -0.3268049
0001b0 e1 4d e5 be b0 cd 68 be d0 a4 1b be 3f 24 99 bd
       -0.4478598 -0.22734714 -0.1519959 -0.074776165
0001c0 fb eb b4 bc ef 61 8b be 51 63 0e be f9 09 cb bd
       -0.02208518 -0.27223155 -0.13905074 -0.099140115
0001d0 ca 64 b9 bd 60 9f 13 be ba d3 1e be 00 44 23 bf
       -0.09052427 -0.14416265 -0.15510455 -0.63775635
0001e0 36 58 c6 be d6 0b 4c 3d 7b bb 42 3d a8 30 23 bd
       -0.38739175 0.049815975 0.047542077 -0.039841324
0001f0 19 a9 d7 be 53 2e a0 bc 15 69 03 bd f8 2a ba 3e
       -0.421212 -0.01955334 -0.032082636 0.36360908
000200 b3 bc 51 be 4d da d4 3d 48 e0 f8 bb 1c 09 54 bd
       -0.2048214 0.103932 -0.007595096 -0.0517665
000210 7b db 4c be ee 30 e4 bd 74 ba 71 be 28 13 cb bc
       -0.200056 -0.11142145 -0.23606282 -0.024789408
000220 72 91 b7 3d 6d cd 3b 3d 96 5f 79 bd f8 3b c3 be
       0.08963288 0.045850206 -0.060882173 -0.3813169
000230 b0 8a 0c 3e 7a 59 88 3d 20 43 fd bb 2c 27 d4 bb
       0.1372478 0.06657691 -0.007728949 -0.006474396
000240 c0 ce 02 3b 3c 6a 68 be 6b c7 a0 3d f8 96 db bd
       0.0019959658 -0.22696775 0.07850536 -0.107221544
000250 a2 ac 2f 3d ec 38 39 be 18 b7 1c be a5 8d 99 bb
       0.042889245 -0.1808812 -0.1530422 -0.004686075
000260 60 1c cc be a6 23 09 be df 90 0e bf b5 6f 00 be
       -0.39865398 -0.13392505 -0.55689806 -0.12542613
000270 9d ea 25 be 23 a4 8d 3d 8e af 6f 3e 94 8c e2 be
       -0.16202779 0.06916072 0.23406813 -0.44247878
000280 65 2e 45 be dd a4 4d bf e0 f8 5f be cb d1 54 bd
       -0.1925598 -0.80329686 -0.21872282 -0.051957887
000290 b0 19 bb bc c5 23 a3 be a6 1a 79 bd 0d 24 e3 3c
       -0.022839397 -0.31863227 -0.06081643 0.027727151
0002a0 ea 5f d3 be cd 4a 1e 3d 1a 2e a4 bd b1 97 5d be
       -0.41284114 0.038645554 -0.08016606 -0.21639897
0002b0 8d 4f b7 bd 6d 99 48 3d 05 f5 80 bd 29 a4 6c 3e
       -0.0895072 0.048974443 -0.06296734 0.23109497
0002c0 99 09 88 bd 54 95 93 3c b7 c3 03 3e fd fa 94 3c
       -0.066424556 0.018015541 0.12867628 0.018186087
0002d0 e6 6a a4 3d 1b 12 bb bd 3b f1 55 be 7b 8c 89 be
       0.08028202 -0.09134313 -0.20892803 -0.2686499
0002e0 c0 56 83 bd 82 f7 82 bb 05 29 39 3e db 5d f8 bd
       -0.064130306 -0.0039967904 0.18082054 -0.121272765
0002f0 a0 96 eb bd a9 a8 67 be d1 5f 5f be 87 10 aa 3e
       -0.11503339 -0.22622932 -0.21813895 0.33215734
000300 e5 ea 41 be 07 7a 06 be b5 c4 29 3e c6 d9 36 bf
       -0.18937261 -0.13132487 0.16578944 -0.71426046
000310 4a 4a 6d be 3a 30 0c bf 64 de 07 be 1c f7 e4 bc
       -0.2317287 -0.5476109 -0.13268429 -0.027949862
000320 98 17 73 be a5 42 a8 3d 7f 0c bd bd ee cc ea be
       -0.23739469 0.082158364 -0.09230899 -0.45859474
000330 76 fd 02 be da cd 72 bc 3b 8e 35 bc 46 bd 76 3d
       -0.12792 -0.014819587 -0.011081274 0.0602391
000340 fa 49 ed bd 53 1e bd bd 1e cd f4 bd d9 06 58 3d
       -0.115863755 -0.092342995 -0.119531855 0.052740905
000350 b9 12 39 3d 32 75 9b bd 25 c5 e8 be 63 60 5c 3d
       0.04518387 -0.075907126 -0.4546291 0.05380286
000360 3d 38 74 be ac 76 17 3c fe 84 9d be c4 00 80 3d
       -0.23849578 0.009244602 -0.30765527 0.06250146
000370 1d 77 3b be 4e 63 fc bc c1 29 af bd 5c ce ae 3b
       -0.18307157 -0.03080907 -0.08552886 0.0053346585
000380 93 ec 71 be a2 a3 31 bf fa 8f 2b 3e bf cd 0d bf
       -0.23625402 -0.6939031 0.16754141 -0.5539207
000390 bf 75 cd 3d 22 b8 00 be 03 58 c0 be b7 d4 30 be
       0.10032224 -0.12570241 -0.37567148 -0.17268644
0003a0 43 78 c0 be 35 32 35 be 20 bb 87 be 89 86 8f be
       -0.37591752 -0.17694934 -0.26509953 -0.2803233
0003b0 f5 4b 7e be 2e ca b5 3d b4 85 f6 bd 71 10 7e bd
       -0.24833663 0.08876453 -0.120372206 -0.0620274
0003c0 cd 08 18 3d 66 d6 a7 bc 6d 36 65 be 1c 4d 7e bb
       0.037117768 -0.020487975 -0.22384043 -0.0038803285
0003d0 5e 7e 12 be b1 2c e7 ba 41 45 8a be 9d 5e f5 bd
       -0.14306018 -0.001763722 -0.27005962 -0.11980937
0003e0 bb 97 23 be 3e fd e4 bd 12 01 86 3d b3 dc e7 be
       -0.1597585 -0.111811146 0.06543173 -0.45285568
0003f0 60 e1 d4 bc 59 ec be bd a0 b3 b5 bd 1a 70 a2 3d
       -0.025986373 -0.093224235 -0.088721514 0.07931538

lstm.weight_hh_l0 f4 [256, 64]
000000 d5 7d 41 3e 51 8c bf 3e 12 db 46 be 3d 53 0f be
       0.18895657 0.3741174 -0.19419506 -0.13996597
000010 96 58 ca 3e 1e 1e cd bd 91 05 06 3c dd 23 45 3e
       0.3952071 -0.1001551 0.008180038 0.19251962
000020 85 63 a2 3e 53 93 43 3e 01 6b 09 be 36 61 6b be
       0.31716552 0.19099168 -0.13419725 -0.22986302
000030 7f 8a 81 be fe d9 8a 3e 0b c7 0a 3e ac dd 3c be
       -0.25300977 0.2711944 0.13552491 -0.18443936
000040 1c 4f 47 3e 38 d0 fe bd eb 62 9e be e8 a5 de 3d
       0.19463772 -0.12442058 -0.30934843 0.10871488
000050 1a 16 dd bd 6a 9e 48 bd 97 36 f0 3d e3 08 cb 3e
       -0.10795231 -0.0489792 0.11729162 0.39655218
000060 80 0e 95 3d e0 05 e0 bb f6 e3 7a bd c9 9c 12 3c
       0.07278156 -0.006836638 -0.061252557 0.008948513
000070 19 7a 9e 3e d4 74 7f 3e e2 b3 37 3d 38 3d 31 bc
       0.30952528 0.2494691 0.044849284 -0.010817818
000080 8f b7 eb bd 46 82 77 be d0 9c 8d 3d 8f 95 54 bd
       -0.115096204 -0.24170789 0.06914675 -0.051900443
000090 4e ec e0 3d 76 b8 fc 3d d0 21 e5 3d 5d 11 20 be
       0.109825715 0.12339871 0.1118809 -0.15631624
0000a0 f3 42 1a 3e 91 1c c0 3c 40 a6 44 3e db fc 40 bd
       0.15064602 0.023451122 0.19204044 -0.04711614
0000b0 c8 8d 1b 3f 7e d0 a0 3d 9f 23 01 3e 09 62 87 3d
       0.60763216 0.07852267 0.12611245 0.066104956
0000c0 e6 dc 7f 3d 45 54 f9 3d 92 4a 94 3b 79 d3 9b be
       0.062466525 0.12174276 0.004525491 -0.30434778
0000d0 37 a1 70 bd f6 76 ad 3d 05 04 bf bd dc 83 6a 3c
       -0.058747496 0.084699556 -0.093269385 0.014313664
0000e0 5c 9a 05 3e 26 6a 30 be c4 e3 4d bd 13 5f 29 bf
       0.13047165 -0.17227992 -0.050266042 -0.66160697
0000f0 f6 36 0c 3e 32 19 bc 3c 47 29 83 3e 8e be 16 bf
       0.13692841 0.022961233 0.2561743 -0.58884513
000100 ef 0a 8f 3d 96 13 8b 3e 73 60 36 3e 4c a1 b9 3e
       0.06984507 0.2716338 0.1781023 0.36255872
000110 e6 77 b9 bd a6 a8 38 3e 49 37 f4 3e f2 ee 4a be
       -0.09056072 0.18033084 0.4769843 -0.19817713
000120 fa b3 4d be 26 ee 1c be ec 5e 46 3e 4c 91 9e be
       -0.20088187 -0.15325221 0.19372147 -0.30970228
000130 60 04 de bd 55 d4 05 3e 0c 02 f2 3e c2 d7 cf bc
       -0.10840678 0.1306928 0.47267187 -0.025371436
000140 e8 88 51 be 4e 91 db be 3e f5 76 be 3a b0 90 bc
       -0.20462382 -0.42884296 -0.2411699 -0.017662156
000150 69 ea 38 be b1 a1 8b be 9a 57 5f be b5 af 2d bc
       -0.1805817 -0.27271798 -0.21810761 -0.010600974
000160 53 d7 60 be f3 fa d2 be 7a 03 cb 3d 51 d0 50 be
       -0.2195714 -0.41207084 0.099127725 -0.20391966
000170 ef f0 32 be 83 2c fa 3d d3 7b bb 3d b2 95 64 3e
       -0.17474721 0.12215521 0.09154477 0.22322729
000180 ed 61 e7 bd 51 c7 5a 3e 03 97 a0 3d 65 72 0d 3b
       -0.11297975 0.21365096 0.07841303 0.0021583077
000190 57 76 5b bd f0 2c 85 3d 53 21 d7 3e bd 36 a1 3e
       -0.053579655 0.06502712 0.42017612 0.31487074
0001a0 f7 6e a8 3d ad db 29 3d 29 2b ae be 6e 2b 65 3e
       0.0822429 0.041469265 -0.34017304 0.22379848
0001b0 c4 8f 83 3e 93 aa d4 be 5e e4 db be 5b 71 e0 be
       0.25695622 -0.41536388 -0.42947668 -0.43836483
0001c0 71 a8 f1 3d 3a e8 83 be 83 c8 fa bd 1a d1 4e be
       0.11799706 -0.25763112 -0.12245276 -0.20196953
0001d0 34 0a fa 3d 57 ce 15 bf 93 6f 7b 3e 68 c8 0f 3e
       0.12208977 -0.58517975 0.24554281 0.14041293
0001e0 3b 05 0d be d7 57 3c bd e6 b5 b8 be 2a 79 fb be
       -0.13771527 -0.045982208 -0.36076277 -0.49115878
0001f0 45 c7 34 bb 74 fe c5 3e 0a 46 9f 3e 8a f2 6d be
       -0.0027584594 0.38670695 0.31108123 -0.23237053
000200 df cc 46 be e2 ad 9d 3d 85 3e 77 bd 8f 1a de 3c
       -0.1941409 0.07699181 -0.060362358 0.027112273
000210 ca 52 15 3e 65 03 98 3e 07 0a bb bd 4e f3 80 bd
       0.14582363 0.2969009 -0.09132772 -0.06296407
000220 15 80 fc 3d 61 33 55 bd 9c 04 23 3e b4 cc 3c be
       0.12329117 -0.052050952 0.15919727 -0.18437463
000230 2d f2 9a bd 8f e8 dd be d7 8e 25 bc 11 75 72 3d
       -0.075657226 -0.4334149 -0.010104856 0.059193674
000240 9c f0 c3 3d 42 de ce 3d f7 5b 00 be 51 6d bf 3b
       0.09567377 0.10100986 -0.12535082 0.005841889
000250 a1 d7 a4 be e5 6c 23 bd a7 37 fd 3d 37 c9 dc 3d
       -0.32195762 -0.03989877 0.123641305 0.10780566
000260 ec 67 5e 3e 46 dc d1 3c 26 37 d6 bd e2 05 e9 3e
       0.2171933 0.02561773 -0.104597375 0.455123
000270 86 74 14 3e f8 06 cd 3c 4f 76 b4 3d ec 7d 02 3e
       0.14497575 0.025027737 0.08811628 0.12743348
000280 4a c0 7e bd 62 6b 91 3d 40 1d d3 bd cf de e9 bd
       -0.0621951 0.0710056 -0.10308313 -0.114194505
000290 c5 37 0b be cb 1e ca 3d 89 3d f2 3d 1b 8c ba 3e
       -0.13595493 0.098691545 0.11828143 0.36435017
0002a0 27 47 c7 3c 24 64 b5 3c 4d 2d 06 3e c2 59 92 3e
       0.02432592 0.022142477 0.13103218 0.28584105
0002b0 17 56 5b bd 77 39 8a 3d a9 fd ce 3d 87 5e a2 be
       -0.0535489 0.06749242 0.101069756 -0.31712744
0002c0 47 1b 91 3d 38 54 f6 bd 71 c5 22 3e e1 2f 26 3e
       0.07085281 -0.12027782 0.1589563 0.16229202
0002d0 5b 4e 9c bd 85 e1 75 bd ca af 9d 3d 79 62 9a be
       -0.076321326 -0.060029525 0.07699545 -0.30153254
0002e0 1d 0c 77 3d 41 12 88 3d 4b e3 bd bd 54 40 55 bc
       0.060314287 0.06644107 -0.09271868 -0.013015825
0002f0 dc ed 1f be 3f 1a 4c bd f9 06 05 3e 48 00 92 bc
       -0.1561808 -0.049829718 0.12990941 -0.0178224
000300 00 5d da 3b 75 9a 08 3e 99 3c 85 3d 1a a7 1b 3d
       0.0066639185 0.1334017 0.06505699 0.038001157
000310 8a 26 1e 3e 4e 08 a4 3d 23 c5 4e be e6 ce d7 be
       0.15444389 0.080093965 -0.20192389 -0.42150038
000320 7a 63 19 bd d3 1e e8 bd 5a 49 02 be f9 93 24 bd
       -0.037448384 -0.11334004 -0.12723294 -0.04018018
000330 58 0c 5f 3d df 69 f2 ba 0f af 21 3f 56 1e b0 3d
       0.05445513 -0.0018494687 0.63157743 0.08599536
000340 3e 6e 29 3d 37 02 b3 3b 35 60 90 3e 6b 89 8f 3d
       0.0413649 0.0054629105 0.281984 0.07008632
000350 1d 9b b2 bc aa 54 2d be 43 09 94 be 45 4e 93 3d
       -0.02180248 -0.16926828 -0.28913316 0.07192663
000360 46 3d 25 bf 62 2f ae be 48 bf ee bd c2 05 22 3d
       -0.6454662 -0.34020525 -0.11657578 0.039556272
000370 93 49 c1 3e db 34 87 bc af df 14 3d f3 5c 8b 3c
       0.37751445 -0.016504696 0.036346134 0.017012095
000380 2c 2c a2 3e 6d 11 99 3b 18 bb d6 bd c6 ac dc bd
       0.31674325 0.004671267 -0.10484904 -0.107751414
000390 07 6c d0 bd aa 53 30 3b b1 ec 8b bd 9d a6 82 be
       -0.101768546 0.0026905336 -0.06832255 -0.2551774
0003a0 88 3a 80 be 3c d7 08 3e c0 71 8a 3e 39 eb 76 3e
       -0.25044656 0.13363355 0.2703991 0.24113168
0003b0 b8 ed 8b 3e 47 b8 c6 be 73 d3 03 3e 1b c4 8a be
       0.27329803 -0.38812467 0.1287363 -0.27102742
0003c0 bb d7 ff 3d 68 75 be be 45 c8 7f 3d 3c 81 b8 3d
       0.12492319 -0.3719895 0.06244685 0.090090245
0003d0 f4 8e 19 be 23 c4 90 3e a0 b9 3f bd ba 6a 8d be
       -0.14995939 0.2827464 -0.046807885 -0.27620488
0003e0 92 3e 84 bd 5c c8 28 bd d0 94 80 be c2 0a 00 bf
       -0.06457247 -0.041206703 -0.25113535 -0.50016415
0003f0 70 6f 5f 3d 0a b0 2c bb c3 2e c1 bc 3c c1 0f be
       0.054549634 -0.0026350045 -0.023581868 -0.14038557

lstm.bias_ih_l0 f4 [256]
000000 07 dd d9 bd 06 0f c9 bc cf fb 34 be 11 1f 03 bd
       -0.10637861 -0.024543297 -0.17674182 -0.03201205
000010 f9 c4 3b be 99 0b a3 3d 65 61 70 be 01 4a 6f bc
       -0.18336858 0.079611965 -0.23474653 -0.014605046
000020 33 c7 0a 3d cb d3 65 bc 09 bd 3d be 50 05 16 3d
       0.033881377 -0.014027546 -0.18529142 0.03662616
000030 cd a7 32 bc 38 b0 0f be c5 03 22 be 18 63 ed bd
       -0.010904265 -0.14032066 -0.1582175 -0.11591166
000040 b6 8d 7e 3d cb e7 e9 bd 99 c5 ce bc cd 9a 6b bd
       0.062146865 -0.11421164 -0.025240706 -0.057520676
000050 c6 8e 4c be bc be ad 3d f3 e1 11 bd e8 bc 61 bd
       -0.19976339 0.08483645 -0.035615873 -0.055111796
000060 0e 60 ce bd 07 30 dc 3c 22 c7 d8 bd a9 35 3a 3d
       -0.10076915 0.02687837 -0.105848566 0.04546133
000070 23 32 79 3c a3 d1 3e 3a 32 e7 ab 3d 5c ad 04 bd
       0.015209707 0.0007279163 0.083937064 -0.03239189
000080 ea d9 3e bd 68 99 d0 3c 65 17 4a bc 39 d6 59 ba
       -0.046594538 0.025463775 -0.012334679 -0.0008309815
000090 3d 0c d4 bd 28 4f b3 bd ba 23 c9 3d 21 d6 33 3d
       -0.10353897 -0.08755332 0.098212674 0.04390538
0000a0 50 cf af bd ac c6 97 bd dc e6 04 be a4 8c 26 be
       -0.085844636 -0.074109405 -0.12978691 -0.16264588
0000b0 ad 36 23 be 94 25 25 be 7e d9 81 bc d9 6b 83 3d
       -0.15938826 -0.16127616 -0.015850779 0.06417055
0000c0 8d a7 cb bc 86 d3 a7 bd 74 a5 09 be 72 a8 e8 bb
       -0.024860168 -0.08194642 -0.13442022 -0.0071001584
0000d0 24 63 8c 3d 82 1d 29 3d 6b 9f cc bd 25 cc 5c bd
       0.06854847 0.041287906 -0.09991344 -0.053905625
0000e0 6e 33 ef bd 28 fa 36 be 34 2c 80 bd 12 aa 6c be
       -0.11679731 -0.17868865 -0.06258431 -0.23111752
0000f0 0a b6 1c bd d5 ff f9 bd b7 af a8 bb d0 e5 de bd
       -0.038259543 -0.12206999 -0.0051479 -0.10883677
000100 8b 37 51 3e ee c5 0c be 2f d1 16 bd ff a1 54 3e
       0.20431344 -0.13747379 -0.036820587 0.20764922
000110 f0 5a a9 3e e7 0b 22 be 63 a3 0a 3d f4 43 c2 bd
       0.33077192 -0.15824853 0.033847224 -0.09485617
000120 37 43 66 3d 71 b4 9e bd 83 b4 8a bd 9d d8 52 be
       0.056216445 -0.0774926 -0.06772711 -0.20590444
000130 08 21 27 be b5 72 59 be 67 ae 08 be 16 6c 3a bd
       -0.16321194 -0.21235164 -0.13347779 -0.045513235
000140 7e 9e 1f be 27 2f 0e be d8 89 d2 be f9 a5 07 be
       -0.15587804 -0.13885175 -0.4112079 -0.13246907
000150 d1 b8 e2 3d c8 05 05 bd 28 bd e3 bd 86 fb ed 3d
       0.11070407 -0.032476217 -0.11120063 0.1162024
000160 0d ef 18 be e4 81 8e be 1a 84 0f 3d dc 8c 0e be
       -0.1493494 -0.27833474 0.03503809 -0.13920921
000170 cd da a4 bd ae c2 2c be 49 2a 44 3c 41 51 04 be
       -0.080495454 -0.1687114 0.011972972 -0.12921621
000180 b9 04 95 bc a0 59 b8 bd 1f 06 a2 bc 38 8c 40 be
       -0.018190729 -0.090014696 -0.01977831 -0.18803489
000190 39 38 8e be ca 9b 18 bd 73 12 ff bc f1 1b 83 be
       -0.2777727 -0.037257947 -0.031136727 -0.25607255
0001a0 ef 49 b1 bc 5a 8a 69 be 74 8f 81 bd c6 ff 85 3c
       -0.0216417 -0.22806683 -0.0632619 0.016357314
0001b0 b5 bb 95 3d 95 af e9 bd 7a 10 f4 bd 9b 73 31 be
       0.07311193 -0.11410443 -0.11917205 -0.17329256
0001c0 0c 60 de bc 1f 73 c4 3d 19 7a dc bc 87 67 3a be
       -0.027145408 0.0959227 -0.02691369 -0.18203555
0001d0 94 28 ff bd 07 78 1a be 93 82 d6 3d 4e b4 26 be
       -0.124589115 -0.1508485 0.10474124 -0.16279718
0001e0 aa a5 17 be 5e cf 39 be 29 e0 94 bd 22 9b 2d be
       -0.1480929 -0.1814551 -0.07269318 -0.1695371
0001f0 76 4d d7 bc 06 51 b8 bd 2a de 61 3c 50 ff eb bd
       -0.026282053 -0.08999829 0.013785878 -0.11523306
000200 ba 06 03 be 21 30 29 3d 1a b2 e5 3d 44 69 e5 3b
       -0.12795535 0.041305665 0.11215611 0.007001074
000210 30 c2 55 b9 b8 72 42 bd d8 1f 11 bd ff b7 0d be
       -0.00020385603 -0.047472686 -0.03543076 -0.1383972
000220 c2 b5 08 3c 6d f0 9e bd 11 a3 31 bd 16 63 5e 3d
       0.008344116 -0.07760701 -0.043368403 0.054293714
000230 0d 50 e8 bd 36 09 84 bc 79 66 75 3d 77 cf f8 3c
       -0.113433935 -0.016117673 0.05991218 0.030372364
000240 8e 3d e4 bd 10 85 ce 3d fe c5 5d 3d 7d b2 d7 3d
       -0.11144553 0.100839734 0.0541439 0.10532091
000250 42 a9 41 3d 90 83 a4 bd 6b 0c cb 3d f5 4f 02 3e
       0.047280557 -0.08032906 0.09914478 0.12725814
000260 71 ad 8e bd 92 6e 8a 3c db 56 a8 3d 19 2f 9a 3d
       -0.06966675 0.016898427 0.08219691 0.075285144
000270 1d 1e bb 3d a8 fa 3d bd d6 ff b1 bd ad ab a1 bd
       0.09136603 -0.046381623 -0.08691375 -0.07894073
000280 c3 91 e0 3c 6d d5 7d bc 2b 1b 37 bd 5c 33 5b 3d
       0.027413255 -0.015492779 -0.044703644 0.053515777
000290 93 14 86 3d d2 bf 8a bc 28 9c c5 bd 23 47 c0 bc
       0.06546893 -0.01693717 -0.09648925 -0.02347142
0002a0 6e ff c7 3c 53 ae d4 bd fe cd c7 bd 81 5f 1b 3d
       0.02441379 -0.10384812 -0.09756087 0.037932876
0002b0 73 1a bd 3d 34 a1 fd bd 05 a0 56 3d 34 1a c6 bd
       0.092335604 -0.12384263 0.0523987 -0.096729666
0002c0 6c 23 01 bd c7 ae 3e bd 53 9e 82 3d 19 1e 62 bd
       -0.03152792 -0.0465534 0.06377854 -0.055204485
0002d0 3a 13 4c 3d b8 ad 68 bc 28 00 09 be 90 42 e9 3c
       0.049823023 -0.014201574 -0.13378966 0.028474122
0002e0 f9 12 9f 3d 93 f9 a1 3d eb 1a ad 3c 06 e9 92 bd
       0.077672906 0.07908931 0.021131 -0.07173352
0002f0 2d 5d 26 bd 54 f1 5c bd d7 2a e2 bd ed 40 c8 ba
       -0.040616203 -0.053941086 -0.11043327 -0.0015278138
000300 f7 91 91 3b 9d 8f 42 be 77 f4 93 3b 3f 3e b8 3c
       0.004442449 -0.19000097 0.0045152265 0.022490619
000310 fd ee 39 bc 22 4c b9 3d 20 cb 66 be 1d 48 03 3e
       -0.011348483 0.09047724 -0.22538424 0.12820478
000320 b3 0c 76 be 9b 43 3d bd 55 b5 26 be c3 00 e2 bd
       -0.24028282 -0.04620705 -0.1628011 -0.110353015
000330 a6 0e 79 bd 74 15 37 bd ae d7 b1 3c ad dd 40 be
       -0.060804985 -0.044698194 0.02170929 -0.18834563
000340 8d 12 7d 3d a8 58 f8 3b c2 9f 4b bd b0 02 bd bd
       0.06178527 0.007578928 -0.049712904 -0.09229028
000350 db e9 1f be 36 e5 e4 bd d1 17 5f bd 76 87 1c be
       -0.15616553 -0.11176531 -0.054466072 -0.15286049
000360 b1 3b a2 bd 84 ac 1c be a8 2b b9 3d 80 e3 4f bd
       -0.079215415 -0.15300184 0.0904153 -0.05075407
000370 b2 2a 41 3c 27 1a ab bc d5 55 73 bd 94 6d 5a bd
       0.0117899645 -0.020886494 -0.059408028 -0.053327158
000380 ad d6 5b bc f0 9c ca bd 65 c0 08 be c7 5a 86 3d
       -0.013417882 -0.09893215 -0.13354643 0.06560283
000390 e0 60 74 be 6d 8d f2 bd ff 91 b5 bd cc b3 8a 3d
       -0.2386508 -0.11843381 -0.08865737 0.06772575
0003a0 15 83 e6 bd aa a7 64 be 17 c6 9b bd a3 d7 03 bd
       -0.11255471 -0.22329584 -0.07606142 -0.03218807
0003b0 e9 39 f6 bd 86 a8 81 be 18 43 ad bd c6 fa ad bb
       -0.12022764 -0.25323886 -0.08460063 -0.0053094355
0003c0 4c e8 fd bd 19 14 ac bd c9 54 81 bd 61 e4 5e bd
       -0.12397823 -0.08402271 -0.063149996 -0.054417018
0003d0 ae 2e c1 bd c8 1e db bb ff b4 1d be b4 11 71 bc
       -0.094327316 -0.006687019 -0.15401076 -0.014713693
0003e0 92 48 98 bd f5 7a 56 be d9 75 a0 bc cc 8c 3e be
       -0.07435717 -0.20945342 -0.019587444 -0.18608397
0003f0 16 3e 45 bb 09 6a 27 bd 7d 1f 2c 3d 7d 5f 00 be
       -0.003009682 -0.040872607 0.042022217 -0.12536426

lstm.bias_hh_l0 f4 [256]
000000 cd 1e 9a 3c c4 b7 2b be a6 e1 ad bc 7d 37 01 be
       0.018813515 -0.1676932 -0.021225762 -0.12618823
000010 b7 89 0a be be ff 06 3e e3 4b 09 be 8e ed 18 bd
       -0.13529097 0.13183495 -0.13407855 -0.037335925
000020 38 3e d5 bd 41 df 55 bd 06 22 33 be 86 a6 9c bd
       -0.10412258 -0.052214865 -0.17493448 -0.07648949
000030 60 70 70 3d 80 ea 8e 3d 00 87 43 be 1d d1 83 bc
       0.05870092 0.06978321 -0.19094467 -0.016090924
000040 da 89 a8 bd 1d de 10 be 69 20 54 bd 76 69 66 bd
       -0.08229418 -0.1414723 -0.05178872 -0.05625292
000050 7d 58 36 be 0b 57 16 be 56 7b 91 bd 46 f9 8e bd
       -0.17807193 -0.14681642 -0.071036026 -0.06981139
000060 a2 54 1c bc cd 2a 0c be 43 3b 07 3d 98 f0 a9 3c
       -0.009541662 -0.13688202 0.0330155 0.020744607
000070 1a f9 c9 3d 63 d2 cb bb 0f 0e c3 3d 7f 16 2c bd
       0.098619655 -0.0062201484 0.09524166 -0.04201364
000080 91 be b8 bd f2 3d 04 be ae cb 67 3d f5 0a a2 bc
       -0.09020723 -0.12914255 0.05659073 -0.019780615
000090 f6 12 17 be 3a 6f e5 bd c1 76 53 3d 7d ec 5a 3d
       -0.14753327 -0.112028554 0.051626924 0.05344819
0000a0 69 b5 12 be 46 e2 a6 bd 10 42 e1 bd 12 72 5b be
       -0.14327015 -0.08148627 -0.109989285 -0.21430233
0000b0 df 2f 2e bd d5 ce 40 bd 75 26 05 be cd a7 95 bc
       -0.042526122 -0.04707225 -0.13002951 -0.01826849
0000c0 b7 02 40 be c4 5c 25 bc 0b e7 4d bd e4 54 0a be
       -0.18751036 -0.010092918 -0.050269168 -0.13508946
0000d0 6d 10 30 be b6 e8 cc 3c c2 a0 f3 bd 6b 95 1a be
       -0.17193766 0.025013309 -0.118958965 -0.15096061
0000e0 32 b5 21 be 66 3c 24 bd 2d f6 7c bd 4c d4 23 be
       -0.15791777 -0.040096663 -0.06175821 -0.15998954
0000f0 b7 62 15 be c0 3c 3a be a8 8f e9 3d 42 8b 2d bd
       -0.14588438 -0.18187237 0.114043534 -0.042369135
000100 b0 d1 83 3d 2a fd 32 be 14 ce d8 bd 66 99 6d 3e
       0.06436479 -0.17479387 -0.10586181 0.23203048
000110 04 d2 8b 3e f5 2b f2 bc a1 6b 38 3d 53 9b 91 bd
       0.27308667 -0.029561976 0.045024518 -0.07109704
000120 cd 04 63 bd 59 ba 90 bd 92 d2 f3 3d ee ba 80 be
       -0.0554245 -0.07066793 0.119053975 -0.25142616
000130 82 6e 1a be f9 75 1c be d3 ef 2a bd 24 00 74 bd
       -0.15081218 -0.15279378 -0.04173262 -0.059570447
000140 1d a5 7c 3c 02 fb b1 bd 1f 41 b9 be 07 3a 6e bd
       0.015420225 -0.08690454 -0.36182496 -0.058160808
000150 50 2d 9c 3b 7f c8 a0 3d 67 9c e6 bc 92 d8 11 3d
       0.004766144 0.078507416 -0.02815075 0.03560693
000160 15 4e 84 bb 1a fc 64 be 0e fa 4d bc 45 1d f1 bd
       -0.0040376284 -0.22361794 -0.012571825 -0.11773161
000170 61 cb 66 be 59 82 09 bd 5e ac d4 bd 05 d6 2b bd
       -0.2253852 -0.033571575 -0.10384439 -0.04195215
000180 42 27 3f bb 71 cf df 3b a6 71 56 bd 42 42 1e be
       -0.0029167687 0.006830149 -0.052354477 -0.15454963
000190 80 6d 35 be f0 b6 5f bc aa 72 2a be fe fa 3c be
       -0.17717552 -0.013654456 -0.16645303 -0.18455121
0001a0 fb 85 02 be c4 a0 3e be 94 04 62 bc c5 6a 94 bd
       -0.12746422 -0.18616015 -0.013795037 -0.07246927
0001b0 e5 16 f2 bd a9 26 10 be d7 e2 c4 bd 8c b5 7d be
       -0.11820773 -0.14077248 -0.09613579 -0.24776286
0001c0 09 dc 20 bd 6f 13 8f bd d8 72 5d bb 12 03 22 be
       -0.039272342 -0.069861285 -0.0033790376 -0.15821484
0001d0 0c 3d 44 bd 42 7e f1 bd 3f a1 83 3c a4 9d b1 be
       -0.04790978 -0.1179166 0.016068099 -0.34690583
0001e0 ef 6b cf bd cf 6a 95 bd d6 51 85 3d b8 9e 4c be
       -0.101280086 -0.07295763 0.065097496 -0.19982421
0001f0 fa 2e 7f bd 3d 2a 46 3d 6e 4d e8 3d 04 5d 36 bb
       -0.06230066 0.048380125 0.113428935 -0.0027826438
000200 b7 58 1c 3b 1b 91 a3 3c db cb d6 3d b8 71 51 bd
       0.002385659 0.019966653 0.10488101 -0.05113384
000210 9e 75 2c 3d 3e ad aa bb a6 9c 17 3e 67 e8 24 be
       0.042104356 -0.0052086404 0.1480585 -0.1610428
000220 ee 78 32 bd a2 9d 03 be 56 a0 97 3c d9 0c 7e bd
       -0.04357236 -0.12853101 0.018509071 -0.06202397
000230 53 41 da 3d 93 35 c4 bd bb 3c 9e bb f1 40 2e 3c
       0.10656991 -0.09580531 -0.004829017 0.0106356
000240 cf 56 b1 3d 1c 45 fc bd 77 9e a8 38 f7 70 63 bd
       0.086591356 -0.12317869 8.0403806e-05 -0.055527654
000250 9e 63 60 bc 8d 1f 80 3d fb 06 dc 3d b8 44 99 bd
       -0.013695626 0.06256018 0.10743519 -0.0748381
000260 e6 f8 86 bd 02 bf fd 3d 85 ac 9c 3d 02 5f a5 bd
       -0.06590442 0.123899475 0.07650093 -0.08074762
000270 ee fd 88 bd ed d9 ee 3d d1 50 07 3d 56 18 3a 3c
       -0.06689058 0.1166266 0.033036057 0.011358341
000280 40 43 1e bb 70 8e 92 3d 48 a8 73 bd b2 6e c3 3d
       -0.002414897 0.07156074 -0.059486657 0.09542598
000290 04 df d0 bd cc 3d 5d bd b8 45 d8 bd 5d 27 c5 bd
       -0.10198787 -0.054014012 -0.10560173 -0.096266486
0002a0 86 ef fb bd 9f 6f 00 3e fb 31 3f bc 9c 19 a4 bc
       -0.12301545 0.1254258 -0.011669631 -0.020031743
0002b0 38 a5 24 3d 3a 5c 40 bd 0a 13 00 3d 89 3a b4 3d
       0.040196627 -0.046962954 0.031268157 0.08800227
0002c0 f6 fa 1b bc e1 db 94 bd 81 af 76 bd bf 51 83 3d
       -0.009520283 -0.07268501 -0.060225967 0.06412076
0002d0 91 6d 2d bd 7d ea 35 bc 0e 3c 2e 3d 02 ed 80 3d
       -0.04234082 -0.01110327 0.04253774 0.06295206
0002e0 a8 57 24 3d a8 23 f5 bc ab af 51 bd 36 3d db 3d
       0.040122658 -0.029924229 -0.05119292 0.107050344
0002f0 5e cd 05 3d 8a 6a ee 3d fd 90 a3 3c 26 92 94 3d
       0.032666557 0.116414145 0.019966597 0.07254438
000300 c5 81 fa bc 1e 7e 55 bd e1 05 f9 bd d2 02 89 bd
       -0.030579457 -0.052122228 -0.121593244 -0.06689991
000310 07 bc 14 bd 7b a8 f8 3d 93 b7 81 be 18 4e 6b 3d
       -0.03631213 0.1214151 -0.2533537 0.057447523
000320 e9 7f 26 be 09 32 36 be 5a 72 94 bd 69 42 83 bd
       -0.16259731 -0.17792524 -0.07248373 -0.06409151
000330 1c 97 9f bc d9 59 19 be a2 2e bd bd 11 0b 66 ba
       -0.019481234 -0.1497568 -0.0923741 -0.0008775453
000340 79 e9 d8 bd 7d ce 0f bd 79 67 ec 3c e9 cc cc bd
       -0.105914064 -0.035109032 0.028857933 -0.10000021
000350 28 14 68 bd 34 f4 9a bd f2 51 81 bd 6e e9 47 be
       -0.056659847 -0.07566109 -0.06314458 -0.1952264
000360 61 53 14 be 5f af dd bd a5 c9 91 bd 71 42 49 bd
       -0.14484932 -0.10824465 -0.07118539 -0.04913563
000370 66 02 06 3d 23 c4 1f be d1 01 07 be 46 63 0d bd
       0.03271713 -0.15602164 -0.13184287 -0.034518503
000380 c5 43 43 be 01 e6 e2 3a 08 2e 1d 3c d1 83 16 3d
       -0.19068821 0.0017310978 0.009593494 0.036746804
000390 1f 56 c5 bd 84 ce 37 be 5e 1e 92 bd ce ca c9 bd
       -0.09635567 -0.17949873 -0.07134698 -0.09853135
0003a0 02 e0 bf bd 28 58 28 be 5c 89 85 be e2 d6 43 be
       -0.09368898 -0.16439879 -0.2608136 -0.1912494
0003b0 26 51 1e be 98 d9 3f be 9d 06 f8 bd 00 c4 2e bd
       -0.15460643 -0.18735349 -0.121106364 -0.04266739
0003c0 82 ee 4e bd b8 bd bb 3b 73 c4 3a be b6 e4 fe bd
       -0.050520428 0.0057294033 -0.18239002 -0.12445967
0003d0 98 c7 dc bd d7 1c 28 be f2 49 f0 bc 67 86 09 be
       -0.10780257 -0.16417252 -0.029332135 -0.13430177
0003e0 a6 b5 ae bd 7c 09 46 be 75 5c bd bd b7 0a 49 be
       -0.085307404 -0.19339556 -0.092461504 -0.19632994
0003f0 6d e3 94 bd 74 f6 c1 bd d5 ed 61 3d 3a af ae bd
       -0.072699405 -0.09470835 0.055158455 -0.085295156

fc.weight f4 [48, 64]
000000 b8 3c a9 3c a9 24 e6 3c 80 15 69 be 55 44 3d 3c
       0.020658836 0.028093653 -0.22762108 0.011551936
000010 75 6b 7e 3b 9a ca a1 bc 4c 5f 79 bd 1e ad 10 3e
       0.0038821374 -0.019749928 -0.060881898 0.14128539
000020 b3 1c 0a be 3c f1 a2 3d 56 ca 26 3d f8 ef 28 3d
       -0.1348751 0.07956168 0.040720306 0.041244477
000030 66 d9 86 38 e8 50 0c 3c 75 5a a1 bd f3 c2 11 be
       6.4301115e-05 0.008564211 -0.078785814 -0.14234523
000040 4a 3f 7b bc 6d 41 07 3e 51 24 8f 3d 43 38 4e bd
       -0.0153349135 0.13208552 0.06989349 -0.050346624
000050 fe 91 3f bd 44 8a 7e 3d 29 47 31 3c 5f f1 83 3d
       -0.04677009 0.06214358 0.010820189 0.06442522
000060 05 72 c1 bc b6 91 63 bc c7 e7 fe 3c a1 20 93 3c
       -0.023613939 -0.013889721 0.03111638 0.017959895
000070 03 91 2e bd 54 68 5a bd 83 a5 b6 3b dd ce 1f bc
       -0.042618763 -0.05332215 0.0055739298 -0.00975391
000080 d5 e1 81 bd ce ea d2 bd c3 13 ed bd f5 27 16 3e
       -0.06341902 -0.10298692 -0.11576035 0.1466368
000090 ed 98 ad bd 39 5c 9d 3c f2 45 d2 bd 07 37 92 bd
       -0.08476434 0.019209014 -0.10267247 -0.07139402
0000a0 25 b7 2b 3d f0 c4 cd be b0 0d 8e bd 2e b1 87 3d
       0.041922707 -0.40189314 -0.069362044 0.06625591
0000b0 20 52 a8 3d 5a 32 f7 3c 4a 88 14 be d9 d6 87 bd
       0.08218789 0.030175377 -0.14505115 -0.06632776
0000c0 aa f2 cf bd 6c f4 63 3e d0 7b 00 be 8e 7f c3 bd
       -0.10153706 0.22261208 -0.1254723 -0.095458135
0000d0 3e 5e 1f bd 1d cf 61 3a 93 98 19 3e 29 ed 56 be
       -0.038908236 0.0008613931 0.14999609 -0.20988907
0000e0 41 f5 29 3e 78 69 c3 3d ba 31 91 bc 7d 0d 61 b9
       0.16597463 0.09541601 -0.017723907 -0.00021462697
0000f0 d3 67 94 bd 77 95 a2 bd ff 95 a3 bd c6 63 d9 3b
       -0.072463654 -0.079386644 -0.07987594 0.0066342084
000100 96 72 10 bd b7 47 27 bd d4 ae c7 bd 34 5b f9 bc
       -0.035265528 -0.040839877 -0.09750143 -0.030438997
000110 96 52 25 3d 49 eb 89 3e 3b 9a 09 3e 41 12 d5 bd
       0.040361963 0.2693732 0.1343774 -0.10403872
000120 a1 d1 17 be e4 81 5e 3e 10 57 7a bd 31 42 b3 be
       -0.14826061 0.21729237 -0.061118186 -0.35011438
000130 74 d7 8d bc d7 66 4d bd 8f 77 25 be 63 62 52 be
       -0.01731465 -0.050146904 -0.16158889 -0.20545344
000140 d7 bd 34 bd 97 64 82 3b 4e e5 84 3b 7a b9 02 3e
       -0.044126358 0.0039792764 0.0040556556 0.12766066
000150 77 14 62 3c f0 a2 5e bd 8a 3f 11 3d 1d 18 ce 3d
       0.0137988245 -0.054354608 0.035460986 0.10063193
000160 12 c3 1d bc 54 83 33 bd 60 6c 1b 3d 2b b1 37 bd
       -0.009629028 -0.043826416 0.03794515 -0.044846695
000170 58 f6 d4 bd 3d 48 c9 3d 34 7c 7b bd 9c 0f 5c bd
       -0.10398549 0.098282315 -0.061397746 -0.053725824
000180 53 e9 13 be 8e f6 b4 bd 04 2d e5 3d b3 70 42 3e
       -0.14444475 -0.08836089 0.11190227 0.18988304
000190 58 09 01 3e f3 8d 15 bd 69 ed 02 bd e0 90 3d be
       0.1260122 -0.036512326 -0.031964693 -0.18512297
0001a0 1e 2c fc bd be 2f 25 be b4 bd 13 be 1c f5 87 3e
       -0.12313102 -0.16131493 -0.14427835 0.2655419
0001b0 ba f7 3b 3e 32 e0 ac 3c 3e 37 12 3d 76 e6 1e 3e
       0.18356219 0.021102998 0.035697214 0.15517601
0001c0 98 39 20 be 05 fc 75 3d ea fe 27 be b1 ff 89 bd
       -0.1564697 0.060054798 -0.16405836 -0.067382224
0001d0 86 0e 48 be 67 be a7 bd 83 5e 67 be 81 e9 60 be
       -0.1953679 -0.08190613 -0.22594647 -0.21964075
0001e0 88 8d 8e 3e 73 9a 8a bb b6 ad 1c bd 0f 09 41 3f
       0.27842355 -0.0042298376 -0.0382516 0.7540445
0001f0 2e a3 57 be 22 13 38 be 24 ed ba bd 52 3d 02 be
       -0.21058342 -0.17976049 -0.09127262 -0.12718704
000200 11 0b 55 bc d9 91 0c bd 54 32 2a be aa f1 3e 3d
       -0.013003127 -0.03431878 -0.16620761 0.046617188
000210 69 78 c9 3c 3d c6 90 bb 83 86 81 bb 4b 93 40 3e
       0.024593549 -0.004418163 -0.0039528026 0.18806188
000220 c9 b5 0a be 5c 81 11 3d 5a 95 c4 3d 14 d7 e8 bc
       -0.13545908 0.035523757 0.09598799 -0.02842287
000230 9b 69 b1 bc 15 ff a4 3c 9d 65 9a bd 3e 47 fa bd
       -0.021656802 0.020141164 -0.075389124 -0.122206196
000240 ba 4c 5f 3c d7 c9 78 3d 8e 32 8a 3d 6e 3e 83 3d
       0.013629133 0.060739364 0.06747924 0.06408392
000250 4a cc 34 bd ee 19 70 3d 08 50 b6 3c 5d 9b 07 3e
       -0.044140138 0.05861848 0.022254959 0.1324286
000260 fc bb 0b bc 2a e1 bf 39 15 a6 1f 3c 19 22 73 3b
       -0.008528706 0.0003659812 0.009744187 0.0037099181
000270 fb 9e 3b bd 26 38 8d bd e8 14 78 bc 31 74 54 3c
       -0.045805912 -0.06895475 -0.015141703 0.012967155
000280 7b ff 70 bd cd 8e 00 bc cc f8 3d be 47 33 88 3d
       -0.058837395 -0.007846546 -0.1855194 0.066504054
000290 b6 63 a4 3c f1 eb e3 39 89 bd 22 bd 6c 17 5e bd
       0.020067077 0.00043472604 -0.039731536 -0.054221556
0002a0 ab e9 36 bc bf d0 a2 be 59 68 3d 3d f7 ea 3e 3d
       -0.011164109 -0.31799886 0.04624209 0.0466108
0002b0 45 ac 30 3d df 7c ee 3c 64 9b 2f bd 0a 44 ae bc
       0.04313304 0.029112278 -0.0428728 -0.021272678
0002c0 27 29 8d bd f9 c1 81 3e ef b4 60 bc 21 85 17 be
       -0.06892615 0.25343302 -0.013715013 -0.14796878
0002d0 0f 68 67 bd be 0f 8b bb a8 ef c2 3d 03 62 b5 bd
       -0.056495722 -0.00424382 0.09518367 -0.08856585
0002e0 45 e8 e0 3d 1d 5f 2e 3e 65 84 e7 bc 58 cc 14 bd
       0.10981802 0.1702847 -0.028261373 -0.03632769
0002f0 d9 07 10 bc 9e 5c 82 bd 9c 76 9f bb fe 6f 1f 3d
       -0.0087909335 -0.063653216 -0.0048664343 0.038925163
000300 44 55 91 bd d3 c4 36 3d e1 bb f1 bd 51 fb af bc
       -0.07096341 0.0446213 -0.11803413 -0.021482142
000310 00 19 33 3d 58 04 5e 3e f4 df 32 bc d9 15 31 bd
       0.043725014 0.21681345 -0.010917652 -0.043233726
000320 f3 ac e8 bd b2 0e 93 3d 06 c4 3b 3d d3 e6 a5 be
       -0.113611124 0.07180537 0.04584124 -0.32402667
000330 83 23 13 bd 40 f1 ff 3c 13 f0 c6 bd d9 11 06 be
       -0.03592254 0.031242967 -0.09713759 -0.13092746
000340 c9 bb a4 be 8e 6d e0 3d 98 21 11 bd b1 51 6a 3e
       -0.3217452 0.10958396 -0.035432428 0.22882725
000350 a2 dd 13 3e ca 9e de bc 49 c1 ab 3c 6e 5b 9e 3c
       0.14440015 -0.027175326 0.020966189 0.019330706
000360 07 5c f2 3d f8 b9 d8 3c 60 7a 07 3d a1 6f 2f bc
       0.11833959 0.026455864 0.03307569 -0.010707767
000370 f7 ba 09 be af 97 da 3d cd 48 1d bd 77 14 cb 3d
       -0.13450228 0.106734626 -0.038399506 0.09916013
000380 d9 5c db 3c 79 56 6d bd 9d 74 23 3c f3 68 d3 bc
       0.026777672 -0.057943795 0.009976533 -0.02580688
000390 48 65 61 3e 89 b5 fa 3d ea a4 18 be f0 bf a6 be
       0.22011292 0.12241656 -0.1490666 -0.32568312
0003a0 71 82 ab bc 79 81 7b be 81 b7 6e be 55 90 cb 3d
       -0.020936223 -0.24561109 -0.23312189 0.099396385
0003b0 93 85 10 3d ee f8 c6 3d e6 7e e9 bd 17 1f 2c bc
       0.035283636 0.09715448 -0.11401157 -0.010505459
0003c0 ed 33 b5 3c c8 05 20 be 85 9e 3c bd cc 38 43 be
       0.022119487 -0.15627205 -0.046049614 -0.19064635
0003d0 e9 d7 80 be f9 84 b3 ba d1 53 25 be bf 33 7c 3d
       -0.25164726 -0.0013696245 -0.16145255 0.061572786
0003e0 12 6a 35 3d e6 d6 70 3e 24 02 59 3d 5a ee 64 be
       0.04429061 0.23519477 0.052980557 -0.22356549
0003f0 a8 74 b0 bd 21 73 0d be fb f0 00 3e cc e3 06 be
       -0.086160004 -0.1381345 0.12591927 -0.13172835

fc.bias f4 [48]
000000 7b 86 11 3d e8 ac dc 3d 7e 2f 10 3d f3 e9 e3 3d
       0.03552864 0.10775167 0.035201542 0.11128607
000010 d7 8e 2b 3d 3e a4 e8 3d e4 d4 43 3d 92 f7 d4 3d
       0.04188427 0.11359452 0.04781045 0.10398783
000020 1e 81 4c 3d ff e1 cb 3d df 20 86 3d 42 29 f3 3d
       0.049927823 0.09955215 0.065492384 0.11873104
000030 a9 76 81 3d f9 ab d7 3d af 28 6e 3d ea 0f de 3d
       0.06321461 0.10530848 0.058144268 0.10842879
000040 da f8 8d 3d e2 77 ea 3d d4 79 a2 3d bb e1 07 3e
       0.0693223 0.11448647 0.07933393 0.13269703
000050 37 0e af 3d ea 9b 0d 3e 52 3c a5 3d 40 a8 0b 3e
       0.08547633 0.13829008 0.08068146 0.13638401
000060 3a 91 b0 3d 2d b3 1c 3e 6d 04 a3 3d 0c 60 1e 3e
       0.0862145 0.15302725 0.079598285 0.15466326
000070 1f 39 95 3d 8a 08 15 3e f2 d2 8e 3d 9f 12 13 3e
       0.072862856 0.14554039 0.069738284 0.14362572
000080 34 b1 9b 3d 30 3f 17 3e 44 74 8e 3d 6b e2 08 3e
       0.07602158 0.14770198 0.0695577 0.13367622
000090 42 ef 7c 3d b1 58 0c 3e d0 2f 89 3d e1 93 14 3e
       0.06175161 0.13705708 0.06698573 0.14509536
0000a0 31 96 75 3d bd 70 fa 3d 07 59 4e 3d ac fc d1 3d
       0.059957687 0.12228534 0.05037787 0.102532715
0000b0 7f 4a 84 3d 55 31 f3 3d 2b 84 71 3d 33 64 0b 3e
       0.064595215 0.11874644 0.058963936 0.13612442
