models/cnn_lstm_last.pth (torch, 156610 bytes, 12 tensors)

cnn.0.weight f4 [32, 9, 3]
00000000: 1215 45be 1944 8cbd 458d f2bd 28c9 c8bd
00000010: be2d eb3b f526 213e 40a4 08be 6b7c 4b3e
00000020: 773a d33d 830e 053d 0f93 36be 45e6 cebd
00000030: f952 d63c 821e 283c 1727 a7bd 25c8 2abe
00000040: ac9b ad3c c474 5c3e 7052 c1bd 60c8 e83d
00000050: 8002 9ebd f42e 5b3d c5ae cbbc 562c c93d
00000060: 221d 4f3e 461d d73d f88c 3a3e fe79 b63d
00000070: d1c4 6a3e 876f 3e3e 2300 ae3d 1a3b ddbc
00000080: f0dc 3e3e 38af adbd fc1f b6b8 c7bc 3bbe
00000090: 1836 673d e03e 033e add7 4dba ea45 87bd
000000a0: c8e7 b1bd 46eb af3d f01b 9dbd b045 1d3d
000000b0: b7d5 a43d c9da 07bd 095f 4ebe f5b3 68be
000000c0: 2cc4 423d 1166 f4bd 51e0 14be 6e96 8d3d
000000d0: 5b6a b7bd 78e9 b5bd 6373 20be e42a 583d
000000e0: c6e4 b1bd c3ef cf3d 256d 97bd b8f2 1a3e
000000f0: 5e9c 833d 8d76 fabc 0b8a 033d 4491 333e
00000100: a5d5 223e 8fdb 653d ff9b 2ebc 8269 243e
00000110: 5f0e 39bd 30d5 293e f083 c6bd c39c 5d3e
00000120: 558e 0b3d bc7b 183c 02e5 343c bbf1 bd3a
00000130: 74c0 47be d962 3abe 258d 14be 6b18 4e3c
00000140: d30b a0bd ec2a 203e 3f67 1b3e 876f 4d3e
00000150: 56c5 4d3e 8beb 673e c244 43bd 653a 283e
00000160: 8955 fb3d 91e7 6c3c 1aad 003e 4dfd 82bc
00000170: 222b 183e 5659 9f3d 4f07 0bbe 781f 1ebe
00000180: 7aed 263e 6912 41be c383 823d 0f53 ccbc
00000190: 131f 953d 75e1 fabd 3d4f 0c3d dd0c 6f3c
000001a0: 9548 273e 1488 c7bd 3c1b ddbd ebf7 36be
000001b0: b767 10be e649 2c3e 94f1 1dbc b334 c23d
000001c0: 3afb 153d 7b9f 10be 97f9 1abe 3073 fd3c
000001d0: c1c1 b43d 041f 09bc 81a0 7b3e b0ed 893e
000001e0: 85f9 d3bd adcf c23d 6903 2a3e 6a38 713e
000001f0: aea5 06bd 8449 143d 3d93 83bd abed 3abe
00000200: ee56 28be 1e86 663d d795 0dbd 85c8 1bbe
00000210: 8be9 993d c4f3 0ebe c5bc 95bd 42df 63be
00000220: f661 0dbe e98f 253e 00a5 57be 636e 173d
00000230: 7451 5e3e b90c 0fbe 7f83 b7bd f2a3 bdbc
00000240: 6f3a 82bd e680 38be fae5 17be 9e4a 19be
00000250: db51 393e 94b9 a8bd 7af5 3bbc c2a7 76be
00000260: e8d6 8bbe 088c 19be d02e 4fbe da13 483e
00000270: 3480 973c 5b4e 11bc 723b dcbd aafb f1bc
00000280: 5271 2039 efcc bf3d 1039 6ebd 94f3 033e
00000290: 627d 693d 71fd 823d 7d4b 58bd fb59 0abe
000002a0: da31 873d bd56 50bc e11a 64bd 046f e6bc
000002b0: cffb dabd c31b b5bd f834 dabd 6af9 2f3e
000002c0: 4118 ec3b 98a2 44bd 9de5 67be 20bf a5bd
000002d0: e419 263e aadb b83d c389 213e 9b36 c53d
000002e0: ff62 14bd b8e2 0c3e bd3d 203e cabf 2dbe
000002f0: 622f 2f3d 57c5 0c3e 9343 2c3e ea49 313e
00000300: 8a32 183e a597 65bd 7115 7f3e 4a25 1d3d
00000310: 49b9 0b3e 54e6 383c 25c1 383d 51c9 18be
00000320: 61e0 6eb9 cb2b 19be 3249 b8bd 4718 35be
00000330: 2dc3 3e3d 4124 023e 226c 47bd 7176 723e
00000340: 84db 6d3e 23a1 953e 9357 15be ea3f 623e
00000350: d8a9 9abc 35b6 1abc b33e 53be 4668 c0bd
00000360: 2e41 d1bc 31d4 dc3d 32ba 123e 5522 fa3d
00000370: e603 4f3d 8d17 42bb 3270 05be d7c0 0a3d
00000380: 28d1 3d3c 058e 303d b411 27bc fdbd a83e
00000390: 760a 683d b9f6 12be dff6 8c3d 5f7e 1d3e
000003a0: 78dc 543e ff1c 3a3e 00a4 73bd 97eb 81be
000003b0: 71fa 46be 04d4 1cbe 108a 2f3e 5b78 083e
000003c0: 8e90 e3bd 7b81 e9bd c115 dabd 32df b5bc
000003d0: 9b7f 7b3b 3b21 613e f7ef 8bbd 4380 99be
000003e0: fb38 b0be b2da 20bc 0f4f 8fbd 4eb3 f4bd
000003f0: 767c 603e cb4a e83c 3eaf b2bc 3188 bf3d
-0.19246319 -0.06848926 -0.11843351 -0.098039925 0.0071770838 0.15737517 -0.13343906 0.1987168
0.10313886 0.032484543 -0.17829536 -0.10102514 0.026162611 0.01026118 -0.08161753 -0.16677912
0.021192394 0.21528918 -0.09439552 0.113663435 -0.077153206 0.053511575 -0.02486361 0.098229095
0.20225957 0.1050363 0.18217838 0.08909987 0.22926642 0.18597232 0.0849612 -0.02700572
0.18638968 -0.08480686 -8.684394e-05 -0.18333732 0.056448072 0.12816954 -0.00078522676 -0.06605132
-0.08686787 0.08589797 -0.07671344 0.038396537 0.08048575 -0.033167634 -0.2015344 -0.22724898
0.047550365 -0.1193353 -0.14538695 0.06913458 -0.089558326 -0.08882421 -0.15669017 0.05277528
-0.08686213 0.10153153 -0.073938645 0.15131652 0.06426309 -0.030574108 0.03211407 0.17535883
0.15901811 0.05611759 -0.01065731 0.16055873 -0.04517972 0.16585231 -0.09693134 0.21641831
0.034071285 0.009306844 0.011040928 0.0014491597 -0.19507009 -0.1820177 -0.14506967 0.012579064
-0.07814755 0.15641373 0.15176104 0.20062076 0.20094809 0.22648446 -0.047672994 0.16428526
0.12272174 0.014459507 0.12566033 -0.015989924 0.14860204 0.07780711 -0.13577007 -0.15441692
0.16301528 -0.18854679 0.06372788 -0.02494195 0.072813176 -0.12250034 0.034255255 0.014590469
0.16336282 -0.09742752 -0.1079621 -0.1786801 -0.14102064 0.16825065 -0.009640116 0.09482708
0.03661654 -0.14123337 -0.15134273 0.030938715 0.08826018 -0.008369211 0.24572946 0.26939154
-0.103503264 0.09512267 0.16602863 0.23556677 -0.03287285 0.036202922 -0.06424568 -0.18254726
-0.16439411 0.056280248 -0.034566727 -0.15213211 0.07515248 -0.13960177 -0.073113956 -0.22253135
-0.138069 0.16168179 -0.21059036 0.036970507 0.2171076 -0.13969697 -0.08960628 -0.023149464
-0.063588016 -0.18017921 -0.14833823 -0.1496987 0.18097632 -0.08238521 -0.0114721 -0.24087432
-0.27312398 -0.14994824 -0.20232701 0.19538823 0.01849375 -0.008868779 -0.10753526 -0.029538948
0.00015301004 0.0936526 -0.058159888 0.12885886 0.05700434 0.06395996 -0.052806366 -0.13510887
0.06601305 -0.0127159925 -0.055689696 -0.028129108 -0.1069256 -0.08843186 -0.10654634 0.17184988
0.0072050397 -0.048006624 -0.22646184 -0.08093095 0.16220814 0.090262726 0.15775208 0.09629556
-0.036227223 0.13758361 0.15648551 -0.16967693 0.042769797 0.13747154 0.16822653 0.17313352
0.14863029 -0.056052823 0.24910523 0.03836564 0.136449 0.011285383 0.045106072 -0.14920546
-0.00022781036 -0.14958112 -0.08998336 -0.17685042 0.046572853 0.12709142 -0.048687108 0.23677994
0.2322827 0.292245 -0.14584188 0.22094694 -0.018879816 -0.009442856 -0.20629387 -0.093948886
-0.025543775 0.1078266 0.1432884 0.122135796 0.050540827 -0.0029616088 -0.1303108 0.033875313
0.011585511 0.04310419 -0.010197092 0.3295745 0.0566506 -0.1435193 0.068830244 0.15380238
0.20787227 0.18175124 -0.059482574 -0.25375053 -0.19431473 -0.15315253 0.1714251 0.13327162
-0.11111556 -0.114016496 -0.106486805 -0.022201154 0.003837562 0.21985333 -0.06832879 -0.29980668
-0.34418473 -0.009817766 -0.06997501 -0.11948262 0.21922478 0.028355977 -0.021812078 0.09352148

cnn.0.bias f4 [32]
00000000: 7946 df3d 62c6 b4bd e333 a43d e2cd 033e
00000010: 105b 9c3d ae73 743e 67eb 633a 0b82 e0bd
00000020: cdc0 053e b297 cf3d d23f c83d cebf cabd
00000030: ab0e 383e 3746 053e 3109 eabd 1599 c43a
00000040: deda 23bc 2362 44bc 0f4f cf3d c8f7 ee3d
00000050: eec4 02be 6145 033e 0d55 b9bd 130e 043e
00000060: 681e 183d 11e6 fc3d 5a85 923d 2965 b13d
00000070: 25ce 2f3e f706 b0bd dda7 1e3e d90f 0bbe
0.109021135 -0.08826901 0.08017709 0.12871507 0.07634556 0.23872253 0.00086944405 -0.10962304
0.13061829 0.101363555 0.09777798 -0.09899865 0.17974345 0.13015066 -0.11427534 0.0014999235
-0.0100009125 -0.011986288 0.10122501 0.11668354 -0.12770435 0.12819435 -0.09049425 0.12895994
0.037138373 0.12348569 0.07154341 0.08661873 0.17168482 -0.085950784 0.15493722 -0.13580264

lstm.weight_ih_l0 f4 [200, 32]
00000000: 3c10 6dbd 8c60 4d3e 559b 02bd b91b 42bd
00000010: 6655 57bb 52ce 463d c6cd 093e 39cc f1bc
00000020: 7870 823e 2476 a8bc e80e 8cbc c937 72bd
00000030: 6732 653d 0072 3c3d 7b54 9abd 629b 873d
00000040: 70f9 09be 09af 4cbd 4eeb 92bc f80f 93bd
00000050: f885 823d 0a0a 9dbc 7106 373e d93c 82bd
00000060: 32c2 d43d cd91 193d fbd5 ac3d dfe0 683e
00000070: 0a8a fb3c 1dd7 793b f481 f73c 0c86 16be
00000080: 6f48 e5bd 75b3 40bd e0c1 41bd b007 a73d
00000090: be3e 873b 16b1 433e 1316 9abd bea0 543d
000000a0: 02b2 0f3e 24cb 5dbb 7a19 2a3e 4819 003d
000000b0: 670e cc3d 46f8 153e 5276 1abd 9cb0 fa3d
000000c0: 571e 013d 431a 07bd 01d9 cf3d d35e 3a3e
000000d0: 8c70 e63d 4aff 3ebd 27f6 3f3e f9f4 e53d
000000e0: 2e1e 62bc 9848 d8bc 0de5 093c 72fb ad3b
000000f0: 3b86 ce3d b223 bbbd 1e44 3d3d fbb6 08bd
00000100: fb24 873e 8c1f 4c3e bc66 183d 2925 693c
00000110: dc0b 0b3e 0de9 0bbe a85d 933e a4ac 8e3e
00000120: 007b 663e fc46 c6bc 2550 7bbd b990 0b3e
00000130: e869 723e e724 9f3e 97ee babc 58d9 353e
00000140: 1dfe 513e 6289 173e b414 783e cb75 d1bd
00000150: 932f 023e 835c 2d3e d92d 043e e5ca 4d3e
00000160: 6333 febc 35b5 cb3a 31a7 083e fb04 163e
00000170: b1c0 dd3d b042 0b3e 264f 183e 0407 283b
00000180: 1b16 75be 82b0 783e 510a ea3d 4517 f0bb
00000190: 0cad 663d 2c2f 143d 0c2b 233e 5009 873d
000001a0: 7a53 0f3e b75b 6b3e 29ad e9bd 9473 07be
000001b0: d1be 1cbe 7d4f 733e 8b01 16bd ed6f cbbd
000001c0: fc0d 72be 9647 093d 23d5 34be fd14 a53d
000001d0: 2698 b73d 97e4 333e a10c 303e 5bbc 81bd
000001e0: cd48 233e 4a0d 78bd bedd d7bd c8fb 263e
000001f0: 3508 113d 08bd 13bc 3f39 b13d 21e0 ef3c
00000200: 1c74 15be 28cf f7bd de88 17be e0a1 8a3d
00000210: 038a d6bd d8d4 733d 6827 623d 79a6 dcbc
00000220: 23eb 82bd d1fd fa3c 5b47 c9bd e231 35bd
00000230: ef97 243d 89da cebc 2fe5 b13d fb2b 1a3e
00000240: cfe7 163d 8951 79bd a145 143e 57bd 8cbc
00000250: 76da 17bd 417a a43c 4688 333d 891e 76be
00000260: 2a79 cc3d 52d2 fdbc 5a24 f7bd 3264 5b3d
00000270: d9f6 ed3d b4ef 233c abe0 213d 10f4 eebc
00000280: bb01 a8bc 9ed6 9abd b344 abbc 77b9 36bd
00000290: fbe8 263c 2eb4 1bbd 5647 dcbd 3ad0 1abe
000002a0: a94d 593d 9fde 4cbd 1707 0fbd 7116 033d
000002b0: 5aa5 573d 6acb 873d dea2 0c3c b009 49be
000002c0: fc3c 21bc e4be 11be b574 11be 5d71 db3d
000002d0: 86ba 873b 294e aabd a201 12bd 3406 48bd
000002e0: be5a 2d3e 1ec0 83bd 097a 2abe 7798 04be
000002f0: 20ae 8a3d 9b51 49bc eac1 653d ce6e d3bd
00000300: c4bb 1b3d 69ce 96bd a66e 86bd 391a 913b
00000310: 3f48 713d 15fe f93d 2b05 d4bd 9e97 413d
00000320: c488 a23d 6cbe 303e d5fc 0bbc 4363 e2bc
00000330: 17f3 71bc b7de 033e b495 1fbe eb00 813d
00000340: 077e a73d 1875 4fbc 954e c7bd 5b03 b23d
00000350: a0b2 193e 42c9 043e fc2e fb3d 9452 6c3d
00000360: 1ccf 233e 4be9 853b 57be 8bbd 23a2 393d
00000370: 0478 183d 3a49 a8bd 977f bfbc 1e82 6abd
00000380: 997f 0b3d 2910 8abd e434 d7bd 470e 8a3b
00000390: 31aa 10be 35a6 853d b73d e23d 2c7e 0dbd
000003a0: ed2a db3d 52aa 153e d6b3 e83d 98ce 643d
000003b0: a34b 983c 8b93 0c3d 19f7 80bd 3768 d0bd
000003c0: 041d ef3d c70d 31bd 15d3 eeba 53a5 a53d
000003d0: 0f83 563c b168 10bd 0e45 0fbe a9f6 923d
000003e0: 5498 be3d 7865 9e3d e342 06bd d8ff a63d
000003f0: 612c f0bd b994 623d 3735 06be 0571 093e
-0.05787681 0.20056361 -0.031886417 -0.04738972 -0.0032857298 0.048536606 0.13457403 -0.029516326
0.25476432 -0.020564146 -0.017096952 -0.059135232 0.05595627 0.046007156 -0.075356446 0.06621434
-0.13474059 -0.049971614 -0.017934468 -0.0718078 0.06373209 -0.019169826 0.17873551 -0.06359262
0.10388602 0.037492562 0.08439251 0.22742032 0.03070547 0.0038122602 0.030213334 -0.14699572
-0.11195456 -0.047046144 -0.047304034 0.08155763 0.0041273525 0.19110522 -0.075237416 0.05191111
0.14032748 -0.0033843005 0.16611281 0.03127411 0.099636845 0.1464549 -0.037710495 0.12240717
0.031523075 -0.03298403 0.10148812 0.18200235 0.11251935 -0.04663018 0.18746243 0.112283655
-0.013801141 -0.026401803 0.008416426 0.0053095156 0.10084196 -0.09137668 0.04620754 -0.03337763
0.263954 0.19933909 0.03720735 0.014230051 0.13578743 -0.1366312 0.28782392 0.2786609
0.22507858 -0.02420377 -0.06135573 0.13629426 0.23673213 0.31082842 -0.022818847 0.17758691
0.20507093 0.14798501 0.24226648 -0.10227545 0.1271346 0.16929822 0.12908114 0.2009693
-0.031030362 0.0015541675 0.13345028 0.14650337 0.108277686 0.13599658 0.14873943 0.0025638947
-0.23934214 0.24286082 0.11427749 -0.0073269927 0.056317374 0.0361778 0.1593439 0.06593573
0.13996688 0.22984205 -0.11409981 -0.13227683 -0.15307166 0.23760791 -0.036622565 -0.099334575
-0.23638147 0.033515535 -0.1765943 0.08060644 0.08964567 0.17567669 0.17192318 -0.06334754
0.1594574 -0.06055955 -0.10540341 0.16306984 0.035408217 -0.0090172365 0.08653497 0.029281678
-0.14595073 -0.12100059 -0.14798304 0.067691565 -0.104755424 0.059529155 0.055213362 -0.02693485
-0.06392505 0.030638607 -0.09828063 -0.044237025 0.040183958 -0.02525069 0.086862914 0.1505584
0.036842164 -0.060868774 0.14479686 -0.017180128 -0.037073575 0.020077826 0.043831132 -0.24035086
0.09984048 -0.030984078 -0.120674804 0.05356235 0.11619348 0.01000588 0.0395209 -0.029169112
-0.020508638 -0.07560466 -0.020906782 -0.044610467 0.010187383 -0.03801363 -0.10755794 -0.15118495
0.053052578 -0.050016996 -0.03491887 0.032003824 0.052647926 0.06630595 0.008583752 -0.19632602
-0.0098412 -0.14232975 -0.14204676 0.10714982 0.0041421084 -0.08315689 -0.03564609 -0.04883404
0.16929147 -0.06433128 -0.16648115 -0.12948786 0.06771493 -0.012287523 0.056093134 -0.10323869
0.038020864 -0.07363588 -0.06564073 0.004428175 0.05890679 0.122066654 -0.10352548 0.047263734
0.07936242 0.1726014 -0.008544167 -0.027635222 -0.01476743 0.12877928 -0.15584451 0.06299003
0.08178335 -0.012662195 -0.09731785 0.08692046 0.15009546 0.12967399 0.12264821 0.05769594
0.15996975 0.0040866486 -0.06823414 0.04532064 0.03722383 -0.08217092 -0.02337627 -0.057252996
0.034057233 -0.067413636 -0.10508135 0.004213128 -0.14127423 0.06525842 0.110469274 -0.034544155
0.10701547 0.14615753 0.11362426 0.055861086 0.018590754 0.034320395 -0.0629713 -0.101761274
0.11675456 -0.04322603 -0.0018220866 0.08088174 0.01309277 -0.03525609 -0.13991186 0.07175953
0.09306398 0.077341974 -0.032778632 0.08154267 -0.117272146 0.055317614 -0.13106237 0.1342202

lstm.weight_hh_l0 f4 [200, 50]
00000000: 224f a5bc 0725 f73d 9b8f 21be 518f eabb
00000010: c88b 7a3d bce3 043e beb4 e63d 1fa4 30be
00000020: d4ec 373e 667f 41bc c192 50be daf4 2b3e
00000030: 015d d8bd db0c 2c3e 576e 783d 53f1 bcbd
00000040: 1318 753e 7699 5a3e a24d 0abd ccbf 86bd
00000050: e610 debd c49c 413e c594 163e b8cc fc3d
00000060: 20a6 d1bd 2835 513e dab7 633e a7ba 1b3e
00000070: f32c 24be 301e e7bd e213 32be b8ea 0dbe
00000080: 2587 693e 8d7a 0bbe 554f 80be 1358 22be
00000090: f332 73bd b83b 7c3d a429 b43b df38 aa3d
000000a0: ef7c 07bd 93f5 093e de83 ba3d e323 c03b
000000b0: 45b0 143e bc9c 6c3e 7821 2ebe 2259 2f3e
000000c0: f586 973d 44f0 873c 2906 2a3e 43be 0d3c
000000d0: 90c7 87bd c858 863d d4ed 0b3e bb9b 30bd
000000e0: ddf5 05be c2ff d93c 28d3 13be e791 3a3d
000000f0: 99e0 0cbe 4665 65bc fd06 c63d 5896 49bb
00000100: 1421 3b3e 541e d43c b400 a73d 0798 6bbd
00000110: f28c 2fbe 3a2d c9bb 357a 263b 01ae bbbb
00000120: 28f9 4aba aeb5 e03d a468 02be 0410 333d
00000130: b5e5 b8bd fc18 173e 4fc6 9bbd 052b aebd
00000140: 8a04 49bd e49b 43bd 476a dbbd ad27 5a3d
00000150: dee4 e4bd 5260 1c3c 026b 133e fcfd 1d3d
00000160: d13d 293e 23ca eb3c a140 603d 8848 c13d
00000170: 391e 11be 204e 993d 4f47 a23d 28c3 b63d
00000180: d925 1cbe 7e0c 16bd 8745 6ebc 0439 7cbd
00000190: c6de 8a3e e3dd 453c 515f 8c3d 59bd cdbd
000001a0: fd34 d2bd 1051 19bd 8f85 253d f732 d4bc
000001b0: 7a5e 793d 885e 673d a78b 58be 97a2 9e3d
000001c0: 52b8 3cbe dfdd 843d 359c 3d3e 8fd5 c93d
000001d0: 138e 173e dc44 793e 4939 2e3a 805e 0abc
000001e0: 0cc2 6c3d d2ec 1ebd d489 003c 749f 8f3e
000001f0: 2aa0 efba e3bd 65bd 54d4 bd3d 751b 903e
00000200: 8968 79bd 931d 1dbd dd36 30be 8355 3fbd
00000210: c22e c73d 75fa 163d a691 49be d64c 2a3e
00000220: 96fc dabd 6f7c 283e 3e7c 4d3c d62e 293e
00000230: c7a5 03be bb4c 1c3e 144c d53d 707a ab3b
00000240: ac93 8f3c 1813 d63c 7e45 8bbc 2c54 ac3d
00000250: a5a8 7c3e b734 ea3d 2e99 71bd b480 ac3d
00000260: 24be f6bd 6991 a7bd 86d1 05bc 8366 c63d
00000270: a0b9 0e3e e4ef a1bd 070e 92bd ced6 04be
00000280: 2266 72bd 9c1f fabc 303e 653d 1d16 0dbe
00000290: cd1f 8fbd 818b 24be 9e99 e0ba 8659 c03d
000002a0: c838 08bd 57aa 8ebd 3605 173d 66e3 0d3d
000002b0: 1474 5cbc 4e74 d9bd 2f68 c1bd 3a5f 82bd
000002c0: 6114 483d 87f0 aa3d fca7 a53d 7336 213e
000002d0: 4baf a53c 5ab8 2b3e 0c35 bd3d 0de3 633d
000002e0: 7501 9f3d b79c bebd cf57 be3d 59ff 163e
000002f0: 9f72 61bc 4fe6 ca3d 30b3 893d 9d85 6a3d
00000300: f595 45be cd67 20be 9066 8abd 613e ab3d
00000310: e7fd 45bd c650 29bd 4b19 9dbd e57c ac3c
00000320: 6cb7 74bb 2097 013e e88f 87bd ea83 f9bd
00000330: ad5e 653c 3e02 973c 3b21 80bd 63ac 76bd
00000340: ff14 cb3c e9c0 9bbc 4c98 19be 2778 2c3e
00000350: ef71 7ebd 84c3 05bd 1ef4 c0bd 8040 05bd
00000360: 420d 163c 8654 5a3d 36a1 1c3e 7b33 d2bc
00000370: 59dc e93c 3fc9 fa3d bd83 253e f47e 273e
00000380: 9351 733d 56d2 013e 6b34 323d d5ad 123e
00000390: a09a a83c 8140 b13d a8c0 903d aeba 25be
000003a0: 0172 e6bb 955e 03be 8dd0 abbd 9040 15bd
000003b0: a9a6 933d 2d0b aebd 187e d63d 3476 ddbc
000003c0: 0a69 fbbb 3157 053e 2584 27be 9b2c 7ebd
000003d0: ed8f 2e3c 229e ca3d 840f 16be 1681 003e
000003e0: 312a 1c3d 46c9 543d 5e4e 2f3c 5e8f 8e3d
000003f0: 5b51 d3bc 9e69 b33d 309c 203d 27b1 573d
-0.020179335 0.12067609 -0.15777437 -0.007158198 0.061168462 0.12977499 0.112649426 -0.17250107
0.17961437 -0.011810159 -0.20368482 0.16792622 -0.10564614 0.16801779 0.060652103 -0.092257164
0.23934965 0.21347603 -0.033765443 -0.06579551 -0.10843067 0.18907458 0.14705189 0.123437345
-0.10236764 0.20430434 0.22238103 0.15207921 -0.16032772 -0.11285055 -0.17390397 -0.1385907
0.2280546 -0.13620968 -0.25060526 -0.1585391 -0.05937476 0.06158039 0.005498128 0.083116286
-0.03307813 0.13472585 0.09107183 0.005863653 0.14520366 0.23106664 -0.17004955 0.17123845
0.07398788 0.01659406 0.16603912 0.008651319 -0.066298604 0.065599024 0.13664943 -0.043117266
-0.1308207 0.026611213 -0.14436018 0.0455493 -0.13757552 -0.014001196 0.09669302 -0.0030759778
0.18274337 0.025893368 0.08154431 -0.05751803 -0.1714361 -0.0061394246 0.002540243 -0.00572753
-0.00077428157 0.10972153 -0.1273523 0.043716446 -0.09028188 0.14755625 -0.07606184 -0.08504299
-0.049076594 -0.04775609 -0.1071363 0.053260494 -0.111764655 0.009544449 0.14396289 0.038572297
0.16527487 0.02878291 0.054749135 0.09437662 -0.14171685 0.07485604 0.07923757 0.08923942
-0.15248813 -0.036633007 -0.014542944 -0.06157781 0.27123088 0.012076828 0.06854118 -0.10045881
-0.10264013 -0.037430823 0.040410575 -0.025903208 0.060881115 0.056486636 -0.21147023 0.07745855
-0.18429688 0.06487631 0.1851662 0.09855186 0.14800291 0.24342674 0.00066461094 -0.008445382
0.057802245 -0.03880007 0.007845361 0.2805134 -0.0018281986 -0.056089293 0.09269014 0.28145948
-0.060890708 -0.038358282 -0.17208429 -0.04671241 0.09725715 0.03685995 -0.19684467 0.16630873
-0.10692708 0.16453718 0.012541829 0.16521773 -0.12856208 0.15263645 0.104149014 0.0052331015
0.01752647 0.026132151 -0.01700091 0.08414492 0.24673708 0.11435836 -0.058983974 0.08422986
-0.12047985 -0.08182032 -0.00816763 0.09687521 0.13937998 -0.07907084 -0.07131582 -0.12972566
-0.059179433 -0.03053265 0.05596751 -0.13777967 -0.069884874 -0.16068842 -0.0017135625 0.09392075
-0.033257276 -0.069660835 0.036870204 0.034640692 -0.01345541 -0.106178865 -0.094436996 -0.06365819
0.04884756 0.08346658 0.08088681 0.15743427 0.020225188 0.16769543 0.092386335 0.055636454
0.0776395 -0.09307235 0.09294092 0.14745845 -0.013760238 0.09907209 0.067236304 0.05725633
-0.19295485 -0.15664597 -0.067578435 0.08361507 -0.048337843 -0.041336797 -0.0767084 0.021055648
-0.0037340773 0.12655306 -0.06619245 -0.12183364 0.013999623 0.018433686 -0.06256338 -0.060222995
0.024790285 -0.019012885 -0.14999503 0.1684271 -0.062120374 -0.03265716 -0.09421562 -0.032532215
0.009158434 0.053303264 0.15295872 -0.025659313 0.028547453 0.12245416 0.16163535 0.16357023
0.059403967 0.12677893 0.04350702 0.14324124 0.020581543 0.08654881 0.07067996 -0.16184494
-0.0070326333 -0.12829049 -0.08389387 -0.036438525 0.07209522 -0.08498225 0.10473269 -0.027033903
-0.0076724337 0.13021542 -0.16359003 -0.062054258 0.010654432 0.09893443 -0.14654356 0.12549242
0.038126174 0.05194976 0.010699837 0.06960939 -0.02579563 0.08760379 0.039211452 0.05265918

lstm.bias_ih_l0 f4 [200]
00000000: a0d4 b13c 68c6 96bd e97c 9c3d 6982 2d3e
00000010: ccaf 13bd 8c58 90bd f402 14bd 94ca bfbd
00000020: f8c5 713d 00e7 05be 970c 12bd a838 1f3e
00000030: 00f4 a73d 3c72 1a3e 68d5 3dbc 0e56 8c3d
00000040: 554f 87bd b490 08bc c90b 0ebd 817a cf3b
00000050: 11bf d6bd b5e9 293e a55b a5bc 1475 5c3e
00000060: 0adf b13d 5cf0 32bc 5e8a 10bd 009d 3f3d
00000070: fc49 4dbd 3ddb 1b3e 9489 033d 3d7e a33c
00000080: 763a ef3d e669 c8bc 87c1 cc3d 6480 143e
00000090: 9c51 d93b 788d 763d ec46 033e 218f 2abc
000000a0: 9570 4cbd 077e 0c3e 7c90 dbbd 2fe0 063d
000000b0: 6dbf 753d d583 803b 4cc0 ff3d f175 b1bd
000000c0: 2bb6 0f3d 74e6 7fbc 684c 2e3e 09ac 093e
000000d0: 9061 033e 3e43 963d ffd8 023e 5801 b13d
000000e0: b75d aebd cf9d 0cbd 5ca0 b03d 30a7 75bd
000000f0: e986 06be dec4 29bc 1e87 b23d b5f0 c7bd
00000100: 16ed 90bd 1a03 d5bd 75c3 a1bd 7033 283d
00000110: 9342 26b8 936b a9bd a0e4 643d abf1 893d
00000120: 8997 f3bd 5ce7 943b 0cce a43b 00dd e6bd
00000130: 8b54 a5bc 7463 2f3d 6620 b83c c786 85bb
00000140: bcfb b5bd 2fae ca3d 3715 8ebd 6a6f bf3d
00000150: a513 f9bc 6968 72bd ae0f 1c3d 29fa 0dbe
00000160: 5a0c 9c3d 8070 ed3d befc 8bbd f410 c1bc
00000170: 01c1 083e ca54 0b3e 21a0 19bd 93f3 243e
00000180: 93e1 a2bd 212b e83c 874e a03c ee7c c2bd
00000190: 038e 013e df04 8cbc cc6c 9f3d cace 0ebe
000001a0: 1d64 8ebd c588 863d 6464 b1bc b2ce a6bd
000001b0: 7928 04bd 3ef9 d53c c865 bfbd bab3 c6bd
000001c0: 38cf 3a3d c8e7 303c e095 743d 2a4b e4bd
000001d0: c549 aa3d 5f26 ea3c ddb6 9abd da47 97bc
000001e0: 4d77 1c3d 2093 e13d ae5f 57bd 4c3c 8abd
000001f0: 2ad3 0bbd 6c3f a93d e23a 06be a06e 10be
00000200: 5bb0 643d 7f6d 15bd 33dc 93bd 2c71 b33d
00000210: 6739 493d a732 b6bc 1c20 ebbd 4369 2d3c
00000220: 6cca 5c3d eaf4 01be 63f6 09bd 81f0 aebd
00000230: b6dc f3bd 72c7 783d 0f0a ccbc e049 363c
00000240: 44c1 b13c d2a9 f8bc 978f 813c cd4a 533c
00000250: 3922 14bd d612 213d 9508 c6bc 617b 0a3e
00000260: 6116 673e 41ee cb3c 37ea 74bd b41b 8e3d
00000270: 782c b33d 2888 963d 7e6e 26bd b957 b2bd
00000280: 909e e33d ce93 303e 1784 3a3e 7fce 423e
00000290: f159 72bd fa92 103d 3b14 183d c083 323d
000002a0: 4c80 6bbc 1655 1cbc 3bf2 8dbd 9865 613c
000002b0: 1f2e 7e3d 164c 243e 47c8 06be 4278 a53d
000002c0: 68d9 dcbd c917 c0bd b69e adbc aa83 69bd
000002d0: ce96 483d 4186 b43c 9793 c83d d70a 3d3d
000002e0: 9d54 cf3d a6a7 203e ec48 843d 1775 873d
000002f0: da20 cebc 45d3 0abd dfd0 8d3d 7d14 203d
00000300: 23d8 c3bd f704 bf3d 04db ef3d 1500 033e
00000310: b613 903d c42e 063c 7242 9ebd d026 57bd
0.021707833 -0.07362062 0.07641012 0.16944279 -0.036056325 -0.07048139 -0.03613563 -0.093648106
0.05902669 -0.13076401 -0.035656538 0.15548956 0.08200836 0.1508264 -0.011586525 0.06852351
-0.06606928 -0.008335281 -0.034679208 0.0063317423 -0.10485662 0.16593058 -0.020185301 0.21529037
0.086851195 -0.010921564 -0.035288207 0.046780586 -0.050119385 0.15220352 0.032113627 0.019957656
0.116810724 -0.024464559 0.0999785 0.14502102 0.006632043 0.06019351 0.12820023 -0.010410101
-0.049912054 0.1371995 -0.107209176 0.032928642 0.05999701 0.0039219656 0.124878496 -0.08665074
0.03508584 -0.015618909 0.17021334 0.13444532 0.12830186 0.07337044 0.1277809 0.086428344
-0.085139684 -0.034330186 0.08624336 -0.059973896 -0.13137402 -0.010361878 0.08717178 -0.09762708
-0.070764706 -0.10400982 -0.078986086 0.04106468 -3.9639486e-05 -0.08272471 0.055882096 0.06735548
-0.118941374 0.0045441817 0.0050294455 -0.11272621 -0.020181915 0.042819455 0.022476386 -0.0040749046
-0.08885905 0.09896504 -0.0693764 0.093474224 -0.030404875 -0.059181605 0.03810089 -0.1386496
0.076195434 0.11593723 -0.06835316 -0.023567654 0.13354875 0.13606563 -0.037506226 0.16108541
-0.07953181 0.028340878 0.019568695 -0.09496485 0.1265183 -0.017092166 0.07784423 -0.13946071
-0.06952689 0.065690555 -0.021654315 -0.08144893 -0.03226516 0.026119824 -0.09345585 -0.09702249
0.045607775 0.010797448 0.059713244 -0.11147149 0.08314852 0.02858275 -0.0755441 -0.018466879
0.03819971 0.1101439 -0.05258148 -0.06749782 -0.03413693 0.0826405 -0.131084 -0.141047
0.05583225 -0.036481377 -0.07219734 0.0876182 0.04912701 -0.02224095 -0.11480734 0.010584178
0.053903982 -0.12691084 -0.03368224 -0.08541966 -0.11907332 0.06073708 -0.02490714 0.011126012
0.021698602 -0.030354414 0.01581554 0.012896252 -0.03616545 0.039324604 -0.024174014 0.13523628
0.2256713 0.024893882 -0.059793677 0.06938878 0.08748716 0.073501885 -0.040632717 -0.08708138
0.11114228 0.17243883 0.18214451 0.19024085 -0.059167806 0.035296418 0.03712867 0.043582678
-0.01437385 -0.00954177 -0.069309674 0.013757132 0.062055703 0.1604465 -0.13162337 0.08079578
-0.107836545 -0.09379537 -0.021193843 -0.05701033 0.048971944 0.022036674 0.097937755 0.046152916
0.101235606 0.15688953 0.06459221 0.0661413 -0.02516215 -0.03389289 0.069246046 0.03908204
-0.09562709 0.09327119 0.11711696 0.12793 0.070350096 0.008189861 -0.07727517 -0.05252725

lstm.bias_hh_l0 f4 [200]
00000000: e82a 283e fb37 77bd b7a5 5b3e 7016 423e
00000010: e554 8ebd 944a eabd e550 27bc e7e4 443d
00000020: 4acd 333d cbdd 93bd 145f d4bc afde 6abd
00000030: c03a 913d f0bf 1f3e e2ce ebbd 9a4c 32bd
00000040: 9cf0 833d c07e 49bd a424 73bd 0210 55bb
00000050: 97ca 0b3e f519 2a3e 2096 b0bd 511a 67bd
00000060: 87ce 423c eae1 553d 9c4d f6bc d051 28bd
00000070: 6a6e d4bc ed8b 6ebd c4fc 0a3e c223 af3d
00000080: 6998 5c3b 2649 13b9 a64c 0dbd a701 b5bc
00000090: 4dbc 053d b8ce 543e 6d9c b339 e4fa 0f3e
000000a0: 7f75 343d 9673 933d 377e 85bc 5bfe d53d
000000b0: 77f6 003e 69be 96bd 4d08 3abd 8c01 383d
000000c0: 8e0d 2cbd b505 313e 4b1a d23c 52c3 5ebd
000000d0: 2b55 183e e72e edbd deda d9bd d395 29bd
000000e0: 1965 dfbd 34b5 22bd 3b58 c8bd 9eac 1cbe
000000f0: c951 0d3d 0b1b 59bd 6dba 993c 644e 5ebd
00000100: 0f77 a6bd 58fe cdbd f782 ddbd 370b 0cbe
00000110: 6157 853d 6645 cabd cdb9 81bd fda4 16be
00000120: 849e ae3c c185 b63a 078a 59bd f0cb 06be
00000130: be05 b63d 3c3b c73b 2154 b3bc 0009 973d
00000140: e092 85bd b499 baba 977e 803d 887b 2b3e
00000150: f3db 97bd 3050 d6bd 46eb b5bd f086 01be
00000160: f2a4 16be ad1a bbbd 43e5 03be be17 c4bd
00000170: 478c 863d b824 c1bd dc7c 80bd 96c1 5dbd
00000180: cee9 1d3d 090c eb3c 26b7 1ebd b02f 3e3d
00000190: b67a c6bd 9bb2 11bd b90b 97bd 37b5 9cbd
000001a0: 6e35 813c d33e ff3d bd8f a9bc 8ade abbd
000001b0: ada4 e3bb 15a7 2cbd 1d09 e33d 34d0 4fbd
000001c0: ca1d 82bc 51f4 16bd 48a4 03bd 8e71 893d
000001d0: 3e6f 66bd 1e3b 2bbd 20b7 0c3d 168e 66bd
000001e0: 262b 87bd ad3c 49bd 10be bf3c 4253 f4bd
000001f0: 7454 68bd 8dd8 eb3d b959 0abd 466c 4bbd
00000200: e547 183e d66d 723c 007d 153e 0209 be3d
00000210: 1ac9 d2bd e2a6 a8bd eb21 d5bd dac7 e8bd
00000220: 168a 283e 9d8c 853d e83c febc ca49 6d3c
00000230: 384b 86bd 074c d43c d1a3 c93d 667d dfbd
00000240: 2d5e d4bb 8f13 81bd 86b5 4abd 7c6c bc3d
00000250: 913f a83d 008a ff3d ed4a 2c3e 7b05 0e3e
00000260: 2c60 ff3d 9d80 f93d c63d cdbd 5cec ebbd
00000270: ae2c b63d 0ee5 06be f68e 5bbd ef00 37bd
00000280: 6651 88bd 6136 b23d c638 a9bb ecc7 3ebd
00000290: 2518 c9bd 4c69 0f3e 4b97 f4bd f2dc 053e
000002a0: 545d afbc f8d9 263d 2e0f c0bc 0307 a0bd
000002b0: 709e 773d a457 00bd 9a20 98ba f2df 12bd
000002c0: e036 103d 7a04 b63d 4c38 c33d aaec 20bc
000002d0: c3a8 183e af28 d9bc 591c d03d c4b0 d13d
000002e0: 1e05 883c 68a9 02bd 28ad 033e bbff 603e
000002f0: 0b43 a3bd 30fe f0bd 31ed a63c bddf 1bbd
00000300: 6eda a5bc 949d 713d ab9f 083e cca1 88bd
00000310: 76c4 96bc 79d4 dbbd 4ac7 b83d 813c fd3d
0.16422617 -0.06035612 0.21449934 0.18953872 -0.06949786 -0.11440006 -0.010212158 0.04806986
0.04389695 -0.07220038 -0.025924243 -0.057341274 0.07091284 0.15600562 -0.11514069 -0.043530084
0.06442377 -0.049193144 -0.059361115 -0.0032510762 0.136515 0.16611464 -0.08622384 -0.05642158
0.01189006 0.0522174 -0.030066304 -0.041093647 -0.025931556 -0.058238912 0.13572985 0.08551742
0.003366018 -0.00014046262 -0.034496926 -0.022095514 0.03265028 0.20781982 0.00034258087 0.14060551
0.044057366 0.07199781 -0.016295535 0.10448905 0.12594019 -0.073605366 -0.045418072 0.04492335
-0.042005114 0.17287333 0.025647303 -0.05438549 0.14876239 -0.115812115 -0.10637449 -0.04140265
-0.10907955 -0.03972359 -0.097824536 -0.15300223 0.034501825 -0.053004306 0.018765653 -0.054273978
-0.081281774 -0.10058278 -0.10815995 -0.13676153 0.06510807 -0.09876518 -0.06334267 -0.14711376
0.02131582 0.001392536 -0.05311015 -0.13163733 0.08887814 0.0060800593 -0.021890702 0.073747635
-0.06522155 -0.0014236481 0.06274145 0.16746342 -0.07414999 -0.10464513 -0.088827655 -0.12649131
-0.14711359 -0.091359474 -0.12880425 -0.09574841 0.065697245 -0.09430832 -0.06273815 -0.054139696
0.03855305 0.028692262 -0.038748883 0.046432197 -0.09691374 -0.035570722 -0.07375283 -0.076517515
0.015772548 0.12463155 -0.020698423 -0.08392055 -0.006947121 -0.04215153 0.110857226 -0.050735667
-0.015883345 -0.036854092 -0.032139093 0.06711112 -0.056258433 -0.041804425 0.03435433 -0.056287847
-0.06600027 -0.04913013 0.023406059 -0.11929943 -0.056721166 0.11515913 -0.033776972 -0.049663804
0.14871176 0.014796695 0.14598465 0.09279062 -0.10292263 -0.08234955 -0.1040686 -0.11366244
0.16458926 0.065209605 -0.031034902 0.014482925 -0.065573156 0.025915159 0.098456986 -0.1091259
-0.006480953 -0.06302559 -0.04948952 0.09200379 0.08215249 0.12477493 0.16825457 0.13869278
0.12469515 0.12182734 -0.10021548 -0.11519691 0.08895241 -0.13173315 -0.053603135 -0.044678625
-0.066561505 0.08701778 -0.0051642386 -0.04657738 -0.09819058 0.14005011 -0.11942919 0.13072565
-0.021406807 0.040735215 -0.023444738 -0.078138374 0.060453832 -0.03133358 -0.0011606396 -0.035858102
0.035208583 0.088875726 0.09532222 -0.00982205 0.14908127 -0.026508657 0.10161657 0.102387935
0.016604003 -0.03189984 0.12859023 0.21972553 -0.07971772 -0.117672324 0.020376774 -0.03805517
-0.020245757 0.05898817 0.13342158 -0.06671485 -0.018404227 -0.10733885 0.09022386 0.12365056

lstm.weight_ih_l1 f4 [200, 50]
00000000: 7384 d03d 5084 b13d dbde 113e 7f84 b63d
00000010: b65b 433e 03bf 603d afa3 cabd c3e0 03bd
00000020: 0b32 3e3d 96bf 95bd 1d10 3cbe 8aa4 36bd
00000030: 56b2 9eb7 eb85 86bd 283d 943e 2635 cfbd
00000040: 6821 373c a708 b03e 051b 463e 1089 57bd
00000050: 2665 aa3c 8f14 2bbe a687 15be 2873 853e
00000060: 7ccd 0ebe 0788 183d 27e9 e43d fb18 823e
00000070: c95e c2bd d56c 32bc 5a7a 83be 7f39 62be
00000080: c2d0 31bd a46c 213e d92f 29be 5d91 07be
00000090: eb17 e4bd f46f b93d 5313 8ebe ad30 83bc
000000a0: 1aff 3cbc af98 02be 6628 8bbd 494d 66be
000000b0: a67e 27bd d539 bbbd 5aa7 8fbd a6b3 ca3d
000000c0: dbdc 8d3d 40ee 033e de4a 68be fe12 c53d
000000d0: 68cd d3bd eede 14be f600 9dbd 5319 693d
000000e0: 0d92 e93d 4260 e23c 4f99 09be ff6b 2dbe
000000f0: 2cfd 713e 32a6 3c3d df80 3c3e 2783 08be
00000100: bda9 91bd dbe3 ccbd abc0 d83d f930 bfbc
00000110: c236 e63d 59ec ebbd 72d1 4ebc f953 2a3e
00000120: b8cb 41bc b480 103e 2c4a ea3c 807e 31bb
00000130: 252c 8fbd 5053 a7bb 30aa 123e 0fa8 fcbc
00000140: da1b d1bd 083d b63d d0f2 d63d 5911 dfbd
00000150: fbf3 b43d e810 11be df58 52be 4bc3 953d
00000160: 02d6 e6bc 7796 07be c22a 9bbc 978c fc3d
00000170: ca9f 3d3d 014b 333c caac dbbc dedd 9fbd
00000180: 95a3 003d 083a 003e 4794 03bd 6e6e 143e
00000190: 01c8 a3bd d364 d03d 7ef4 ac3d 6266 3ebe
000001a0: 164b e23d f26a 69bc ef47 55bc 03eb cdbc
000001b0: e3f5 c4bd 7642 f33d 0489 f3bc fb33 15be
000001c0: 8025 e13d a044 8a3e 3863 0c3c 44bd c43d
000001d0: 5d49 a5bd 4247 44be b46e 57bc abbb cb3d
000001e0: 2cc5 ffbc 21d0 4bbd 9d34 983d d5d6 4bbd
000001f0: 8c8e fb3c 4a03 50bd fe98 eb3d e565 2f3c
00000200: 7237 723e 3d85 333e 6e16 f93d 7733 0d3e
00000210: 93da 173e 7f32 423c 58f1 153d c234 3d3e
00000220: d185 873e d208 35be 4d4c f53d 74a6 333e
00000230: 9316 54bd a354 0f3d f242 21be b849 0f3d
00000240: 2085 7fbd 3ec1 12be 18f1 51bc 1722 00be
00000250: 9cba d5bd 529f 6c3d b0bb db3d 4971 71bd
00000260: 636e 3d3e e9af afbd 938e d53c becd 313d
00000270: 1982 3ebe 0795 d5bd 1ca2 5bbe df00 293e
00000280: 8157 393e ccbf 3ebc f055 49bd b9ce 613d
00000290: ba2c 1fbe 167d 2b3d d9ed 3ebd 892e 7bbe
000002a0: 806f 04be 17f9 853d eba5 b93d 7ebe b4bd
000002b0: c5d1 8dbd 6f98 a93d b4c7 953c 2859 b8bd
000002c0: b5b8 1cbd 3f35 98bd d96a 633e de9c f3bc
000002d0: fc38 b5bd 6b12 343e 8cc5 7f3c 6ea5 e1bd
000002e0: 9302 e93b bf3e 5e3e 798c b2bc c321 5fbd
000002f0: d708 0a3e f5ef b83c ec22 dfbd 16b9 c4bd
00000300: 4a9c 40bd 04a4 9abd d7d5 7c3d f43c 4f3c
00000310: cfd5 a23d bd87 013e dbd9 f13b c16d 823d
00000320: 0441 78be e507 263e 3bb2 87be b253 b5bd
00000330: da62 70be 17ab babc 2811 153e 4c2f 1b3d
00000340: 9b00 7d3d ae73 a3bd 5c82 023e 2561 0f3d
00000350: ed3c 623e ea57 93bd 75e3 b4bc 0a75 fe3c
00000360: 8356 5d3d d859 9dbd d0c1 8a3e 3dd6 f1bd
00000370: 10fe c13d 03c6 2f3e e5e2 3f3c fc64 2fbe
00000380: 2d5e 833d cae9 233e ce01 dabb 6a76 ff3c
00000390: c628 9a3c 3e13 2c3d 2ecc 90bc 4b1d a0bd
000003a0: 8e10 d73d c841 17bd 388e 80bc f711 0abe
000003b0: d5a6 76bc 3052 9d3c cb53 33be be41 8e3b
000003c0: e9e2 94bd fe59 2a3e b927 fe3c d595 0dbe
000003d0: 2003 5a3e 1772 3cbe f095 80bc 66dc d3bd
000003e0: da62 9f3c 935d 5fbe c679 9fbc e8c4 163e
000003f0: f470 023a 9fb9 dd3c 5603 aebd fb5d f43d
0.10181513 0.08667815 0.14245169 0.089119904 0.19077954 0.054869663 -0.098945014 -0.03219677
0.046434443 -0.07311933 -0.18365522 -0.04459051 -1.8918112e-05 -0.065685116 0.2895291 -0.10117559
0.011177398 0.343816 0.19346245 -0.052620947 0.020800184 -0.16707061 -0.14602527 0.2606442
-0.13945574 0.0372391 0.11177283 0.25409684 -0.09490735 -0.010890205 -0.25679284 -0.22092246
-0.043411978 0.157641 -0.16522159 -0.13239045 -0.111373745 0.090545565 -0.27749118 -0.016014421
-0.01153543 -0.12753557 -0.06794815 -0.2249042 -0.040892266 -0.0914189 -0.07014342 0.098975465
0.069268905 0.12883854 -0.2268481 0.09622763 -0.103419125 -0.14538166 -0.07666199 0.056908917
0.1140481 0.02763379 -0.13437389 -0.16935728 0.23631734 0.046056934 0.18408535 -0.1333128
-0.07112453 -0.100043975 0.105836235 -0.023338782 0.11240913 -0.11519689 -0.012623178 0.16633596
-0.0118283555 0.14111596 0.028599821 -0.0027083457 -0.06990842 -0.005106367 0.14322734 -0.030841855
-0.102103904 0.088983595 0.104955316 -0.10891981 0.08835598 -0.14166605 -0.20541714 0.0731264
-0.028178219 -0.13240992 -0.018941287 0.12331503 0.046294965 0.010943175 -0.02681579 -0.0780599
0.031406004 0.12522137 -0.03212383 0.1449525 -0.07997132 0.10175481 0.08445071 -0.18593743
0.11049478 -0.014246689 -0.013017639 -0.025136476 -0.09617212 0.11877911 -0.02972842 -0.1457061
0.10993481 0.27005482 0.0085685775 0.09606412 -0.080706336 -0.19167808 -0.013148952 0.09947904
-0.031221949 -0.049759034 0.0743191 -0.049765427 0.03070762 -0.050784387 0.1150379 0.010705446
0.23653963 0.17531295 0.12162481 0.13789164 0.14829473 0.0118528595 0.036607116 0.18477157
0.2646928 -0.17679146 0.11977444 0.17543966 -0.05177934 0.034992825 -0.15748194 0.034982413
-0.062382817 -0.14331529 -0.012813829 -0.12513004 -0.104359835 0.057769127 0.10729158 -0.058945928
0.1849914 -0.08578474 0.026068961 0.0434091 -0.18604316 -0.10428815 -0.21448559 0.16504239
0.18099786 -0.011642408 -0.049154222 0.055128787 -0.15544406 0.041867338 -0.046613548 -0.2452947
-0.12933159 0.06541651 0.090648495 -0.08825396 -0.06924776 0.082810275 0.018283702 -0.0900138
-0.038262088 -0.07432031 0.22208728 -0.029737886 -0.088487595 0.17585151 0.015611064 -0.11017881
0.0071109026 0.21703623 -0.021795498 -0.054475557 0.13479935 0.022575358 -0.10895333 -0.09605615
-0.04702405 -0.07550815 0.06172737 0.01264881 0.07950937 0.12649436 0.0073807067 0.0636859
-0.24243551 0.16213949 -0.26503167 -0.08853854 -0.23475209 -0.02278666 0.14557326 0.037886903
0.061768156 -0.079810485 0.1274504 0.035004754 0.22093554 -0.07194503 -0.022081116 0.031061668
0.054037582 -0.07683152 0.27100992 -0.11808441 0.09472287 0.17165379 0.011711811 -0.17128366
0.06414447 0.16007152 -0.006653047 0.031184394 0.01881827 0.04201054 -0.017675485 -0.07818087
0.105012044 -0.03692797 -0.015692815 -0.13483416 -0.015054424 0.01920423 -0.17512433 0.004341333
-0.07269842 0.16635892 0.0310248 -0.13826688 0.21290255 -0.18402897 -0.015696496 -0.10344772
0.019456316 -0.2181304 -0.019467246 0.14723551 0.0004975938 0.02706605 -0.0849673 0.11931988

lstm.weight_hh_l1 f4 [200, 50]
00000000: e5a0 c93e d3b7 80be 2958 39be 70e7 a33d
00000010: ef1b 08be a30e 45be 0b7a 293e 104d 143d
00000020: fb23 6dbd a60e 683e 2cad 653d fd39 1cbe
00000030: c57d 06bc e21e 5f3d 5ac2 893c 0bdc 423e
00000040: 8e25 a9bd d3e1 8e3e d5cf 883d 40b8 803d
00000050: d9db 3fbc c1d6 9c3d c278 19bd e419 e5bd
00000060: 170d 40be 08ab e23d 99cc 2abe 2f5e 013e
00000070: 53ab a03d 0040 803e fc63 65bd e8dd 453c
00000080: 50ab a8bb b95c 9d3d ae1d e1bc a83f c23d
00000090: d387 80bd 7704 8dbe 7d51 33be 6ba6 0d3e
000000a0: 7320 e53d 5811 bcbd 2aa6 213e 54f8 b73b
000000b0: 2ace ff3d feb4 c7bd 44ec 5e3e d39b 8b3d
000000c0: 785b 87bc 70b0 343e c42f a33c 0b3e ad3d
000000d0: c7f3 5c3d aef2 543c 6ced 233d a94c ae3c
000000e0: 3d96 063a 646b 7cbd bae2 22be 8bb2 613e
000000f0: c39f cc3d a7b7 05bd eb59 afbc 3517 cdbd
00000100: 10f1 d73d f5b9 c4bd fe54 6abd 8128 693d
00000110: 4959 173e 16d4 b1bc 6727 08bd 4171 f33c
00000120: e455 13bd 0159 e0bc b521 94bd ccd4 ac3c
00000130: 84fe 3c3d 3591 fdbd 7cdb c1bd f03a 20be
00000140: 70f8 d1bc d8fa a03b 8a65 9d3d a76a 63bd
00000150: b2b0 8dbd 90f4 bebd 2663 de3d 4727 143e
00000160: 6a42 b93c 0577 89bb 31b2 25ba 3748 363c
00000170: 8e16 9bbd 9ef9 63bd 897b d6bc 5aa8 243d
00000180: 57e7 833d d2eb 19be 614f c43c e775 86bd
00000190: 72ca 1a3e 98e1 aa3d 5d4d 9b3c 7bcf d0bd
000001a0: 903a 02be c727 203e 534f 0cbe 6970 78bd
000001b0: 35d9 f6bd 37f2 44bd 1d0b db3a d06f a83d
000001c0: c009 c4bd d673 c2bb b796 fe3d e6de a13c
000001d0: 35cf 1bbe 701c 733d 7911 5c3d af4c 86bd
000001e0: f110 18be 7c59 ebbd 1450 aa3d b302 48bd
000001f0: 9be1 b33d a45f 8a3a 03eb 173d 2f96 9dbc
00000200: b5c9 fe3c 68ec a2bd 0297 873d 73a9 2abd
00000210: 9aac ddbd a97e 1b3e ac22 eb3d 2e28 e43b
00000220: eaad 95bd 6d77 06be e2a1 373d 2284 f1ba
00000230: 935c b2bd 0af8 ddbd 98ba a33d dde6 a43c
00000240: 33d5 213d 1880 28be 747b e3bd 61ff 0c3e
00000250: 8c92 23be 96c8 ea3d 01d5 893d 2725 f7bc
00000260: e5cc 0ebd 4c43 3c3d 1be3 653c 11b6 d2bd
00000270: 3c92 7bbd 5ae9 b2bd eb5c 0abd 29f0 dcbd
00000280: 3020 90bd d5cf d1bd bf80 223e 125e d6bc
00000290: e243 563c c743 72bd c81c 17be 8768 0cbe
000002a0: c9bb c7bd 0788 05bc 7028 30bb 213b 9fbd
000002b0: a381 64bd 5db0 fcbc 207d 3f3d 0dbe afbd
000002c0: 421f 463d b567 d63c 1c93 1dbd cc55 133d
000002d0: accb 32bd 61d6 613d 0286 4e3d 82c5 08bd
000002e0: 5ee2 2c3d b353 883d 7a73 02bd befb 0bbe
000002f0: f467 e9bd 23db cbbd 0528 53bb 394a 053e
00000300: ddf5 fbbd 59af f6bb 4744 59bd 568d 1ebe
00000310: d59f edbd 3179 bbbd 03c0 40be 7d95 b03c
00000320: 696e babd 854e 03be 7cd3 85bc d340 00be
00000330: 9871 113e 08e5 e03d b956 9cbe 73b4 cbbc
00000340: 5cd6 bb3e 9015 7d3d 60aa 1f3d cd16 a6bd
00000350: 52dc 863d f05e f6bd dc52 e7bc 478a 10bd
00000360: a325 483d c749 dd3d 4625 9d3d de54 6fbc
00000370: ea0c 153d bc8e 693e 406d 94bd 16da e3bd
00000380: bc72 a03d 2210 433d 05a9 f23d f7d3 903d
00000390: 603d 85bd 2b2e 35be f01a b63d c9c1 4d3e
000003a0: 476a d83d 2e02 7f3d d554 2cbe bb74 8e3e
000003b0: c7d8 143c 1deb a13d aca3 84bd 0367 153e
000003c0: 2512 dfbd ed4a a7bd a36a 21bd 4d54 0cbe
000003d0: 4455 b5bd d83a 203e f19a 713d 68c3 b1bd
000003e0: 8f5c 6dbd 019f e6bc 49b2 e23d 2fb1 1e3e
000003f0: 67ab 95bd 498c c0bd e9ea eabd 674c 51ba
0.39380565 -0.25140247 -0.18100037 0.080031276 -0.13291906 -0.19243865 0.16550462 0.036206305
-0.05789564 0.22661838 0.056073353 -0.15256496 -0.008208697 0.05447281 0.016816307 0.19029252
-0.08259116 0.27906665 0.06680266 0.06285143 -0.011710131 0.076581486 -0.03746868 -0.11186579
-0.18754993 0.11067778 -0.1667961 0.12633584 0.078451775 0.25048828 -0.056003556 0.012076832
-0.005147375 0.07683701 -0.027479973 0.09484798 -0.062759064 -0.2754247 -0.17511554 0.13833015
0.1118783 -0.091829956 0.15786043 0.00561432 0.124904945 -0.097513184 0.21769816 0.068168305
-0.016523108 0.1764543 0.019920237 0.084590994 0.05394342 0.0129973125 0.040021345 0.021276789
0.00051340816 -0.061625853 -0.15906802 0.22040765 0.0999141 -0.032645848 -0.02140518 -0.10014192
0.10544026 -0.09605781 -0.05720996 0.056923393 0.14780153 -0.021707576 -0.033240702 0.02971709
-0.035970584 -0.02738619 -0.072329916 0.021097563 0.046141163 -0.12381212 -0.094656914 -0.15647483
-0.02563116 0.0049127154 0.07685383 -0.055521633 -0.069184676 -0.0932399 0.10858755 0.14468108
0.022614677 -0.0041950964 -0.0006320803 0.011125616 -0.07572661 -0.055657975 -0.026181953 0.040199615
0.06440609 -0.15031365 0.023963632 -0.06565457 0.1511629 0.0834381 0.018957788 -0.10195824
-0.12717652 0.15640174 -0.13702135 -0.060654078 -0.12053148 -0.048082557 0.0016711686 0.082244515
-0.09572172 -0.005934219 0.1243109 0.019759607 -0.15215762 0.059353292 0.0537276 -0.06557595
-0.14850213 -0.11491677 0.08316055 -0.0488307 0.08783265 0.0010557068 0.03708936 -0.019236652
0.03110204 -0.07955247 0.06620599 -0.041665506 -0.10823937 0.15185036 0.114812225 0.0069627976
-0.07308562 -0.13131495 0.044832118 -0.001842622 -0.087090634 -0.10838325 0.07994574 0.020129615
0.039509963 -0.16455114 -0.11107531 0.13769294 -0.15973872 0.1146404 0.067300804 -0.030169083
-0.03486337 0.045962617 0.014031197 -0.10288633 -0.061418757 -0.087359145 -0.03378002 -0.107879944
-0.07037389 -0.10244719 0.15869425 -0.026167903 0.013077708 -0.05914667 -0.14757073 -0.13711749
-0.09752614 -0.008150107 -0.0026879571 -0.0777495 -0.055787694 -0.030845815 0.046750188 -0.08581171
0.048369654 0.026172498 -0.038470373 0.035970494 -0.043651268 0.05513609 0.05042077 -0.033391483
0.042208068 0.06656589 -0.03184841 -0.13670251 -0.113967806 -0.099539064 -0.0032219898 0.13016595
-0.12302754 -0.0075282273 -0.05304363 -0.15483603 -0.11602751 -0.09153975 -0.18823247 0.021555657
-0.0910309 -0.12822922 -0.016336195 -0.12524728 0.14203489 0.10981184 -0.30534914 -0.024866318
0.3668698 0.06178814 0.03898084 -0.08109818 0.065849915 -0.12029827 -0.028237753 -0.03528812
0.04886402 0.108050875 0.07673125 -0.014607636 0.03638927 0.22808355 -0.072474 -0.11125581
0.07834384 0.047622807 0.11848644 0.07071679 -0.06505847 -0.17693393 0.08891857 0.20093454
0.10567146 0.062257938 -0.16829236 0.27823433 0.009084887 0.079061724 -0.064765304 0.14590077
-0.10892133 -0.08168588 -0.039408337 -0.13704033 -0.08854154 0.15647447 0.058985654 -0.08679849
-0.0579496 -0.02815199 0.110691614 0.15497278 -0.07308083 -0.09401757 -0.11470587 -0.0007984102

lstm.bias_ih_l1 f4 [200]
00000000: 95fc 923d a1fb 1d3e 115d bc3d c15c 9abd
00000010: dc9f 83bd b527 1a3e 5d26 193e 7771 873d
00000020: d07e 3a3e b471 cdbd 42cc 813c 79c7 ca3d
00000030: 7c0d 8fbd 72f6 0fbe fbe8 46bd 1ca1 1b3e
00000040: 754b f33d bab1 093e d721 01be 18ed 3b3c
00000050: ff30 73bd cb95 8a3e 4d90 c13d f511 a43d
00000060: 8fff 823d 57cd 7abd e8e7 023e 8054 f1bd
00000070: 5dae 073d 2c4e 193d cd79 37bd 4d1e a03d
00000080: e9ec d43d 9727 933d d5a1 a63d 47a9 1fbd
00000090: 70d1 3f3c fb76 203e 3168 94bd a620 dc3d
000000a0: 20d9 123e a707 9cbd 1377 ae3d 4ef5 0ebd
000000b0: 615f 4e3e 77d4 863d 7711 fcbd e5ee f1bd
000000c0: f3b6 293e 88bb 2fbe 1348 aa3d 5fc6 8e3d
000000d0: d565 973c 99bc ccbd f0ca fa3d ba3a 063d
000000e0: 8ef3 4c3d f855 9f3b 5137 d13d 7780 53be
000000f0: ee26 0ebc 2b54 98bd 54a8 f83c 045b ad3d
00000100: 76e9 e53c d6d0 243c b4b5 abbd 36d5 313d
00000110: a425 8fbd 72e1 bf3c 07c5 533d f8fa 2ebd
00000120: 5094 30be 9400 69bd a8f8 fabd 99ed 14bd
00000130: b8d6 2cbd 6640 b73d 0fe3 c03d a5b1 fbbd
00000140: cebd ddbc ae25 ab3d ea83 d03d 801b 6c3d
00000150: f7d6 73bb 5f3e 42bd 6d6f 75bd bbf5 083d
00000160: 65c1 05be 62c6 cbbc 949f eebc a426 583c
00000170: 6d84 98bb f042 953d a6a2 8e3d d3af 013e
00000180: e83d 353c ed88 11be ebfe 89bd ed1a 9bbd
00000190: 6be5 c1bd c8fe 103d 6c79 d33c 83ee ca3d
000001a0: 370c 9bbc 1b6f 7a3d 5373 003e 0add 4d3d
000001b0: b248 32be fbc9 b5bd f7bf 8fbd 3cc1 453b
000001c0: c207 cd3c 977e 8a3d fd7f 243e fce1 a7bd
000001d0: 02dd 22bd 9e60 d33d 5025 143e b1a9 a53d
000001e0: 23b8 ebbd 31f2 b1bc c54f f5bd 16eb 57bd
000001f0: 7b8b 823c 259f 1e3e b2cd 2b3e e103 b7bc
00000200: 93a4 b5bd 2cd3 19be 8bbc e23d 0c6e f9bd
00000210: de62 debd 0d3d 133d 375a 793d dd01 5bbd
00000220: 2e01 243e b0fc 2c3d 46b6 7fbc 4907 c5bd
00000230: dc1f 043e 2054 2f3d 3eb0 bf3c 1381 96bd
00000240: a423 a0bd cd92 cbbc 3619 8abd 8e5e f13d
00000250: 4b4d 0bbd 3188 123d 64b2 093e b43e 0cbe
00000260: fd18 343d 0650 7fbd 260f 993d 8f05 02bd
00000270: 5660 5bbd bf82 febc a7e1 53bb 79b5 2bbd
00000280: 0478 fabd 71d5 cfbc 87b1 21bd 8e19 90bd
00000290: ae65 103d c9dc 85bd 7523 3cbd e129 81bd
000002a0: c1a6 843d d23d 85bd 2c9e a93d b6bb b7bd
000002b0: bcb6 9a3d cf4c 74bd 502a bbbd f379 e5bd
000002c0: 2d27 a2bd 5335 22be 82c8 523d 9207 bd3d
000002d0: 836e 4f3d a8f1 bc3d 668d 9abd 9eb6 d83d
000002e0: d33e c73d 7c3b 2dbd 4c2f 4b3d 7d19 113e
000002f0: e1f8 0f3d cfef ecbd c5b3 ae3d d413 eebc
00000300: d039 133c fac5 89bc 1b8b ffbd 814f 44bc
00000310: 6532 24be 2aab b83c c62b 8d3d 2de9 bd3d
0.071770824 0.1542802 0.091974385 -0.07537223 -0.06426975 0.1505421 0.1495604 0.066134386
0.18212438 -0.10031453 0.015844468 0.09901328 -0.06984994 -0.14058855 -0.04856203 0.15198177
0.11879627 0.13446704 -0.12610565 0.011470102 -0.0593729 0.27067408 0.09451351 0.080112375
0.063964 -0.061230984 0.12783778 -0.11783695 0.03312527 0.037428066 -0.044793893 0.078182794
0.103967495 0.071852855 0.08136336 -0.038979795 0.011707649 0.15670387 -0.072464354 0.10748415
0.14340639 -0.07618647 0.08518805 -0.03490191 0.20153572 0.06583493 -0.12308019 -0.11813144
0.16573696 -0.17161381 0.08314528 0.0697143 0.018481174 -0.0999691 0.122457385 0.03277085
0.05003696 0.004862543 0.10215629 -0.20654474 -0.008676274 -0.07437929 0.030353703 0.084646255
0.028065424 0.010059556 -0.083842665 0.043416224 -0.06989601 0.02342293 0.05170157 -0.04271981
-0.17244077 -0.056885317 -0.12254459 -0.036359403 -0.04219696 0.0894783 0.09418308 -0.122897424
-0.027068045 0.08356796 0.101814106 0.057643414 -0.0037206986 -0.047422763 -0.059920717 0.03343747
-0.13062055 -0.02487487 -0.029128827 0.013192806 -0.0046544583 0.07288158 0.069646165 0.12664728
0.011062123 -0.1421239 -0.06738075 -0.07573495 -0.09467586 0.03539923 0.025814734 0.09908774
-0.018926723 0.061141115 0.12543993 0.050259627 -0.17410544 -0.08876415 -0.07019036 0.003017499
0.025028113 0.06762426 0.16064449 -0.081974 -0.03976155 0.10321163 0.14467359 0.08089007
-0.11509731 -0.021721931 -0.119781055 -0.05271443 0.01593565 0.15490396 0.16777685 -0.022340717
-0.08869281 -0.15021962 0.11071118 -0.12179193 -0.10858701 0.035946894 0.06087705 -0.053468574
0.16016075 0.04223317 -0.015607422 -0.0962053 0.12902778 0.042804837 0.023399469 -0.07348838
-0.07819298 -0.024850274 -0.0674309 0.11785613 -0.03400926 0.035774413 0.13446957 -0.13695794
0.043969143 -0.062332176 0.074735925 -0.031743582 -0.05355867 -0.031068204 -0.0032330544 -0.041921113
-0.122299224 -0.025370331 -0.039475944 -0.07036124 0.03525322 -0.06536252 -0.045932252 -0.06306816
0.06477118 -0.06505932 0.08282122 -0.0897135 0.07554385 -0.059643563 -0.0913893 -0.112049006
-0.079176284 -0.15840654 0.05146075 0.092299595 0.0506425 0.0922578 -0.07546501 0.105817065
0.0972878 -0.042293057 0.049605653 0.1416988 0.03514946 -0.11569177 0.08530382 -0.02906219
0.008985952 -0.016818035 -0.12477704 -0.011981846 -0.16034849 0.022542555 0.06893115 0.092729904
