models/cnn_lstm_last.pth (torch, 156610 bytes, 12 tensors)

cnn.0.weight f4 [32, 9, 3]
000000 2c 46 1a bd 87 53 67 bc f3 7b 04 be a8 eb 15 be
       -0.037664577 -0.014119036 -0.12937908 -0.14640677
000010 82 8d 91 3d 0f 1c 7c bd b4 5c 3d 3e ae 5c 52 3e
       0.071070686 -0.061550196 0.18492395 0.20543167
000020 d3 c1 30 3e 48 65 a3 3d e3 a9 f7 bd 4f da 1b 3d
       0.17261438 0.07978302 -0.1209295 0.038049992
000030 d8 12 eb bd 83 40 1e 3e 70 a6 e8 3d 58 59 59 3e
       -0.114782035 0.15454297 0.113598704 0.21225488
000040 2b c7 a6 3e 28 9f e9 3d 42 05 a6 3d 1c 7e 2f be
       0.32573828 0.1140731 0.081064716 -0.1713795
000050 fd 9f 3d be 68 14 9c 3a 2e 56 7e 3d 8b 99 cb 3d
       -0.18518062 0.0011907937 0.062093906 0.09941395
000060 95 5b 58 be 08 ae b7 3d d0 cb 3e be 13 d4 07 be
       -0.21128686 0.08968741 -0.18632436 -0.13264494
000070 39 2d a5 ba 46 f7 36 3e 12 2b a4 bd d5 37 a8 bd
       -0.0012601978 0.17867765 -0.080160275 -0.08213774
000080 49 c9 c4 3d d0 1d 26 3e e2 d8 6e 3e 90 bd be 3e
       0.096087046 0.1622231 0.23324922 0.37254
000090 55 ff 52 be 4c d0 09 be 80 c9 ab be d9 0e 9a 3b
       -0.20605214 -0.13458365 -0.3355217 0.004701477
0000a0 8a c0 5a 3e 1c 09 92 bd 52 e6 90 3d 46 0a 9e 3e
       0.2136251 -0.07130644 0.0707518 0.30867213
0000b0 1f e5 86 3e 63 4c 43 3e ed 8a c5 3d 2d 7e f5 3c
       0.2634668 0.19072108 0.096456386 0.029967392
0000c0 bf ea 56 3d b3 0e df 3d cb 5b 39 3e 21 0b d0 bd
       0.052469965 0.108914755 0.18101422 -0.10158373
0000d0 f0 b1 1d be 02 10 33 be 52 b4 bf 3c be 07 a6 3d
       -0.15399909 -0.17486575 0.023401413 0.081069455
0000e0 b7 f3 9e 3c 9c 74 54 3e 74 f1 87 3c 66 6d b3 3e
       0.019403322 0.20747608 0.016594626 0.35044402
0000f0 7c a9 af bd 7f 98 dd bd e2 b7 a7 bd ca e8 23 3e
       -0.085772485 -0.10820102 -0.0818937 0.1600677
000100 d8 86 54 3e 89 3e 82 3e c4 3e 95 3d 52 56 8a 3d
       0.20754564 0.25438336 0.07287362 0.067547455
000110 ba 89 e7 bd 86 c3 b8 be ae 53 4e be ea 7c 6b be
       -0.11305566 -0.36086673 -0.20149109 -0.2299687
000120 e6 ba 3f bc 2a 93 99 3e 4c 7a f7 3d 45 d0 94 3d
       -0.011702275 0.2999509 0.12083873 0.07266287
000130 6d af 3b 3d c5 74 ac 3d 16 fb b4 bd 65 b9 4a be
       0.045821596 0.084207095 -0.08836953 -0.19797285
000140 83 c0 46 be 91 d5 18 be 61 cd 8d bd 26 04 bf 3d
       -0.19409375 -0.14925219 -0.069239385 0.09326963
000150 0b 91 05 3e b8 d8 b5 bc 37 54 c7 bd d6 4f 1d be
       0.13043611 -0.022198066 -0.097328596 -0.15362486
000160 6c 4f 21 be fc 46 7f 3d f2 d6 04 be 3a f1 18 be
       -0.15752953 0.062323555 -0.1297262 -0.1493577
000170 7a 9c 9b 3d d1 ab 13 3e 38 40 20 3d 39 95 21 be
       0.07598205 0.14421012 0.039123744 -0.1577958
000180 d2 43 fb bd 30 ce 5e 3c 4e 63 da bd 00 55 ae 3b
       -0.12268795 0.013598964 -0.10663472 0.0053201914
000190 40 77 1e 3c f1 f2 09 be 38 bf 0b be 00 70 71 38
       0.009671986 -0.13471581 -0.13647163 5.7563186e-05
0001a0 a6 62 84 3d f2 83 10 be c0 a4 ab bb 88 cc 14 bd
       0.06464128 -0.14112833 -0.0052381456 -0.03632787
0001b0 89 d4 03 be 3a 95 d7 3d 20 03 3d be 21 b7 74 be
       -0.12874044 0.105265096 -0.18458223 -0.23897983
0001c0 7a 16 89 be a6 a1 ad 3d 1a dc 9e bd 4d 20 02 3b
       -0.2677496 0.084780976 -0.07756825 0.0019855679
0001d0 ee d2 22 be dc 4e 73 3e 24 19 89 3e 71 67 59 be
       -0.15900776 0.23760551 0.26776993 -0.21230866
0001e0 98 bd 6c bd 5a 2e b2 3d c6 9e 8d 3d 33 19 f1 bd
       -0.057798 0.08700247 0.06915049 -0.117723845
0001f0 85 ee 7d be 0c e7 85 bd 2f 80 92 3c 0e a8 e2 bc
       -0.24798019 -0.06538209 0.017883388 -0.027668025
000200 ca 66 d2 bd ae 80 c8 bd d3 fa 10 3d a0 b8 09 3e
       -0.10273512 -0.09790169 0.035395455 0.13449335
000210 7f 1f 04 be 91 f9 22 be 0d 8d 04 3e 2b 22 00 3e
       -0.1290264 -0.15915515 0.12944432 0.12513034
000220 37 85 0f 3d ec ad 1e 3e 39 95 0d bd be 25 3a 3e
       0.035039153 0.15496033 -0.034566138 0.1817846
000230 e9 fa d6 3d 93 92 3d 3e da 67 32 3e f3 4f a6 bd
       0.10497076 0.18512945 0.17422429 -0.08120718
000240 6f 64 49 3c ac ad 5f be 61 53 28 be aa da 57 be
       0.012292012 -0.21843594 -0.16438057 -0.21079507
000250 45 92 44 be 1c 39 ec bd 2c c0 5b be ac 5e 6a be
       -0.19196422 -0.1153433 -0.21460027 -0.22887677
000260 b7 8b 91 be e2 7f ca 3d c0 39 0c be 77 52 93 bd
       -0.28426906 0.09887673 -0.13693905 -0.07193463
000270 f7 44 43 be ce 6b 18 3e 6d 6d 81 3d 40 9d f8 bd
       -0.19069277 0.14884874 0.063196994 -0.12139368
000280 d3 5b 03 3d 48 3a 49 3c 32 9f 33 3d fe 1c 66 3d
       0.032069992 0.012281962 0.043852992 0.056179993
000290 3f b8 3f be 0b d1 44 bd 24 02 29 3e 26 28 e0 bd
       -0.18722628 -0.04805092 0.16504723 -0.10945158
0002a0 3a 71 c4 bd b4 ed 92 bd db 75 7d bd 17 38 9f 3e
       -0.09591909 -0.071742445 -0.061879974 0.3109748
0002b0 48 d5 a6 3e a8 dd 0f bc af 95 46 bc 00 e0 89 bd
       0.32584596 -0.008780874 -0.012120648 -0.06732178
0002c0 e5 fc 61 be 8c 68 57 be 2d c1 e6 3d ba f1 a2 3c
       -0.22069128 -0.21035975 0.11267314 0.019890655
0002d0 e0 01 39 bc 23 4d 1c 3e c4 6e ec 3d d2 60 8b 3e
       -0.011291951 0.152638 0.11544564 0.27222306
0002e0 1b 63 e8 3c ae e3 3f be 2f cc 56 3e 95 e4 27 3d
       0.02836757 -0.18739197 0.20976327 0.040989477
0002f0 78 26 50 3e a0 d4 30 be ce 2b 00 3e 7f 05 40 3e
       0.20327175 -0.1726861 0.1251671 0.18752097
000300 e3 9b 21 be f9 30 a2 bd 74 8c 02 3e 45 d8 93 bd
       -0.15782122 -0.07919497 0.12748891 -0.072189845
000310 5c 87 9a bc a5 45 3f be 6c ad 10 3e 63 59 84 3e
       -0.018863373 -0.18678911 0.14128655 0.25849447
000320 d3 ef d7 3e 7a d2 80 bd 20 fc 06 be bc 46 63 be
       0.4217516 -0.06290145 -0.13182116 -0.22194952
000330 04 f8 03 bc 3e ba 0f be 3c 96 91 3c ce ee 77 be
       -0.008054737 -0.1403589 0.017771833 -0.2421219
000340 e0 d9 9e be 7b 6e 84 be 87 0b ca bc 90 5d b6 bd
       -0.310256 -0.2586554 -0.0246637 -0.089045644
000350 ce 36 7d 3c 77 5b 74 bd 9d 1e 91 bd aa 4b 02 3d
       0.015454961 -0.05965754 -0.07085917 0.03181044
000360 22 cd cc 3d 18 db bd 3c 85 de f6 bc 82 6e f0 bd
       0.100000635 0.023175761 -0.030135402 -0.11739828
000370 18 e4 cd bd 79 10 e1 3d 2f 02 83 bd d8 27 21 bd
       -0.10053271 0.1098947 -0.06396901 -0.03934464
000380 8c 69 b1 bd 64 d3 29 be 4d 55 96 3d 2e 47 08 be
       -0.086627096 -0.16584545 0.073404886 -0.13308403
000390 a6 78 11 bd 4a 94 3d bb 58 af 55 bd 78 e9 9b bd
       -0.03551545 -0.0028927498 -0.052169174 -0.0761289
0003a0 c3 f5 2d be 05 26 66 be 41 b0 56 be 8b df cf bd
       -0.16988282 -0.22475441 -0.20965673 -0.10150059
0003b0 fb d7 03 be 3d 4a 65 3e 6f 3a a8 3d 7e ba 69 bd
       -0.12875359 0.22391601 0.0821427 -0.05706262
0003c0 ab e3 2a bb 00 d7 1a bd 83 5e 26 3e 4d b2 5d 3d
       -0.0026075642 -0.037802696 0.16246991 0.05412512
0003d0 c3 3f 9e bd 68 dd 13 bd e3 f6 ab be 4c 6f 1e be
       -0.07727005 -0.03609982 -0.33586797 -0.15472144
0003e0 b0 74 97 be 1f a9 e2 3d 6a 20 17 3a 46 7a 85 3c
       -0.29581213 0.110674135 0.0005765023 0.016293656
0003f0 61 48 d2 bd f4 bb 0d 3e 33 20 7e 3d b2 c3 25 3e
       -0.102677114 0.1384123 0.062042426 0.16187933

cnn.0.bias f4 [32]
000000 2b be 19 be 8f 50 4a be cc 0f 1f 3e 0e 60 2e be
       -0.1501395 -0.19757293 0.1553337 -0.1702883
000010 a6 83 36 3b 33 73 19 be f0 b6 3e 3e 68 4d 83 3d
       0.0027849465 -0.14985351 0.18624473 0.064112484
000020 ac e8 e6 bd 52 05 22 3e 11 32 4c bc c6 3c 3d bd
       -0.112748474 0.15822342 -0.012463109 -0.046200536
000030 35 60 39 be 62 61 ce bd 05 61 9e 3d 23 46 ca bd
       -0.18103106 -0.10077168 0.07733349 -0.09876659
000040 a5 cf 13 3e 40 92 2d 3e 1f 64 49 bd f5 9a 58 be
       0.14434679 0.16950321 -0.04916775 -0.21152861
000050 ad 85 27 be 7b 54 01 be 12 7b 8d 3d fc 0f 64 3d
       -0.16359587 -0.12629883 0.069082394 0.055679306
000060 f8 34 5d 3d d5 02 97 3d d1 94 83 3c 51 a0 b5 bd
       0.054005593 0.07373587 0.016062172 -0.088684686
000070 1d 45 ff bc f3 83 8b 3e f4 f5 07 be 2f 87 e8 3d
       -0.031160885 0.27249107 -0.13277417 0.11353909

lstm.weight_ih_l0 f4 [200, 32]
000000 01 8f ea bd 78 3a 3b be 6a 2d 89 be dc c7 bd bd
       -0.11453057 -0.18284023 -0.2679246 -0.09266636
000010 f0 ef f0 bc ae 11 43 bc 34 71 a2 bd 55 36 ce bd
       -0.029411286 -0.011906071 -0.07931748 -0.10068957
000020 36 84 9c bc d2 76 2d 3e 31 1d f0 bd a3 d1 13 3e
       -0.019106012 0.16939858 -0.11724318 0.14435439
000030 ed d2 5e 3d ec dc 13 be 03 7c 01 3d a6 79 85 3d
       0.054400373 -0.14439744 0.031612407 0.06517343
000040 0d 30 b4 be 6c f9 17 be 40 e5 d0 bd fd b0 09 be
       -0.3519291 -0.1484124 -0.10199976 -0.13446422
000050 8c a8 84 bd 6e 46 31 bc b6 3d 08 bd ba d6 f7 3c
       -0.0647746 -0.010820014 -0.033261977 0.030253757
000060 a4 b7 ad 3c 49 7f 59 be e6 c0 48 bd 6e ce ae bc
       0.02120573 -0.21239962 -0.049012087 -0.021338668
000070 d8 18 26 3e a4 7b fc bd 25 0c 58 be aa 53 23 bd
       0.16220415 -0.1232827 -0.21098383 -0.03987471
000080 5a 45 2b bc 9d 72 d2 3b d4 df 3f 3d a2 3f 3f bd
       -0.010453546 0.0064223544 0.04684432 -0.046691544
000090 00 38 05 be a0 54 15 3e 61 e3 16 3e 82 b1 da bd
       -0.13009644 0.14583063 0.14735176 -0.10678388
0000a0 c0 73 06 be 93 19 79 be c0 a2 13 3d 62 ba 9c be
       -0.13130093 -0.24326162 0.036043882 -0.3061095
0000b0 c6 07 b8 bd 16 ad 90 3e 66 54 90 3d b5 04 47 3e
       -0.08985858 0.28257054 0.07047348 0.1943539
0000c0 a2 9d b6 3e f7 25 04 3e 9d 1e 7e 3e c1 f1 b6 3d
       0.3566714 0.12905107 0.24816366 0.0893283
0000d0 00 e1 7d 3b 4b 2c 30 3e 30 11 a9 bb c9 9d 21 bd
       0.0038738847 0.17204396 -0.0051595196 -0.039457116
0000e0 de dc df 3d 70 42 09 3e 13 9a 31 3e 11 60 77 3e
       0.10930799 0.1340425 0.17343931 0.2415774
0000f0 c7 1f 10 3e c8 94 90 be 1f cb 62 bd 97 14 f7 3d
       0.14074622 -0.2823851 -0.055369493 0.12064474
000100 72 34 9c 3c f2 35 11 3e 3a 84 14 3e f6 35 2f bd
       0.019067977 0.14180735 0.14503565 -0.04277607
000110 f5 fb 2b be f2 13 8f 3d 52 08 17 bd 23 99 27 be
       -0.16795333 0.06986226 -0.03687317 -0.16367011
000120 22 86 4d bd 5f 72 e1 3b 8c 5b f8 3b 01 d7 11 3d
       -0.050176747 0.006880089 0.0075792726 0.035605434
000130 72 77 bb bd 6b 6c 44 3d 44 c0 3b 3d 3f 0f d8 3e
       -0.09153642 0.047954958 0.045837656 0.42199132
000140 49 70 f6 3d 06 ab 82 3c 9e a9 b0 3d 1e 5f 1d 3e
       0.120331354 0.015950691 0.08626102 0.15368316
000150 70 dd d9 bd e8 24 65 3d b1 3a 4c 3d 68 84 13 3e
       -0.10637939 0.0559434 0.04986066 0.14405978
000160 cc 77 6d bd fd 8a 23 3c 8b 97 71 3d 61 01 d8 3c
       -0.057975575 0.009981868 0.058982413 0.026367845
000170 73 46 10 3e da 87 0a be 7d d8 c2 bc 16 67 3d bd
       0.14089374 -0.13528386 -0.02378487 -0.04624089
000180 20 00 94 3e 97 08 49 3e b6 c8 01 be c0 c5 56 3b
       0.28906345 0.19632183 -0.12674221 0.0032771677
000190 9d d0 49 bb 57 22 47 be 0b 8d d2 3d 6f 03 ce 3d
       -0.003079451 -0.19446693 0.10280808 0.10059249
0001a0 1d 92 be 3d f7 ac 35 3e 8c cd 50 bd 83 db ab bd
       0.09305213 0.17741762 -0.050977275 -0.08391478
0001b0 b4 8e f5 3b 59 ff 9e 3c d2 fd 30 3d b6 77 5f be
       0.007493818 0.019408869 0.043210812 -0.2182301
0001c0 ea 5b 0f 3c cf a4 0e be 61 7e a3 3e 05 ba 85 bd
       0.008749941 -0.13930057 0.31932357 -0.06529621
0001d0 00 93 df 3a 2e c3 cf 3d 05 45 3f 3e 99 fe ff 3d
       0.0017057359 0.101446494 0.18678673 0.124997325
0001e0 f9 bf 2d bd e2 ee 8d 3d ab 5e 15 3c a7 3e 79 be
       -0.042419408 0.06930329 0.009116809 -0.24340306
0001f0 46 a6 c3 3d 1d 3a 0b 3d 30 6e cb bd 9e 30 5b 3e
       0.095531985 0.033990968 -0.09933126 0.21405265
000200 b1 31 7e 3d ab a1 bd 3e 9c a2 0b 3e 96 e4 ed 3d
       0.06205911 0.37037405 0.1363625 0.11615865
000210 f5 c6 95 bd eb f1 9c bc 77 13 81 be 66 55 6b bd
       -0.07313339 -0.019158324 -0.25210163 -0.05745449
000220 80 33 d3 bd c7 7a d8 3c 5e cd 83 3e 7e 07 57 3c
       -0.10312557 0.026425732 0.2574262 0.013124345
000230 17 0a 69 3c aa d7 4e 3e 1f 52 2a 3e a1 ef eb 3d
       0.014223597 0.20199457 0.16632889 0.11520315
000240 96 b9 f1 3e 91 ac 59 bd f1 49 cf 3d 04 bb 8e 3e
       0.47211903 -0.053143088 0.10121525 0.27877057
000250 7a 39 d3 bd 74 bf 48 3e 78 d0 ed 3d d7 dc fd 3c
       -0.10313697 0.19604284 0.11612028 0.030989094
000260 f2 c6 3c 3e a1 db 29 be 7f 0e 5c 3e 60 34 a2 3e
       0.18435267 -0.16587688 0.21489905 0.31680584
000270 43 34 3f be 84 5a 56 bc a5 29 5c 3e 1e 54 c8 3c
       -0.1867228 -0.013083104 0.21500261 0.024454173
000280 5b ee 20 be 81 86 d8 bd 19 74 55 bd 1c 4d 00 bd
       -0.15715925 -0.105725296 -0.052112672 -0.031323537
000290 c7 4d 2c 3a 85 2b c3 bd 04 ad 16 bd 2c b7 09 be
       0.0006572869 -0.09529785 -0.036786094 -0.13448781
0002a0 8d a5 ef bd 74 4b 3b be f9 60 20 bd 14 53 0c 3d
       -0.11701498 -0.18290502 -0.03915498 0.034258917
0002b0 bc 22 d9 bd e2 73 8c bd f6 e7 9e bd 0d 18 f8 bd
       -0.10602328 -0.068580404 -0.07759087 -0.12113962
0002c0 cf ab a5 3d 7f 88 3c bd a0 f2 00 be a0 e6 ed 3b
       0.080894105 -0.04602861 -0.12592554 0.0072601587
0002d0 cc f6 da bd 68 a0 de 3d 12 46 11 be e6 5b d1 3d
       -0.10691604 0.10870439 -0.14186886 0.10222606
0002e0 ac c6 26 be b2 7f cd bd dc 48 0c be 33 e4 4d be
       -0.16286725 -0.100341216 -0.13699669 -0.20106582
0002f0 5b da 2b 3d 4e 48 5b 39 4f 5f fd bc 03 46 5b bd
       0.041956287 0.00020912403 -0.030929236 -0.053533565
000300 e2 76 0b be 2e 04 2e bb 61 00 8f bc 00 e4 13 3b
       -0.13619569 -0.0026552784 -0.017456235 0.0022566319
000310 17 52 2e 3e 92 53 22 3e 63 e6 ae bd f7 c1 d7 bd
       0.17023502 0.15852192 -0.085400365 -0.10535043
000320 12 32 87 3d dc e9 0a bd 9f 47 ca 3c f1 79 72 bd
       0.06601347 -0.033914432 0.024692355 -0.059198324
000330 64 d5 e0 3d 14 19 31 3e e2 2b a9 3c 04 96 a3 3e
       0.10978201 0.17294723 0.020650808 0.3195039
000340 a3 e6 5e 3e 71 a3 38 3e e1 18 07 bd 5c 87 d1 bd
       0.21767668 0.18031098 -0.03298271 -0.10230896
000350 04 e0 0c 3d f0 51 d9 3d 0e 36 ed 3d 35 1f 30 be
       0.034393325 0.106113315 0.11582576 -0.17199405
000360 55 18 80 3b 7d 05 f4 3d 29 3d ab 3c 12 87 28 3e
       0.0039091506 0.11915109 0.020903187 0.16457775
000370 83 e7 90 be 44 4e c5 be bf 00 8a 3d 5a 16 0f bd
       -0.2830163 -0.38536274 0.067384236 -0.034933425
000380 b3 fd 8e 3e bf 83 6a 3e d6 0c ff bd 39 59 0f be
       0.27927932 0.2290182 -0.1245362 -0.1399888
000390 1d a2 9c be f0 87 ce 3b d9 c0 b9 bd 54 c8 ed bd
       -0.30592433 0.006302826 -0.09069986 -0.11610475
0003a0 8e 9b 98 bb d4 bb 36 3e 04 d4 a0 bd c6 8a 58 3d
       -0.0046572154 0.17845088 -0.07852939 0.05286672
0003b0 3d e9 f0 bc e9 3d 82 3e ad ca 0a bd 85 0c c6 3e
       -0.029408092 0.2543786 -0.033884693 0.38681427
0003c0 0f 2b 9f 3e 92 d2 cd bd 9f 11 19 3e 37 2c 75 3e
       0.3108754 -0.10049929 0.14948128 0.23942648
0003d0 ea 59 9a 3d 99 1e fb bd f7 b1 49 3e a8 f9 83 3e
       0.07536681 -0.122616954 0.19696794 0.2577641
0003e0 1c 0d 01 bc 22 e2 50 bb d8 0c 3b 3e 3c f6 2b bd
       -0.007876661 -0.0031873067 0.18266618 -0.041982874
0003f0 dd 5a 3b 3e 3d 78 b2 3d 21 3c 89 3d 7b c1 11 3e
       0.1829638 0.0871434 0.06700922 0.14233963

lstm.weight_hh_l0 f4 [200, 50]
000000 3a d0 cf 3d 40 82 8f 3d 96 4a 84 3d bd 83 20 bd
       0.10147138 0.07007265 0.06459539 -0.039188135
000010 9a e2 23 3e 7c 89 13 be cf 10 26 3d e8 d8 2e bd
       0.1600441 -0.14407915 0.040543374 -0.042687327
000020 22 59 45 3e 42 fe be bd 77 a4 e9 3d d3 04 0b bd
       0.19272283 -0.093258396 0.11408322 -0.033940148
000030 20 b2 17 be a1 6f 9c bd b9 bb 22 3b 50 5e 85 3d
       -0.14814043 -0.07638479 0.002483113 0.06512129
000040 c4 5d 08 be 61 06 b0 bd 96 e0 98 3d fa 1c c4 bd
       -0.13317019 -0.08594967 0.07464711 -0.09575839
000050 95 fc 83 3d d0 b3 8b bd fe 39 1e bd 68 d6 fb bd
       0.064446606 -0.06821406 -0.038629524 -0.12296754
000060 7a 5f 0f bd 08 0e 89 3d 5d be 86 3d ae 31 08 3d
       -0.035003163 0.066921294 0.06579278 0.033250503
000070 52 f9 f7 3d f7 63 87 bd 43 e6 10 3e 0d ef 87 3d
       0.12108101 -0.06610864 0.14150338 0.06637392
000080 6a 5d db 3d 6c 9b 3a bc 3e e2 77 3d ff 0a 90 3d
       0.10711177 -0.0113895945 0.060518496 0.07033347
000090 d4 cc f9 bd 56 53 14 3c 39 41 97 bd be 03 3c be
       -0.12197271 0.009053072 -0.07385487 -0.18360803
0000a0 a0 2c 0c be 73 71 45 bb 01 17 ac 3d ef 41 63 bd
       -0.13688898 -0.0030127435 0.08402825 -0.0554828
0000b0 01 6d c9 3d 4b fb cb bd 90 39 6b bd 51 ea 96 bd
       0.09835244 -0.0996004 -0.057427943 -0.07368911
0000c0 47 73 a7 bd 9d 56 5f bd 81 91 6b 3e 39 ec bc bd
       -0.08176284 -0.05452596 0.23004724 -0.092247434
0000d0 68 33 01 3e a6 c1 aa 3e 73 9a ed bc 47 64 80 be
       0.12617266 0.33350867 -0.029004311 -0.25076506
0000e0 8b 1a 8c 3e f6 84 1c bc 0f c4 ee bd 07 2a 9b be
       0.27364 -0.009553185 -0.11658489 -0.30305502
0000f0 80 db 3d 3e 13 e5 1d be f6 15 d6 3d 68 c2 13 3e
       0.18540764 -0.15419416 0.104534075 0.14429629
000100 93 a1 81 3d 5e 07 bd bd 18 f1 5f 3e c8 33 da 3e
       0.06329646 -0.09229921 0.21869314 0.4261763
000110 9f 10 82 3e d6 4c 03 3e 86 35 9e 3d 53 2b aa 3e
       0.25403306 0.1282228 0.077250525 0.3323618
000120 f0 a6 43 bd 31 2b 77 3e ac 1d df 3d 89 e1 62 bd
       -0.047766626 0.2413757 0.10894331 -0.05539087
000130 2b d5 80 3e 34 92 cf 3e 30 96 06 bd 06 88 02 3f
       0.25162634 0.40541232 -0.032858074 0.50988805
000140 4a d0 e6 bd 3a a5 be be d6 0d 35 3d 76 28 48 be
       -0.11270197 -0.37235433 0.044202648 -0.19546685
000150 8c 97 d3 3d 10 f7 07 bc 0b 32 e2 3b db 6b fe 3d
       0.1033164 -0.00829865 0.0069029382 0.124229155
000160 f6 8b 45 3e 5b 55 05 bf 59 f1 fe be 25 31 0f bf
       0.19291672 -0.5208337 -0.4979351 -0.55934364
000170 50 be 95 bd 9f e4 02 bf 11 7c f1 3c 18 93 60 3d
       -0.0731169 -0.511301 0.029478105 0.05482778
000180 1e fd 6e 3e 10 58 09 be a1 0c 6f 3e b0 b2 21 be
       0.23338744 -0.134125 0.23344661 -0.1579082
000190 43 3a d6 3b af 6e 8e bd 64 8d 88 3c fc ba e5 bd
       0.006537707 -0.06954705 0.016668983 -0.11217305
0001a0 31 0b d1 bc fa ff 9f 3d ff 76 f7 3d e5 0f b5 be
       -0.025518032 0.078124955 0.120832436 -0.3536369
0001b0 90 4c 7c bd bb d1 47 bd 5c ff bd bd 2e 8e 5c bd
       -0.061596453 -0.048784 -0.092772216 -0.05384653
0001c0 bd c0 0d bd 4b 8d 05 3d 1d 08 c4 3d 49 07 f2 3d
       -0.034607638 0.03260545 0.0957186 0.11817796
0001d0 05 3a 17 3e 78 47 62 3d af e2 00 be 1d 00 44 3c
       0.14768226 0.05524394 -0.12586473 0.011962918
0001e0 5a 64 af 3d 50 28 3d 3e 58 43 84 bd d7 4d 6e 3d
       0.085640624 0.18472409 -0.06458157 0.058179703
0001f0 1f d5 9d 3c ca 11 85 3c 96 03 b7 3e 58 cd 35 3e
       0.019266663 0.016243834 0.35744923 0.17754114
000200 fa 8b 2e bd e7 01 1f 3e 38 5f 5c 3d a5 2b e6 bd
       -0.04261396 0.1552807 0.053801745 -0.11238793
000210 a5 df 9c 3b f6 d1 3a bd 52 07 b4 bc 84 20 c6 3d
       0.0047874027 -0.04561039 -0.021976147 0.096741706
000220 af 9a c3 3d 1a d1 51 3d 1d 8d db 3c 62 9f 94 be
       0.09550988 0.051224805 0.026800686 -0.2902785
000230 42 14 6b be 5c 8b 9d be 79 31 1a 3d 0a d1 3d be
       -0.22956946 -0.30770385 0.037644837 -0.18536773
000240 71 79 ac 3c a5 6b a5 3d 25 95 60 3d ea 36 9f 3e
       0.021054002 0.08077172 0.054829735 0.31096584
000250 66 7e ee 3d 18 af e5 be 75 87 6f bd 70 f0 9b 3d
       0.11645202 -0.44860148 -0.05847879 0.07614219
000260 01 27 24 be 3e e9 b3 bc 9f 58 a1 bd ed 23 14 3e
       -0.16030504 -0.021961804 -0.07878231 0.1446683
000270 90 57 43 3e d3 c4 c6 bd 4c 6a a3 3b 0a eb a9 bb
       0.19076371 -0.0970551 0.004987037 -0.0051854895
000280 3c f6 03 3e f1 e1 0d 3e 29 ad 85 3d 91 4a 93 3b
       0.128869 0.13855721 0.06527168 0.004494973
000290 a5 fd a1 be 0a e0 8d 3d ec 08 e8 ba 3b 84 6b be
       -0.31638828 0.06927498 -0.0017702854 -0.2299966
0002a0 da 86 c7 3d f6 9f 3f 3d 38 f5 c4 3d 67 dd b2 bc
       0.09742518 0.04678341 0.09617084 -0.021834088
0002b0 74 82 9d 3c 66 a2 0b 3d 4d 71 94 bd 7e b7 f5 bd
       0.019227244 0.034090422 -0.07248173 -0.11997889
0002c0 6d 48 c1 3c 60 90 1a be 6e 7a bd bd 08 8c a0 3c
       0.023594106 -0.15094137 -0.09251867 0.019598022
0002d0 2b e7 ac be cd 31 0b 3d b8 f7 7b 3e 1a 1a f2 3d
       -0.33770117 0.03398304 0.24606216 0.11821385
0002e0 a9 3e d6 ba 3a fb 5a be ca 12 49 3e 29 ee d2 bd
       -0.0016345578 -0.21384898 0.19636074 -0.10299332
0002f0 e9 e9 e5 3c 7c 0c 7d bd df 63 57 be a7 dd a0 bd
       0.028065639 -0.061779484 -0.21034192 -0.07854777
000300 f9 bc fd 3c a7 d8 10 be 22 e3 a8 bd af 58 b7 be
       0.030973898 -0.14145146 -0.08246447 -0.35809848
000310 de bd f8 3d 9d 87 f6 3c ac 3e b8 3d 2f ae 08 be
       0.12145589 0.030093962 0.08996329 -0.13347696
000320 db 29 01 3c d5 3d 56 be 50 d0 11 3e 30 a6 09 bb
       0.007883514 -0.20922025 0.14239621 -0.0021003596
000330 82 91 9b bd e6 13 8d bc 84 a4 2c bd 1e 88 b6 be
       -0.07596113 -0.017221402 -0.04214908 -0.35650724
000340 fe a2 54 bd 90 13 ef bd ef a4 27 bd 68 b7 f1 bd
       -0.051913254 -0.11673653 -0.040928777 -0.1180256
000350 7c aa 95 bd 95 eb 4d 3d fe 70 6f 3e ed 22 ca bc
       -0.07307908 0.050273497 0.23382947 -0.024674857
000360 0c b9 a2 3e 5d 0a 95 3e f2 35 1c bc f2 ae 31 3e
       0.31781805 0.2910947 -0.009534346 0.17351893
000370 3f 43 44 3e 4c c8 ae 3d dc 45 23 3e 95 46 20 bc
       0.19166277 0.08534297 0.15944618 -0.009782453
000380 2d ae 14 3e a9 0d b6 bd 93 15 e3 3d cb 57 80 bd
       0.14519568 -0.08889324 0.11088099 -0.06266745
000390 ca e6 c6 bc ae 14 1d 3d e0 95 01 3e 2f ad a5 bd
       -0.02427997 0.0383498 0.12654829 -0.08089673
0003a0 5d 52 bd bc 47 de 22 bd 07 99 51 be 5a 60 96 bd
       -0.023110563 -0.03976276 -0.20468532 -0.07342596
0003b0 f0 c4 dd 3d 0c 6a 0e be 0c c7 18 be 74 c3 a2 be
       0.108285785 -0.13907641 -0.1491968 -0.31789744
0003c0 80 f0 b0 be 53 54 cd be 80 15 b6 3d 21 c9 2f be
       -0.34558487 -0.40103397 0.088908195 -0.17166568
0003d0 7a a9 26 3e ac 38 d8 3c 22 6f cf 3d 5d b0 03 3e
       0.16275588 0.02639421 0.10128619 0.12860246
0003e0 d4 b7 4d 3e b7 cb 50 be 5f 02 dd 3d 83 65 47 3d
       0.20089656 -0.20390211 0.10791468 0.048680793
0003f0 31 c9 f7 3d eb 72 23 bc d4 a8 54 3d 17 c8 bf 3d
       0.12098921 -0.009976129 0.05191882 0.09364336

lstm.bias_ih_l0 f4 [200]
000000 c3 7d af bb f2 5c 20 3e 3d 1d 72 3e b2 88 8a bd
       -0.005355568 0.15660456 0.23643966 -0.06764354
000010 80 c3 c9 3d a3 fc 45 be 60 7b 18 3c 5c 57 01 3e
       0.09851742 -0.19334655 0.009306759 0.12630981
000020 b6 62 e2 3d 35 f3 6c be 30 6a cc 39 21 d5 99 3d
       0.11053984 -0.23139651 0.00038989028 0.07511354
000030 f1 56 54 bd f1 f4 c8 bd 9d 66 f9 3d 1b 03 b7 bd
       -0.051840726 -0.09812344 0.12177775 -0.08936139
000040 9a 54 c1 bd 58 d5 8f 3d 35 7e fa bd a2 0d a5 3c
       -0.094399646 0.07023114 -0.12231103 0.020148102
000050 6a ef b4 3d 4d ea db bd 35 72 9a 3d 61 b9 29 be
       0.08834727 -0.10738049 0.075413145 -0.16574623
000060 53 fe 94 bd db 32 46 be 2c ff 39 be 49 2f 45 3d
       -0.07275071 -0.19355337 -0.18163747 0.048140798
000070 99 36 59 3d 46 7e 08 be a2 5c 51 3d 63 47 bc 3c
       0.053030584 -0.1332942 0.051113732 0.022983259
000080 b4 2a fd 3b c1 a4 4f bc f0 ae f2 bd 68 3e 6d 3c
       0.007726038 -0.012673558 -0.11849773 0.014480211
000090 16 d4 86 3e c9 93 f5 3c ca e0 9b 3e 17 d1 85 3d
       0.26333684 0.029977696 0.30444938 0.06534021
0000a0 ef 90 30 be 98 ea 2f 3d 6e 51 8c bd f1 af 82 bd
       -0.17242788 0.042948335 -0.06851469 -0.063812144
0000b0 b1 db 11 be 65 ad f7 3d 97 91 a7 3d d5 0c 03 be
       -0.14243962 0.12093619 0.08182066 -0.12797864
0000c0 89 95 38 be f2 82 3f 3e 8e 01 14 3d a7 76 4b bd
       -0.18025793 0.18702295 0.036134295 -0.049673703
0000d0 78 0f 9a 3d 48 eb 27 3d 03 d2 06 3d c1 59 98 bd
       0.07522482 0.040995866 0.032915127 -0.07438994
0000e0 63 c2 2f 3d a1 84 26 be fa d0 1b be df 99 4c be
       0.04290999 -0.16261531 -0.15216437 -0.19980572
0000f0 0e dc 13 be cc a9 ec 3d 48 f2 e8 bd 00 bb 0c bd
       -0.14439413 0.11555824 -0.113743365 -0.034358025
000100 44 5c c6 bc 23 c7 5d bd a1 f4 4f be 8c 43 ac bd
       -0.024213918 -0.05414499 -0.20308162 -0.08411321
000110 94 c3 6e be bf 72 0b 3c bc c4 f8 bd c2 fe 90 3d
       -0.23316795 0.008511244 -0.12146899 0.07079841
000120 9b 45 65 bd 1c 63 34 bd 9c ee c1 3d e5 45 cf bd
       -0.055974584 -0.04403983 0.09469339 -0.10120753
000130 41 20 c0 bd a1 ad 27 be 76 a4 86 bc d3 dd 36 3d
       -0.09381152 -0.16374828 -0.016435843 0.04464514
000140 3e 84 49 3d 2f 49 f5 bc d8 65 40 3d 7a 40 ad 3d
       0.04919838 -0.029942123 0.046972126 0.084595636
000150 d2 60 42 be d9 8a ba 3d 36 30 8d 3d 33 e2 9b 3b
       -0.18982247 0.09108514 0.06893961 0.0047571897
000160 e0 eb 05 3e 5b 83 ba bd cb 8d f6 bd 03 c9 3a 3d
       0.1307826 -0.09107085 -0.120387636 0.045601856
000170 9b 01 08 3e 39 3a 92 bc 02 5c 2d be 6d 2f 67 bd
       0.13281862 -0.017850028 -0.1692963 -0.056441713
000180 14 30 52 3d 05 79 86 be 99 53 2a be f4 67 ce b9
       0.051315382 -0.26264206 -0.16633452 -0.00039368833
000190 e2 ef 1f 3d f8 6e bc bc 54 05 26 bd 3e e5 13 3d
       0.03904713 -0.023002133 -0.040532425 0.036107294
0001a0 27 b1 17 3d 0a 2f f8 3d 63 78 01 3b 07 32 b0 bd
       0.03703418 0.12118347 0.0019755594 -0.08603292
0001b0 3d 7c 51 3c 48 f2 80 bc eb d0 72 3d de 71 cc 3d
       0.012785968 -0.015740529 0.05928127 0.09982656
0001c0 a5 74 ad 3d 8a 4c 1f 3a 0d 6a 84 bd 20 e9 02 3e
       0.08469514 0.0006076774 -0.0646554 0.12784243
0001d0 c7 8a 19 3d 44 91 07 be 5c 3b 03 bd 19 7d 0b be
       0.037485864 -0.13239008 -0.03203903 -0.1362194
0001e0 57 79 03 3e cf ed 08 bd 62 ab 61 bd f6 23 4d bd
       0.12839256 -0.033429917 -0.055095084 -0.050083123
0001f0 0d 50 0f be bf d3 e2 3d 28 6c 70 3d 65 7b a4 3d
       -0.1399538 0.110755436 0.058696896 0.08031348
000200 e0 9f 4a 3d b5 5f 91 bd b5 f8 55 bd 56 05 92 bd
       0.049468875 -0.07098333 -0.05223914 -0.07129924
000210 bf d7 90 3c 47 7d 74 3d 41 c7 2a 3d 41 7b 06 bd
       0.017681 0.059689786 0.04169393 -0.032832388
000220 76 11 eb bd b4 a0 52 3d a2 14 de bc c0 ac ec 3d
       -0.1147794 0.05142279 -0.027109448 0.11556387
000230 6f 2f 85 3c bf 40 a2 3d 72 c2 24 3d 45 46 a3 3d
       0.01625797 0.079225056 0.0402245 0.07972387
000240 ec a8 b5 bc 5b 22 66 3d 2d 61 9f 3d d5 66 90 3d
       -0.022175275 0.056185108 0.07782207 0.07050864
000250 a1 b9 13 be 58 91 13 bd 90 cb 0d 3e d2 e9 08 3e
       -0.1442628 -0.036027282 0.13847184 0.13370445
000260 da 96 42 3e 6d 42 b5 3d 24 36 56 3d 78 95 24 3d
       0.19002858 0.0885056 0.052297726 0.040181607
000270 77 42 2d be a2 dc 0a 3e e7 06 15 be 77 df 41 be
       -0.16919886 0.13560727 -0.14553414 -0.18932901
000280 7a fd be ba fb c9 2a 3d ad 19 2f be c9 23 d1 ba
       -0.0014571392 0.04169653 -0.17099638 -0.0015956099
000290 65 36 15 3e 32 04 e4 3b 91 52 81 3c 57 54 8c 3d
       0.14571531 0.006958508 0.015786441 0.06852024
0002a0 8d cc ac 3c 76 a9 16 be e6 f9 bb bd b4 15 46 bd
       0.021093631 -0.14713082 -0.09178524 -0.04836054
0002b0 bf a5 c5 bd 62 c6 bd bd cd 03 6f 3d ad 41 25 be
       -0.09650754 -0.09266354 0.058353234 -0.16138335
0002c0 e0 d7 3b be 75 03 06 bc 42 ea 3d be 2b a9 1e be
       -0.18344069 -0.008179535 -0.18546394 -0.1549422
0002d0 8c c6 ff bc bc 10 0e be f9 c0 09 bd f1 fd 4c bd
       -0.031222604 -0.13873571 -0.0336313 -0.050046865
0002e0 88 a9 f9 bd 3e 68 5e 3d 87 5f 27 3e d5 5b 0f be
       -0.12190539 0.05429863 0.16345035 -0.13999875
0002f0 86 02 38 3d f3 52 9e 3c ec 2e 24 3d d6 c6 6e bc
       0.04492428 0.019326663 0.04008381 -0.014573773
000300 24 73 2e 3d d9 d9 09 3d 6d 0b 2e 3d bc 68 de 3d
       0.042590275 0.03365502 0.042491365 0.1085982
000310 0b 40 41 be cb 48 5f bd b0 ac 14 be 1b d3 10 3e
       -0.18872087 -0.05451278 -0.14519 0.1414303

lstm.bias_hh_l0 f4 [200]
000000 cb 1e b8 bc 8b 85 83 bd 26 09 e3 3d 82 64 c2 3d
       -0.02247562 -0.06421956 0.11085729 0.094918266
000010 55 ba 29 bd 7a 28 93 bd e7 56 8f 3d a0 c8 58 3e
       -0.041437466 -0.07185455 0.06998997 0.21170282
000020 c6 d0 fa bd 81 e5 a3 bd 8a c4 a3 3d 72 57 ef bd
       -0.122468516 -0.08002759 0.07996471 -0.11686601
000030 d1 8d 59 be 7f e2 e5 bd 6b 82 30 3e 0d 84 28 3d
       -0.21245505 -0.11224841 0.1723725 0.04114156
000040 eb 7f 56 be 14 14 c5 bc 06 29 83 bd 53 af 30 bd
       -0.20947234 -0.024057426 -0.06404309 -0.043135952
000050 1a e3 2c be 19 17 58 3d 05 ae 90 bb 84 30 06 be
       -0.16883507 0.052756403 -0.004415276 -0.13104445
000060 c2 24 37 3d f5 1f 99 3d 9a 48 dc bd 48 5e ae bd
       0.04471279 0.074767984 -0.10756035 -0.085140765
000070 43 c4 d3 bc 69 93 b0 3d c3 94 74 3b 26 8a 8d ba
       -0.02585042 0.08621866 0.0037320114 -0.0010798618
000080 be af 18 3e 34 7e ba bd 4b f4 da 3c 38 65 9d bd
       0.1491079 -0.091061026 0.026727816 -0.076853216
000090 f4 1e 64 3e ec 8a 6c 3d af 54 a5 3e 93 4e 05 3e
       0.22277433 0.057749674 0.3229117 0.13018255
0000a0 ca e7 84 bd 83 e4 e8 3b 56 e3 43 3d 0a 16 c3 bd
       -0.06489523 0.007107319 0.047824226 -0.09525688
0000b0 ad ce c9 3c 32 6d 82 3d dd a4 27 be ce aa 82 3d
       0.024634684 0.063684836 -0.16371484 0.06380235
0000c0 af c7 db bd 0d c8 25 bc 7b 57 0e be 66 8c 6f bd
       -0.10731446 -0.010118497 -0.13900559 -0.058483504
0000d0 1d b5 b0 bc 83 a5 07 3e 34 d5 31 be 48 0f da bd
       -0.021570737 0.13246731 -0.17366487 -0.10647446
0000e0 b6 b9 8b 3d e4 3c aa 3d 01 5e c1 bc 3f a4 69 be
       0.06822531 0.08312395 -0.023604395 -0.22816561
0000f0 0d 78 ba bc ff 06 eb bd dd e3 a0 bd be 50 14 be
       -0.022762323 -0.11475944 -0.078559615 -0.14483926
000100 d7 e9 fb bd ce e6 14 3d e4 17 c8 bd 5e 62 20 3c
       -0.12300461 0.036352925 -0.09770182 0.009789078
000110 92 2a 64 bd 5b 1d 03 be e3 62 34 be 1c 00 1d be
       -0.05570466 -0.12804167 -0.17615847 -0.15332073
000120 94 63 06 3e 2d 1f 03 be 0b e0 4d bd bd f7 a4 3d
       0.13123924 -0.12804861 -0.050262492 0.08055065
000130 56 0e 74 be a5 20 2a be b4 48 c0 bd 23 f7 2e be
       -0.23833594 -0.16614015 -0.09388867 -0.17086463
000140 5b 2e d5 3d 6a 12 46 3d 8f 2a f1 bd e1 4d a8 bd
       0.10409232 0.048357405 -0.117756955 -0.08217979
000150 b9 5c a4 bd ef 1a c1 3c f5 a2 9b bd b5 dc 19 3d
       -0.08025498 0.023572413 -0.07599441 0.037564
000160 3a b8 4f 3e 69 66 2e 3d 4f 35 82 bd ff c3 ad bc
       0.2028512 0.042578135 -0.06357824 -0.021211622
000170 fb 01 fd 3c a2 84 f3 bd 0a a9 88 3c 57 f7 94 3c
       0.030884733 -0.11890532 0.016682167 0.018184347
000180 31 ff 2c 3b 91 6e 30 be a4 ee 40 bd 6c 21 b3 bd
       0.0026397223 -0.17229678 -0.047102585 -0.08746609
000190 f6 ff ab bd 89 6c df bc 8d 7a f9 bd 0f 4c 08 bd
       -0.0839843 -0.027273433 -0.12181578 -0.03327566
0001a0 f1 b3 c7 bd 72 bc ed bd 37 74 fa 3c 4b 49 5f bd
       -0.09751118 -0.11608209 0.030572994 -0.054513257
0001b0 9a b1 df 3d 14 d0 c8 3d 97 55 fc bd 79 65 20 3e
       0.10922547 0.09805313 -0.123210125 0.15663709
0001c0 73 9e b7 bd 71 f7 eb 3d 0e d3 99 3d 45 d0 4b 3b
       -0.08965769 0.11521805 0.075109586 0.003109948
0001d0 b5 1d 7a 3c 98 10 86 bd c8 d4 e0 3b d2 ee 09 3e
       0.015265872 -0.06546134 0.006861303 0.13470009
0001e0 d1 29 f1 3d 5e 53 ec bd 86 33 04 bd 6d a4 03 bd
       0.11775554 -0.115393385 -0.0322757 -0.03213923
0001f0 88 63 09 be ed f6 97 bd 8c bb b9 3c ce ff ac bd
       -0.13416874 -0.07420144 0.022672437 -0.08447228
000200 54 d0 c5 bd af 15 36 3c 3f ca bf bd bc d1 53 3c
       -0.09658876 0.011113568 -0.09364747 0.012928423
000210 82 30 e9 bc dd c7 9d 3d 36 ab 14 3e 69 43 09 be
       -0.028465513 0.077041365 0.14518437 -0.13404621
000220 40 03 b6 3d 02 a2 16 3e 0d 5b f0 3d 08 ea ec 3d
       0.08887339 0.14710239 0.117361166 0.115680754
000230 f1 fb 90 3c be 4d 50 bd d0 0b 25 3e 1f c6 49 3d
       0.01769826 -0.05085539 0.16117787 0.04926121
000240 e6 bf d3 bb 04 cf 52 bd 52 56 05 3e 48 78 5d 3e
       -0.006462085 -0.051466957 0.1302121 0.21627915
000250 88 b2 22 bd b0 7d fd bd 15 d9 f0 3c 2a 5c 01 3c
       -0.039721042 -0.123774886 0.029400388 0.007895509
000260 09 4b 94 bc 62 84 e7 3d aa 94 4a 3a 0c 4d 3d bc
       -0.018102186 0.11304547 0.0007727841 -0.011554014
000270 8e 26 47 bd a8 d8 23 3d 27 33 a4 3c 67 23 bc bb
       -0.048620753 0.04000154 0.020043923 -0.005741525
000280 09 82 bf bd 69 66 25 3d a6 57 e6 bd 7e cf 94 bd
       -0.09350974 0.04038087 -0.11247186 -0.072661385
000290 04 3a 0e 3d fc 8b da 3c 64 40 d9 bd 08 4a f8 bd
       0.034723297 0.026678078 -0.10607985 -0.12123495
0002a0 16 fc 97 bc d0 8a 27 be eb 98 e1 bd 5d c5 a2 3d
       -0.018552821 -0.16361547 -0.11015495 0.079478
0002b0 5b 90 0a be b8 f3 33 3d dc ac 79 bd 96 60 b6 bb
       -0.1353163 0.0439336 -0.060955867 -0.005565713
0002c0 82 31 85 bd 96 62 a0 3c f5 f0 10 3d 3d 31 f7 3c
       -0.065035835 0.01957826 0.035386045 0.030174846
0002d0 58 1e 7c bd aa e5 43 bd 45 33 b5 3d e1 40 57 3d
       -0.061552376 -0.047826447 0.088476695 0.052552108
0002e0 c6 c3 d2 3c 50 04 8a 3d 52 74 48 3d 16 d8 19 bc
       0.025728118 0.06739104 0.048939057 -0.009389898
0002f0 0e 59 f2 bc 4b 70 45 bd 1a dd 2e be 3d dc 0f 3e
       -0.02958348 -0.048202794 -0.17076531 0.14048858
000300 4f 78 6c 3d 91 12 41 bd b9 69 bc 3d 82 74 82 bd
       0.057731923 -0.047136847 0.091998525 -0.06369878
000310 99 f4 44 3c 52 cf c5 bd 7c 29 1c 3d 1a 3e 7d 3d
       0.012021207 -0.09658684 0.0381255 0.061826803

lstm.weight_ih_l1 f4 [200, 50]
000000 47 f0 90 3b e4 5d 27 3d 48 6b 46 be 4a 68 11 3d
       0.0044231745 0.040861025 -0.19376862 0.03549985
000010 62 d1 53 3e 9b 1d 34 bd 8f 7b 16 bd 18 a7 72 be
       0.20685342 -0.043973546 -0.03673893 -0.23696554
000020 90 13 06 bb fe 31 11 bc 90 8e 41 3c cb 4e 7b 3d
       -0.0020458438 -0.008862017 0.011813775 0.06135444
000030 b7 e0 4c bd c8 21 b0 3d 2b 82 df bc 4f 7a 1d 3d
       -0.050018992 0.08600193 -0.027283749 0.03844672
000040 0d 6b 80 3d ea 1d af bd 16 3c bf 3d 9b 93 98 3d
       0.06270418 -0.085506275 0.09337632 0.074500285
000050 e2 36 04 bd ae 2d e0 3c ac 69 4f bd d9 3a 3b 3e
       -0.032278903 0.027365532 -0.050637886 0.18284167
000060 e7 d5 f4 3d 50 90 74 bd 3d bb 35 3e 37 7c 06 3e
       0.11954861 -0.05970794 0.17747207 0.13133322
000070 45 1c 65 bc 9b 07 12 3d 91 1e 46 be 2e 65 dd 3d
       -0.013983791 0.035651784 -0.19347598 0.10810314
000080 35 a4 e4 3d 74 a0 c1 bd 76 24 fe 3c 29 6b 15 3e
       0.111641325 -0.09454432 0.031023245 0.1459166
000090 ff 7b b0 bb b3 f4 e3 bd 55 8f c2 bd 63 ec 50 bc
       -0.0053858752 -0.11130657 -0.09499995 -0.0127516715
0000a0 60 65 2d be 85 5d 62 be 98 e4 91 bb b5 84 e7 bd
       -0.16933203 -0.22105987 -0.0044522993 -0.11304609
0000b0 1b 59 ae 3d 33 33 86 bd cc 4f 8d bc 8e 56 78 3d
       0.08513089 -0.06552734 -0.017249964 0.06062942
0000c0 0b a7 c6 bc 3b d7 04 be 6d 83 d9 bd ff bb 98 3d
       -0.024249574 -0.12972729 -0.106207706 0.074577324
0000d0 7e c7 49 be de 18 24 3e e8 3e ef 3d 0b 89 76 be
       -0.19705006 0.16025111 0.1168192 -0.24075715
0000e0 14 c8 5a 3e 5a 86 51 be ce 60 cd bd c6 a3 9b 3d
       0.21365386 -0.20461407 -0.1002823 0.07599597
0000f0 8e 25 d7 3d 90 6e bc 3c 4c 6e d8 bd 49 20 cf 3d
       0.1050521 0.023001939 -0.105679125 0.1011358
000100 13 db 46 3b e0 52 02 be e9 32 13 bd db aa da 3d
       0.003034298 -0.12726927 -0.035937224 0.10677119
000110 c7 d3 48 3d 94 66 d7 3c 7f 48 39 3e bc c9 56 3e
       0.04903009 0.02629403 0.18094061 0.20975393
000120 dc 40 e8 bd 38 c4 0a be c4 e2 fa bd f8 6a c0 3b
       -0.11340496 -0.13551414 -0.12250283 0.0058721267
000130 a3 34 38 3e 7d 4d b8 bd cb 69 4e 3b 1a 5a 86 3e
       0.1798883 -0.08999155 0.0031496163 0.26240617
000140 78 87 a8 be fe fd 40 3d 3e db 36 3e 1c aa 46 3e
       -0.32915854 0.047117226 0.17857072 0.19400829
000150 76 ff 1a 3e d1 38 89 bd 48 29 0a 3e 86 ae 1c be
       0.15136513 -0.0670029 0.1349231 -0.1530095
000160 c0 ab 9f bc ce 7e 29 be 42 c4 36 be f5 b5 39 be
       -0.019491076 -0.16552278 -0.17848304 -0.18135817
000170 d0 bc b2 bd 28 50 82 bd 77 21 69 bb 05 09 a3 bd
       -0.087274194 -0.06362945 -0.0035572925 -0.07960705
000180 a1 31 24 3c 14 38 fc 3c a9 dd 60 bd 17 1c 3b be
       0.010021598 0.030788459 -0.05489889 -0.18272434
000190 f2 fb 99 bd c2 e0 58 3d 69 1f 3c bd e8 1d 51 be
       -0.07518758 0.05294872 -0.045928393 -0.20421565
0001a0 0c a7 f1 3d c6 12 9e 3c 7f 26 76 be f1 db aa 3c
       0.1179944 0.019296061 -0.24038123 0.02085683
0001b0 b4 d1 48 3e 51 f9 8c 3d cb 89 a7 be 54 54 4f be
       0.19611245 0.06883491 -0.32722315 -0.20247012
0001c0 b6 48 bc 3d e2 09 15 be f8 a6 77 3e e6 54 0d 3e
       0.09193556 -0.14554551 0.24184787 0.13801917
0001d0 ef 1d 5a bd aa 58 20 be bf 0f d3 3d 65 b0 75 bc
       -0.053251203 -0.15658823 0.10305738 -0.014995669
0001e0 c3 5b 81 3d f6 cf 87 3c 30 04 cd 3d ee cc 71 3e
       0.0631633 0.016578656 0.10010564 0.2361333
0001f0 81 80 5c 3d 4d 67 32 3e 81 6f 65 bb 09 d6 1c bb
       0.05383349 0.17422219 -0.0035009088 -0.0023931286
000200 8a ab 57 3e 64 84 1a 3c 3f 24 94 bd 12 4a e5 3c
       0.2106153 0.009430978 -0.07233476 0.027989421
000210 e7 22 8d bc 99 98 ee bd 7d 17 43 3e ed ea 7b 3e
       -0.017228557 -0.116501994 0.19051929 0.24601336
000220 cb 24 27 be 20 7e 82 bd 3f 21 33 be e5 1b d1 3d
       -0.16322629 -0.06371713 -0.17493151 0.102103986
000230 2f ba f8 3d 4b f0 c1 3d ac 65 1f 3e 32 d4 e6 3d
       0.12144887 0.0946966 0.15566128 0.11270942
000240 a9 75 71 be 51 b4 7b 3e 5e c1 8f bd 09 65 3c bb
       -0.2358004 0.24580504 -0.07019304 -0.0028746745
000250 09 20 c3 bd 3c 0c 29 3d cf 1f b7 bd 4c d3 49 3d
       -0.095275946 0.041271433 -0.08941614 0.049273774
000260 bc 85 96 be e2 8e c9 bb ca 6a aa 3e 22 81 12 bd
       -0.29398906 -0.006151066 0.332846 -0.035767682
000270 5d 70 0a bd df 2f 63 3e b7 8f a1 bd 56 e2 82 ba
       -0.033798564 0.2218623 -0.078887396 -0.0009985666
000280 40 ef 0d be 67 2a 4e be f8 e7 1b 3c 18 3f 7a bd
       -0.13860798 -0.20133363 0.009515755 -0.061095327
000290 c9 35 40 3e 69 25 f6 3d 12 26 c8 bd 88 be ad 3d
       0.18770517 0.12018854 -0.09772886 0.084836066
0002a0 a3 23 c5 bd 18 cd 8e 3d 9c 63 f1 bb 39 a3 b2 bc
       -0.09625938 0.06972712 -0.0073666107 -0.021806346
0002b0 11 dc 35 3e 89 8d 01 3e 40 09 0f 3e 0f 17 2d 3e
       0.1775973 0.12651648 0.13968372 0.16903327
0002c0 10 8b 55 bd cf d2 82 3d ab 7d df 3d c9 36 cb 3d
       -0.052134573 0.06387865 0.10912641 0.09922559
0002d0 5c 49 1b bd b0 be f0 3d 47 7a 29 bd f2 62 08 bd
       -0.037911758 0.11755121 -0.04137638 -0.033297487
0002e0 2e 8d a3 3d 6e 32 af 3c b2 84 08 be 13 f6 6a 3d
       0.07985912 0.021386351 -0.13331869 0.05736358
0002f0 4d a0 d4 bd b5 81 18 3e dc e7 31 be 35 b0 41 3e
       -0.103821374 0.1489323 -0.17373604 0.18914874
000300 46 40 09 3e 64 65 d9 bc 40 e2 58 3d 0c 5e 97 3c
       0.13403425 -0.026537605 0.052950144 0.018477462
000310 21 6d 25 3d 97 0b ae bd 41 d9 b2 bd 55 ab 55 bd
       0.040387277 -0.08498304 -0.08732844 -0.052165348
000320 53 9c d0 bc 6c 7a 5d 3e 0d 75 6b be e8 10 fd bc
       -0.025465166 0.21628731 -0.2299387 -0.03089185
000330 77 d6 a7 3e 2d f9 32 bd d0 91 cb 3b 6a 41 30 3e
       0.3278081 -0.043694664 0.0062124506 0.17212453
000340 f5 64 33 3e 32 54 a6 3d 5d 83 25 be ae 46 3c be
       0.17518981 0.08121528 -0.16163392 -0.18386337
000350 65 39 07 3e f5 19 c2 3d 3e fa 29 be 95 e9 e6 bd
       0.13205488 0.09477607 -0.16599366 -0.11275021
000360 50 cf 14 be 7f f9 5a bd bf 67 90 bd 81 40 0a be
       -0.14532208 -0.053460594 -0.07051038 -0.13501169
000370 a9 3a b1 bc 6f 2e ca 3d 44 db 94 3d a3 91 41 3e
       -0.021634417 0.09872138 0.07268384 0.18903212
000380 18 79 c1 3d 3c 9b 0b bd 0b 2d 6d be d2 28 56 be
       0.09446925 -0.03408359 -0.23161714 -0.20914009
000390 33 a0 c3 3b 91 d6 21 bd 5c 9d 52 bd 2d 30 f9 bc
       0.005970025 -0.039511267 -0.0514196 -0.03041848
0003a0 18 49 a8 bd 98 e1 46 be 7e 0a 28 3e f9 f2 c6 3a
       -0.082170665 -0.19421995 0.16410252 0.0015178613
0003b0 a9 3e 0e bd bf e4 d6 bd eb 66 d6 3d c7 48 54 3e
       -0.034727726 -0.104928486 0.10468849 0.20730887
0003c0 4d 63 85 bd 11 09 a3 3c 45 07 e6 bd 4c fc 74 3e
       -0.06513081 0.019901784 -0.11231855 0.23924369
0003d0 8a 63 66 bd 63 1c e9 3d 49 69 35 be eb 36 21 3d
       -0.05624727 0.113823675 -0.17715944 0.039359014
0003e0 03 a3 2d bd 0f 9a 5f bd f8 c9 20 3e c6 51 4e be
       -0.04239179 -0.05459028 0.15702045 -0.20148382
0003f0 01 72 73 bd a9 dd 17 3e 43 d2 36 3e f1 68 7f bd
       -0.059434894 0.1483065 0.17853646 -0.06235594

lstm.weight_hh_l1 f4 [200, 50]
000000 a2 c3 dc 3b 04 c9 21 be a5 b2 80 bd 78 1c d5 bd
       0.0067371884 -0.15799338 -0.06284074 -0.104058206
000010 e5 92 b0 ba 8c 0a 0b ba 37 f3 09 be bb 4c 25 3e
       -0.0013471512 -0.0005304001 -0.13471685 0.16142552
000020 09 47 08 3e d4 a4 ae 3d a2 f7 de bd 2c fd ba 3d
       0.13308348 0.08527532 -0.10887076 0.0913032
000030 7e cb 1f 3d 4e 1a 19 3e 7b 48 d0 bd f4 40 a6 bc
       0.039012425 0.1495144 -0.101700746 -0.020294644
000040 ad 46 74 3c 16 3e d9 bd 3c 82 35 bd 5a eb e3 bd
       0.014909429 -0.10607545 -0.044313654 -0.11128874
000050 f4 f2 9b 3c e7 58 08 be a7 14 2c 3e cb 25 0d 3e
       0.019036748 -0.13315164 0.16804753 0.13783948
000060 30 88 0e bd 76 46 e6 bc 22 8a c7 3c 81 5b 35 3e
       -0.034797847 -0.02810977 0.024357859 0.17710687
000070 6e 51 ee bc e5 45 a9 3d 11 50 d7 ba 55 50 d2 3b
       -0.029091563 0.082652844 -0.001642706 0.0064182677
000080 57 a3 bd bc e8 c2 13 bd 0e d2 23 be 9e 94 dc bd
       -0.023149176 -0.03607455 -0.15998098 -0.10770534
000090 29 8f 63 3d d6 f8 d2 3d d1 84 2c 3d 04 45 30 3d
       0.05555645 0.10301368 0.04211885 0.04303457
0000a0 7c a4 91 3d dc c8 d7 3d 38 68 0f 3d ac c8 89 3d
       0.07111451 0.10536358 0.0350115 0.06727728
0000b0 fc 2f 4c 3d 64 fc e3 3d 04 a8 03 bc 00 32 c0 bd
       0.04985045 0.11132124 -0.0080356635 -0.09384537
0000c0 f9 fb ad bd b6 8c b1 3d 47 fc 4f 3e f7 c5 77 bd
       -0.084953256 0.086694166 0.2031108 -0.06049153
0000d0 6d 81 f5 bd d0 92 12 b9 4f 25 03 be 91 eb 82 3d
       -0.11987577 -0.00013978337 -0.12807201 0.06392587
0000e0 4c cd 55 3e 7e db d9 3c 74 56 85 bd 6c 55 09 be
       0.20879096 0.02659392 -0.0651063 -0.13411492
0000f0 c2 80 fa 3d 1a 49 8d be c0 92 ff 3d e5 c0 8d 3d
       0.1223159 -0.27594835 0.12479162 0.06921557
000100 5e ac a6 be df 0e 5c 3e a5 33 ee 3d f4 83 55 3a
       -0.3255338 0.21490048 0.11630944 0.0008144968
000110 1e 5f 1c 3e ae 00 28 3d c5 e2 61 3e e2 7d 7f bd
       0.1527066 0.041016273 0.22059162 -0.06237591
000120 dc 7f 4a be 25 dc 0e 3c 18 1a 7c b9 8f 9b 9f 3b
       -0.19775337 0.008719479 -0.00024042313 0.004870839
000130 c3 f6 72 bd 08 54 ae 3b d1 ad 06 bc 6a ef 0f 3d
       -0.05931736 0.005320076 -0.008220152 0.035140432
000140 5d 77 b0 bb ee e5 9f 3c fc e0 b4 3d 45 ad f2 bd
       -0.005385323 0.019518819 0.08831975 -0.11849455
000150 e7 e4 63 bc cc 5c 67 3d d4 28 ac 3e cc 1f 3a 3c
       -0.013909555 0.056484982 0.336249 0.01136012
000160 e7 51 72 bd 6f 42 60 3d a7 13 33 be 3c fc 65 3d
       -0.05916014 0.054750856 -0.17487966 0.056148753
000170 62 6a d9 bc 73 3f 22 3d 90 10 42 bb 7c ce 67 bc
       -0.026539985 0.03961129 -0.0029611923 -0.014148351
000180 7a e8 88 3c 2a 71 12 be 49 da 9d 3c a9 25 8a 3d
       0.016712416 -0.14300981 0.019269126 0.06745464
000190 2a 90 7e bd a0 ac 5c bc aa 60 17 3e c6 e8 41 bd
       -0.062149204 -0.013468891 0.14782968 -0.04734113
0001a0 80 64 b4 bc 65 f3 07 bd 90 12 be be ee 94 07 3e
       -0.022020578 -0.033191103 -0.37123537 0.13240406
0001b0 70 81 ed 3d 08 4c 0b 3e c0 cb f4 3d df 0b 30 3e
       0.11596954 0.13603222 0.11952925 0.17192028
0001c0 8e a6 91 bc d7 bb 39 3e fe ab 9e 3e 08 dd fd 3c
       -0.017779615 0.18138061 0.30990595 0.030989185
0001d0 1b fe 17 bd 23 f6 cb bc 49 ca 05 bd 9f 66 41 3d
       -0.03710757 -0.02489764 -0.032663617 0.047217008
0001e0 1e a8 e7 bd d0 dd 09 be 3d 7e c5 bd ee 82 d6 3d
       -0.11311363 -0.13463521 -0.09643219 0.104741916
0001f0 e2 ac 9a bc 02 19 98 3d dc fe 7e be 5b 06 ac 3d
       -0.018881265 0.07426645 -0.24901909 0.0839965
000200 69 7c 10 3e bf d9 42 be e3 cf 86 3d b8 54 34 3d
       0.14109959 -0.19028376 0.0658262 0.044026107
000210 a0 f9 05 3d 30 56 6b 3d ea b0 cd bd b9 36 35 be
       0.032708764 0.05745524 -0.10043509 -0.17696656
000220 55 ee e1 bd e9 fb 93 3b f0 e3 fe bc 37 c4 a4 ba
       -0.11031786 0.004516114 -0.031114548 -0.0012570684
000230 60 2c 0c bc d7 69 9c bc a6 3a d5 3d 10 71 ec bd
       -0.008555502 -0.019093437 0.10411577 -0.115450025
000240 7d ee af be 4b e6 e8 bb 36 2d 56 be 23 81 36 3e
       -0.3436164 -0.007107531 -0.20915684 0.17822699
000250 44 51 72 be 2b 70 fd be 6e 82 06 be a8 91 45 be
       -0.23663813 -0.4949964 -0.13135692 -0.19293845
000260 43 b2 05 3e c9 59 12 be c5 a9 04 3d b7 92 19 be
       0.13056283 -0.14292063 0.032388467 -0.14997374
000270 f7 b8 e4 bd c5 44 ef 3a 49 4a 63 3d b4 84 31 3d
       -0.11168092 0.0018254748 0.055490766 0.043339446
000280 cf b6 0d 3e b4 34 a6 3a 15 f3 89 3d 31 18 73 3c
       0.13839267 0.0012680502 0.06735817 0.014837311
000290 3d 6e ec 3d 92 70 fb bc 2a ca d0 bd fd a2 85 bd
       0.11544464 -0.030693326 -0.1019481 -0.06525228
0002a0 5d af bd 3d 4b 74 5e bd 5b f4 d7 3d 7c e5 bd bd
       0.092619635 -0.054310124 0.10544654 -0.09272286
0002b0 12 67 05 be dc 4d 3b 3e 01 d9 c0 bc 2c 30 b2 3d
       -0.130276 0.1829142 -0.023540976 0.08700594
0002c0 bc 28 68 be 46 58 89 3d 9a a5 80 bd b0 4e 1e bc
       -0.22671789 0.0670629 -0.06281586 -0.009662315
0002d0 5d b7 70 be f1 8b 6f 3d 5a b2 b3 bd f3 e3 12 be
       -0.23507448 0.058483068 -0.08774252 -0.14344768
0002e0 6b 7a 82 3c 0f 6d ee bd 2e e3 c3 3d b5 b3 aa 3d
       0.015927514 -0.11641895 0.095648155 0.08335058
0002f0 24 47 00 be 51 cc 2b be 69 d9 3c bd 81 c8 10 bb
       -0.12527138 -0.1677716 -0.046105776 -0.0022092166
000300 21 84 40 3e bb d4 4e be 41 a6 06 bd 4e 57 8f 3d
       0.18800403 -0.20198338 -0.032873396 0.06999074
000310 da f1 04 be e1 38 d8 3d e5 34 7c be 48 b0 c4 bd
       -0.12982884 0.10557724 -0.24629553 -0.096039355
000320 d3 31 ab bd d8 f2 a9 bd 1e 8a d3 bd a4 e9 95 3d
       -0.083591126 -0.08298272 -0.10329078 0.07319954
000330 2e cd ca bd aa 57 7d be bb 41 3a be 37 ab 44 3d
       -0.09902416 -0.24740472 -0.18189137 0.048014846
000340 ec bd c3 bd 4a 19 93 bd 47 45 9b 3d b2 97 9f bd
       -0.09557709 -0.07182558 0.07581573 -0.077926055
000350 85 11 06 bd 02 2f 26 3e 14 e7 02 3d 02 74 4c bd
       -0.03273155 0.1622887 0.031958655 -0.04991532
000360 05 e4 1e 3d 54 92 f8 3c 17 b5 16 be 6c 04 01 3e
       0.038791675 0.030343212 -0.14717518 0.12599343
000370 d9 7a b4 3d 83 8c 7c 3c f9 0a cb bd f4 3c 10 bd
       0.08812494 0.01541436 -0.09914202 -0.03521438
000380 10 59 90 bd d4 ed f1 bd 18 58 9b be c3 99 94 bd
       -0.07048237 -0.1181294 -0.30340648 -0.0725589
000390 34 5d 0a be 7d 76 14 be a0 56 c0 bd aa e7 50 3e
       -0.13512117 -0.14498325 -0.093915224 0.20400873
0003a0 50 a8 82 3d 6e db af 3c 48 96 e7 bb b4 13 38 be
       0.06379759 0.021466937 -0.0070674755 -0.17976266
0003b0 0a 10 4a be 43 2f 20 3e 12 17 90 bd 5b c7 ac be
       -0.19732681 0.15643029 -0.0703565 -0.33745846
0003c0 81 f5 3b bd 79 13 d2 3c bc e9 3e 3e be 5e e2 bd
       -0.045888428 0.02564405 0.1864385 -0.11053227
0003d0 20 d6 c7 3d 72 6f 79 bd 1e a9 e1 bd fb 26 d3 3d
       0.09757638 -0.0608973 -0.11018585 0.10310169
0003e0 7f 9a 01 be 71 4d 4a be 14 67 98 bd 41 17 41 be
       -0.12656592 -0.19756104 -0.074415356 -0.18856527
0003f0 8e f9 9b 3c 35 eb 4a be 74 2f 09 be 63 a2 38 be
       0.019039895 -0.19816287 -0.13397008 -0.18030696
