models/cnn_lstm_7f_rec_best.pth (torch, 142081 bytes, 8 tensors)

cnn.0.weight f4 [64, 7, 3]
00000000: e133 243e 4de1 8c3c 4108 18bd 2933 743e
00000010: 6fa9 143e 71d8 6d3e e535 f1bb 47de a6bd
00000020: 72b0 3bbd 0a94 123e 33f7 1dbe c46e b93d
00000030: d2bb dbbd a68f 6abc ea2b a6bd 6269 45bb
00000040: 560f 46be e4e5 89be 4178 523d 0707 b4be
00000050: 392c f23e fc15 41be f8ae 82bd ebee 203e
00000060: f5be 6bbd 7238 e9bb fb1c 603e f211 80bd
00000070: 5a14 2cbd cec2 cebe 7ea7 f1bc d6dc babd
00000080: 7e69 7c3d 4f74 1e3c 974c ec3d 13f1 f7bd
00000090: 2a74 813d b3cf fa3d 4a98 8c3e 3547 64be
000000a0: c125 83be 9567 4bbf cb1b 353e e40f 2dbe
000000b0: cd67 443e 370d a0be eb71 11be 5864 9abe
000000c0: 1538 2dbd 22e3 b53e 3334 8d3e 4c0a 683b
000000d0: f61f 0f3d 9d7d e2bc 7aa6 143b 3ea0 0fbd
000000e0: a6c2 363d 772c 4c3e 5712 9b3d 06de 08be
000000f0: d9a6 b8be 81b5 56be 0312 7b3e 17e2 9cbb
00000100: a5cc 29bc ebf0 4c3e cac9 a13d e3fd 4d3c
00000110: 58de 8abc a8df 8abd aa49 893d c26b 06be
00000120: 7e6a c4bd aa62 f83d 1189 fa3c cbf8 2abd
00000130: 9886 033e 325a 78bd 80f9 d1bb ab54 01be
00000140: aab2 8dbe 23c8 86bd 1129 f43c e144 4f3f
00000150: 163d 113d 39a2 f53d 0ed1 9dbd c271 ff3d
00000160: 0f3d 56bd 3db2 2b3e c58e af3d f440 25be
00000170: 222f a53c 3a8c e4bc 3616 a7bd 1dd3 13be
00000180: 8b4e 1fbe 09aa ac3d e09c 283e 31ef 043f
00000190: b6ca f83e e769 453f f85f 983e 0f16 833e
000001a0: df3b a03e b2cd 9f3d 2fba 0f3d d918 34be
000001b0: 1469 2b3e 039c 6d3e 498d da3c a16e 7a3e
000001c0: 915d 0ebe 994d 9ebd d298 96bd 4a6e 59bc
000001d0: d574 8bbd 0ebd 6bbe a649 933d 905e 193c
000001e0: b8bd 2fbf 8597 1abf bb23 7fbf cb34 53be
000001f0: 1bf8 003e 838d 11bf 35ce a93d 10ae c03d
00000200: 2033 dab9 4f9e afbd ae35 0fbe b471 86be
00000210: 9efa 67be d61a afbd 5090 1ebe a6a5 583d
00000220: 5d71 fc3d eb53 60be c9ab 02bd 88ac 173e
00000230: ef87 d8bd c8ab 97be c442 e8be fcf4 bdbe
00000240: 39a1 593d 1580 da3d 929c 72be 373c b4bd
00000250: 056d 9f3d cf26 883d b885 debd 5164 8b3d
00000260: f726 07be 06fd 10be 5eba 1cbe fdcb 18be
00000270: e67d dd3d 7c53 933c b863 17be 9e65 24bb
00000280: 5c55 123b 5f69 e33c bdbf cebd 7764 b1bc
00000290: a086 39bd f4b0 283e 32ad f7bd e36f e93e
000002a0: dc52 4cbe 0cc7 2d3e 9189 17bd 5042 8fbd
000002b0: 3520 78bd 40ba e03c 3808 9c3e 725f 8b3c
000002c0: 3c80 8f3e 0e94 923d 954a 9ebb 309a 8f3d
000002d0: 2df1 0c3d c5c5 c93a aa24 e3bd 8c5b a1be
000002e0: 5d9b e1be 27c8 cbbc 45a4 6fbd 2ea5 8fbe
000002f0: 6e16 32be 3cee 03bd 8be4 113e 6b4c 4b3e
00000300: 9c2c 343e 5f32 683e b7df 903c dda2 213e
00000310: ef29 183c 234d 88bd 1073 8c3d d224 adbc
00000320: a77b 89bd fe77 f93c 4906 dfba 5112 ea3c
00000330: f83d 8bbe f690 c1be cf34 0fbf 714c 0fbb
00000340: 605b 07bf 30f5 e23e a85b 8cbe 0a97 9ebe
00000350: 0f76 e9bd b838 4e3e 49e5 4c3e 143d 2f3e
00000360: 5c28 8bbe dc4f 03bc ce85 5bbe b0e9 193e
00000370: 8c74 9ebd 1fe0 55bd 0c4c b6bd f610 c53d
00000380: dbf8 843d 3f92 b13c 96cb d73e 5bb3 0d3e
00000390: 0e98 dc3d 50a9 523d e9bd 7fbd e03c 90bd
000003a0: 7c37 153e 3b0b ce3b 0c93 42be 07f9 573d
000003b0: 8ae4 343e f1b0 163d b0c2 03be 27b1 fabd
000003c0: fdd8 2abe 0fe8 94bd 63c2 0a3e 1a5c 143d
000003d0: f0a2 ef3d f66a bfbc 65d7 1fbe ff80 42be
000003e0: f52c 603c ecfb 933d 990e 173c 207a 4f3e
000003f0: 57aa 43be 8065 03be cb05 2a3d 56b8 e3bd
0.16035415 0.017197276 -0.037117247 0.23847641 0.14517759 0.23227097 -0.007361161 -0.08147865
-0.04582257 0.14314285 -0.1542633 0.0905433 -0.10729183 -0.014316475 -0.08113845 -0.0030122628
-0.19341788 -0.26933205 0.051384214 -0.3516161 0.47299364 -0.18856043 -0.06381029 0.1571614
-0.057555158 -0.0071173245 0.21886055 -0.06253423 -0.042011596 -0.40383 -0.029498812 -0.09124152
0.061624043 0.009671285 0.11538046 -0.12106528 0.06320985 0.12246647 0.27459937 -0.22292788
-0.2561474 -0.7945493 0.17686383 -0.16900593 0.19180222 -0.31260082 -0.14203613 -0.3015468
-0.042289812 0.3552485 0.27578887 0.0035406528 0.03494259 -0.027647788 0.0022682236 -0.03506493
0.044619225 0.19938837 0.075718574 -0.13365945 -0.36064795 -0.20967676 0.2451859 -0.004787694
-0.010363732 0.20013778 0.07899816 0.012572738 -0.016951725 -0.0678094 0.067035034 -0.13127044
-0.09590624 0.12128194 0.030582936 -0.041741174 0.12844312 -0.060632892 -0.0064079165 -0.12629955
-0.27675372 -0.06581142 0.029804738 0.80964476 0.035458647 0.11993832 -0.0770589 0.124728695
-0.052304324 0.16767211 0.08572153 -0.16138059 0.020164076 -0.027898896 -0.08158533 -0.14436002
-0.15557306 0.08430869 0.16466093 0.5192748 0.48592156 0.7711472 0.29760718 0.25602767
0.31295678 0.07802905 0.035089668 -0.17587604 0.16739303 0.23204045 0.026678698 0.24456264
-0.1390288 -0.07729644 -0.07353367 -0.013270924 -0.06809393 -0.23021337 0.07191782 0.009360924
-0.6864886 -0.6038745 -0.99663895 -0.20625608 0.12594645 -0.56856555 0.08291284 0.094082
-0.0004161829 -0.08575117 -0.13985321 -0.26258624 -0.22654197 -0.085500404 -0.15484738 0.05289235
0.1232631 -0.21907012 -0.03190211 0.14811909 -0.10572802 -0.29623246 -0.45363438 -0.3710097
0.05313227 0.10668961 -0.2369254 -0.088005476 0.07784466 0.06648027 -0.108653486 0.06806243
-0.13198458 -0.14159021 -0.15305468 -0.14921565 0.10815029 0.017984144 -0.14784133 -0.0025084983
0.002232871 0.027760206 -0.10095165 -0.02165435 -0.045294404 0.16473752 -0.12093581 0.45593175
-0.19953483 0.16970462 -0.036996428 -0.0699507 -0.06057759 0.02743256 0.3047502 0.017013285
0.28027523 0.071571454 -0.004830668 0.07011831 0.03440969 0.0015394023 -0.110909775 -0.31515157
-0.44063845 -0.024875714 -0.05850627 -0.2805571 -0.17391369 -0.03220962 0.14247338 0.1985337
0.17595142 0.22675465 0.0176848 0.15784784 0.0092873415 -0.06655338 0.06857884 -0.021135721
-0.06713038 0.030452725 -0.0017015423 0.028573187 -0.27195716 -0.3780591 -0.55939955 -0.002186563
-0.528738 0.44327688 -0.27413678 -0.3097461 -0.11399471 0.20138824 0.2000934 0.17113143
-0.2717923 -0.008014645 -0.21437761 0.15030551 -0.07737073 -0.05221569 -0.089012235 0.09622376
0.06492778 0.02167618 0.4214751 0.1383795 0.1077119 0.051431 -0.06243697 -0.07042861
0.14571947 0.00628796 -0.19001406 0.052727725 0.17665306 0.03678984 -0.12867236 -0.122408204
-0.16684337 -0.07270824 0.13550715 0.036220647 0.11701 -0.023366433 -0.1560951 -0.1899452
0.013682594 0.07225785 0.009219789 0.2026143 -0.19107948 -0.12831688 0.04150943 -0.11119144

cnn.0.bias f4 [64]
00000000: c877 95be f88a de3d 457e 1ebe 34fe e7bd
00000010: 4c11 f2bd 1952 30bd abd2 1fbe 5002 9abe
00000020: a468 6fbe 068a 7cbe 271b 25be 2233 70be
00000030: ac2c 573d ec74 0a3c 7da8 543e 4656 8cbe
00000040: 97d6 ecbd 0728 923c 8692 473c cf00 babd
00000050: f29b 4e3d 1480 33bc a956 77bd 1abc 4bbc
00000060: 8d39 17be 81e0 a2be 2cd5 38be c0a9 43be
00000070: 79d9 c83d ad4a ffbd 367a 523d 490c 92bc
00000080: 63db 8abd 0517 4c3d 623c 553e daa7 163d
00000090: 2237 d9bd 16ec 3f3e dc6e 6dbd b358 043d
000000a0: 5610 11be 19f2 e4bd 26f3 98bc ceb8 adbd
000000b0: adba 38be 9459 f9bd 4a57 26be 8a0d 3ebe
000000c0: 3d28 07be 8850 e13d f255 80bd ba12 89be
000000d0: 0e4a 5bbe 02be fabc 2870 b23c 7229 37bc
000000e0: 69c6 0bbe c205 e9bd cd55 08be 3b8c 03be
000000f0: a016 3fbe b7ef 5f3e b46a 29bd e14c 8cbe
-0.29192948 0.1086635 -0.15477856 -0.11327782 -0.11819705 -0.043047044 -0.15607707 -0.3007989
-0.23379761 -0.24662027 -0.16123639 -0.23457006 0.052532837 0.008450728 0.20767398 -0.2740957
-0.11564367 0.017841352 0.01218093 -0.090821855 0.05044169 -0.010955829 -0.06038538 -0.012434984
-0.14768048 -0.31811908 -0.18050069 -0.19107723 0.098071046 -0.12465415 0.05138608 -0.017828124
-0.06780126 0.04982664 0.20823815 0.03678117 -0.10606219 0.18742403 -0.057967052 0.032311153
-0.14166388 -0.11178989 -0.01867063 -0.08482514 -0.18039961 -0.12175289 -0.16244236 -0.18559852
-0.13198943 0.11001688 -0.06266393 -0.267721 -0.21414968 -0.03060818 0.021781996 -0.011179315
-0.13649906 -0.11378051 -0.1331398 -0.12846462 -0.18660975 0.21868788 -0.041361526 -0.27402404

lstm.weight_ih_l0 f4 [256, 64]
00000000: dd3c 9d3e 25b3 3ebe 8de6 4abe 54e2 09be
00000010: 9d12 38be 3ed7 5f3e e62b 82be f3cf b0bd
00000020: 349b 91be 561d 7a3e 32ba bfbd 0d33 943d
00000030: 1144 a6bd 2250 ecbe d997 15be 0c98 5b3d
00000040: c394 cabe 374b cf3d babb 94be 004b 713e
00000050: 3f45 88be 626d 0e3e 1b7f d7bd d230 4fbe
00000060: ca7c 15be 2e0f afbc 537a 193e 10f9 abbd
00000070: 5ed6 17bd b948 54be 32f5 a1bd f534 4b3d
00000080: 8e6c ffbd 328d b1be 145c 9f3e d57d e9be
00000090: 2080 0fbe da6a f0be 3f1d c03d 79aa 763d
000000a0: f48f 02bf e30b 60bb ed9a c3bc a174 13bf
000000b0: 49ed b3bd 71aa f1bd 43ac 35bd 411b e73c
000000c0: 0982 7a3a bde5 8c3d 3c48 253d 331c 5dbf
000000d0: 5a28 c1be 59cc 85bd 2c81 2dbe 3708 4cbe
000000e0: 7c7d 043e 54b2 2b3e 02b9 20bf c69a 8e3d
000000f0: 54fd be3d 9af3 eabc 3d4b 7abe b41f 1dbb
00000100: 5099 ffbd 2435 f0bb f190 8abe 0a44 6dbd
00000110: 567f 3cbd 1bdd b5bd 702f 80be 184b 63be
00000120: a474 cfbd c5d0 55bc a8c1 473e 5371 77bd
00000130: 9a2b d1bd eced 9dbe 9372 05be 9a4b 3c3e
00000140: 30cd a13e 0e61 08be 9a65 aa3d b23b ebbd
00000150: b0a8 243e a252 22be 9b7e e6bc 8efa 54be
00000160: 99ca dbbd a427 8e3d 9c8d fa39 5173 43bd
00000170: 204a c2bd 71c0 91be 435c 9c3d 866c 0bbe
00000180: 9952 27be e753 f73c 79a8 25be 9001 9fbe
00000190: 7878 9ebe 2dc6 8bbe a8fb 7e3e b94f 493d
000001a0: ce9d d33d 1995 f6bc b544 0bbd 46f8 dabd
000001b0: ad45 083b 1959 433e be8d 04be 8e7b 22bd
000001c0: dfe3 ffbc 68b7 0ebe 6fd9 91bd 7150 b5bd
000001d0: 6a88 2b3e a708 823c 56cb ba3c d0e3 3cbd
000001e0: db53 813d 8527 03be 4340 84bd d29a 2bbd
000001f0: 9540 cebd 2df8 c7bc 0c95 41bd a2b7 9c3d
00000200: 4036 933d a501 a83d c2d6 0bbe abd1 d6be
00000210: 3f5a 133d de37 80be 2c9b c0be 39f3 d8be
00000220: 3af2 d5be c421 2fbe b594 a83e 46ad ef3b
00000230: ee73 bcbe 5662 4dbe 6997 7c3d f24f f03e
00000240: 90b3 103f c555 3dbe e62f c5bd 0051 073c
00000250: 4ef5 7a3e 5170 cabb 1da8 d43e aa19 fcbe
00000260: 864c 243e 8fbb 92be 54df 8bbe aa60 dabd
00000270: 4aab 93bd 5aa9 3cbd 4898 24bd 273d 4fbe
00000280: b889 fa3d 1d0a 0c3a 57b7 70be 7e36 25be
00000290: 9a2d 4ebe cd75 34be 9c11 ca3e 7e6b 643e
000002a0: 877b a43e 9afd b9bc c73a fb3d 44e6 1dbe
000002b0: 007f 50bc b636 7e3e 1812 60be 0829 793c
000002c0: f044 adbc 92f8 02be 674e 2fbd d004 29bd
000002d0: b58b f93c dd99 6d3c 8c49 56bd 7709 d0bd
000002e0: 8aae b53d 8229 b1bd ffb2 bf3e 2a38 9abd
000002f0: 7e2c a93d 9781 13be 5035 75be e510 01bb
00000300: b2ed 22be f9ae 9ebd 22b1 6fbd 7b56 26be
00000310: 06af 11be f703 84bd 5bb3 cfbd bbe1 48be
00000320: 4db5 98be 7d08 0bbe 6cb6 a2bd cc33 dfbd
00000330: 3bdc 89be b938 b2be bf0e c8bd 3acf b33d
00000340: f2e8 ed3c cf1e 55be fdbf 24be 844e 0cbe
00000350: cc69 1cbd ad8a fdbd 7945 4d3d ece9 d4bd
00000360: c997 c1bb 31e6 99bd 8656 673c d911 d7bd
00000370: 304d 8dbd ef6a 4ebe 35a2 9c3c 58ed 75be
00000380: 5dbd 58bd 12c6 6ebe a314 85be 3abd 0dbe
00000390: d833 97be a7af 4ebe 8cd2 a1bd 3008 b1bd
000003a0: 8a38 85bc 27a9 b2bd bfb4 71bc af2b bcbe
000003b0: c397 dcbd 1f34 58bd deea 21bc c75f a53d
000003c0: 9f9a 90bc 3d2e c2bc 57c5 48be d588 1ebc
000003d0: d684 01bc 482a 2ebd eb12 49be aa3f 3c3d
000003e0: ae0b 13be cd44 66bd fbda 7ebc d59c c9bd
000003f0: 2a56 dabd efa6 bf3c 6449 fdbd abc4 3ebe
0.30710497 -0.18623026 -0.1981451 -0.13465244 -0.1797585 0.21859452 -0.25424117 -0.08633413
-0.28438723 0.24425253 -0.09361686 0.072363 -0.081184514 -0.46154886 -0.14608707 0.0536118
-0.3956662 0.10121768 -0.29049474 0.23563766 -0.2661533 0.13908914 -0.1052229 -0.20233467
-0.14598384 -0.021369543 0.14988069 -0.08397114 -0.03706967 -0.20730866 -0.079080954 0.04961105
-0.12471877 -0.34678036 0.31124938 -0.45603815 -0.1401372 -0.4695652 0.09380578 0.06022117
-0.51000905 -0.0034186773 -0.023877585 -0.57599837 -0.08785493 -0.11800087 -0.044353735 0.028211238
0.000955612 0.068797566 0.04035209 -0.86371154 -0.37726098 -0.06533117 -0.16943806 -0.19925009
0.12938493 0.16767246 -0.627823 0.069631144 0.09325662 -0.028680611 -0.24442764 -0.0023975195
-0.12480414 -0.0073305536 -0.27063707 -0.057926215 -0.046019875 -0.08880063 -0.25036192 -0.22196615
-0.10129669 -0.013050263 0.19507468 -0.06041081 -0.102133945 -0.30845582 -0.13031988 0.18388215
0.31601858 -0.13318273 0.0832016 -0.11485995 0.16079974 -0.15851834 -0.028136542 -0.20798704
-0.10732002 0.069411546 0.00047789223 -0.047717396 -0.094867945 -0.28467134 0.07634785 -0.13615617
-0.16340102 0.030191375 -0.16177548 -0.3105588 -0.30951285 -0.27299634 0.24900687 0.049148295
0.10332833 -0.030100392 -0.03400107 -0.10691886 0.0020793483 0.19076957 -0.12944695 -0.039668612
-0.031236587 -0.13937151 -0.0712155 -0.088532336 0.16751257 0.015873266 0.022802036 -0.046115696
0.06314822 -0.12808044 -0.064575695 -0.041895695 -0.10070912 -0.024410332 -0.047261283 0.07652213
0.07188082 0.08203439 -0.13656142 -0.4195684 0.035974737 -0.25042623 -0.37618387 -0.42373064
-0.41786367 -0.17102724 0.32925954 0.007314357 -0.36807197 -0.20057043 0.061667833 0.46935993
0.5652399 -0.1848975 -0.096282765 0.008259058 0.24507639 -0.00617794 0.4153451 -0.4923833
0.16044816 -0.2865872 -0.27318823 -0.106629685 -0.07210405 -0.046059944 -0.04018429 -0.20238172
0.12233299 0.0005342083 -0.23507439 -0.16134068 -0.20134583 -0.17623062 0.3946656 0.2230663
0.32125494 -0.022703934 0.1226707 -0.1541987 -0.012725592 0.24825558 -0.21881902 0.0152075365
-0.021151036 -0.12790135 -0.04279938 -0.041264355 0.030462125 0.014502016 -0.052316234 -0.10158055
0.08871181 -0.08650495 0.3744125 -0.07530244 0.08260439 -0.14404903 -0.23946118 -0.0019693908
-0.15910986 -0.07748217 -0.058518536 -0.16243927 -0.14226922 -0.06446069 -0.10141631 -0.1961736
-0.29825822 -0.13577457 -0.079449505 -0.10898551 -0.26925835 -0.348089 -0.097684376 0.0877976
0.029041741 -0.20812534 -0.16088863 -0.13701826 -0.038186833 -0.12379966 0.050115082 -0.103961796
-0.005907987 -0.07514609 0.01411975 -0.10501451 -0.06899488 -0.2015798 0.019120315 -0.2401632
-0.052914966 -0.23317745 -0.25992307 -0.13841715 -0.2953174 -0.20184194 -0.07901487 -0.0864414
-0.016262311 -0.087236695 -0.014752566 -0.36752078 -0.10771134 -0.05278408 -0.009882657 0.08074909
-0.017651854 -0.023703689 -0.19606529 -0.009676178 -0.007905206 -0.04252079 -0.19636123 0.045959152
-0.14359924 -0.056217957 -0.015555139 -0.098443665 -0.10660966 0.02339503 -0.12367514 -0.1862971

lstm.weight_hh_l0 f4 [256, 64]
00000000: 30f2 3d3e eefc 2ebe 0f94 90be ec26 203e
00000010: 1e2a 5c3e c149 a33e cf17 ea3d f024 17bf
00000020: b4f2 a8be 9bef 133d 7dd3 86be 47b2 e53d
00000030: 5f7c 51bd f296 1fbe baee ddbd a0bc be3e
00000040: bcec 9abd e6a4 41be df58 523e 7baa 95be
00000050: 62d9 edbd f6d4 2d3e 5aa0 a93d 91bb e7bc
00000060: dd27 ed3d 781c 45be fa95 b5bd b518 883b
00000070: 07c4 d63d 04b0 863d d218 15be 2c35 a03d
00000080: 4637 a1be e514 493e 255f 903e cc2c 4b3c
00000090: 099a 903d c2ee 453a b296 f1bd ef68 d4bd
000000a0: 7d71 71be 52ce 8ebd 7da9 a23c 9b1c 793c
000000b0: bde5 513e 7772 f43d 4f53 d4ba 60ad 4ebd
000000c0: 416a 413e a651 f9bc 0d29 a43d ca51 563e
000000d0: a76d 6dbd 0195 993d 98fb 4abd 2e85 ff3e
000000e0: f01a 983e 3156 a0bd 6327 4fbd dbdd 07bd
000000f0: a81b 32be 731e ffbd 851f 883d e861 673d
00000100: bbed f7bd 6244 963d 2523 903d 0299 29be
00000110: 7644 f9be d3a0 a8be 66f6 253e 1d44 3b3e
00000120: ecf4 853d 4e44 adbc 992b 953e ee75 0f3e
00000130: 2269 903e 9b9c 033e f384 91bd fe3b 5ebe
00000140: f17e f43d 6315 38be 043f 74bd 244c 373e
00000150: f7f0 163d 7350 54be 765b ab3e a340 503e
00000160: aaa8 cabd 3e50 3c3d 7635 093e d6da 173e
00000170: 445e a0bc a4c0 f03d 6189 40bc f7ce 513e
00000180: 6897 a33d b2a5 903b 7c9b 353d 8962 55be
00000190: c514 833e 262e af3e 9e40 39be 1ede 5f3d
000001a0: 0ca6 97be 33e7 173e d0d3 aabe d3b0 14be
000001b0: 4402 2a3e 3a79 a3be b49d 0dbd c81c 153e
000001c0: 8655 95be afc8 6c3e e48e 913d 5683 81be
000001d0: d75a 8a3e 2ed5 823e 556f 25be af87 c03d
000001e0: 6cde 003e 2eb1 073e b939 a23d 1504 4c3d
000001f0: ec76 893e fea9 b5bc f08b c63e c421 67be
00000200: 6569 f1bd e05e 393e 354a 613e 3dde c0be
00000210: 1836 09bf 4ad2 9cbe 8943 abbd e37f 62bd
00000220: 454d 8fbe d714 9bbe 80f5 703e 3fc0 203e
00000230: 65bc ea3d cf6b 043d 8da9 7e3e c0fd f7be
00000240: aebf c83e 42a8 e83e 5c47 623e 8740 513e
00000250: 172b be3d a931 afbe 5600 ba3e bf4e d4bc
00000260: 5f3a 17be 1bb9 163e c621 4b3d 47f4 9f3e
00000270: b3c2 a6be 74e2 bc3e 3420 f3be 2a7d 7cbd
00000280: 34ec 6cbe 9059 92bd 74bd a9be 5da4 24be
00000290: 7d15 9d3e 7032 adbe 1cba 5ebe bef5 46bd
000002a0: ad88 03bf 48c3 ca3e bf6f 9dbe 8506 1fbe
000002b0: 01d9 80bd 227b 36be d47e 5ebe 09f7 55be
000002c0: 8c1e a0be 7389 b63d cde7 66bd acce 2ebe
000002d0: 22cf c63e 41c9 833e 5650 42be a9f1 8a3e
000002e0: a643 01bf 484b 03be 0792 183e 5b37 a33e
000002f0: 22d3 323e 2097 473e 3a04 423f d830 97bd
00000300: d8fd 823c 6966 2a3d 4cce 493d af2d 1abe
00000310: 17e4 18bd dbec 58bd f42a a3bd c4f5 f9bd
00000320: 5bff 58be 7f97 94bd f4f5 aa3c 3f8c 013e
00000330: d2ac 813d be8b 82bd 9bf5 183e 4a0e a6bd
00000340: e608 9abd a127 913d 0567 883e 756f d3bd
00000350: a98c d6bd eee2 833c d2d9 e9bc f035 b7bd
00000360: 5537 c53d 8840 06bd a791 18be 06ad 4c3e
00000370: 3412 b43d 852f d2bc 5be5 a2be 6cbf fdbd
00000380: d77a acbd b885 113d 45b2 eb3d 2dd3 e53d
00000390: 2930 cf3b 4852 afbe 0d50 143e 896d 9fbc
000003a0: 2595 98bd 78ab 233e e2bd b6bd 9e34 de3d
000003b0: 31bb 38be 6efd 3e3e 7aff 05be d047 6aba
000003c0: 9395 373d f5a8 d3bd 4e5e bebd 2e58 e0bd
000003d0: e781 0ebd 5865 283e 3fae e8bd 5034 693e
000003e0: ce0b 47be e84c e13d a206 ef3b 9e91 083e
000003f0: 5a16 c4bd d997 563e baaf 213e fdc9 67bc
0.18549418 -0.17088673 -0.2823796 0.15639848 0.21500441 0.31892207 0.114303224 -0.5904074
-0.32997668 0.036117177 -0.26333228 0.11215644 -0.051144 -0.15584925 -0.10836549 0.37253284
-0.07564685 -0.1891056 0.20541714 -0.2923163 -0.11613728 0.1697577 0.08282538 -0.02828768
0.11579869 -0.19249141 -0.088664964 0.004153336 0.10486608 0.06576541 -0.1456025 0.07822642
-0.31487483 0.19636877 0.2819759 0.012400817 0.0706063 0.00075505313 -0.11796321 -0.10371577
-0.23578449 -0.06972946 0.019856209 0.015204574 0.20497794 0.11935895 -0.0016199144 -0.050458312
0.18888189 -0.03043444 0.08015642 0.20929638 -0.0579659 0.07499123 -0.049556345 0.49906296
0.29708052 -0.0782894 -0.05057467 -0.033170562 -0.17393363 -0.124569796 0.06646637 0.056489855
-0.1210589 0.07337262 0.07037953 -0.16562274 -0.48685044 -0.329352 0.16207275 0.18287702
0.06540856 -0.021150734 0.29134825 0.1400983 0.2820521 0.12852709 -0.07105436 -0.21702573
0.11938275 -0.17976908 -0.05963041 0.17900139 0.036850896 -0.20733814 0.33468217 0.20337157
-0.09895451 0.045974962 0.133993 0.14829573 -0.0195762 0.11755493 -0.011751504 0.20489107
0.07987863 0.0044142837 0.044337735 -0.2083837 0.25601783 0.34214896 -0.18091056 0.054655187
-0.2961887 0.14834289 -0.33364725 -0.14520578 0.16602427 -0.31928426 -0.034574226 0.1456176
-0.29166812 0.2312343 0.07107332 -0.25295514 0.2702243 0.25553268 -0.16155751 0.094008796
0.12584847 0.13251182 0.07921166 0.04980858 0.26848543 -0.022175785 0.3877864 -0.22571474
-0.117876805 0.18102598 0.22000964 -0.37669554 -0.53598166 -0.30629188 -0.08362491 -0.055297744
-0.2798864 -0.30289337 0.23531151 0.15698336 0.11461715 0.032329377 0.24869366 -0.48435783
0.3920874 0.4544087 0.22097534 0.20434771 0.092855625 -0.34217575 0.3632838 -0.025916455
-0.1476836 0.1471905 0.049592756 0.31241056 -0.3257042 0.3689152 -0.47485507 -0.061642803
-0.2313698 -0.07145989 -0.33152354 -0.16078325 0.30680457 -0.33827543 -0.21750683 -0.0485742
-0.51380426 0.39602113 -0.30749318 -0.15529831 -0.0629139 -0.17820409 -0.21728069 -0.20895018
-0.31273305 0.08912935 -0.056373406 -0.17071027 0.38829905 0.25739482 -0.18975958 0.27137497
-0.5049385 -0.12821686 0.14899455 0.3187817 0.17463353 0.19491243 0.757877 -0.07382363
0.015990183 0.041601572 0.049269006 -0.1505649 -0.0373269 -0.052960258 -0.07967177 -0.12205079
-0.2119116 -0.07255458 0.020869233 0.12651156 0.06331791 -0.0637431 0.14937441 -0.08108194
-0.075212285 0.07087637 0.26641098 -0.10323993 -0.104760475 0.01609942 -0.028546248 -0.08945835
0.09629694 -0.032776386 -0.14899312 0.19987878 0.087925345 -0.025657425 -0.3181561 -0.123900265
-0.08421867 0.035527915 0.115086116 0.11221919 0.00632288 -0.34242463 0.14483662 -0.01946141
-0.07450322 0.15983379 -0.08922936 0.1084988 -0.18040158 0.18651363 -0.13085738 -0.00089370925
0.04482038 -0.1033496 -0.09295331 -0.10954319 -0.034791853 0.1644491 -0.1136136 0.22773862
-0.19438097 0.11000997 0.007294492 0.13336799 -0.09574576 0.20956363 0.1578969 -0.014147279

lstm.bias_ih_l0 f4 [256]
00000000: 4ff4 77bd 92d5 c8bd 7f02 c2bd d9a9 07be
00000010: 7d17 f43d 85ee 52be 41b5 94be 748e 943d
00000020: d407 103e 3e74 2cbe 6606 2fbd ba8b 3cbe
00000030: ffe1 2abe d342 f1bd e34b 9c3b 0507 debd
00000040: e3e8 10be e1a6 303c d444 d03c 931f 46be
00000050: c79f 97bd 706c 813c 4c93 72be 0d8a e63c
00000060: 72c7 b13c 4394 263d 5dd0 a03d 34ed 59be
00000070: a712 10be d38e 3bbe d576 06bd 2960 d2bd
00000080: 4681 3cbe 002a eabd 5599 283d aafc 77bd
00000090: 4eec 29be 5713 ab3d d003 40bd 2421 c5bd
000000a0: 5cdd 67be 15b2 4fbc 04af 9ebd 71ef 30bd
000000b0: b628 a53a a657 06bd 8676 96bd 5af0 04be
000000c0: 7c63 dcbd 4144 5c3d 0ce2 f5bd 44a6 45bd
000000d0: 3267 063c ce36 0abe 07df 65be 1497 1d3e
000000e0: b339 04be db38 32bd e0df 85bd 2ada 46be
000000f0: 4e71 1f3d 107d 423c 1895 b9bd ff22 0dbe
00000100: a8bd 6abe ba26 4abe 22e6 42be c732 3ebd
00000110: 7633 a2be e3c2 26bd 6ccb 71be 3401 27be
00000120: ea9e 95be 1cf2 1cbe 5d14 96be ddae f2bc
00000130: 4602 1cbe e85a 85be c2cb eabc 5fc3 9a3e
00000140: 1d21 2dbe bb6f 2dbe 782e 4fbe 9453 18be
00000150: 6416 1dbe 581b 2fbe f487 88bd 3759 65be
00000160: 8da4 dcbd 711c 61be 486b 5dbe 9cb5 e2bd
00000170: 9dd0 0ebe 328e 95bc bc6c 76be b610 55be
00000180: 7b88 d83a a3a6 83be 0380 81be 6288 eabd
00000190: 5b96 c1bd 8755 94be ea51 103d 7339 b0bd
000001a0: d929 1abe 9d2b 0abe 24e9 9abd a941 a2be
000001b0: 6e65 6abe 438b 60be bbf4 7ebe 304e abbd
000001c0: d52c 56bc 6306 49be 65f0 cabc 7cae 1ebd
000001d0: abea 1cbe f39f 87bd 61b0 f7bd 3e78 a7bd
000001e0: d0fe 67be 583c 58be 33f4 7dbd 7732 13be
000001f0: 5a8c 9bbe b312 28bd a06d 5c3c 5c9c 8ebd
00000200: 37f0 b5bd d26f c7bd d58a 8cbd 7866 da3d
00000210: 1492 28be 8ef5 27bd d7c5 39bd 1738 fd3c
00000220: 9918 983d 5fba d33d daed d2bd 41ba 7bbd
00000230: d9aa 8ebd 8c30 71bd ce41 4cbd ce74 763d
00000240: f013 223d 5868 f7bd 5e4c 67bd b29a 723c
00000250: b3da b7ba aa88 0a3d 5206 5bbd b571 d23c
00000260: 60e7 4b3c b30d 69bc 6118 e23d cbd0 8d3d
00000270: 6206 1c3d c263 bbbd 0136 3bbd 5135 a83d
00000280: 3e77 ecbd 110c 9bbc 6f16 9bbd ffbe c2bd
00000290: 7297 b03d 6efa a43b bc69 ebbc 4add 413d
000002a0: 7997 ddbd 148b d9bd d478 bd3d 8cc9 57bd
000002b0: 930c 1fba b25d f0bd 1380 24bc 3d47 a73d
000002c0: ca72 e53d cc4b 5e3d 36ef c3bd 3e94 4ebc
000002d0: 6c17 12bd fcdf eabc 7f37 eb3d 3b58 a73d
000002e0: 13d1 96bd ed87 fd3c c05f 83bd 8073 c4bd
000002f0: f165 5bbd 68e9 c6bd df28 4fbd 8c34 df3c
00000300: 6e5a 36be 1842 5cbe 5544 19be 2532 30be
00000310: c577 b03d 2372 3cbe 1f3d 72be 0715 073d
00000320: edf8 1d3e 4c4b 51be afbd 583d e7d3 35be
00000330: 3920 05bd 6cd5 c2bd a6a8 c0bd 7fe0 14be
00000340: 9011 5ebe c056 5abd 715a e4bd 5597 72bd
00000350: 29ee 64bd 7208 01be 4935 5abe b849 953c
00000360: 4706 4fbe 54c0 7b3c 933d 17bd dbb6 35bd
00000370: 9fae 59be b4bc f8bd b6a8 83bd fbff f1bd
00000380: a4f3 81be 9db5 9f3c 49f7 24bd 8bcd a4ba
00000390: 8010 45be db18 833d 2f48 b93c 5b65 24be
000003a0: 8383 84be ba9a 093d e5c9 2bbd 1693 24be
000003b0: 3c5f 4ebe cf36 2cbe 3805 96bd 05ff c5bd
000003c0: 50c2 65be ebbb 05bd 9d9b 40bd b05f 1abd
000003d0: 829c b43c c371 78be 64bc 91bd 464b f73d
000003e0: 788c bfbd 5140 9ebd e712 97bd d2f5 fdbd
000003f0: 13de 42bd 269f 0ebe 7dd3 21be dbee 65be
-0.060535725 -0.0980636 -0.09473132 -0.13248385 0.119185425 -0.205988 -0.29044536 0.07253733
0.14065486 -0.16841218 -0.04273071 -0.18412676 -0.16687773 -0.11780324 0.0047697886 -0.108411826
-0.14151339 0.0107819745 0.025423445 -0.19347982 -0.07403522 0.015798777 -0.23689002 0.028142
0.021701548 0.040668737 0.07852242 -0.21281892 -0.14069615 -0.18316202 -0.03282817 -0.10272247
-0.18408689 -0.11433792 0.041161854 -0.060543694 -0.1659405 0.08353298 -0.046878636 -0.09625462
-0.22643036 -0.012676735 -0.07748225 -0.0431971 0.0012600634 -0.03279843 -0.07346825 -0.12982312
-0.10761163 0.05377603 -0.12006006 -0.048254266 0.008203315 -0.13497469 -0.2244836 0.15389663
-0.12912636 -0.043511253 -0.065368414 -0.1941916 0.038926415 0.011870638 -0.090616405 -0.13782881
-0.2292391 -0.19741336 -0.19033101 -0.046435144 -0.31679887 -0.040713202 -0.23612756 -0.16309053
-0.29222804 -0.15326732 -0.2931241 -0.029624397 -0.15235242 -0.26045918 -0.028661612 0.3022718
-0.16907163 -0.16937153 -0.2023257 -0.14875633 -0.15340573 -0.17100275 -0.06666556 -0.22397314
-0.10773573 -0.21983506 -0.21622956 -0.110697955 -0.13946767 -0.01825628 -0.24064916 -0.20807156
0.0016520167 -0.2571307 -0.25292978 -0.11451794 -0.09452506 -0.28971502 0.03523437 -0.086047076
-0.15055026 -0.134932 -0.07563999 -0.3169072 -0.22890255 -0.21928124 -0.24898045 -0.083645225
-0.013072212 -0.19631343 -0.024772832 -0.03874062 -0.15323894 -0.06622305 -0.120941885 -0.08177231
-0.22655797 -0.2111677 -0.062000465 -0.1437472 -0.30380517 -0.041033458 0.013453871 -0.06963417
-0.08883708 -0.09738125 -0.068624176 0.106640756 -0.16461974 -0.041005664 -0.04535469 0.030910535
0.07426567 0.10338282 -0.10299273 -0.061456922 -0.0696618 -0.05888419 -0.049867444 0.060169987
0.039569795 -0.12080449 -0.056469314 0.01480739 -0.001402697 0.03382174 -0.053472824 0.025688985
0.012445301 -0.014224458 0.11039806 0.0692459 0.038092025 -0.09149887 -0.0457058 0.08213294
-0.11546181 -0.018926652 -0.07572638 -0.09509086 0.08622636 0.0050347364 -0.028736942 0.04733018
-0.10819907 -0.1062223 0.09251562 -0.052682444 -0.00060672424 -0.11736621 -0.010040301 0.081678845
0.11203535 0.054271504 -0.0956711 -0.012608586 -0.035666868 -0.028671257 0.114851944 0.081711255
-0.073640965 0.030948604 -0.06414747 -0.095923424 -0.053564016 -0.097124875 -0.050576087 0.027246736
-0.17807934 -0.21509588 -0.14967473 -0.17206629 0.08616594 -0.18402915 -0.23656128 0.032979038
0.15426989 -0.2043888 0.05291527 -0.17756616 -0.032501433 -0.09513363 -0.09407167 -0.14538763
-0.21686387 -0.053305387 -0.11150063 -0.059226353 -0.05589119 -0.12600878 -0.21309389 0.018223628
-0.20217238 0.015365679 -0.036923956 -0.044363838 -0.21258019 -0.12145367 -0.064286634 -0.118164025
-0.25381196 0.01949578 -0.040274892 -0.0012573464 -0.19244576 0.06401225 0.022617428 -0.16054289
-0.25881585 0.033594824 -0.04194059 -0.16071734 -0.20153517 -0.16817783 -0.07325214 -0.09667782
-0.22437406 -0.032649916 -0.047023404 -0.03768891 0.022047285 -0.24262147 -0.07116011 0.12074904
-0.09352964 -0.07727111 -0.07376652 -0.12400402 -0.047575068 -0.13927898 -0.15803333 -0.22454397

lstm.bias_hh_l0 f4 [256]
00000000: 7cae 63bc a959 0fbe 5659 27be f09f 12bd
00000010: 8365 c2bc a59e c1bd facb 93be 6f68 013e
00000020: 8daf 3a3e c8e5 20be 2049 013e ee71 6dbd
00000030: fa0e 2abe afcf 293d e67f 11bd 2649 f9bd
00000040: 5732 debd e837 6bbd d145 aabc 7d78 03be
00000050: 4119 81bd 1e26 ca3c aa7b c6bc 60e0 4d3d
00000060: fd2e 053d 8499 f3bd 459b 993d 8090 0bbc
00000070: 4e3c 3f39 cce8 0cbe 4f42 1abe 454c 2ebe
00000080: a286 c53c 6f1f cebd 536c b9bc ffff 2bbe
00000090: a71f 3fbe 400c c83d 24eb 09be 0469 24be
000000a0: 88e9 e3bd 523f 93bd d537 18be 15d0 47bc
000000b0: 8a4e 673c ae43 be3b 9787 6ebe c04e 293d
000000c0: f122 b2bd a03c 13be a089 74bd b8d4 b1bd
000000d0: 96f5 cf3b 09fa 44be 981f 81be 6fc4 ec3d
000000e0: 893d 26bd 7d1e 8cbd 11e7 81be 1f83 e9bd
000000f0: 52a0 7bbd e28a c8bd 1213 0fbd 7c85 a0be
00000100: fba3 00be 1d07 35be 8b83 b8bd ec19 453c
00000110: 33d7 90be d5ab 86bd 87ce bfbd a3ee 98be
00000120: 482d d9be c1a0 f1bc 8e70 a1be 9226 b0bd
00000130: f5c9 14bd 53b3 b7be 3ca9 d8bd ef0f 743e
00000140: 7c8a a2bd 31b8 6fbe cc64 0dbe 972c 43be
00000150: 9740 5bbe 3718 f0bd 4b89 a13b 943f 213c
00000160: 8b79 1d3d ba6e 0dbe 2f75 a3bd 070c 80be
00000170: 2dd7 73bc ee04 53be b315 2abe 7240 03be
00000180: 4910 afbc 9739 f2bd 1a48 59be 3cb6 04be
00000190: 486b 2a3d 11ec 7dbe 4587 39be 13e4 bebd
000001a0: 78c9 dfbd 4970 64be 8c34 c9bd 0f6d 5bbe
000001b0: f011 c1bd 9161 84be df70 6dbe ac50 d5bd
000001c0: 7360 47bd 35ee 66be 4d0e babd ebe2 ccbd
000001d0: 5de2 a33b 6028 22be 5848 0ebd d955 65be
000001e0: 014c e5bc 0fef 83bd 609b b2bd de83 0bbe
000001f0: 9177 82be 3ec9 d2bd 5c72 f03c 7d4c 1abe
00000200: 4736 a93d 3fd8 343d 69cd adbd f10e 123d
00000210: 8dc4 c93b 76c3 29bd e485 b93d 55ef cdbc
00000220: 9191 3c3c 314a edbd 89c7 61bd 1dea 07bc
00000230: 7e2e 8fbb b19a 913d e405 e9bd f064 6abd
00000240: bd39 8a3d 6cb1 a43d 7a56 b6bc 4dc1 983d
00000250: 5bd7 b43d 1562 dcbc 42a7 833d 52d0 bcbd
00000260: c34b e9bd 3d35 e63d 1f10 16bc c53c 04be
00000270: 6e95 71bd f15d 943d 75ac 0f3e 2041 8f3d
00000280: d585 c6bc 033a 98bc 2191 8c3d 957c 8c3d
00000290: dc91 5ebd 533e 0e3e 70ee c7bd 0e6d c23d
000002a0: 4904 603d 1278 cfbc 9ede 79bc 60e8 c1bc
000002b0: 588b 9739 72b1 513d 4d59 c6bb 3fb4 5bbd
000002c0: 4007 c9bd 9473 e13c 440c d83d 9157 bdbd
000002d0: 7fb4 a4bd a4a8 a13c 7a35 6fbd 8b1c e0bd
000002e0: a3d0 8e3d 6da1 97bd 38cb e93c 87b7 de3d
000002f0: b0d2 b63d 8a30 b9bd da44 af3d 464f 50bd
00000300: 3886 103d 4652 33be e273 3dbd 1b13 22be
00000310: 96fd 023e 427e d1bd 16c2 eebd fb26 5a3d
00000320: 8cc2 1d3e b5e7 4bbe 8fb2 113e e7bf 5dbd
00000330: d8de 54be 93bf f4bd 0ea8 66be 5f60 88be
00000340: 7723 f7bc 7252 0f3d 2ec0 d4bd 8f1b 6abd
00000350: 8ccd 11be f6e7 b13c 1abf 59bd de4c 32be
00000360: aada b4bc 2e55 c5bd 961d f7bd d608 d1bc
00000370: b730 56be e7e5 40be b182 fabd a8ef 25be
00000380: b70a 28be b2d5 013b 3db0 ba3d 5ea8 61be
00000390: 2cd4 00be 3931 b63c 78a6 8bbd 9160 d9bb
000003a0: 1abd 23bd 50d3 fdbd 95be c8bd 142b 0cbe
000003b0: cf94 acbd 0ba2 76bd 2633 88bd 2d0c 01be
000003c0: 715b 65be 5f43 d5bd fc01 cdbd 24b7 2abd
000003d0: f1cc 9abd 8a0f 58bd 5c49 35bd fdf6 803b
000003e0: dc31 0fbe e1e9 bbbd bba0 18be 9b22 f73c
000003f0: df71 b9bd 7f9c 4a3c 11d1 22be 90d1 85be
-0.013896581 -0.13999046 -0.16342673 -0.03579706 -0.023730045 -0.09454087 -0.2886656 0.12637495
0.1823103 -0.15712655 0.12625551 -0.05796998 -0.16607276 0.041457828 -0.035522364 -0.12172155
-0.10849445 -0.057426363 -0.020785244 -0.12838931 -0.06303645 0.024676379 -0.02422889 0.05026281
0.032515515 -0.11894515 0.075003184 -0.008518338 0.00018237645 -0.1376068 -0.15064357 -0.17021282
0.02411205 -0.10064589 -0.02263466 -0.16796874 -0.18664418 0.097679615 -0.13468605 -0.16055685
-0.11128527 -0.07189812 -0.14865048 -0.012195607 0.014117846 0.005806408 -0.23293911 0.041334867
-0.08698071 -0.14378595 -0.059701562 -0.08683151 0.006346415 -0.19236006 -0.25219417 0.11560904
-0.04058603 -0.06841753 -0.25371602 -0.114019625 -0.06143219 -0.09792115 -0.034930296 -0.3135184
-0.12562554 -0.17678495 -0.09009465 0.012030106 -0.28289184 -0.06575743 -0.09365564 -0.29869565
-0.4241736 -0.029495599 -0.31531185 -0.08601107 -0.036325414 -0.35879 -0.10579154 0.23834203
-0.0793657 -0.23410107 -0.13807982 -0.19059978 -0.21411358 -0.117233686 0.0049296967 0.009841818
0.03844599 -0.1381177 -0.07981335 -0.25009176 -0.014882845 -0.2060735 -0.1660984 -0.12817553
-0.02137007 -0.11827391 -0.21218911 -0.12960142 0.041606218 -0.24797083 -0.18118007 -0.093208455
-0.10927099 -0.22308458 -0.09824476 -0.21428321 -0.094272494 -0.25855687 -0.23187588 -0.104157776
-0.048675966 -0.22551806 -0.09084759 -0.10004219 0.00500135 -0.15835714 -0.03473696 -0.2239603
-0.027990343 -0.06442081 -0.08721042 -0.13624522 -0.25481847 -0.1029229 0.029351406 -0.1506824
0.08262306 0.04415154 -0.084864445 0.03565878 0.006157464 -0.04144617 0.09058741 -0.025138536
0.011509315 -0.115864165 -0.055121932 -0.008295563 -0.004369556 0.07109583 -0.11378077 -0.057225168
0.06749294 0.08041653 -0.022258032 0.07458744 0.08830138 -0.026902238 0.06428386 -0.092194214
-0.113914035 0.11240623 -0.009159117 -0.12913807 -0.058980398 0.072444804 0.14030631 0.069948435
-0.024233738 -0.01858235 0.06863619 0.068597 -0.05433832 0.13890962 -0.09762275 0.09493457
0.054691587 -0.025325809 -0.01525083 -0.023670375 0.00028904784 0.051194616 -0.006053126 -0.053638693
-0.09815836 0.027520932 0.105492145 -0.092452176 -0.080422394 0.019733734 -0.05840061 -0.10942944
0.06973388 -0.074038364 0.028539285 0.10874849 0.08926904 -0.09042461 0.08558054 -0.05085685
0.03528425 -0.17511854 -0.046253093 -0.158276 0.12792048 -0.1022916 -0.11658113 0.05325983
0.15406245 -0.19912608 0.14228271 -0.05413809 -0.20788133 -0.119506024 -0.22525045 -0.26636025
-0.030168278 0.034990735 -0.10388218 -0.05715519 -0.14238566 0.021717053 -0.053160764 -0.17412135
-0.022076923 -0.09635387 -0.1206619 -0.025516909 -0.2091702 -0.18837701 -0.12231959 -0.16204703
-0.16410337 0.001981121 0.09115646 -0.22036883 -0.12580937 0.022240268 -0.06818861 -0.006633826
-0.039975263 -0.1239382 -0.09801976 -0.13688308 -0.084268205 -0.06021313 -0.06650381 -0.12602301
-0.22398163 -0.10413241 -0.10010144 -0.041678563 -0.07558621 -0.052749194 -0.044259414 0.0039356933
-0.13983864 -0.09175468 -0.14905064 0.030167868 -0.09054922 0.012366413 -0.15900065 -0.26136446

fc.weight f4 [2, 64]
00000000: 48ba 6ab9 3226 693d 03b8 213e a5f8 efbc
00000010: 12ba 84bd aa4a 91bd 7ba8 a9ba 6fcc d03c
00000020: 0d29 2b3c dc4f 93bc a96d 843c 61b5 843c
00000030: 354e 1d3d 8aec 823d 2853 80bc 7861 c139
00000040: c5f7 163c c5c8 f8bb 57dc d73c b33b 893d
00000050: 6ed6 0a3c 077b 343c 3c6f 053d 381e 313c
00000060: 0fc9 fbbd a8d0 0c3e 0390 303e 27a2 2c3c
00000070: f41a 96bd 34b4 9a3d bc82 64bd 4020 2b3c
00000080: 38f9 b43d b7a1 27be 6dda e1bc 6ddd c0bc
00000090: 809a 393c cc5a 4e3d 0c41 1cbd 2dbe 313d
000000a0: f9a8 c2bc c1c2 28bc 70aa d73c ce12 14bd
000000b0: b31b 3e3d 409a 76bd d25f f53c 2ec7 b13b
000000c0: 3a8e 78bd 815f 7f3d acac 2c3c eb08 85bd
000000d0: 285d d13d 4005 7c3c 1f2e c3bc dcd0 b5bb
000000e0: eb32 19bd 1c34 943c b0f7 d03b 10a5 85bc
000000f0: 47c8 5b3d 72fe 8abc 30ea 2c3d f072 7abd
00000100: 082f 12be b8f3 e43c b9b0 fe3a 3f1e 7d3d
00000110: 4001 6ebd 59c4 b2bb bc38 8d3d 780f 1b3e
00000120: 0b2c 1c3e 6e85 19bc ddb9 a63d 09e5 503c
00000130: 8318 9dbc 8ea5 4a3d 756a 13be f3cc 9b3c
00000140: eefb b8bd c156 2dbe b855 19be 8e6b c4bc
00000150: edf5 4a3e 0526 3ebd d4c5 4c3d cfd7 d43c
00000160: e313 f2bd 710b c83d 4d5c 8f3d ab44 d2bd
00000170: 4f74 65bd a0f9 b13d 9959 8b3e 844d df3c
00000180: ede5 98bc 11b9 1bbd c706 aebc 7e72 17bd
00000190: f038 5cbb 5cd6 873e 6307 ebbb ef3b f03d
000001a0: fcdf e7bc 60fe cd3d 5101 05bd 8999 d9bc
000001b0: 456f 3b3e 77c2 83bd d927 c7bb 6dc1 073e
000001c0: 234d 54bd 418f 613d 9a1b a03c 91f7 78bd
000001d0: 77f6 0d3d 6713 1dbd 9e9e b43d d506 31be
000001e0: a4ed 553e f8e3 00bd 987d e13c 06e6 0ebe
000001f0: cc34 1c3e 824f 2cbe ba39 a43d 653e 52bc
-0.00022385374 0.05692119 0.15792851 -0.029293368 -0.064808026 -0.07094319 -0.0012943888 0.025488107
0.010446799 -0.017982416 0.016165571 0.01619977 0.038404662 0.063927725 -0.015664652 0.00036884448
0.009214346 -0.007592293 0.026350183 0.0670084 0.008473976 0.01101566 0.032576784 0.010810427
-0.12294208 0.13751471 0.17242436 0.010536707 -0.0732936 0.07553902 -0.05578874 0.010444701
0.08836597 -0.16370283 -0.027569974 -0.023543084 0.01132834 0.05037956 -0.03814797 0.043394256
-0.023762213 -0.010300339 0.026326388 -0.036150746 0.046413135 -0.060205698 0.029952917 0.0054253554
-0.060682513 0.06234694 0.010539215 -0.064958416 0.10222846 0.015382111 -0.023825703 -0.0055485796
-0.037402075 0.018091254 0.006377183 -0.01631406 0.053657796 -0.016967032 0.042215526 -0.06114477
-0.14275753 0.027948245 0.001943133 0.061796423 -0.05810666 -0.0054555354 0.06895587 0.1514262
0.15251176 -0.009370191 0.08140919 0.012749919 -0.019176727 0.04947429 -0.14396079 0.019018626
-0.09032427 -0.16927625 -0.14974105 -0.023977067 0.19820376 -0.046422977 0.04999335 0.025981812
-0.11820199 0.09767807 0.07000027 -0.102670036 -0.056019124 0.0869019 0.27216795 0.027258642
-0.018664325 -0.03801829 -0.021243466 -0.036974423 -0.0033603273 0.2653073 -0.0071725114 0.117301814
-0.028305046 0.10058284 -0.03247196 -0.02656247 0.18304165 -0.064335756 -0.0060777483 0.1325738
-0.051831376 0.05506826 0.019544411 -0.060782973 0.034658875 -0.03834858 0.08819316 -0.17287762
0.20891434 -0.031467408 0.027525708 -0.13954934 0.15254515 -0.16827205 0.08018823 -0.012832259

fc.bias f4 [2]
00000000: 5141 223d 0b9d b03d
0.03961307 0.086237036
