models/cnn_lstm_last.pth (torch, 156610 bytes, 12 tensors)

cnn.0.weight f4 [32, 9, 3]
-0.08919436 0.08687669 0.12347204 0.028892102 -0.08999118 -0.070471756 0.2180206 0.1831088
0.24044001 -0.40507028 -0.4907582 -0.52577704 0.11558414 -0.11044764 0.12352513 0.33420596
0.2520808 0.34571573 0.01953459 -0.40602395 -0.38404176 0.15098342 0.09063979 0.118755564
-0.16236208 -0.28364798 -0.17496322 0.19506994 0.12804903 0.21659106 0.09570445 -0.12441209
-0.031525314 -0.0064075193 -0.26927572 -0.24135408 0.23457836 0.27668324 0.31233454 -0.010535975
0.17447673 0.0530881 0.053170573 0.16983168 0.17355065 -0.12861684 -0.009660542 -0.28208512
-0.21537748 -0.18387237 -0.056100994 0.133608 0.076252855 -0.013817302 0.13997859 0.09358541
-0.25038463 -0.059106994 0.20030887 0.31518686 -0.22867996 -0.07910071 0.27359322 -0.17026888
-0.39835224 -0.2725746 -0.29309234 -0.15549712 0.10480437 -0.2527026 -0.025147606 -0.0069158357
0.35017574 0.24116209 0.42459133 -0.02096982 -0.33009225 0.29838663 0.27353635 -0.0030820495
-0.21022435 -0.037665993 -0.14125375 0.064279154 -0.17524394 -0.019286 -0.019782167 -0.08711148
0.09356721 -0.1863594 0.50549734 0.5929853 0.4776262 0.13802397 0.014390145 0.06073931
-0.10332989 -0.13438249 -0.43610567 -0.25763667 0.057984497 0.003909914 0.086326696 -0.06368042
-0.104265906 -0.116128445 -0.16086516 -0.19635828 -0.07890657 0.1696778 -0.017176528 0.3476222
0.22708991 0.31758738 0.011612796 0.10603488 0.16463156 -0.29865423 0.02674893 -0.10866892
-0.08642166 -0.14441404 0.0572146 0.09358498 0.4163494 0.3516378 0.2249309 -0.03384232
-0.06095093 -0.06930653 0.10269769 -0.05207784 0.033285026 -0.15760016 0.09365796 -0.0371241
-0.20022337 0.054156646 -0.031214356 0.15741332 -0.15127608 -0.10374174 0.07722924 -0.15659599
-0.15185554 -0.14313366 -0.16008021 -0.020260762 -0.19628297 -0.14428547 0.10228725 0.039961364
-0.0044563413 0.01837132 0.15509354 -0.14943302 -0.20873676 0.14839761 -0.15827827 -0.16633786
0.16030665 -0.10801867 0.25970608 0.0524618 0.009151849 -0.70388645 -0.87063533 -0.4453002
0.029025238 -0.062008444 0.013722808 0.052960586 0.035473965 0.36626276 -0.04009754 -0.07708833
-0.00076048647 0.21412547 0.3387621 0.22017296 0.2968199 -0.01892864 -0.197673 -0.23198248
0.10007444 -0.044763256 0.17926931 0.03388823 -0.07022179 0.053459726 -0.07814403 -0.07435667
0.3056066 0.22739759 0.080543995 0.11652613 0.20950423 -0.33673382 -0.2873413 -0.415351
0.18181188 0.19401096 0.2196926 -0.13358708 0.1508946 0.32383862 0.064325646 0.1132178
0.15144548 -0.022940662 -0.15529609 -0.22296123 -0.18735828 -0.2605975 -0.107930206 0.11812734
-0.09487767 0.16555886 -0.121239215 0.23983261 0.07470725 0.18162479 0.008336532 -0.08460966
-0.19813222 -0.05672255 0.19111146 0.12556714 0.08824159 -0.08821912 0.1842615 0.25140953
-0.0025619422 0.20829771 -0.1863642 -0.29525203 -0.3294068 -0.058670666 0.1414429 0.2391507
0.0039102496 -0.067741275 0.16248235 -0.2185468 -0.23642507 0.036570333 0.010430866 0.10623809
-0.09109574 -0.27737075 -0.003892886 -0.02925665 -0.021216823 0.1378275 -0.15289111 -0.18555427
00000000: 88ab b6bd 68ec b13d e9de fc3d 21af ec3c
00000010: 4c4d b8bd 7f53 90bd cb40 5f3e e080 3b3e
00000020: e835 763e 5f65 cfbe a944 fbbe 5399 06bf
00000030: 61b7 ec3d 5f32 e2bd befa fc3d 0b1d ab3e
00000040: bc10 813e a701 b13e 0107 a03c 5fe2 cfbe
00000050: 1fa1 c4be 669b 1a3e 5ba1 b93d 1e36 f33d
00000060: 3f42 26be 4f3a 91be 8f29 33be 6ac0 473e
00000070: 491f 033e 0cca 5d3e b200 c43d c4cb febd
00000080: b020 01bd 2bf6 d1bb 82de 89be 8625 77be
00000090: 4f35 703e 6da9 8d3e 50ea 9f3e 159f 2cbc
000000a0: 07aa 323e e872 593d 63c9 593d 5be8 2d3e
000000b0: 43b7 313e 22b4 03be 4047 1ebc 766d 90be
000000c0: ea8b 5cbe 0a49 3cbe 28ca 65bd 89d0 083e
000000d0: 752a 9c3d f761 62bc 8c56 0f3e b5a9 bf3d
000000e0: 6a32 80be 2d1a 72bd c51d 4d3e 2c60 a13e
000000f0: 142b 6abe 8eff a1bd 6914 8c3e f75a 2ebe
00000100: d3f4 cbbe e68e 8bbe 3310 96be a33a 1fbe
00000110: aca3 d63d 3c62 81be 5a02 cebc 3c9e e2bb
00000120: 3c4a b33e 32f3 763e 0964 d93e e6c8 abbc
00000130: da01 a9be 22c6 983e f50c 8c3e 36fc 49bb
00000140: 0d45 57be a847 1abd d3a4 10be caa4 833d
00000150: 2673 33be acfd 9dbc 360e a2bc 8167 b2bd
00000160: 2aa0 bf3d 00d5 3ebe 4668 013f e2cd 173f
00000170: 6c8b f43e 2856 0d3e a5c4 6b3c c8c9 783d
00000180: 9f9e d3bd 909b 09be 3e49 dfbe f4e8 83be
00000190: 2781 6d3d bc1e 803b 0dcc b03d e16a 82bd
000001a0: 5d89 d5bd c0d4 edbd d6b9 24be 2512 49be
000001b0: c599 a1bd 04c0 2d3e cab5 8cbc 89fb b13e
000001c0: 428a 683e d09a a23e 9943 3e3c d128 d93d
000001d0: 2d95 283e 35e9 98be 9220 db3c d08d debd
000001e0: d7fd b0bd 46e1 13be db59 6a3d 7ba9 bf3d
000001f0: c02b d53e df09 b43e 4954 663e 3f9e 0abd
00000200: afa7 79bd 95f0 8dbd 2b53 d23d 934f 55bd
00000210: e155 083d f061 21be bfcf bf3d 710f 18bd
00000220: 5b07 4dbe 5cd3 5d3d 40b5 ffbc f530 213e
00000230: 1ee8 1abe 8d76 d4bd 5d2a 9e3d b35a 20be
00000240: 0580 1bbe a191 12be 11ec 23be e6f9 a5bc
00000250: 67fe 48be 92bf 13be fa7b d13d 87ae 233d
00000260: 8006 92bb 737f 963c d7d0 1e3e f804 19be
00000270: 17bf 55be 8bf5 173e b313 22be 7954 2abe
00000280: 6d27 243e e438 ddbd 32f8 843e 2fe2 563d
00000290: a3f1 153c e731 34bf f5e1 5ebf 63fe e3be
000002a0: 56c6 ed3c 91fc 7dbd a1d5 603c 33ed 583d
000002b0: 264d 113d cb86 bb3e 513d 24bd 7de0 9dbd
000002c0: 625b 47ba b543 5b3e 3a72 ad3e 0575 613e
000002d0: c7f8 973e 3c10 9bbc ca6a 4abe d18c 6dbe
000002e0: d4f3 cc3d ad59 37bd 6092 373e 62ce 0a3d
000002f0: 71d0 8fbd 96f8 5a3d fa09 a0bd 4f48 98bd
00000300: 7878 9c3e eada 683e 40f4 a43d 40a5 ee3d
00000310: 4788 563e 6068 acbe 661e 93be e3a8 d4be
00000320: e52c 3a3e cfaa 463e 19f7 603e 0dcb 08be
00000330: 1d84 1a3e 2dce a53e 2abd 833d bcde e73d
00000340: 8614 1b3e 0eee bbbc f005 1fbe f34f 64be
00000350: d9da 3fbe 096d 85be 830a ddbd bfec f13d
00000360: 394f c2bd 4388 293e 444c f8bd ae96 753e
00000370: 1d00 993d d9fb 393e f395 083c d447 adbd
00000380: 2ce3 4abe e855 68bd b9b2 433e ac94 003e
00000390: 02b8 b43d 3aac b4bd 0caf 3c3e c0b8 803e
000003a0: 42e6 27bb ff4b 553e 42d6 3ebe 462b 97be
000003b0: 02a8 a8be a750 70bd 68d6 103e ece3 743e
000003c0: 8d21 803b f0bb 8abd c661 263e bbca 5fbe
000003d0: 6a19 72be c6ca 153d 39e6 2a3c 5b93 d93d
000003e0: 6790 babd 8a03 8ebe ca1f 7fbb a4ab efbc
000003f0: e7ce adbc a722 0d3e 7d8f 1cbe f001 3ebe

cnn.0.bias f4 [32]
0.05903708 -0.13189864 0.3040128 -0.06548291 -0.26605505 -0.14146651 -0.05299447 -0.046867
-0.10434117 0.10048684 -0.009548911 0.1813514 0.0071000503 -0.18107367 0.19330454 0.21793815
0.19540294 0.20404868 0.0056456593 -0.105252214 -0.109408595 -0.0068587265 -0.039476313 -0.015806654
-0.2712761 0.22831436 -0.07764266 0.09185733 -0.076169826 -0.035026997 0.20249479 -0.044642884
00000000: ddd0 713d 7010 07be 91a7 9b3e e71b 86bd
00000010: 5e38 88be 99dc 10be bb10 59bd 9df7 3fbd
00000020: d3b0 d5bd 0bcc cd3d 0973 1cbc 2eb4 393e
00000030: 8aa7 e83b 606b 39be a0f1 453e 2e2b 5f3e
00000040: b517 483e 23f2 503e 39ff b83b 798e d7bd
00000050: 9d11 e0bd 2bbf e0bb eab1 21bd f57c 81bc
00000060: b3e4 8abe 3dcb 693e 1d03 9fbd b21f bc3d
00000070: edfe 9bbd 7878 0fbd cb5a 4f3e 75db 36bd

lstm.weight_ih_l0 f4 [200, 32]
-0.11191925 -0.06797236 -0.13934377 -0.33339006 -0.043187596 0.06720242 -0.165292 0.0021495284
-0.10723642 0.084647074 -0.07494743 0.18497942 -0.058756992 -0.15804087 0.0965861 -0.132322
-0.22308855 -0.1627165 0.003242935 0.0755903 -0.13148609 -0.1588185 -0.18012515 -0.20115943
-0.16588508 -0.024593435 -0.06988158 -0.04497448 0.028654989 -0.19186457 0.15469418 0.026067706
0.07057545 -0.16678278 0.15983102 0.18786186 0.11238811 -0.07508411 -0.41191584 0.070379
0.10289637 0.08791651 0.10455137 -0.351271 0.06111295 0.12348316 -0.10100004 0.1322489
-0.15035035 0.08719645 -0.0015705524 0.13075255 -0.05727872 0.19193877 -0.11560151 -0.030222047
0.10483984 0.037753936 -0.11516932 -0.034356825 -0.07064208 -0.14617574 -0.2691315 0.13812989
-0.24390346 -0.16197416 -0.08348145 0.15867406 0.16534732 0.07917407 0.07603719 0.14938636
0.049815774 0.0019424764 0.18403283 0.037606634 -0.045228977 0.09250818 -0.41535074 0.028100878
0.025947817 0.09228814 0.070554994 -0.17277591 0.050027445 0.028291535 0.3348026 0.17110088
-0.15815201 -0.20464285 -0.25049147 -0.06850202 0.09426131 -0.050239924 -0.39660916 -0.06342379
0.42193234 -0.47381184 -0.71189964 -0.31514353 0.31521752 -0.007848072 -0.19785699 0.20727073
-0.00959611 -0.0074919406 0.14415924 -0.34041202 -0.13050044 -0.040195685 0.02645712 -0.23761445
0.2571106 -0.17494915 0.10945799 0.036322657 0.20384957 0.0020867444 0.075496376 -0.30393466
0.1174721 0.39286947 -0.81697506 -0.38096777 -0.34454358 -0.1693913 0.004669174 -0.054579385
0.30588612 0.071927994 0.2952089 -0.5033114 0.2905878 0.07887168 0.13021451 0.30974117
0.4684985 0.01747041 -0.060202967 -0.09519527 0.17828418 0.10982895 0.3727547 0.049729615
0.1718291 0.053973533 0.070332594 0.055185948 0.2905813 0.37517285 0.17664735 -0.054364618
0.23761727 0.40156868 -0.27140844 0.25878918 -0.012261117 0.24306229 0.3276013 0.26147386
0.15519579 -0.23710899 -0.15201655 -0.33243677 0.045089554 0.08202753 -0.116673596 0.0778973
0.08847079 -0.13659258 -0.16445993 0.081025645 0.0133971255 -0.21867734 0.18251793 -0.09175894
0.11415277 -0.09031689 0.009149477 0.056927137 0.19430564 -0.013418642 -0.09865263 0.0035831423
-0.20704855 0.22418873 -0.28198364 -0.16157623 0.19765912 0.022868738 0.50223124 -0.046343658
0.31087908 0.23890902 0.41943786 -0.37870416 0.10310091 0.114535846 0.25852558 0.47341532
-0.20252666 -0.10497236 0.18978648 -0.16041222 0.0028581563 -0.33901495 0.13176662 0.118381605
0.19982198 0.15480815 -0.17289901 0.06303369 -0.04309249 -0.02835737 -0.04621716 0.12858498
0.44753247 0.49929407 -0.25048926 -0.22489153 -0.13714547 -0.20262818 0.24941643 -0.08692815
-0.14489375 -0.08828304 -0.28284508 0.13566919 -0.2237424 0.017224444 -0.18110579 -0.27190012
-0.07688471 -0.030689763 -0.2107453 0.05673033 -0.16102958 -0.42050824 -0.31590435 -0.20550598
-0.2522107 -0.05195357 -0.21729238 0.039191686 -0.2450855 -0.043678403 -0.15855075 -0.16356453
-0.21302733 -0.3474398 0.26646334 0.08490268 -0.016166002 -0.09589615 -0.3351184 -0.0577252
00000000: eb35 e5bd 1835 8bbd 22b0 0ebe 1ab2 aabe
00000010: 7ae5 30bd 6ca1 893d 4e42 29be 1adf 0c3b
00000020: c59e dbbd 725b ad3d 0a7e 99bd 3f6b 3d3e
00000030: 2cab 70bd 77d5 21be efce c53d 6b7f 07be
00000040: 5371 64be 279f 26be 6c87 543b 16cf 9a3d
00000050: 4aa4 06be 51a1 22be ba72 38be bdfc 4dbe
00000060: c7dd 29be 2c78 c9bc 131e 8fbd 2937 38bd
00000070: debd ea3c 2578 44be 2768 1e3e f18b d53c
00000080: dd89 903d 1bc9 2abe beaa 233e dc5e 403e
00000090: bd2b e63d b3c5 99bd a2e6 d2be dd22 903d
000000a0: 55bb d23d 920d b43d 071f d63d cbd9 b3be
000000b0: 9351 7a3d bde4 fc3d 1cd9 cebd 416c 073e
000000c0: 71f5 19be 0d94 b23d feda cdba ffe3 053e
000000d0: 179d 6abd 998b 443e 7cc0 ecbd 3a94 f7bc
000000e0: 45b6 d63d dfa3 1a3d e4dd ebbd beb9 0cbd
000000f0: cbac 90bd 18af 15be 9bcb 89be ec71 0d3e
00000100: d4c1 79be 8edc 25be 53f8 aabd 747b 223e
00000110: cf50 293e 0426 a23d 63b9 9b3d bdf8 183e
00000120: a00b 4c3d b19a fe3a 1a73 3c3e 6a09 1a3d
00000130: 0542 39bd ee74 bd3d daa8 d4be d033 e63c
00000140: 8490 d43c 9001 bd3d 237f 903d 2bec 30be
00000150: 94e9 4c3d a6c3 e73c 3f6b ab3e 1235 2f3e
00000160: 9af2 21be e58d 51be 6b40 80be c94a 8cbd
00000170: 130c c13d 61c8 4dbd 5b10 cbbe 55e4 81bd
00000180: 8407 d83e 7797 f2be 0e3f 36bf 7e5a a1be
00000190: 3164 a13e 3395 00bc 069b 4abe c73e 543e
000001a0: 0139 1dbc f47e f5bb 7b9e 133e 7c4a aebe
000001b0: e8a1 05be 3ba4 24bd 9abc d83c 3451 73be
000001c0: 00a4 833e df25 33be 832b e03d 11c7 143d
000001d0: f1bd 503e c3c1 083b d89d 9a3d 539d 9bbe
000001e0: 3695 f03d 3026 c93e 4725 51bf 350e c3be
000001f0: 0468 b0be ea74 2dbe dfff 983b a28e 5fbd
00000200: 1b9d 9c3e fc4e 933d 9f25 973e 04d9 00bf
00000210: edc7 943e 7a87 a13d f456 053e 6596 9e3e
00000220: 09df ef3e 1b1e 8f3c 6397 76bd bdf5 c2bd
00000230: 2190 363e 00ee e03d b4d9 be3e 48b1 4b3d
00000240: f8f3 2f3e 5a13 5d3d 890a 903d a90a 623d
00000250: 12c7 943e a816 c03e 0be3 343e 6fad 5ebd
00000260: f151 733e 699a cd3e 0cf6 8abe 0480 843e
00000270: dae2 48bc 52e5 783e 5cbb a73e e7df 853e
00000280: a5eb 1e3e b3cc 72be 3aaa 1bbe 2735 aabe
00000290: d3af 383d 0dfe a73d 91f2 eebd 9f88 9f3d
000002a0: 2c30 b53d edde 0bbe 2f68 28be c6f0 a53d
000002b0: 9e7f 5b3c f4ec 5fbe fbe5 3a3e 1cec bbbd
000002c0: edc8 e93d 10f8 b8bd b0e7 153c 6e2c 693d
000002d0: 0ff8 463e ddd9 5bbc 640a cabd 27d3 6a3b
000002e0: 8904 54be bb91 653e 2960 90be 3d74 25be
000002f0: 2767 4a3e 3857 bb3c 3a92 003f d9d2 3dbd
00000300: 8b2b 9f3e 91a4 743e 8fc0 d63e 83e5 c1be
00000310: 9226 d33d c591 ea3d 775d 843e 7e63 f23e
00000320: 2663 4fbe c0fb d6bd 6357 423e 1a43 24be
00000330: e84f 3b3b 5e93 adbe d4ed 063e 0e72 f23d
00000340: 229e 4c3e 0786 1e3e 700c 31be cf17 813d
00000350: c081 30bd b74d e8bc 344e 3dbd c8ab 033e
00000360: fa22 e53e 79a3 ff3e 2140 80be f749 66be
00000370: dd6f 0cbe c37d 4fbe 0567 7f3e 6307 b2bd
00000380: 075f 14be bdcd b4bd 12d1 90be ddec 0a3e
00000390: ba1c 65be 471a 8d3c cc73 39be 7e36 8bbe
000003a0: bb75 9dbd 1969 fbbc 9ecd 57be 105e 683d
000003b0: f0e4 24be db4c d7be 37be a1be 2970 52be
000003c0: c321 81be 44cd 54bd e581 5ebe 7687 203d
000003d0: b1f7 7abe 20e8 32bd 215b 22be 767d 27be
000003e0: d623 5abe a1e3 b1be e26d 883e 75e1 ad3d
000003f0: 906e 84bc 3365 c4bd a494 abbe 4271 6cbd

lstm.weight_hh_l0 f4 [200, 50]
-0.09234157 -0.006943827 0.09101461 0.13922186 -0.016553558 -0.05536586 -0.3087762 0.21138088
0.21378806 0.10300365 0.050285645 0.2190121 0.097665206 -0.042824145 0.2227973 -0.12556688
0.08607161 0.083399735 -0.02157163 0.0742011 0.10826755 -0.17004819 -0.024444323 0.007278988
-0.21777277 -0.044566013 0.023820154 -0.26994058 0.04694232 0.24436769 -0.07019786 0.039287098
-0.09703875 0.038856223 -0.036697146 -0.110416055 0.1995433 -0.042264327 -0.08832053 -0.19440946
0.04669726 0.10154467 0.049563687 -0.006857261 -0.13903151 -0.06889327 -0.25577727 -0.1351841
-0.008755669 -0.13405074 -0.019790517 0.13040955 0.09023458 -0.009109405 -0.103160836 0.033316184
-0.009883564 -0.18684833 -0.45773277 -0.12274947 -0.2864846 0.12297136 0.31651422 0.01923257
0.06335255 0.038914725 -0.014598568 0.07533915 -0.0012092395 0.051369533 -0.053919174 -0.15800436
0.10039041 -0.2917296 -0.21678795 -0.13577451 0.11692883 -0.036767337 -0.014212254 -0.15017933
0.18241611 -0.098546185 -0.4910217 -0.16834134 -0.15012641 0.10366661 0.011217818 0.18937542
0.021518396 -0.06704521 -0.11607966 0.17545885 0.16662884 -0.4171213 -0.07603572 0.16282849
0.06369353 -0.10284394 -0.060855407 0.036054973 0.039121486 0.16200061 0.06627702 -0.14660546
-0.10429319 -0.088339314 0.039844707 0.052030955 -0.2356215 0.02661435 -0.06262559 0.05842032
-0.06932719 0.19093008 0.0066504832 -0.0758335 0.06682316 0.09246401 0.094227396 -0.18882592
0.1341776 -0.24239236 -0.0241976 -0.00039977758 -0.11846867 0.071418256 -0.09954587 0.16446531
0.038769238 -0.16682753 -0.022604931 0.10201831 -0.10786903 -0.22420624 0.08071008 0.039616864
0.11704537 0.10369808 -0.043617398 -0.31012204 0.09802847 -0.14601709 0.005075708 -0.097321436
0.027715916 -0.017698327 0.1978286 0.070681065 -0.34907117 0.016565932 0.14123376 -0.10423754
0.10451785 0.302104 0.2783459 -0.04986356 0.024086965 0.055176146 -0.046677846 -0.10626049
-0.1049283 0.14394696 0.16970265 -0.20846468 -0.26643255 0.026539031 0.069614045 0.13505797
-0.16944844 0.1597583 -0.07915939 -0.03524862 -0.61058545 -0.06666133 -0.1428783 0.24681939
0.10540937 -0.24806266 0.026842576 0.26809075 0.07296591 0.07938665 -0.035781857 0.0055189393
0.22754402 -0.16480456 0.0847869 0.016439151 -0.027557578 0.38630918 0.06939444 -0.113674246
0.13492854 -0.029556196 -0.28009117 -0.061230063 -0.41083822 0.10620727 0.5164041 0.066991545
-0.27084678 -0.082045496 0.186689 0.11149807 0.010422528 0.33832905 -0.15980288 0.0014103758
0.12518984 0.0395183 -0.13049407 0.07079128 0.07837386 -0.40961516 -0.10244197 0.02149066
0.08259053 0.31062233 -0.058414217 -0.223141 -0.17250694 0.06565065 -0.18581153 0.3219628
0.09580166 -0.01766331 0.16293311 -0.11417342 0.28645736 -0.11306586 0.15124579 -0.31432396
-0.15849704 0.11533015 -0.21322633 0.17538121 -0.036342345 0.22514774 0.15866525 -0.013996269
-0.29935768 0.03383037 -0.35321763 0.05059383 -0.25441313 0.06606023 -0.047820598 -0.08660552
-0.07871234 -0.17640471 -0.10177892 -0.310253 -0.05523948 -0.057477623 0.09628604 -0.068396635
00000000: 941d bdbd 0b89 e3bb de65 ba3d 2d90 0e3e
00000010: 549b 87bc 50c7 62bd ea17 9ebe 3b74 583e
00000020: 42eb 5a3e 94f3 d23d 52f8 4d3d b544 603e
00000030: b204 c83d 5f68 2fbd fa24 643e 9b94 00be
00000040: 5046 b03d 7bcd aa3d fdb6 b0bc bff6 973d
00000050: 61bb dd3d 1d21 2ebe 763f c8bc 9484 ee3b
00000060: d3ff 5ebe da8a 36bd 7c22 c33c a735 8abe
00000070: 9746 403d 863b 7a3e e5c3 8fbd 82eb 203d
00000080: 41bc c6bd b427 1f3d bf4f 16bd d021 e2bd
00000090: 1455 4c3e 5c1d 2dbd 65e1 b4bd 4613 47be
000000a0: a045 3f3d a7f6 cf3d 4b03 4b3d e0b2 e0bb
000000b0: 475e 0ebe ea17 8dbd 3df5 82be b36d 0abe
000000c0: f073 0fbc 9944 09be b91f a2bc 158a 053e
000000d0: e8cc b83d 9d3f 15bc fd45 d3bd 8d76 083d
000000e0: acee 21bc 2b55 3fbe f35b eabe 1364 fbbd
000000f0: 1cae 92be 69d8 fb3d 270e a23e 9f8d 9d3c
00000100: fbbe 813d 0c65 1f3d d52e 6fbc 6a4b 9a3d
00000110: 587f 9eba dc68 523d 5ada 5cbd e5cb 21be
00000120: 7d99 cd3d 955d 95be a9fd 5dbe 7908 0bbe
00000130: 6278 ef3d 5999 16bd 84da 68bc 9cc8 19be
00000140: 4acb 3a3e 95d2 c9bd 3267 fbbe ac61 2cbe
00000150: bdba 19be 294f d43d f0ca 373c a1eb 413e
00000160: 5947 b03c 004f 89bd 2cbb edbd 7cab 333e
00000170: c0a0 2a3e ec90 d5be 9eb8 9bbd 83bc 263e
00000180: c171 823d d89f d2bd 8543 79bd 61ae 133d
00000190: da3d 203d 7de3 253e 3fbc 873d be1f 16be
000001a0: ab97 d5bd 3eeb b4bd 3434 233d 691e 553d
000001b0: c346 71be 5606 da3c d841 80bd 254a 6f3d
000001c0: 6afb 8dbd 2d83 433e 4cec d93b 984e 9bbd
000001d0: 95da 883d c55d bd3d 4bfa c03d 955b 41be
000001e0: da65 093e b435 78be 0c3a c6bc 3d99 d1b9
000001f0: b49f f2bd bc43 923d b5de cbbd 9869 283e
00000200: 7ecc 1e3d d6d4 2abe fa2d b9bc faee d03d
00000210: 70ea dcbd 5296 65be 544b a53d 4b45 223d
00000220: 7cb5 ef3d a95f d43d 28a8 32bd 51c8 9ebe
00000230: 27c3 c83d 8185 15be 2052 a63b 7650 c7bd
00000240: 7d0c e33c 15fc 90bc 9593 4a3e 3cc1 903d
00000250: 75b9 b2be 47b5 873c 959f 103e 7e7a d5bd
00000260: 740d d63d 60ad 9a3e 5b83 8e3e bb3d 4cbd
00000270: 0752 c53c 6200 623d 4531 3fbd 1a9f d9bd
00000280: a6e4 d6bd d566 133e 88c6 2d3e c477 55be
00000290: d969 88be 6268 d93c cf91 8e3d a34c 0a3e
000002a0: e483 2dbe ae97 233e 511e a2bd db60 10bd
000002b0: 544f 1cbf bc85 88bd b04e 12be 39be 7c3e
000002c0: dee0 d73d 2304 7ebe f6e4 db3c 3143 893e
000002d0: 276f 953d 7895 a23d ff8f 12bd 38d8 b43b
000002e0: 4d01 693e 87c2 28be c1a4 ad3d 66ab 863c
000002f0: 6ec0 e1bc 51ca c53e ac1e 8e3d 0bce e8bd
00000300: b52a 0a3e d61f f2bc 1c68 8fbe 60cc 7abd
00000310: 6359 d2be 3283 d93d 0f33 043f dd32 893d
00000320: 6eac 8abe 7807 a8bd 672b 3f3e 1a59 e43d
00000330: 40c3 2a3c 7739 ad3e 5ea3 23be 5cdc b83a
00000340: c431 003e f1dd 213d 3da0 05be 05fb 903d
00000350: 7982 a03d 14b9 d1be 18cd d1bd 2e0d b03c
00000360: 3925 a93d e409 9f3e bf43 6fbd 137f 64be
00000370: a9a5 30be d973 863d 6145 3ebe 4fd8 a43e
00000380: a933 c43d a5b2 90bc f0d7 263e c1d3 e9bd
00000390: 8aaa 923e 138f e7bd 2de0 1a3e 12ef a0be
000003a0: 0c4d 22be 3732 ec3d 0158 5abe 2297 333e
000003b0: b6db 14bd 218d 663e 2579 223e 9b50 65bc
000003c0: 6945 99be b791 0a3d f1d8 b4be 7a3b 4f3d
000003d0: 7042 82be 964a 873d 88df 43bd 3c5e b1bd
000003e0: ef33 a1bd 70a3 34be 7771 d0bd 7bd9 9ebe
000003f0: cb42 62bd a86d 6bbd 9e31 c53d 8913 8cbd

lstm.bias_ih_l0 f4 [200]
-0.08987194 0.16726688 -0.07090344 -0.28128475 0.00409851 -0.10772637 -0.079386905 0.060980525
0.18991245 -0.112978816 0.047331322 0.14528729 -0.1981195 0.054347925 0.18076275 0.030856704
-0.016457379 0.098860756 -0.07422306 0.11705577 0.08440798 0.10590408 -0.0919446 0.054896906
0.21123596 -0.06058921 -0.08731149 0.031558182 -0.13028418 -0.13620529 -0.27444568 -0.036619958
0.35033545 0.14904338 -0.09739015 0.013415868 -0.03896538 -0.119448334 0.20110518 0.007825974
0.13042986 0.27488175 0.08159668 0.08592918 0.12630978 0.022895843 0.124965206 0.06314475
0.108555265 0.16154237 -0.007919758 0.17760825 0.059245516 -0.16673116 -0.11374759 0.003653696
-0.03802797 -0.081348695 -0.07313351 -0.059218958 -0.17085923 -0.12506549 -0.2325699 0.036420595
-0.10820149 -0.13860731 0.10292194 -0.08653459 -0.38118753 -0.110516354 -0.17397206 0.03865079
-0.11087419 0.16909906 0.07928031 -0.23993066 -0.102470554 -0.09605857 -0.02788447 -0.05992577
-0.1021004 -0.102450326 0.0011891453 0.18255985 -0.055839617 -0.15985675 -0.010781868 -0.17415734
-0.04628957 0.12169232 -0.09341944 -0.020872945 -0.16294536 -0.054661553 -0.072174564 -0.049152326
-0.12522738 -0.004076227 0.13717462 -0.08389201 0.04580343 0.04668023 -0.0018905948 -0.08345774
0.005631191 0.10213816 -0.069912285 -0.047131293 0.03762809 -0.050786655 -0.13310452 0.02265844
0.092873745 -0.08382187 0.16650851 -0.19033891 0.054299265 0.18560015 -0.022964448 -0.009080848
-0.091761604 -0.13177107 0.11814771 0.010393513 -0.0014442779 -0.0635076 -0.056393318 0.10277773
0.12544629 -0.04459567 -0.05465498 -0.08419686 0.010962304 0.11010307 0.061474517 -0.07062364
-0.10396828 0.057626195 -0.15293603 -0.02510166 -0.09171804 -0.011993808 0.1102027 0.08219484
0.039790105 0.17990355 -0.17041776 0.0064682616 0.0036097788 0.04040353 -0.0027650094 0.12807207
-0.13913098 -0.15509696 0.12500095 -0.03687466 0.05362163 -0.022829426 -0.16255274 0.052930783
-0.14030994 -0.044902135 -0.020717988 0.010575528 0.12109814 0.079488374 0.07381397 -0.020910885
0.05876019 -0.0033043926 0.21233585 -0.09073066 -0.10157472 -0.004391267 0.026627922 0.027821427
0.08795211 0.061566066 0.054420963 -0.16675705 -0.08209297 0.12441646 -0.012418298 -0.06340343
-0.029684788 0.04131048 -0.16493781 0.026858578 0.12504931 -0.020181835 0.08709752 0.1594121
0.020750076 -0.21278264 0.10249842 -0.007607353 -0.027933583 -0.18049024 -0.062280335 0.14153585
00000000: c80e b8bd 0248 2b3e d335 91bd 8e04 90be
00000010: cb4c 863b a59f dcbd 9a95 a2bd b7c6 793d
00000020: 6978 423e 7061 e7bd 7dde 413d 31c6 143e
00000030: d7df 4abe ee9b 5e3d df19 393e 33c7 fc3c
00000040: a0d1 86bc 8277 ca3d 4202 98bd efba ef3d
00000050: 17de ac3d 3de4 d83d 734d bcbd 94db 603d
00000060: 3d4e 583e 642c 78bd 5ed0 b2bd 2743 013d
00000070: 3769 05be 6679 0bbe 2584 8cbe cffe 15bd
00000080: 2b5f b33e d49e 183e 7d74 c7bd 3bce 5b3c
00000090: 2a9a 1fbd 54a1 f4bd 84ee 4d3e 8438 003c
000000a0: 688f 053e 4dbd 8c3e 291c a73d a3fb af3d
000000b0: 5a57 013e 1090 bb3c c2ed ff3d 0952 813d
000000c0: 3952 de3d 5d6b 253e dfc1 01bc f0de 353e
000000d0: 6dab 723d 93bb 2abe 7ff4 e8bd d972 6f3b
000000e0: 37c3 1bbd 259a a6bd 06c7 95bd 948f 72bd
000000f0: b9f5 2ebe 2b11 00be ce26 6ebe c32d 153d
00000100: be98 ddbd 13ef 0dbe bdc8 d23d 0c39 b1bd
00000110: 032b c3be 6656 e2bd bb25 32be 4a50 1e3d
00000120: 0212 e3bd 4e28 2d3e b75d a23d 62b0 75be
00000130: 15dc d1bd 5bba c4bd f96d e4bc b974 75bd
00000140: 041a d1bd 7ad1 d1bd 18dd 9b3a f8f0 3a3e
00000150: 15b8 64bd 7db1 23be 6fa6 30bc 4d56 32be
00000160: 229a 3dbd d339 f93d b152 bfbd bdfd aabc
00000170: 26db 26be cbe4 5fbd 42d0 93bd f353 49bd
00000180: 9b3b 00be df91 85bb 8177 0c3e 93cf abbd
00000190: 619c 3b3d c533 3f3d d6cd f7ba e4eb aabd
000001a0: db85 b83b d02d d13d 2c2e 8fbd be0c 41bd
000001b0: e91f 1a3d ab05 50bd 8d4c 08be 319e b93c
000001c0: 9734 be3d cdaa abbd 3581 2a3e 34e8 42be
000001d0: e868 5e3d f70d 3e3e f01f bcbc d6c7 14bc
000001e0: 82ed bbbd ffee 06be 6df7 f13d 8e49 2a3c
000001f0: ed4d bdba 4610 82bd aefc 66bd 217d d23d
00000200: fe74 003e f3a9 36bd e6dd 5fbd 676f acbd
00000210: 3c9b 333c b87d e13d b4cc 7b3d 21a3 90bd
00000220: 52ed d4bd 7209 6c3d 439b 1cbe ffa1 cdbc
00000230: abd6 bbbd ad81 44bc f4b1 e13d c555 a83d
00000240: f3fa 223d a338 383e fe81 2ebe b6f3 d33b
00000250: 0a92 6c3b 2c7e 253d 2935 35bb 5325 033e
00000260: 5a78 0ebe bdd1 1ebe 4000 003e e209 17bd
00000270: 5ba2 5b3d c704 bbbc 3a74 26be f3cd 583d
00000280: 69ad 0fbe 4deb 37bd c5b8 a9bc fb44 2d3c
00000290: 4d02 f83d cdca a23d c72b 973d 4e4d abbc
000002a0: 86ae 703d 828e 58bb 926e 593e ffd0 b9bd
000002b0: 6806 d0bd 9ee4 8fbb cd22 da3c c3e9 e33c
000002c0: 3c20 b43d b32c 7c3d 84e8 5e3d 5cc2 2abe
000002d0: 5c20 a8bd 0fce fe3d 1e76 4bbc a8d9 81bd
000002e0: 832d f3bc 2e35 293d 75e5 28be 8506 dc3c
000002f0: ed0c 003e 6054 a5bc 2f60 b23d ed3c 233e
00000300: 10fc a93c b1e3 59be b1ea d13d 1a47 f9bb
00000310: f8d4 e4bc 6fd2 38be aa19 7fbd c6ee 103e

lstm.bias_hh_l0 f4 [200]
-0.09793576 0.040277407 0.15283248 -0.21584368 0.07536866 0.0043870853 -0.04284783 0.021912266
0.08348855 0.123159826 0.10272102 0.05951732 -0.01959114 -0.008156085 0.20721518 -0.006766862
-0.016152158 0.12086838 -0.054889474 0.1920409 0.043270364 0.05161213 0.04398891 -0.03620867
0.053912587 -0.048220422 0.14114958 0.013240127 0.098341346 -0.0067170146 -0.2651992 0.2251131
0.23513901 0.103954755 0.011045495 -0.06368485 -0.119262114 -0.078256495 0.035900418 -0.0042720824
0.18163157 0.20982082 0.075902104 -0.07864933 0.17269951 0.061366647 -0.15279493 0.14291203
-0.03688564 0.08952685 -0.18125017 -0.05120857 0.056957733 -0.35191792 -0.04948301 -0.0069144736
0.09885327 0.10268102 -0.13916795 0.059639495 -0.22055803 0.08558143 -0.23468092 -0.04601231
-0.10206385 -0.23258913 0.06568913 0.031871084 -0.33561915 -0.16658315 -0.03715715 -0.11956778
-0.046446178 0.08492814 -0.10086875 -0.17039654 0.055892874 -0.058243904 -0.005716529 -0.2160003
-0.16178747 0.07292326 0.015288546 0.08701798 0.028779842 -0.0689075 -0.0029859308 -0.19519325
0.085098654 0.08671163 0.1150131 -0.24899097 -0.18553467 -0.029337306 -0.094699256 -0.15552717
-0.17670088 -0.000527427 -0.014503024 -0.10939992 -0.09021813 0.08085653 -0.11754384 0.03882635
-0.0307358 -0.107289225 -0.08506854 -0.15699905 0.11217035 -0.05379065 0.1166358 -0.16768761
0.041079774 -0.09018209 0.04368971 -0.03482584 -0.09712855 0.07194251 -0.12421893 0.14156693
-0.06386877 0.09560494 -0.050695732 -0.098171495 -0.11470161 0.036404915 -0.083082244 0.10162697
0.1531662 0.124147944 0.02647281 -0.061591487 -0.03630633 0.1461912 0.062458903 0.038481403
-0.07314876 -0.041857388 0.07433986 0.024225168 0.12131402 0.08797675 -0.044546705 0.18027663
-0.021445232 0.030111931 0.070643686 -0.008988207 -0.013381559 -0.030258304 -0.21147807 -0.033697013
-0.04621195 -0.13088782 -0.08400534 0.022723567 -0.08922648 -0.050286274 -0.07498847 -0.10568164
0.08957555 -0.13842355 -0.13658275 -0.14032471 -0.13919316 0.055540416 0.22025876 -0.079773545
0.04063226 0.13146585 -0.0031440565 -0.055051073 -0.05786756 0.040841974 0.03425705 -0.074752204
0.0106181 0.01733661 -0.10073488 -0.23363234 -0.21560852 0.12071356 0.103110075 0.0177611
0.02774328 -0.22018312 -0.16132492 -0.18395732 0.098980516 0.12378996 -0.121752545 0.0915221
-0.07907534 0.04820761 0.2219412 0.008091677 -0.11983082 -0.038098127 -0.20945567 -0.041452274
00000000: 8b92 c8bd ecf9 243d 1e80 1c3e 2006 5dbe
00000010: e25a 9a3d 8ac1 8f3b 3581 2fbd 5a81 b33c
00000020: 0bfc aa3d 383b fc3d 665f d23d 6fc8 733d
00000030: 997d a0bc 1aa1 05bc 3730 543e 8dbc ddbb
00000040: 8851 84bc d789 f73d c9d3 60bd 5fa6 443e
00000050: 443c 313d 3e67 533d b72d 343d 8b4f 14bd
00000060: 72d3 5c3d c782 45bd 8489 103e 1eed 583c
00000070: 3067 c93d 671a dcbb 31c8 87be 0c84 663e
00000080: 48c8 703e 3be6 d43d 2af8 343c 346d 82bd
00000090: b23f f4bd f144 a0bd 510c 133d d3fc 8bbb
000000a0: a0fd 393e 45db 563e 9072 9b3d e612 a1bd
000000b0: 24d8 303e 985b 7b3d 4676 1cbe 8857 123e
000000c0: 6615 17bd da59 b73d a599 39be 14c0 51bd
000000d0: 834c 693d 962e b4be b2ae 4abd cf92 e2bb
000000e0: 9573 ca3d 6d4a d23d 0b82 0ebe 8b48 743d
000000f0: f7d9 61be 5145 af3d 3250 70be 6777 3cbd
00000100: da06 d1bd d82b 6ebe 0688 863d 418b 023d
00000110: 46d6 abbe c694 2abe 1932 18bd f4df f4bd
00000120: 593e 3ebd ceee ad3d 4694 cebd 6e7c 2ebe
00000130: edef 643d 2991 6ebd b951 bbbb 2f2f 5dbe
00000140: 9dab 25be ca58 953d cf7c 7a3c 7c36 b23d
00000150: b4c3 eb3c 601f 8dbd 9baf 43bb bde0 47be
00000160: 3448 ae3d de95 b13d fd8b eb3d 7df7 7ebe
00000170: cdfc 3dbe ca54 f0bc aff1 c1bd 8442 1fbe
00000180: 13f1 34be 0743 0aba 179e 6dbc 110d e0bd
00000190: 48c4 b8bd 1c98 a53d d3ba f0bd 6108 1f3d
000001a0: a5c9 fbbc 74ba dbbd 6a38 aebd 5cc4 20be
000001b0: 92b9 e53d 9653 5cbd c0de ee3d 4db6 2bbe
000001c0: 4443 283d 63b1 b8bd fbf3 323d 8aa5 0ebd
000001d0: 55eb c6bd 9856 933d 7f66 febd ecf6 103e
000001e0: a1cd 82bd 86cc c33d 54a6 4fbd 230e c9bd
000001f0: ade8 eabd 521d 153d 0627 aabd cd21 d03d
00000200: 9ad7 1c3e 4741 fe3d 82dd d83c 5b47 7cbd
00000210: f2b5 14bd 25b3 153e e8d4 7f3d ad9e 1d3d
00000220: 04cf 95bd a772 2bbd 7f3f 983d dc73 c63c
00000230: 7c73 f83d 282d b43d 9b76 36bd 709a 383e
00000240: e9ad afbc 4cad f63c a3ad 903d 4643 13bc
00000250: 543e 5bbc 43e0 f7bc b58d 58be e105 0abd
00000260: be48 3dbd 7507 06be fe0a acbd c626 ba3c
00000270: 5fbc b6bd fbf8 4dbd 8e93 99bd 9e6f d8bd
00000280: 6373 b73d e7be 0dbe 59dc 0bbe 48b1 0fbe
00000290: a788 0ebe 597e 633d 838b 613e 5060 a3bd
000002a0: 036e 263d fc9e 063e 840c 4ebb 3c7d 61bd
000002b0: 8906 6dbd ea49 273d 1f51 0c3d af17 99bd
000002c0: 8af7 2d3c 8205 8e3c 174e cebd 513d 6fbe
000002d0: 7bc8 5cbe ac38 f73d 602b d33d ba7f 913c
000002e0: e045 e33c af77 61be 5c32 25be 4f5f 3cbe
000002f0: 4cb6 ca3d 9785 fd3d 6659 f9bd f06f bb3d
00000300: 40f2 a1bd 5875 453d 8e44 633e f492 043c
00000310: dc69 f5bd c80c 1cbd 8c7b 56be dcc9 29bd

lstm.weight_ih_l1 f4 [200, 50]
0.105687134 -0.079463385 -0.20254344 0.026979718 -0.025425209 0.08230795 -0.2466148 0.114513665
-0.03463448 0.03344429 -0.10858194 -0.012428577 -0.055960797 -0.18472567 0.31562516 -0.019772833
0.29050645 0.1572493 0.118476145 0.0527177 -0.17550373 0.10447008 -0.1205737 0.10043598
-0.059109163 -0.19337592 0.20308924 -0.2678611 0.1419835 -0.06986751 0.010864033 -0.12123828
-0.14647147 0.12933321 0.059857585 0.031706873 0.039384592 0.14264056 0.2282782 -0.19031939
0.090786114 0.15396053 -0.26187313 0.037356902 -0.07528178 -0.14267239 0.17335992 0.045032177
0.008886572 -0.19505331 -0.23536761 -0.27478772 -0.19616972 0.12705594 -0.120849326 0.013869418
-0.29372114 0.0018809009 0.09784999 -0.060634714 -0.07797 0.0037160525 -0.043662865 -0.2898415
-0.11464121 -0.14071392 0.29529372 0.10317127 -0.02011619 -0.07021636 -0.11357705 -0.23448578
-0.09702647 0.22558215 0.14892063 -0.08783935 -0.018194266 -0.45210862 0.55570155 0.11095531
0.024057982 -0.066141985 0.27453005 0.08882283 -0.11061045 0.19555698 -0.049787756 0.18398628
0.22002438 -0.20908473 -0.1724218 0.27530855 0.12785289 -0.052502535 -0.46664518 -0.03640784
0.08618417 -0.3826567 -0.12533818 0.22405644 -0.013318146 -0.023621878 0.010896059 -0.0720379
0.018939255 -0.044859152 -0.7881236 -0.03000085 0.37055483 -0.15276058 -0.15679364 -0.001736991
-0.11191973 -0.29347306 -0.08069586 -0.13750666 -0.038979143 0.08674712 0.035935286 0.18929918
-0.03990826 0.032339923 -0.081932515 0.092466325 -0.04529287 -0.059525557 -0.18255469 -0.4146884
0.06839521 -0.0043588476 -0.017380215 -0.07650625 0.033746704 0.22948276 0.08323642 -0.0919182
0.13301225 0.06024771 0.03617616 -0.29506326 0.042473603 -0.22491238 0.21647055 0.18204805
0.08482665 -0.14475544 -0.0794231 0.03066697 -0.17380542 -0.09457412 0.19177741 0.087928355
-0.13306114 -0.012335314 -0.0943886 -0.17785473 -0.20069438 0.16104403 0.2781874 0.19371548
-0.027957192 0.1946526 -0.28314692 -0.083760664 -0.108961076 0.1095969 0.12286691 -0.121538326
0.07640999 0.5897128 0.1064631 0.12379732 -0.14176272 0.10705718 -0.08338212 0.25923607
-0.14830963 -0.27936906 0.294267 0.2587429 0.10856624 0.34532627 0.30818993 0.16833286
-0.034188833 -0.11594567 0.013030312 -0.28487387 0.072553426 0.3306716 0.14728385 -0.16483435
0.20648554 0.057977527 -0.206403 -0.15284199 -0.13877492 0.110825755 0.31970248 0.19053158
-0.097885504 -0.028813513 -0.10295378 0.051048193 -0.058292206 -0.106428415 -1.105562 0.10222413
0.31170493 -0.18680543 -0.064525336 0.16006538 -0.15245934 -0.1263718 -0.32842597 0.0795243
0.16285914 0.14645469 -0.004670035 0.20491743 -0.028208826 0.0032620244 -0.010879934 0.013776266
-0.05919558 0.11969097 -0.32847863 -0.2686678 -1.395393e-05 0.08389987 -0.060375407 0.13530585
0.11115687 0.042370968 -0.055109274 -0.14213932 0.12252787 -0.034358364 -0.12273825 -0.26509014
-0.006686127 0.0035735872 0.26703936 0.08292393 0.032145966 0.06667553 -0.012795553 0.18984953
0.017078955 0.1759522 0.09454393 0.0023778009 -0.07884404 0.07068482 0.07920524 -0.16381785
00000000: 7f72 d83d b3bd a2bd 8c67 4fbe 9204 dd3c
00000010: 8748 d0bc 1291 a83d 9788 7cbe 2486 ea3d
00000020: e2dc 0dbd e1fc 083d 3560 debd 3ba1 4bbc
00000030: 2637 65bd ba28 3dbe 9f99 a13e a3fa a1bc
00000040: 43bd 943e f605 213e 9fa3 f23d 84ee 573d
00000050: 40b7 33be 69f4 d53d 58ef f6bd 61b1 cd3d
00000060: 731c 72bd 5604 46be a0f6 4f3e 1725 89be
00000070: 1f64 113e b216 8fbd 0fff 313c c64b f8bd
00000080: 9efc 15be ed6f 043e 3a2d 753d 11df 013d
00000090: bd51 213d 5e10 123e c3c1 693e 16e3 42be
000000a0: 12ee b93d d4a7 1d3e 3c14 86be 8d03 193d
000000b0: 552d 9abd b618 12be 4385 313e a973 383d
000000c0: fc98 113c 0ebc 47be 3504 71be fab0 8cbe
000000d0: b7e0 48be f41a 023e da7f f7bd 8e3c 633c
000000e0: 9e62 96be 9088 f63a 9365 c83d 1b5c 78bd
000000f0: bcae 9fbd 0489 733b d5d7 32bd 1b66 94be
00000100: 03c9 eabd 4f17 10be bd30 973e 754b d33d
00000110: b5ca a4bc 98cd 8fbd 169b e8bd 0a1d 70be
00000120: d0b5 c6bd 02ff 663e a67e 183e 1ee5 b3bd
00000130: 240c 95bc c87a e7be 7542 0e3f 8a3c e33d
00000140: 3f15 c53c 7375 87bd 348f 8c3e bee8 b53d
00000150: bb87 e2bd 1740 483e 3fee 4bbd e666 3c3e
00000160: 124e 613e 4f1a 56be 578f 30be 3ef5 8c3e
00000170: deeb 023e e60c 57bd 1eec eebe 6320 15bd
00000180: 5381 b03d 94eb c3be a758 00be 0d6f 653e
00000190: 5a34 5abc ab82 c1bc 6285 323c 9b88 93bd
000001a0: 7f26 9b3c 3bbe 37bd 78c2 49bf 58c4 f5bc
000001b0: 5db9 bd3e 456d 1cbe 838e 20be bfab e3ba
000001c0: 2c36 e5bd 1a42 96be df43 a5bd 8cce 0cbe
000001d0: 98a8 1fbd 79a8 b13d e130 133d a5d7 413e
000001e0: d876 23bd de76 043d 3ccc a7bd fc5e bd3d
000001f0: 0485 39bd 12d1 73bd 9eef 3abe 0a52 d4be
00000200: ca12 8c3d aad4 8ebb f460 8ebc 4faf 9cbd
00000210: fc39 0a3d 87fd 6a3e db77 aa3d 9c3f bcbd
00000220: 5d34 083e 4ec6 763d 742d 143d 8812 97be
00000230: cdf8 2d3d 6e4f 66be 75aa 5d3e ce6a 3a3e
00000240: 98b9 ad3d c53a 14be 94a8 a2bd 4c39 fb3c
00000250: 0cfa 31be 14b0 c1bd 4c61 443e c813 b43d
00000260: 2e41 08be 0f1a 4abc cf4e c1bd 8d1f 36be
00000270: d482 4dbe bae8 243e 946e 8e3e 5a5d 463e
00000280: 7b06 e5bc 0353 473e a2f8 90be b68a abbd
00000290: fc26 dfbd 5774 e03d a6a1 fb3d 16e9 f8bd
000002a0: d77c 9c3d 6bf7 163f 5309 da3d 7389 fd3d
000002b0: 3f2a 11be cb40 db3d 3fc4 aabd 97ba 843e
000002c0: 7bde 17be 7609 8fbe 2aaa 963e f379 843e
000002d0: fa57 de3d 9bce b03e 12cb 9d3e 735f 2c3e
000002e0: 9709 0cbd ec74 edbd 177d 553c fdda 91be
000002f0: e496 943d ca4d a93e 94d1 163e 56ca 28be
00000300: f270 533e d879 6d3d 4f5b 53be 9c82 1cbe
00000310: 031b 0ebe 9df8 e23d 0bb0 a33e b61a 433e
00000320: 3278 c8bd 510a ecbc 6ed9 d2bd e917 513d
00000330: cfc3 6ebd 24f7 d9bd 0e83 8dbf e25a d13d
00000340: ca97 9f3e ec49 3fbe dc25 84bd 2ee8 233e
00000350: 4d1e 1cbe 9c67 01be 7327 a8be a3dd a23d
00000360: 8cc4 263e 38f8 153e 1807 99bb e0d5 513e
00000370: 3216 e7bc b0c7 553b c041 32bc d9b5 613c
00000380: 1177 72bd 8a20 f53d 5a2e a8be d38e 89be
00000390: ac1b 6ab7 b2d3 ab3d 344c 77bd 9e8d 0a3e
000003a0: 37a6 e33d 2e8d 2d3d 43ba 61bd f88c 11be
000003b0: e4ef fa3d 5bbb 0cbd 315e fbbd e5b9 87be
000003c0: 4c17 dbbb d832 6a3b 62b9 883e 05d4 a93d
000003d0: 7dab 033d 2e8d 883d 70a4 51bc ea67 423e
000003e0: 2ae9 8b3c d02c 343e 3fa0 c13d e1d4 1b3b
000003f0: fc78 a1bd 34c3 903d 5b36 a23d debf 27be

lstm.weight_hh_l1 f4 [200, 50]
-0.10326364 0.059386298 -0.0115239415 0.13658708 -0.131604 0.15121938 -0.060074244 -0.25157586
0.04295964 0.08043212 0.19912937 0.22795933 0.09796929 -0.1972451 -0.091915116 -0.10787961
-0.15839893 0.07849141 0.021818578 0.07752763 0.1833365 0.027922519 0.07260146 -0.08545337
0.019274127 -0.17668821 0.1701559 -0.020596443 -0.0010707577 0.14112446 0.24307758 0.08599045
0.16889358 0.1356208 -0.05118045 0.06439984 -0.21796721 -0.04391386 0.07737895 -0.12381379
0.24721535 0.05496827 -0.15475178 -0.046761923 0.008623787 -0.18662833 0.044150148 -0.0017174091
0.24603575 -0.060224123 -0.049740363 -0.015279261 -0.18775548 0.063800104 -0.11224362 -0.1797661
-0.11875732 -0.095130324 0.05828968 0.04440304 -0.200833 -0.010952297 0.1095731 -0.021651236
0.0315949 -0.22610472 -0.14537892 -0.1686344 -0.108675055 0.16733612 0.07974211 0.14595911
-0.18651979 0.08716648 0.19307348 0.12941228 0.11629544 -0.09146844 -0.06431101 0.14450815
0.31959218 0.101532415 0.20838733 -0.1478413 0.21920806 -0.10041558 -0.14862552 0.16410023
0.059911765 0.094542556 0.17603661 0.076104544 -0.16391496 0.12204901 0.17591728 -0.22547108
0.26289582 -0.05646548 0.37680715 -0.0063172146 0.17146398 0.19758229 0.0032853023 -0.06342235
-0.23245692 0.041807108 -0.1814887 -0.008446207 -0.18456207 -0.12880135 -0.13302834 0.056934185
0.013514448 -0.16832761 0.0012069059 -0.07459559 -0.19134904 0.02498491 0.07484093 0.11776271
0.06740969 0.04928405 0.008143451 -0.0016993196 0.116548955 -0.014392156 -0.113760695 -0.2991926
0.0013645077 0.33978343 -0.12687795 0.05534239 -0.18724146 -0.00016854625 -0.00283674 -0.07391779
-0.1355299 -0.096868396 -0.075763434 0.026971675 0.010475909 0.12637472 -0.0130945975 -0.10919942
0.06278523 -0.117761254 0.33883923 -0.047506556 0.07732085 0.1463354 -0.0864771 0.1412869
-0.23060644 -0.051878925 -0.17162664 0.0683268 -0.0419389 0.012483166 0.019937906 -0.4489082
-0.055896174 0.14345458 0.18293151 -0.41665068 -0.16460086 -0.11980097 0.025907395 0.084570974
-0.2762913 0.06305093 0.15171124 0.090388 -0.011073485 0.14192992 0.20849186 0.087537624
0.08922426 -0.18791413 -0.022553014 0.37452295 0.14147843 -0.2850907 0.24215044 0.061688393
0.06994529 0.01053796 -0.056554087 -0.047468938 0.15040849 -0.1902675 0.24785088 0.06720335
-0.031035539 0.3851653 0.21829192 0.09193369 -0.05360951 -0.09789282 0.14032853 0.42225435
-0.058011778 0.04516262 -0.011668714 0.21948688 0.060644306 0.024860786 0.13450938 0.026471714
0.028260885 -0.2514932 -0.2674949 0.16273054 -0.0073676966 0.052478503 -0.21943884 0.08409449
0.03957523 0.047866397 -0.045418166 0.10630531 0.06994136 -0.044217054 0.02897059 0.032102402
0.06948896 -0.09003349 -0.05744901 0.17272386 0.18263511 0.54654205 -0.10194355 0.022640262
-0.1840768 0.03974248 0.12920326 -0.061546702 -0.0060583116 0.005188351 -0.04766874 -0.09913668
-0.08800077 0.32247815 -0.16853967 0.08781141 -0.082088806 -0.00028675984 0.4896574 0.009389634
0.28212777 0.10691378 0.070637785 0.17246798 -0.12225825 0.11939272 0.008569861 0.04205308
00000000: e37b d3bd 0c3f 733d eace 3cbc 7cdd 0b3e
00000010: 33c3 06be 41d9 1a3e 6910 76bd 8dce 80be
00000020: 73f6 2f3d 98b9 a43d 92e8 4b3e 2c6e 693e
00000030: 20a4 c83d 9ffa 49be fe3d bcbd fcef dcbd
00000040: 5433 22be 1bc0 a03d e0bc b23c cec6 9e3d
00000050: 90bc 3b3e c4bd e43c 13b0 943d 2d02 afbd
00000060: c6e4 9d3c c1ed 34be 593d 2e3e dfb9 a8bc
00000070: ab58 8cba ee82 103e 54e9 783e c31b b03d
00000080: 70f2 2c3e 2ee0 0a3e 97a2 51bd 10e4 833d
00000090: cc32 5fbe 05df 33bd db78 9e3d 1692 fdbd
000000a0: 0526 7d3e 6926 613d 4077 1ebe 6e89 3fbd
000000b0: c94a 0d3c 7f1b 3fbe c9d6 343d b01a e1ba
000000c0: ccf0 7b3e 92ad 76bd 8dbc 4bbd de55 7abc
000000d0: f942 40be a1a9 823d fcdf e5bd 9b14 38be
000000e0: 0a37 f3bd b0d3 c2bd 29c1 6e3d f6df 353d
000000f0: 2aa7 4dbe 4371 33bc dd67 e03d ef5d b1bc
00000100: a769 013d ff87 67be 36de 14be 7fae 2cbe
00000110: 0791 debd 295a 2b3e d54f a33d 4e76 153e
00000120: 0bff 3ebe 5784 b23d 0eb5 453e a784 043e
00000130: 4e2c ee3d ce53 bbbd 7eb5 83bd f2f9 133e
00000140: 96a1 a33e 3af0 cf3d 7d63 553e b663 17be
00000150: 1478 603e afa6 cdbd 4a31 18be e409 283e
00000160: 0a66 753d 879f c13d f142 343e b3dc 9b3d
00000170: 53d9 27be d5f4 f93d a923 343e e4e1 66be
00000180: 489a 863e 5948 67bd deec c03e a300 cfbb
00000190: 4194 2f3e 0353 4a3e 3a4e 573b 94e3 81bd
000001a0: 3009 6ebe ee3d 2b3d 2cd8 39be f661 0abc
000001b0: d7fd 3cbe 80e4 03be 9538 08be d233 693d
000001c0: b46b 5d3c 135e 2cbe 0b31 9e3a 93c5 98bd
000001d0: 01f1 43be 27ad cc3c 3446 993d 932d f13d
000001e0: 170e 8a3d 12de 493d 1c6c 053c b4bb deba
000001f0: 38b1 ee3d 14cd 6bbc 5efb e8bd c62f 99be
00000200: 48d9 b23a 18f8 ad3e 4bec 01be b4ae 623d
00000210: 3abc 3fbe cabb 30b9 9ae8 39bb 3662 97bd
00000220: 5ac8 0abe f062 c6bd dc29 9bbd b4f3 dc3c
00000230: 26a3 2b3c 6068 013e b98a 56bc f2a3 dfbd
00000240: 8b95 803d d02c f1bd 567c ad3e 3c96 42bd
00000250: 655a 9e3d f2d8 153e e81a b1bd 83ad 103e
00000260: 1824 6cbe ff7e 54bd e5be 2fbe ecee 8b3d
00000270: 20c8 2bbd 3186 4c3c d254 a33c 4cd7 e5be
00000280: 63f3 64bd c2e5 123e 6652 3b3e 3d53 d5be
00000290: 218d 28be 365a f5bd bf3b d43c 8c33 ad3d
000002a0: 0e76 8dbe d920 813d 315a 1b3e 581d b93d
000002b0: 906d 35bc 1456 113e e47e 553e ed46 b33d
000002c0: 35bb b63d 906c 40be 19c1 b8bc 79c1 bf3e
000002d0: b9df 103e 69f7 91be 49f6 773e f8ac 7c3d
000002e0: 7a3f 8f3d 68a7 2c3c 42a5 67bd ca6e 42bd
000002f0: af04 1a3e 7cd5 42be 9fcc 7d3e e9a1 893d
00000300: 3e3e febc 6334 c53e eb87 5f3e bb47 bc3d
00000310: a595 5bbd 087c c8bd 48b2 0f3e b931 d83e
00000320: c29d 6dbd 70fc 383d 222e 3fbc 2bc1 603e
00000330: 2a66 783d d9a8 cb3c d4bc 093e 35db d83c
00000340: 5f83 e73c b7c3 80be 17f5 88be d6a2 263e
00000350: b86c f1bb b3f3 563d 93b4 60be bb39 ac3d
00000360: a319 223d 8e0f 443d 6608 3abd 99b6 d93d
00000370: 6a3d 8f3d f11c 35bd bb53 ed3c cf7d 033d
00000380: 3a50 8e3d 7a63 b8bd a74f 6bbd 86de 303e
00000390: b304 3b3e 2eea 0b3f c8c7 d0bd 1278 b93c
000003a0: a17e 3cbe 03c9 223d dc4d 043e 6518 7cbd
000003b0: cd84 c6bb 0b03 aa3b 4c40 43bd 2c08 cbbd
000003c0: bf39 b4bd db1b a53e aa95 2cbe 78d6 b33d
000003d0: 2d1e a8bd 4158 96b9 60b4 fa3e fbd6 193c
000003e0: 0d73 903e 9df5 da3d 8baa 903d 729b 303e
000003f0: 8962 fabd 2c84 f43d 9a68 0c3c da3f 2c3d

lstm.bias_ih_l1 f4 [200]
0.041675717 -0.029252129 -0.25624123 -0.25936943 -0.4005624 -0.12167584 -0.009878794 -0.30883232
-0.18365155 -0.012571658 -0.2432156 -0.25407064 -0.18060367 -0.3351479 -0.17150675 -0.010074293
-0.013403743 0.19425976 -0.008672781 -0.38706642 -0.4427142 -0.0052138767 -0.17264554 -0.40643856
-0.08835238 -0.234837 0.11116313 -0.16717468 -0.16484232 -0.20665486 -0.21309458 -0.2442049
-0.21494813 0.24200861 -0.15093325 -0.020224815 -0.20619322 -0.40915185 -0.14931116 0.063060686
-0.065075986 -0.018928554 -0.116274804 -0.2034386 -0.51695186 0.11997092 -0.14433205 -0.4077525
-0.21955754 -0.37630644 0.04098953 0.05425307 -0.16934162 -0.22885856 -0.43945867 -0.084438115
0.023126565 -0.108913474 -0.24630485 0.043523323 0.045573223 -0.4705519 -0.35407224 -0.21087602
-0.40185913 -0.072749116 -0.08950459 -0.12579586 -0.07670085 -0.3822297 -0.40486705 -0.24828777
0.0010536815 -0.3348094 -0.10352034 -0.24621768 -0.06913793 -0.2666302 -0.2851451 -0.026561467
-0.4010623 -0.33315358 -0.37044412 0.1070669 -0.3896866 -0.25516185 -0.41919184 -0.2320286
-0.18785566 -0.098613754 -0.12189437 -0.18312995 -0.35268953 -0.16215813 -0.24335723 0.15453634
-0.03637691 -0.38369524 -0.17192619 -0.18538833 0.043697488 -0.055836797 0.11518003 0.0022697418
-0.025119515 -0.1023818 0.12840262 -0.046401568 0.020632261 0.33522445 -0.14429004 -0.11974158
-0.064316526 -0.09609143 -0.0022972196 0.10180873 -0.0064964816 -0.17256464 0.19193086 -0.01388347
-0.05469962 -0.1795666 0.0134464605 -0.05720554 -0.05753875 0.05033842 -0.085174546 -0.019136518
0.17771253 -0.19085836 -0.06915949 0.2192011 -0.04539685 -0.060012475 -0.046581965 0.0028165332
0.019600797 -0.034751594 -0.005108011 -0.064754635 -0.11461511 0.11745521 0.103189595 -0.07136432
-0.11962802 0.00016794328 0.020458188 -0.0140319085 0.007344979 -0.14319617 -0.20929462 -0.15066771
-0.13889374 -0.23308718 -0.30291826 -0.3284093 -0.116900966 -0.18063867 -0.050103962 -0.073968105
-0.19437182 -0.23528504 -0.23888347 -0.16143318 -0.28485948 -0.15876117 -0.17611662 0.0020791977
-0.3384403 -0.35037848 -0.2930509 -0.13312218 -0.18378668 -0.44508708 -0.2611674 -0.147273
0.035764854 -0.16098346 -0.11858101 -0.21430969 -0.16445567 -0.15986857 -0.12714536 0.25106576
-0.122121505 -0.08587006 -0.21360296 -0.41120055 -0.2929415 -0.025066279 -0.084526435 -0.26829135
-0.29043072 -0.2926072 -0.5628581 -0.25567788 -0.18646902 -0.4488276 -0.06414412 -0.38471103
00000000: 28b4 2a3d 29a2 efbc 0d32 83be 12cc 84be
00000010: 8416 cdbe 2f31 f9bd aada 21bc 451f 9ebe
00000020: 270f 3cbe 5bf9 4dbc 830d 79be 8c15 82be
00000030: 2bf0 38be 8198 abbe 779f 2fbe a60e 25bc
00000040: 5f9b 5bbc 08ec 463e 4818 0ebc 922d c6be
00000050: 70ab e2be 2bd9 aabb fec9 30be b718 d0be
00000060: 18f2 b4bd 1c79 70be 7fa9 e33d d72f 2bbe
00000070: 6dcc 28be 559d 53be 7735 5abe d910 7abe
00000080: 5d1b 5cbe 1bd1 773e 3f8e 1abe 83ae a5bc
00000090: 5124 53be 5a7c d1be 06e5 18be f625 813d
000000a0: 8f46 85bd 0e10 9bbc 7c21 eebd 3552 50be
000000b0: f556 04bf 50b3 f53d c8cb 13be f0c4 d0be
000000c0: b1d3 60be 3dab c0be a3e4 273d 7838 5e3d
000000d0: e467 2dbe e659 6abe ba00 e1be e4ed acbd
000000e0: ec73 bd3c 070e dfbd 5737 7cbe 8345 323d
000000f0: fdaa 3a3d 2eec f0be f548 b5be e2ef 57be
00000100: 7bc0 cdbe 7dfd 94bd 2f4e b7bd a1d0 00be
00000110: 5615 9dbd 9cb3 c3be bc4a cfbe 263f 7ebe
00000120: af1b 8a3a 236c abbe 7902 d4bd 7d20 7cbe
00000130: 3098 8dbd c183 88be 8afe 91be 6f97 d9bc
00000140: 0a58 cdbe 1b93 aabe daaa bdbe e445 db3d
00000150: 0185 c7be 93a4 82be 50a0 d6be e898 6dbe
00000160: 3c5d 40be 02f6 c9bd c1a3 f9bd 6b86 3bbe
00000170: b993 b4be c80c 26be a332 79be c63e 1e3e
00000180: f4ff 14bd b473 c4be 6b0d 30be 70d6 3dbe
00000190: 23fc 323d 20b5 64bd 82e3 eb3d f3bf 143b
000001a0: 71c7 cdbc 8dad d1bd fa7b 033e 920f 3ebd
000001b0: fd04 a93c 8aa2 ab3e c5c0 13be 133b f5bd
000001c0: 62b8 83bd 95cb c4bd f38c 16bb 1881 d03d
000001d0: 70e0 d4bb c9b4 30be 8689 443e 7e77 63bc
000001e0: b50c 60bd 4fe0 37be 8b4e 5c3c 5b50 6abd
000001f0: c1ad 6bbd a92f 4e3d fe6f aebd 30c4 9cbc
00000200: 46fa 353e 6070 43be 7ea3 8dbd 4176 603e
00000210: 0cf2 39bd a4cf 75bd bbcc 3ebd 9695 383b
00000220: da91 a03c b057 0ebd 1a61 a7bb 149e 84bd
00000230: 54bb eabd 5b8c f03d 1155 d33d 7527 92bd
00000240: 89ff f4bd ee19 3039 ee97 a73c 17e6 65bc
00000250: 26ae f03b 04a2 12be 5451 56be a348 1abe
00000260: 293a 0ebe 68ae 6ebe 1a18 9bbe 4425 a8be
00000270: c669 efbd 58f9 38be d039 4dbd 977c 97bd
00000280: 6809 47be 90ee 70be de9d 74be bd4e 25be
00000290: 1ad9 91be 4a92 22be ea57 34be 2643 083b
000002a0: 0c48 adbe cf64 b3be c40a 96be 2e51 08be
000002b0: 9332 3cbe 74e2 e3be bcb7 85be bcce 16be
000002c0: 2b7e 123d d9d8 24be 9ada f2bd 0074 5bbe
000002d0: 1167 28be 96b4 23be 6532 02be b18b 803e
000002e0: d71a fabd a4dc afbd bcba 5abe e188 d2be
000002f0: 6efc 95be cc57 cdbc 321c adbd 7c5d 89be
00000300: 56b3 94be 9cd0 95be 7817 10bf 36e8 82be
00000310: bcf1 3ebe bbcc e5be fe5d 83bd d8f8 c4be
