models/cnn_lstm_9f_best.pth (torch, 164765 bytes, 8 tensors)

cnn.0.weight f4 [64, 9, 7]
0.070957854 -0.08811488 -0.095514745 0.0522569 -0.11104221 0.123226225 0.10090858 -0.16294812
0.026943848 -0.103501 -0.14894156 -0.23902938 -0.17527835 0.010391803 -0.01636358 0.015452698
-0.0884311 -0.10226913 -0.042204846 -0.04288269 -0.057250336 0.14922984 0.0049720593 0.060935847
-0.018811623 0.06634925 0.1487699 0.10565477 0.09764025 0.05028255 -0.0048595755 0.005743245
0.01932362 0.017208071 0.08064333 -0.10432884 -0.089524895 -0.058187477 -0.15276897 -0.03842678
-0.27967483 -0.16476223 0.08780985 -0.04896805 0.0034216032 0.00043613216 -0.048440848 0.08674941
0.06293077 0.21851663 0.3891167 0.31640747 0.5375675 0.25145587 0.14029571 0.19616848
0.17608543 0.115998276 0.110134505 0.13968503 0.007853923 -0.030767143 0.0044473503 -0.16839197
-0.001899595 -0.19913173 -0.02123305 0.057127234 -0.08978772 0.06516183 0.058203798 -0.0013516943
-0.14889541 0.070920356 0.030544855 0.049924742 0.024371447 0.035653953 -0.010324087 0.05540395
-0.02742818 -0.0635479 -0.14272588 0.03246607 0.031189168 -0.0199506 0.13754112 0.18681718
0.045724083 0.4483031 0.43746012 0.12607914 0.05986242 -0.025720583 0.03679559 0.012672653
-0.3197978 -0.23301236 -0.004238986 -0.03792988 -0.08485909 -0.022480017 -0.044653397 -0.06903993
-0.10751468 0.08728985 0.07455704 0.05283874 -0.12179148 -0.0864142 0.048426185 -0.005999026
-0.06478867 -0.16732202 0.045131672 0.27750343 0.29299846 -0.199798 -0.047747258 -0.12628953
0.019404322 0.25651953 0.30666733 0.45437682 -0.06469149 -0.25638825 -0.112762265 0.04138323
0.009880722 0.05308207 -0.1100875 -0.052369636 0.016746044 -0.15481837 -0.008783738 -0.046418205
-0.103355855 -0.17606924 0.033876248 -0.11526076 0.06413276 -0.11109004 0.022358265 -0.053245965
-0.015972598 0.09485047 0.004392764 0.11081978 0.23078628 0.086411044 -0.060564846 -0.09770592
0.01713755 0.029582905 0.091356106 0.024807822 0.04204524 -0.076460324 -0.056752626 0.007881006
-0.057022266 -0.18717378 -0.27892733 -0.1580833 -0.23616779 -0.3233209 -0.090316236 -0.053248636
0.034974243 0.09261729 0.07306233 -0.017608386 -0.11361259 0.050031044 0.025007566 0.27072722
0.15722558 0.326517 0.18953745 0.20691112 0.36352637 0.16624765 -0.092764705 -0.24814261
-0.08822039 -0.063466124 0.04223718 -0.15541393 -0.3428097 -0.22257721 -0.042554192 -0.1204887
-0.16274983 0.052849256 -0.30124867 -0.3894443 -0.41259572 -0.42087543 -0.33353585 -0.5487424
-0.17335714 0.3092935 -0.27734357 0.053407915 -0.008933391 0.103206135 -0.04792817 0.06682793
0.13805217 -0.12761769 -0.017958652 0.098109834 0.15093581 0.124946505 -0.1884291 0.27307585
-0.2909804 0.0095415665 -0.07800448 -0.21540672 -0.16638769 -0.1678076 -0.0019440214 0.10679606
0.08259545 -0.05309086 0.068035394 -0.041480817 0.17024364 -0.12993163 0.52594364 0.067311645
0.12794891 0.15211053 0.06219306 -0.039132606 0.10488468 -0.19319803 -0.5248932 -0.9025502
-1.2047427 -1.3169601 -0.44154137 0.8436305 -0.3808139 -0.44357654 -0.50207955 -0.77014005
-0.8857306 -0.18276566 0.58846086 -0.31826904 0.11338713 0.06432376 -0.22027242 -0.61525023
00000000: 5a52 913d 9375 b4bd 3c9d c3bd 550b 563d
00000010: 196a e3bd 085e fc3d 28a9 ce3d dfdb 26be
00000020: 58b9 dc3c 55f8 d3bd 2384 18be 1ec4 74be
00000030: 2b7c 33be 6242 2a3c ea0c 86bc 502d 7d3c
00000040: 5d1b b5bd 7a72 d1bd fdde 2cbd c2a5 2fbd
00000050: 547f 6abd b5cf 183e a8ec a23b de97 793d
00000060: d51a 9abc 1ee2 873d 2357 183e 8761 d83d
00000070: 9df7 c73d 13f5 4d3d 133d 9fbb d531 bc3b
00000080: 914c 9e3c f1f7 8c3c 5528 a53d 5caa d5bd
00000090: d458 b7bd fe55 6ebd 786f 1cbe 6665 1dbd
000000a0: 8a31 8fbe 6eb7 28be a7d5 b33d b992 48bd
000000b0: fa3c 603b aba8 e439 e969 46bd ada9 b13d
000000c0: d9e1 803d d3c2 5f3e 4e3a c73e 2900 a23e
000000d0: 069e 093f d3be 803e aea9 0f3e 64e0 483e
000000e0: bd4f 343e 8190 ed3d 338e e13d 9809 0f3e
000000f0: bead 003c 600b fcbc 14bb 913b f26e 2cbe
00000100: d5fb f8ba 30e9 4bbe eff0 adbc 3ffe 693d
00000110: a0e2 b7bd 9173 853d 1b67 6e3d 562b b1ba
00000120: 0a78 18be b13e 913d 3439 fa3c e37d 4c3d
00000130: a1a6 c73c e109 123d 5c26 29bc 41ef 623d
00000140: 10b1 e0bc 6725 82bd bc26 12be 24fb 043d
00000150: 6d80 ff3c 716f a3bc 94d7 0c3e 014d 3f3e
00000160: 2d49 3b3d fc87 e53e c6fa df3e e41a 013e
00000170: 4c32 753d f9b3 d2bc f9b6 163d f6a0 4f3c
00000180: 8abc a3be cb9a 6ebe 31e7 8abb 5d5c 1bbd
00000190: 9aca adbd 0328 b8bc 7be6 36bd cf64 8dbd
000001a0: a830 dcbd 05c5 b23d 5db1 983d 6f6d 583d
000001b0: d06d f9bd eef9 b0bd 895a 463d 7a93 c4bb
000001c0: ecaf 84bd 7756 2bbe fddb 383d ee14 8e3e
000001d0: e503 963e d997 4cbe a192 43bd 0b52 01be
000001e0: d0f5 9e3c 8756 833e 8003 9d3e 14a4 e83e
000001f0: f97c 84bd 5245 83be e7ef e6bd 7681 293d
00000200: c0e2 213c 966c 593d 8e75 e1bd 8b81 56bd
00000210: 002f 893c b588 1ebe abe9 0fbc 0421 3ebd
00000220: 3cac d3bd 7f4b 34be d2c1 0a3d d50d ecbd
00000230: 0958 833d 2d83 e3bd ae28 b73c 7118 5abd
00000240: f7d8 82bc f740 c23d 2df1 8f3b 7bf5 e23d
00000250: 3d53 6c3e 46f8 b03d d812 78bd 0b1a c8bd
00000260: 0c64 8c3c d957 f23c e918 bb3d c639 cb3c
00000270: a137 2c3d 3b97 9cbd 7175 68bd 561f 013c
00000280: 2e90 69bd 7caa 3fbe 90cf 8ebe 97e0 21be
00000290: f8d5 71be 518a a5be b8f7 b8bd 3e1b 5abd
000002a0: 2741 0f3d 22ae bd3d b4a1 953d 763f 90bc
000002b0: b8ad e8bd 5aed 4c3d abdc cc3c c29c 8a3e
000002c0: beff 203e 3c2d a73e 1b16 423e 82e0 533e
000002d0: 2120 ba3e d33c 2a3e 6cfb bdbd 1919 7ebe
000002e0: e4ac b4bd 87fa 81bd e500 2d3d d424 1fbe
000002f0: c184 afbe 48eb 63be 4e4d 2ebd c8c2 f6bd
00000300: e4a7 26be 7678 583d 443d 9abe 3e65 c7be
00000310: bf3f d3be fc7c d7be 36c5 aabe 627a 0cbf
00000320: 8984 31be b85b 9e3e faff 8dbe 42c2 5a3d
00000330: 5c5d 12bc bd5d d33d 5450 44bd 15dd 883d
00000340: 8c5d 0d3e 36ae 02be 061e 93bc cfed c83d
00000350: eb8e 1a3e f4e3 ff3d 8ff3 40be 99d0 8b3e
00000360: 62fb 94be 3b54 1c3c d0c0 9fbd 9493 5cbe
00000370: 8961 2abe c1d5 2bbe 89ce feba e5b7 da3d
00000380: ce27 a93d cd75 59bd 2456 8b3d cae7 29bd
00000390: 5954 2e3e cc0c 05be 3ea4 063f b0da 893d
000003a0: 0a05 033e ddc2 1b3e 26be 7e3d 8349 20bd
000003b0: c7cd d63d b4d5 45be 675f 06bf 880d 67bf
000003c0: 0235 9abf 2692 a8bf b611 e2be 2bf8 573f
000003d0: 0afa c2be 771c e3be 4988 00bf e627 45bf
000003e0: 3ebf 62bf ec26 3bbe 5fa5 163f 29f4 a2be
000003f0: 8337 e83d 2dbc 833d 188f 61be 0a81 1dbf

cnn.0.bias f4 [64]
-0.23882873 -0.14044768 -0.3389187 0.12237597 -0.10899211 0.07162125 0.22285195 -0.07502046
-0.092293575 0.009588713 -0.18120916 -0.09415488 -0.21259925 -0.007689759 -0.16987614 -0.22964936
0.0062711798 -0.0015443979 -0.30310506 -0.25298548 -0.03118797 -0.07394807 -0.22672367 -0.23653828
-0.34722936 -0.18467301 -0.31560802 -0.3168493 -0.017386638 -0.21783084 -0.22004597 -0.11471255
-0.061568424 0.035066806 -0.12820104 0.15108883 -0.15014899 -0.053584404 -0.012991039 0.16278231
-0.10674098 -0.279005 -0.11032515 0.0662008 -0.17506641 -0.1771966 -0.07413817 -0.16006935
0.15094236 0.08554703 0.006768904 -0.121174954 0.0005909368 -0.25069112 0.27307254 -0.04170529
0.102998234 -0.1900823 -0.066412665 0.098214194 -0.2639609 -0.31068245 -0.04145893 0.06336698
00000000: 858f 74be 84d1 0fbe c086 adbe 41a0 fa3d
00000010: 4137 dfbd 29ae 923d 4d33 643e 54a4 99bd
00000020: 6a04 bdbd fa19 1d3c e58e 39be 46d4 c0bd
00000030: 9eb3 59be 60fa fbbb 03f4 2dbe 3429 6bbe
00000040: 787e cd3b 656d caba 9630 9bbe 5087 81be
00000050: ea7d ffbc 1672 97bd 402a 68be 1737 72be
00000060: 0cc8 b1be ec1a 3dbe 6097 a1be 123a a2be
00000070: 6c6e 8ebc 0c0f 5fbe bb53 61be 6aee eabd
00000080: 2c2f 7cbd 36a2 0f3d 2247 03be 08b7 1a3e
00000090: a8c0 19be 527b 5bbd 5ed8 54bc 68b0 263e
000000a0: 049b dabd bed9 8ebe 27f2 e1bd 4994 873d
000000b0: 9c44 33be 0773 35be c1d5 97bd 38e9 23be
000000c0: a290 1a3e 4833 af3d afcd dd3b 932a f8bd
000000d0: 19e9 1a3a 965a 80be 2ad0 8b3e 2bd3 2abd
000000e0: bdf0 d23d efa4 42be 5d03 88bd 8624 c93d
000000f0: e225 87be c511 9fbe d7d0 29bd 8cc6 813d

lstm.weight_ih_l0 f4 [256, 64]
-0.026976807 -0.12857826 -0.05406875 -0.14854513 -0.16531882 -0.15154174 -0.64281315 0.022714356
-0.005010897 -0.3627264 -0.123346426 0.17195034 -0.24798508 -0.27979097 0.04691185 0.053270664
-0.32398355 -0.41057444 0.24042946 -0.05808783 0.08012013 -0.1062118 0.10048644 0.03158937
0.07573445 -0.05512876 -0.039736923 -0.26090574 -0.27832347 0.19910423 -0.10546025 0.061692458
-0.06639868 -0.027663805 -0.062962316 -0.20780948 0.107915975 0.12507191 -0.28577244 -0.23442492
0.07395878 -0.14794697 -0.10759721 0.033221535 0.12592968 0.014124565 0.019003922 0.06388369
0.042090304 -0.35376483 -0.097232334 -0.015559023 0.10877801 -0.33304012 -0.3350219 0.09714635
-0.06705231 0.15241456 0.12704204 -0.22696298 0.025447829 0.06650874 0.11516366 -0.030559415
0.14197119 0.20511015 0.14105263 -0.0579635 -0.13798381 -0.3552871 -0.45677847 -0.13846456
0.01096666 0.1794002 -0.14586397 0.13049251 -0.15866658 0.012531112 -0.032320343 0.10091066
-0.21124479 -0.11758681 -0.0005396153 -0.08295909 0.131715 -0.2715944 -0.06657268 -0.11656847
-0.01573241 -0.09690582 -0.14379273 0.06167243 0.03372835 -0.11215279 -0.24954225 0.021971649
-0.17947133 -0.27969056 -0.079771295 -0.24875796 0.050458338 -0.24542616 0.009115488 -0.38381785
0.027491739 -0.1265371 0.12490065 -0.21005301 0.14121026 0.023880295 -0.13213088 0.18687244
-0.22926746 -0.16889997 0.06097601 -0.0042472025 0.15450501 0.0014877596 -0.28758115 0.11287989
-0.1047107 0.10992902 0.067832716 -0.1141812 -0.03996956 -0.11845967 -0.035019573 -0.17415491
0.2408502 0.04415239 0.0086621065 -0.13973436 -0.36224198 -0.6619446 -0.14776742 -0.11044949
0.045155425 -0.29038006 -0.057428863 -0.02089218 -0.45502123 -0.011228283 0.028314456 0.053902682
-0.46604225 -0.35341227 0.031716913 -0.36627325 0.19118185 -0.59235543 0.06291457 -0.34917778
0.21498618 0.046410844 -0.2710217 -0.4414835 -0.01724578 -0.10844554 -0.41460708 -0.08499602
-0.108898975 -0.07238041 -0.0608344 -0.17839023 0.03249465 -0.23850106 -0.49138075 -0.21662752
-0.10638046 -0.4503355 -0.049525984 -0.3619405 0.15002036 -0.017237553 -0.17045991 0.19534577
-0.03419809 -0.6831849 -0.4298829 -0.018969351 0.0037011777 -0.12980306 -0.010803946 0.1525249
0.15951046 0.069146775 -0.12527686 0.24039662 0.15592302 0.07254828 0.10904661 0.097261615
0.0074032526 -0.16046825 0.16364479 -0.39586702 0.05976729 -0.2777535 -0.43199253 -0.14243658
0.12112509 -0.16242734 -0.30111948 0.22880957 -0.09461899 -0.08908019 -0.1426472 0.07641369
-0.34501666 -0.39925888 0.08570403 -0.08239887 0.21309875 -0.34036097 0.12908854 -0.046954885
0.03508526 -0.12432814 -0.06380909 -0.07552458 -0.26543835 0.18142079 -0.22613774 -0.122505404
-0.25166714 -0.22696932 -0.16880113 -0.22682877 -0.15259416 -0.07624058 -0.31630108 -0.17878342
-0.06650708 -0.10492172 -0.14334495 -0.081576236 0.26390323 -0.005866836 -0.050896235 0.23883036
-0.22755967 -0.41601366 -0.18318349 -0.06958769 0.08642147 -0.35656977 -0.46158737 0.26446795
-0.2724763 -0.1332184 0.14710125 -0.30742294 -0.12625186 -0.1326481 -0.112158224 -0.44038507
00000000: 77fe dcbc 05aa 03be 3277 5dbd 371c 18be
00000010: 5649 29be c22d 1bbe 678f 24bf 7513 ba3c
00000020: 7332 a4bb 46b7 b9be 0d9d fcbd c013 303e
00000030: cdef 7dbe c340 8fbe a426 403d 5732 5a3d
00000040: 2ce1 a5be d036 d2be 2433 763e 81ed 6dbd
00000050: 0616 a43d 9285 d9bd d6cb cd3d db63 013d
00000060: aa1a 9b3d b2ce 61bd 2fc3 22bd 7095 85be
00000070: 6a80 8ebe fbe1 4b3e 8bfb d7bd 3bb1 7c3d
00000080: 08fc 87bd 349f e2bc 63f2 80bd 02cc 54be
00000090: 0d03 dd3d da12 003e c450 92be 160d 70be
000000a0: b377 973d 697f 17be ed5b dcbd 4e13 083d
000000b0: b6f3 003e b86a 673c 1dae 9b3c 74d5 823d
000000c0: e266 2c3d aa20 b5be bf21 c7bd 46eb 7ebc
000000d0: 01c7 de3d 3c84 aabe fe87 abbe aaf4 c63d
000000e0: b952 89bd 9012 1c3e 4f17 023e fc68 68be
000000f0: f777 d03c bc35 883d edda eb3d bd57 fabc
00000100: e560 113e 6508 523e 1a70 103e 236b 6dbd
00000110: a14b 0dbe 31e8 b5be dede e9be a7c9 0dbe
00000120: 82ad 333c b0b4 373e 5d5d 15be d49f 053e
00000130: 7e79 22be 4b4f 4d3c 5662 04bd 40aa ce3d
00000140: 8e50 58be 5ad1 f0bd f874 0dba 75e6 a9bd
00000150: 4ce0 063e 6c0e 8bbe 4257 88bd 73bb eebd
00000160: 41e1 80bc 8f76 c6bd 673e 13be 3b9c 7c3d
00000170: bd26 0a3d 5db0 e5bd 0188 7fbe e3fd b33c
00000180: 55c7 37be 9a33 8fbe 225f a3bd 68ba 7ebe
00000190: 67ad 4e3d ff50 7bbe 2159 153c c683 c4be
000001a0: 5b36 e13c f192 01be e9cb ff3d 2318 57be
000001b0: 6c99 103e 9ca0 c33c 514d 07be 7d5b 3f3e
000001c0: 17c5 6abe 1df4 2cbe fbc1 793d 1e2c 8bbb
000001d0: 9036 1e3e ee00 c33a d63d 93be 922d e73d
000001e0: 9072 d6bd 7722 e13d e1eb 8a3d d5d7 e9bd
000001f0: 1fb7 23bd fc9a f2bd af70 0fbd aa55 32be
00000200: 6fa1 763e 23d9 343d 82eb 0d3c 8616 0fbe
00000210: c877 b9be 3475 29bf 5850 17be 5833 e2bd
00000220: e5f4 383d b2ac 94be 873a 6bbd 1426 abbc
00000230: 8bf8 e8be d5f6 37bc b8f3 e73c 0fc9 5c3d
00000240: 179d eebe 74f2 b4be 98e9 013d 2b88 bbbe
00000250: 2dc5 433e 9ba4 17bf 5bd9 803d 6ec7 b2be
00000260: 5625 5c3e 4c19 3e3d 5bc3 8abe 200a e2be
00000270: 0647 8dbc b218 debd 6147 d4be 6512 aebd
00000280: 6d06 dfbd 2e3c 94bd 7e2d 79bd eeab 36be
00000290: 1c19 053d 9f39 74be 4296 fbbe 9bd3 5dbe
000002a0: 00de d9bd 6092 e6be c2db 4abd 4450 b9be
000002b0: f09e 193e c535 8dbc 0b8d 2ebe b908 483e
000002c0: 4c13 0cbd 35e5 2ebf 9d19 dcbe 9d65 9bbc
000002d0: 758f 723b 18eb 04be 0903 31bc 7d2f 1c3e
000002e0: b656 233e d39c 8d3d 9448 00be 882a 763e
000002f0: 49aa 1f3e 3194 943d d453 df3d 1931 c73d
00000300: fc96 f23b ca51 24be 8092 273e 15af cabe
00000310: 8cce 743d b535 8ebe 202e ddbe e5da 11be
00000320: 6e10 f83d 5a53 26be 552c 9abe 0e4d 6a3e
00000330: 9ac7 c1bd ad6f b6bd 1c12 12be c87e 9c3d
00000340: 06a6 b0be a96b ccbe 9885 af3d bdc0 a8bd
00000350: 8f36 5a3e cb43 aebe c92f 043e c453 40bd
00000360: 90b5 0f3d c09f febd 57ae 82bd a2ac 9abd
00000370: 89e7 87be 5fc6 393e a790 67be 1de4 fabd
00000380: 84da 80be a56a 68be 34da 2cbe cd45 68be
00000390: a541 1cbe 0524 9cbd 37f2 a1be 0013 37be
000003a0: dd34 88bd 33e1 d6bd 05c9 12be 7111 a7bd
000003b0: 531e 873e 963e c0bb 9278 50bd f28f 743e
000003c0: 6705 69be beff d4be 7494 3bbe fe83 8ebd
000003d0: bdfd b03d 5090 b6be 2e55 ecbe 5868 873e
000003e0: 0382 8bbe 676a 08be b6a1 163e 8a66 9dbe
000003f0: 2b48 01be e7d4 07be 36b3 e5bd 277a e1be

lstm.weight_hh_l0 f4 [256, 64]
-0.049287103 0.23998562 -0.20531316 0.2130856 0.09378439 -0.06867454 0.20468377 -0.06709612
0.0060614464 0.056032624 0.26195884 0.0027476568 -0.0917028 0.10599857 -0.18937224 -0.100984015
0.037765365 0.085814625 -0.28990966 -0.20007174 0.013023367 -0.043959185 0.119138174 -0.23072354
0.13111122 0.11164149 -0.05417503 -0.16063544 0.26077598 -0.05493958 -0.13948956 -0.13957798
-0.27790582 -0.415274 -0.1806728 -0.0053827353 -0.1987054 0.10682756 -0.027137829 -0.13458209
-0.0049391673 -0.03146829 0.082093686 0.21119085 0.40034178 0.044011675 -0.11201465 0.068063356
0.028723199 0.056871876 0.027633278 0.12164698 0.19981082 0.19571559 -0.06579106 0.31546077
-0.20367266 -0.013750868 0.17235021 -0.009136699 0.008362761 0.004088221 0.22862373 -0.1760436
-0.06950146 0.011708169 0.23912533 -0.031507827 0.030707825 0.011030554 0.018512366 0.16381408
-0.052996896 -0.0038386625 0.097699754 -0.02874366 -0.07145174 -0.17619148 0.064412005 -0.007027965
0.18613088 -0.04759429 -0.012457788 0.28330588 0.048765477 0.229353 0.14776981 -0.041191146
0.09291149 -0.12133423 -0.1365754 -0.28485274 -0.106011584 0.054878395 -0.028588912 -0.014868252
0.03634585 -0.18202874 0.1493916 0.06872241 0.11019653 -0.1283877 0.182955 0.029528482
0.061848156 0.1509373 0.03357613 -0.29674146 0.008220846 0.07456787 -0.007748493 -0.1329583
0.20055157 0.15615757 -0.06144923 0.04048509 0.108155005 0.026506715 0.2671218 -0.09697711
-0.009874205 0.036189865 -0.03384326 -0.4032668 0.14989313 0.28102016 -0.22704765 -0.048191886
0.0696247 0.18537077 0.24032447 0.1072977 0.26222935 -0.3005189 -0.20214884 0.23977661
0.17194128 0.22032543 0.11863586 0.4775293 -0.056589864 -0.053399857 -0.009580961 0.12797506
0.031022787 0.06435908 -0.13620165 0.070635 0.019807361 -0.23819725 0.28495273 0.19761464
0.10448347 0.5136863 -0.21981265 0.016177325 0.008743836 -0.047284715 0.507214 0.41521966
0.115395166 0.4137279 0.25134322 0.018233286 0.059914295 -0.32154334 0.06159374 0.50987405
0.004749421 -0.18488607 -0.2720772 0.054792665 0.39039177 0.16170195 -0.20857242 0.1184787
0.03237542 -0.22139339 0.21350838 -0.3102653 0.026722161 -0.16089498 -0.093925774 -0.03531954
-0.20238407 -0.34230515 -0.15125194 0.21226805 -0.19615869 0.6087576 -0.4726485 0.23818162
-0.0009718306 0.28485012 -0.09651207 0.051270317 0.25743204 0.07013805 -0.0043510892 0.0013783243
0.117024 -0.05099684 0.26599333 -0.075671576 -0.06805066 -0.37226844 -0.0745359 -0.05239012
0.12436562 0.13489293 -0.10978465 -0.1469106 -0.008456044 -0.002005814 -0.19792825 -0.02970896
0.20547062 0.019677 -0.12795027 -0.107705295 -0.048030566 0.08560246 -0.028182214 0.16605219
-0.054749355 -0.17479776 0.014776602 -0.03055579 0.11372783 -0.21092696 -0.22694719 -0.12065503
-0.23819892 -0.17099686 0.011352129 0.13977374 0.06298271 -0.003704107 -0.13887583 0.14921436
0.07268297 0.08939922 -0.10706921 -0.0496117 -0.06774126 0.20032598 0.1729293 -0.10101382
0.08107384 -0.11005151 -0.077241756 -0.19721904 -0.07691913 -0.20392823 -0.044369463 -0.018060548
00000000: 46e1 49bd cabe 753e 9d3d 52be 1d33 5a3e
00000010: 0812 c03d 3da5 8cbd 9f98 513e b169 89bd
00000020: 199f c63b 7782 653d 781f 863e 0812 343b
00000030: adce bbbd c715 d93d ccea 41be b5d0 cebd
00000040: dbaf 1a3d 94bf af3d 0a6f 94be 9bdf 4cbe
00000050: f65f 553c 8c0e 34bd b7fe f33d cb42 6cbe
00000060: 0542 063e 4ba4 e43d a3e6 5dbd 9e7d 24be
00000070: 6e84 853e 5308 61bd 5ad6 0ebe 88ed 0ebe
00000080: ac49 8ebe cb9e d4be 4a02 39be a861 b0bb
00000090: 6e79 4bbe 68c8 da3d 2750 debc e3cf 09be
000000a0: bdd8 a1bb e5e4 00bd bc20 a83d 6a42 583e
000000b0: 99f9 cc3e 9645 343d f067 e5bd cd64 8b3d
000000c0: ea4c eb3c 7cf2 683d 2f5f e23c 0d22 f93d
000000d0: 359b 4c3e ab69 483e 77bd 86bd 1384 a13e
000000e0: 918f 50be 524b 61bc 937c 303e 18b2 15bc
000000f0: f603 093c 7cf6 853b 571c 6a3e c644 34be
00000100: c856 8ebd 9fd3 3f3c 45dd 743e 5a0e 01bd
00000110: fa8e fb3c 7fb9 343c 3fa7 973c e1be 273e
00000120: 4613 59bd 1292 7bbb cf16 c83d d377 ebbc
00000130: 4a55 92bd 8a6b 34be 71ea 833d d84a e6bb
00000140: 1899 3e3e 3bf2 42bd c01b 4cbc 780d 913e
00000150: 4fbe 473d 83db 6a3e f850 173e 0cb8 28bd
00000160: 6148 be3d 157e f8bd 6cda 0bbe 38d8 91be
00000170: 9a1c d9bd 2bc8 603d 4b33 eabc f899 73bc
00000180: 63df 143d be65 3abe 1dfa 183e 56be 8c3d
00000190: b8ae e13d 1178 03be 8e58 3b3e b7e5 f13c
000001a0: 7e54 7d3d 4f8f 1a3e 2087 093d 7fee 97be
000001b0: bab0 063c 0ab7 983d 12e7 fdbb 3826 08be
000001c0: 645d 4d3e c5e7 1f3e 30b2 7bbd b2d3 253d
000001d0: 5f80 dd3d 9c24 d93c 30c4 883e ef9b c6bd
000001e0: 6bc7 21bc d33b 143d 3b9f 0abd fc78 cebe
000001f0: 967d 193e e0e1 8f3e 2e7f 68be db64 45bd
00000200: 6597 8e3d d6d1 3d3e 9e17 763e e6be db3d
00000210: ed42 863e 9ddd 99be 1b00 4fbe 0088 753e
00000220: 6011 303e fd9c 613e 5cf7 f23d b87e f43e
00000230: c6ca 67bd cfb9 5abd 77f9 1cbc e50b 033e
00000240: 8023 fe3c b1ce 833d 7278 0bbe 15a9 903d
00000250: 0c43 a23c fbe9 73be 53e5 913e 7e5b 4a3e
00000260: 6efb d53d f280 033f 9116 61be 4f86 843c
00000270: 4e42 0f3c 9ead 41bd c7d8 013f ac97 d43e
00000280: 4d54 ec3d 25d4 d33e 0fb0 803e f95d 953c
00000290: b168 753d 54a1 a4be b849 7c3d 1b87 023f
000002a0: 08a1 9b3b c652 3dbe b44d 8bbe 466e 603d
000002b0: 6ee1 c73e 3295 253e 0294 55be f6a4 f23d
000002c0: 179c 043d f3b4 62be f1a1 5a3e 18db 9ebe
000002d0: 6fe8 da3c a7c1 24be 285c c0bd 39ab 10bd
000002e0: c53d 4fbe 9f42 afbe cae1 1abe cc5c 593e
000002f0: d3dd 48be 8ad7 1b3f fcfe f1be e2e5 733e
00000300: 73c2 7eba e0d7 913e 1fa8 c5bd d300 523d
00000310: 22ce 833e 8aa4 8f3d 9593 8ebb e4a8 b43a
00000320: 47aa ef3d 10e2 50bd 4730 883e b3f9 9abd
00000330: 255e 8bbd f899 bebe 47a6 98bd 0697 56bd
00000340: 67b3 fe3d 5f21 0a3e c6d6 e0bd bb6f 16be
00000350: 388b 0abc fa73 03bb b4ad 4abe 3460 f3bc
00000360: e466 523e a931 a13c 6505 03be 9894 dcbd
00000370: b3bb 44bd 5850 af3d 63de e6bc 9609 2a3e
00000380: dc40 60bd 2ffe 32be 9019 723c 2350 fabc
00000390: 23ea e83d 3dfd 57be d864 68be fc19 f7bd
000003a0: 6bea 73be cd19 2fbe 48fe 393c d920 0f3e
000003b0: 14fd 803d 9ac0 72bb 7735 0ebe a6cb 183e
000003c0: cfda 943d f016 b73d 1a47 dbbd a335 4bbd
000003d0: eebb 8abd 4122 4d3e 6114 313e 55e0 cebd
000003e0: 0b0a a63d b062 e1bd ed30 9ebd caf3 49be
000003f0: c787 9dbd 90d2 50be c1bc 35bd b7f3 93bc

lstm.bias_ih_l0 f4 [256]
-0.20970058 -0.16518463 -0.1698677 -0.15615512 -0.17797826 -0.23846781 -0.13751876 -0.15894301
-0.20971055 -0.17259897 -0.26330453 -0.0054039387 -0.04604362 -0.07920302 -0.13792104 -0.16778423
-0.011163596 -0.26880932 -0.11836404 -0.087010965 -0.08490658 -0.041421983 -0.04335641 -0.13016987
-0.21705224 0.09832849 -0.06391271 -0.26009202 -0.21866159 0.027873682 -0.23889893 -0.21592107
0.013839567 0.0668452 -0.20359431 -0.027757825 -0.1394781 -0.20988011 -0.037204277 -9.999493e-05
-0.16550611 -0.27684906 -0.019875823 -0.31449413 -0.12922342 -0.29653725 -0.20980145 0.010631241
-0.12015026 -0.091101445 -0.039093163 -0.076448925 -0.13216934 -0.064688034 -0.013857951 -0.10731322
-0.1858006 -0.3248304 -0.03883584 -0.15283361 -0.28479216 -0.11578955 -0.14484382 -0.052909844
-0.06232633 -0.25710896 0.035404503 -0.06776725 -0.016933324 -0.16542907 -0.2524899 0.015777798
-0.052467167 -0.12714225 -0.18176827 -0.34155324 -0.13317482 -0.26826566 -0.1618188 -0.34490934
-0.093382 -0.18049408 -0.19116522 -0.13440166 -0.11624619 0.057786774 -0.146991 -0.22255285
-0.08595851 -0.29999468 0.00076294824 -0.13136679 -0.17513052 -0.020711826 -0.031299017 -0.1845143
-0.15952998 -0.12538716 -0.22932246 -0.12604268 -0.3061657 -0.11601611 -0.2383633 -0.30845672
-0.27408707 0.031841572 -0.20825036 -0.042931374 -0.3423748 -0.18189222 -0.38733113 -0.117004484
-0.2222695 -0.12491614 -0.28328386 0.12023825 -0.36578172 -0.12536316 -0.1221376 -0.07204713
-0.26113772 0.03021505 -0.09883908 -0.36220467 -0.18981034 -0.025585596 -0.2685127 -0.16818976
-0.13300112 -0.10566705 -0.14024816 0.050438154 -0.077438585 -0.011389216 0.050611798 0.117772415
-0.08265209 0.04409663 -0.07691496 -0.030218447 0.020184262 -0.098022304 -0.10194876 -0.05853489
0.021758078 -0.05389657 0.10869773 0.004669848 -0.0668476 -0.0008537629 -0.04525304 0.0370444
-0.024927882 0.066291146 -0.010953803 0.070189685 -0.047742993 0.06430581 0.091807105 0.004928167
-0.034162406 -0.010960736 -0.022999488 -0.019966112 -0.039626937 -0.039875153 -0.0652462 0.0397747
-0.028549667 0.035499755 -0.018885046 0.1562251 0.0051073367 0.100444555 0.036308035 0.09768254
-0.040379006 0.0929149 -0.06784656 0.11985439 0.011410955 0.073867716 -0.09470798 0.121409066
-0.1004754 -0.12908985 -0.05159722 -0.11026388 -0.06875619 -0.07390717 0.0058426824 0.049839154
-0.1327658 -0.2886578 -0.24369407 -0.12993066 -0.16649923 -0.11459227 -0.20271112 -0.07463249
-0.18146831 -0.18550605 -0.13007323 -0.053210266 -0.18368147 -0.21883307 -0.16696474 -0.21822415
-0.30479556 -0.16076067 -0.155725 0.019398103 -0.06505161 -0.034137618 -0.04381671 -0.28091606
-0.13633202 -0.060118657 -0.08436358 -0.20929152 -0.32369784 -0.19828975 -0.21973772 -0.22240792
-0.22758771 -0.199708 -0.10097103 -0.14953709 -0.10445669 -0.05130346 -0.25221515 -0.27092877
-0.16010605 -0.11527137 -0.18528453 -0.2171497 -0.16324137 -0.26991653 -0.20534986 -0.2781168
-0.067871846 -0.23491777 -0.2492055 -0.12347568 -0.20197776 -0.042422034 -0.25561 -0.26709977
-0.25694215 -0.19627458 -0.056352995 -0.16390483 -0.19613592 -0.21885747 -0.1985102 -0.24308753
00000000: c0bb 56be 2926 29be ccf1 2dbe 21e7 1fbe
00000010: ef3f 36be e830 74be b8d1 0cbe f5c1 22be
00000020: 5dbe 56be c9bd 30be dacf 86be 8613 b1bb
00000030: 3c98 3cbd 3135 a2bd 2c3b 0dbe a1cf 2bbe
00000040: 84e7 36bc 60a1 89be d968 f2bd ce32 b2bd
00000050: 80e3 adbd 19aa 29bd 7e96 31bd 404b 05be
00000060: f142 5ebe 7360 c93d abe4 82bd c82a 85be
00000070: d3e8 5fbe 5957 e43c eca1 74be 6a1a 5dbe
00000080: 5abf 623c 23e6 883d 077b 50be 6164 e3bc
00000090: 59d3 0ebe d0ea 56be 8363 18bd 5fb4 d1b8
000000a0: 6f7a 29be 29bf 8dbe 9fd2 a2bc 6005 a1be
000000b0: 2553 04be bbd3 97be 31d6 56be a82e 2e3c
000000c0: 5711 f6bd 6593 babd 2720 20bd 4191 9cbd
000000d0: 6657 07be 297b 84bd 760c 63bc 09c7 dbbd
000000e0: 8342 3ebe 2c50 a6be 5412 1fbd 6a80 1cbe
000000f0: 47d0 91be 1223 edbd f051 14be feb7 58bd
00000100: e549 7fbd c9a3 83be 5004 113d 8ec9 8abd
00000110: c1b7 8abc 3d66 29be 5b46 81be 7140 813c
00000120: d0e7 56bd 9431 02be 7621 3abe 11e0 aebe
00000130: fb5e 08be 1e5a 89be d4b3 25be f597 b0be
00000140: 103f bfbd 71d3 38be d1c0 43be 97a0 09be
00000150: 7c12 eebd d3b1 6c3d cf84 16be e5e4 63be
00000160: 040b b0bd e798 99be 9700 483a 0485 06be
00000170: 6a55 33be d9ab a9bc 6633 00bd 51f1 3cbe
00000180: d45b 23be 7e65 00be 82d3 6abe 5511 01be
00000190: c0c1 9cbe db99 edbd 8215 74be 0aee 9dbe
000001a0: 2455 8cbe 4f6c 023d 953f 55be cfd8 2fbd
000001b0: c04b afbe f441 3abe 4450 c6be 0ca0 efbd
000001c0: 9e9a 63be 09d4 ffbd 950a 91be 793f f63d
000001d0: be47 bbbe 335f 00be 4723 fabd 728d 93bd
000001e0: d8b3 85be 8d85 f73c 256c cabd e472 b9be
000001f0: a45d 42be e298 d1bc 7f7a 89be f039 2cbe
00000200: 7231 08be f767 d8bd 379d 0fbe 3d98 4e3d
00000210: 1f98 9ebd d699 3abc 514e 4f3d aa32 f13d
00000220: 8045 a9bd ab9e 343d 9785 9dbd ad8c f7bc
00000230: 7759 a53c ebbf c8bd 83ca d0bd 48c2 6fbd
00000240: ff3d b23c a6c2 5cbd ea9c de3d 8605 993b
00000250: 65e7 88bd 0fcf 5fba 405b 39bd debb 173d
00000260: 8f35 ccbc a7c3 873d 9477 33bc 9cbf 8f3d
00000270: 288e 43bd c4b2 833d 5d05 bc3d 767c a13b
00000280: e1ed 0bbd a994 33bc 6c69 bcbc f98f a3bc
00000290: db4f 22bd 2154 23bd cd9f 85bd ccea 223d
000002a0: fee0 e9bc 3168 113d d0b4 9abc 79f9 1f3e
000002b0: 725b a73b e0b5 cd3d bcb7 143d c90d c83d
000002c0: 7564 25bd 2b4a be3d 23f3 8abd 3876 f53d
000002d0: 04f5 3a3c f547 973d 42f6 c1bd 51a5 f83d
000002e0: 0cc6 cdbd 2130 04be 9b57 53bd 07d2 e1bd
000002f0: 0cd0 8cbd a45c 97bd f973 bf3b 2424 4c3d
00000300: c2f3 07be f5ca 93be f08a 79be 8b0c 05be
00000310: c67e 2abe 5aaf eabd 8193 4fbe ebd8 98bd
00000320: d4d2 39be 4cf5 3dbe eb31 05be 02f3 59bd
00000330: ff16 3cbe c715 60be cef8 2abe 2776 5fbe
00000340: 2a0e 9cbe 729e 24be 6076 1fbe c5e8 9e3c
00000350: c739 85bd e3d3 0bbd 2779 33bd 3bd4 8fbe
00000360: 9f9a 0bbe fb3e 76bd d0c6 acbd 8450 56be
00000370: b9bb a5be 780c 4bbe ed02 61be e7be 63be
00000380: c10c 69be 4180 4cbe e6c9 cebd 4020 19be
00000390: 64ed d5bd 9423 52bd 5822 81be 2db7 8abe
000003a0: d7f2 23be 6513 ecbd 3abb 3dbe 7e5c 5ebe
000003b0: bf28 27be 8032 8abe 3c47 52be 5365 8ebe
000003c0: 6500 8bbd 498e 70be ba2f 7fbe d1e0 fcbd
000003d0: 42d3 4ebe bac2 2dbd 50df 82be 4dc1 88be
000003e0: ec8d 83be 34fc 48be 66d2 66bd abd6 27be
000003f0: dbd7 48be 2c1c 60be 4246 4bbe f0eb 78be

lstm.bias_hh_l0 f4 [256]
-0.1315885 -0.045872368 -0.06364003 -0.32477587 -0.2550539 -0.117353395 -0.12661213 -0.025537828
-0.08672008 -0.12398271 -0.27116385 -0.13237546 -0.09845468 -0.14184572 -0.10420418 -0.116961114
-0.08787163 -0.26456654 -0.07391325 0.0028944889 -0.1036664 -0.0809341 0.0070625697 -0.21547428
-0.1611974 -0.12407715 -0.28598902 -0.27674723 -0.2357263 -0.024134154 -0.11013203 -0.03261068
-0.02381089 0.053878896 -0.09149504 -0.18595621 -0.11619825 -0.029223058 -0.13517468 -0.2039975
-0.17142673 -0.11779501 -0.09322207 -0.25502086 -0.18951452 -0.16800942 -0.15287326 0.008992159
0.007362934 -0.19345856 -0.12005735 -0.10234371 -0.19317165 -0.028897505 -0.08253501 -0.13650692
-0.058679212 -0.2450401 -0.21911778 -0.023423769 -0.17835218 -0.16210958 -0.06037963 -0.23703301
0.008290273 -0.25230893 0.15427125 -0.04552628 -0.04881222 -0.0625135 -0.19537814 -0.016322723
-0.13721456 -0.15627034 -0.12192404 -0.16418561 -0.23906755 -0.36919066 -0.37665868 -0.38020825
-0.038367245 -0.25926733 -0.19998589 -0.12195156 -0.15431903 -0.10831808 -0.11141183 -0.096359275
-0.22390033 -0.18536331 0.045327313 -0.19576244 -0.10654712 -0.13238934 -0.13437256 -0.08389576
-0.12117274 -0.22508934 -0.09194275 -0.19526507 -0.15624519 -0.34706104 -0.14842643 -0.12213905
-0.2780333 0.0010245898 -0.1372472 0.057283945 -0.18785968 -0.22717041 -0.17522444 -0.30780542
-0.27805746 -0.03931403 -0.28799087 -0.005929668 -0.14852759 -0.2665604 -0.27769682 -0.057020847
-0.03811455 -0.18706225 -0.17220365 -0.2091773 -0.18895006 -0.2595847 -0.36637253 -0.12657107
0.03964014 0.013209652 0.053826474 -0.009919097 -0.042019878 -0.017079215 0.08724021 0.008234411
-0.101996206 -0.018015912 -0.09548939 -0.06103087 0.022755444 0.11508794 -0.05461863 -0.094466634
-0.0473924 0.005538668 0.102754064 -0.09084866 -0.010863231 -0.09342544 -0.033184256 -0.053268317
0.008772904 -0.013960039 0.0352464 0.042454522 0.040917706 0.048075926 -0.048469022 0.06647938
0.05548161 -0.0969458 -0.062383678 0.08077385 0.05347235 0.11041438 -0.04129312 -0.00885042
0.051280834 -0.013609082 0.08530457 -0.040350538 -0.08840646 -0.08136524 0.0017117287 -0.06035618
-0.08861277 -0.059658486 -0.011417873 -0.107144214 -0.08851805 -0.068620205 -0.11933315 -0.06159773
0.01255978 0.057353627 0.017475946 2.0047244e-06 0.05764079 0.078088336 0.13183273 0.09507703
-0.054594524 -0.046543412 -0.15412408 -0.09758741 -0.23732066 -0.27437562 -0.06078389 -0.110604376
-0.12412492 -0.12096847 -0.13973688 -0.002252421 -0.21434805 -0.22462632 -0.043648664 -0.10671921
-0.19804412 -0.19864039 -0.16935647 -0.03873514 -0.20093231 -0.15672544 0.026852887 -0.07642549
-0.14884892 0.009251207 -0.23967883 -0.19778776 -0.2868776 -0.050630163 -0.10245012 -0.24783026
-0.11893815 -0.043862924 -0.085870706 -0.107838295 -0.036118045 -0.03907331 -0.19573309 -0.04298646
-0.1409282 -0.14949456 -0.14973925 -0.10225808 -0.22820623 -0.09350163 -0.16665842 -0.14366247
-0.2891903 -0.15647733 -0.1908589 -0.120262794 -0.31011996 -0.117731676 -0.058964565 -0.12607232
-0.33570075 -0.08667881 -0.18884933 -0.11075627 -0.13578974 -0.11048488 -0.0067647872 -0.28079522
00000000: 23bf 06be aae4 3bbd b455 82bd 0649 a6be
00000010: 6d96 82be fa56 f0bd 9ca6 01be b534 d1bc
00000020: 4c9a b1bd a6ea fdbd fdd5 8abe 6f8d 07be
00000030: 9ba2 c9bd 0140 11be 0069 d5bd 4f89 efbd
00000040: 0bf6 b3bd 4475 87be d45f 97bd 77b1 3d3b
00000050: 0d4f d4bd c7c0 a5bd 216d e73b 4aa5 5cbe
00000060: ee10 25be 291c febd 276d 92be d0b1 8dbe
00000070: 3c62 71be fdb4 c5bc e78c e1bd c792 05bd
00000080: 0e0f c3bc 1eb0 5c3d c061 bbbd 4e6b 3ebe
00000090: 59f9 edbd 3265 efbc 3b6b 0abe b8e4 50be
000000a0: 7d8a 2fbe 833e f1bd 36eb bebd 1892 82be
000000b0: 1810 42be a90a 2cbe cf8a 1cbe d953 133c
000000c0: c444 f13b 001a 46be a1e0 f5bd 9499 d1bd
000000d0: cace 45be 76ba ecbc 1e08 a9bd 78c8 0bbe
000000e0: 9d59 70bd cbeb 7abe 6960 60be 34e3 bfbc
000000f0: f4a1 36be 0e00 26be a250 77bd c8b8 72be
00000100: edd3 073c a32e 81be 48f9 1d3e c479 3abd
00000110: 53ef 47bd 1407 80bd 3511 48be 3bb7 85bc
00000120: f981 0cbe 5505 20be 50b3 f9bd 4620 28be
00000130: 20ce 74be 8f06 bdbe 68d9 c0be a8aa c2be
00000140: f926 1dbd b0be 84be 1ac9 4cbe bdc1 f9bd
00000150: cf05 1ebe dfd5 ddbd e32b e4bd 0358 c5bd
00000160: 2146 65be e1cf 3dbe 22a9 393d f375 48be
00000170: 6035 dabd 1291 07be f698 09be 8ad1 abbd
00000180: 6a29 f8bd d27d 66be 7b4c bcbd 91f3 47be
00000190: bdfe 1fbe fcb1 b1be 19fd 17be 0a24 fabd
000001a0: 615a 8ebe 874b 863a 888a 0cbe 92a2 6a3d
000001b0: 4a5e 40be 5c9f 68be 096e 33be ac98 9dbe
000001c0: 8c5d 8ebe c007 21bd 8a73 93be a94d c2bb
000001d0: 9e17 18be 9b7a 88be 472e 8ebe b18e 69bd
000001e0: 011e 1cbd 3f8d 3fbe 2756 30be 9332 56be
000001f0: 207c 41be 49e8 84be 2e95 bbbe d99b 01be
00000200: b35d 223d 4c6d 583c 2679 5c3d b583 22bc
00000210: 091d 2cbd b6e9 8bbc ffaa b23d 9fe9 063c
00000220: 63e3 d0bd 1b96 93bc f18f c3bd 81fb 79bd
00000230: a069 ba3c 3ab3 eb3d c9b7 5fbd b977 c1bd
00000240: 891e 42bd b77d b53b b970 d23d dd0e babd
00000250: b1fb 31bc d655 bfbd 37ec 07bd e12f 5abd
00000260: 3abc 0f3c a6b8 64bc 875e 103d cbe4 2d3d
00000270: 5399 273d 43eb 443d 7487 46bd 5726 883d
00000280: af40 633d 858b c6bd 0786 7fbd c36c a53d
00000290: d305 5b3d ef20 e23d f922 29bd 5a01 11bc
000002a0: da0b 523d a1f8 5ebc 2ab4 ae3d 9b46 25bd
000002b0: 720e b5bd d2a2 a6bd 165c e03a 0b38 77bd
000002c0: 9d7a b5bd 755c 74bd 0812 3bbc 6d6e dbbd
000002d0: f448 b5bd c088 8cbd f064 f4bd e74d 7cbd
000002e0: 89c7 4d3c a3eb 6a3d b729 8f3c e788 0636
000002f0: c018 6c3d c7ec 9f3d 29ff 063e bfb7 c23d
00000300: 829e 5fbd 4ea4 3ebd b4d2 1dbe e8db c7bd
00000310: 3004 73be f67a 8cbe 87f8 78bd 8c84 e2bd
00000320: 3535 febd 51be f7bd 2f17 0fbe 5b9d 13bb
00000330: 0e7e 5bbe 7104 66be f1c8 32bd 9a8f dabd
00000340: 14cc 4abe 6368 4bbe c86b 2dbe bda8 1ebd
00000350: 33c1 4dbe a27c 20be 96fa db3c f884 9cbd
00000360: da6b 18be 6092 173c 5e6e 75be e088 4abe
00000370: 9fe1 92be 9361 4fbd 5ed1 d1bd 37c7 7dbe
00000380: d895 f3bd 9ca9 33bd fbdc afbd 53da dcbd
00000390: 84f0 13bd 560b 20bd 416e 48be 9212 30bd
000003a0: 7b4f 10be 1a15 19be 3f55 19be af6c d1bd
000003b0: e5ae 69be c87d bfbd 81a8 2abe 411c 13be
000003c0: c010 94be 983b 20be 8470 43be 574c f6bd
000003d0: 0bc8 9ebe 4e1d f1bd d484 71bd 1a19 01be
000003e0: f8e0 abbe a984 b1bd b861 41be 2fd4 e2bd
000003f0: 770c 0bbe e645 e2bd 26ab ddbb 64c4 8fbe

fc.weight f4 [48, 64]
-0.14991924 0.0058241645 0.033174425 -0.033770096 -0.052712236 -0.038714297 -0.06484467 0.013168827
0.19593993 0.0019199516 -0.005374544 -0.019913996 -0.00078586256 -0.17509493 0.06669141 -0.1353264
-0.024914075 0.07910071 0.0008239828 -0.05801849 -0.07677887 0.04234752 -0.027948862 -0.2592279
-0.3216031 0.06920762 -0.11246061 0.0012379588 0.026712628 -0.066727005 0.026178967 0.073048934
-0.18891826 -0.037064545 0.056382038 0.019470528 0.0020288322 0.02388005 0.031782288 0.071373045
-0.10867372 -0.24980456 -0.21072201 0.039470166 -0.077279024 0.085049905 0.006418614 -0.0756614
0.032731514 -0.07059175 0.1252656 0.07788792 -0.1467339 0.020111132 0.17691052 0.0317546
-0.015226494 -0.14379439 -0.06470425 -0.16238149 -0.15728417 -0.06011083 -0.021191394 -0.009821967
-0.061792172 0.117682986 0.08378051 0.006896636 -0.05462509 -0.05296155 0.06824142 0.025508933
-0.00624313 -0.025640378 -0.038874187 0.030061074 -0.14104341 0.23526163 0.055936582 -0.008643849
-0.011626187 0.56207067 0.009958154 -0.12222397 -0.25573316 -0.048869453 -0.06516928 -0.057834037
-0.05303474 0.3990867 -0.31533766 0.20150664 0.42993245 0.09118617 0.0075769564 -0.050171226
-0.08313629 0.029698703 0.023529446 0.36505282 -0.09359878 0.08106921 0.23231542 0.112236015
0.09314225 -0.090269074 -0.18552074 0.03501543 0.055227727 0.19198641 -0.038469806 -0.17269482
0.083703555 0.15979357 -0.08953619 0.0807536 -0.0056112316 0.06637493 0.18698041 -0.100369535
-0.06761219 -0.13202311 -0.21766716 -0.19429703 0.16908076 0.083534434 -0.22232668 0.28012672
-0.13043669 0.10089739 0.051827386 -0.058812957 -0.027805943 -0.067171104 -0.09367481 0.0014311213
0.30729872 0.084950596 0.035535295 0.0040707714 0.039272856 -0.07701729 0.06610289 -0.10197146
-0.025772048 -0.0134954825 0.0052279364 -0.0069044936 -0.05022169 0.048114255 -0.020659665 -0.25167412
-0.25816303 0.045921106 -0.1297393 0.015961487 0.04107109 -0.048066854 0.05271267 0.035230555
-0.20746408 -0.09108206 0.04704167 -0.051333763 -0.04273152 -0.014128149 0.006781482 0.06149457
-0.04017837 -0.17669082 -0.14203404 0.062425647 -0.10850639 0.14943002 0.014103838 -0.069675155
0.048286203 -0.060707223 0.07774308 0.08998642 -0.16767012 0.037465673 0.10428082 0.009258096
-0.00877262 -0.085681565 -0.060009018 -0.11888355 -0.095188946 0.017080968 -0.014552026 0.0147995865
-0.047095623 0.16800511 0.06802263 0.0023280748 -0.009708246 -0.109801196 -0.049301416 0.034377456
0.03717271 0.42007655 0.13297255 -0.055406697 0.14660242 0.047582183 0.046485152 -0.17247654
0.0035128724 0.13449289 -0.027548933 0.084006414 -0.1679846 -0.058421005 0.055149764 0.012204892
0.04384202 0.32749 -0.05066206 0.09435606 0.081296526 -0.030732514 -0.020339964 0.17695494
-0.07212716 -0.19038185 0.015686508 0.1595067 -0.54264253 -0.08994946 0.15954621 0.00020621986
-0.16173998 -0.003919432 -0.14636666 0.01227357 -0.12816359 0.11354778 -0.040858816 -0.07121905
0.15758231 0.11706126 -0.13209255 0.08796604 -0.14180416 -0.1829545 0.027256418 -0.08407175
-0.25599605 0.014319481 -0.14364302 -0.00619885 0.05293887 0.008059554 -0.2814702 0.24988756
00000000: 6e84 19be a2d8 be3b e8e1 073d 8352 0abd
00000010: c9e8 57bd e292 1ebd 48cd 84bd 10c2 573c
00000020: 7aa4 483e e3a6 fb3a f11c b0bb ad22 a3bc
00000030: 5802 4eba 164c 33be 8295 883d 0193 0abe
00000040: 9a18 ccbc 8eff a13d 8d00 583a cca4 6dbd
00000050: 3d3e 9dbd 9874 2d3d 03f5 e4bc 85b9 84be
00000060: 29a9 a4be babc 8d3d c051 e6bd 0143 a23a
00000070: 71d4 da3c 2ba8 88bd 4675 d63c ae9a 953d
00000080: ca73 41be fed0 17bd daf0 663d a880 9f3c
00000090: 28f6 043b 18a0 c33c 252e 023d 082c 923d
000000a0: 5490 debd c4cc 7fbe 83c7 57be 78ab 213d
000000b0: 7744 9ebd a52e ae3d 3d53 d23b 5df4 9abd
000000c0: 7b11 063d 6892 90bd a045 003e b483 9f3d
000000d0: 6941 16be 1ac0 a43c 0828 353e 1d11 023d
000000e0: 8b78 79bc d63e 13be a983 84bd 5547 26be
000000f0: 1a0f 21be c636 76bd 9399 adbc 51ec 20bc
00000100: ca19 7dbd c703 f13d 1e95 ab3d 2dfd e13b
00000110: 8fbe 5fbd 36ee 58bd 28c2 8b3d 1cf8 d03c
00000120: 2c93 ccbb c50b d2bc 8a3a 1fbd a442 f63c
00000130: af6d 10be 6de8 703e c21d 653d ee9e 0dbc
00000140: c37b 3ebc dde3 0f3f 8627 233c 9050 fabd
00000150: 75ef 82be 562b 48bd 7977 85bd 62e3 6cbd
00000160: f53a 59bd 1855 cc3e f073 a1be c257 4e3e
00000170: 1b20 dc3e d1bf ba3d 1e48 f83b 5880 4dbd
00000180: 5c43 aabd b24a f33c d3c0 c03c 34e8 ba3e
00000190: b8b0 bfbd 9d07 a63d 18e4 6d3e ffdb e53d
000001a0: 5dc1 be3d fede b8bd 26f9 3dbe 576c 0f3d
000001b0: 7836 623d 1698 443e 8492 1dbd e9d6 30be
000001c0: c56c ab3d eda0 233e c05e b7bd 2562 a53d
000001d0: 6cde b7bb 94ef 873d cb77 3f3e 8b8e cdbd
000001e0: 4378 8abd 1131 07be 24e4 5ebe cdf5 46be
000001f0: 8223 2d3e 1a14 ab3d 9ba9 63be c56c 8f3e
00000200: 3291 05be 4aa3 ce3d f448 543d dbe5 70bd
00000210: 4ac9 e3bc 0191 89bd 94d8 bfbd 7694 bb3a
00000220: 4256 9d3e 94fa ad3d 758d 113d 1b64 853b
00000230: 93dc 203d 3ebb 9dbd f460 873d 6ad6 d0bd
00000240: e71f d3bc 281c 5dbc 1c4f ab3b 173f e2bb
00000250: 42b5 4dbd 7413 453d 753e a9bc 6edb 80be
00000260: f22d 84be c517 3c3d 61da 04be aac1 823c
00000270: 293a 283d c0e1 44bd 3ee9 573d ea4d 103d
00000280: 7771 54be 3b89 babd c4ae 403d 5a43 52bd
00000290: 3f07 2fbd c079 67bc 3237 de3b bbe1 7b3d
000002a0: 1392 24bd 70ee 34be 5f71 11be 09b2 7f3d
000002b0: 9938 debd 2f04 193e c913 673c d9b1 8ebd
000002c0: c1c7 453d 23a8 78bd c437 9f3d cd4a b83d
000002d0: b7b1 2bbe 9b75 193d 2f91 d53d 45af 173c
000002e0: 09bb 0fbc d179 afbd 04cc 75bd 3879 f3bd
000002f0: 6cf2 c2bd 63ed 8b3c 9f6b 6ebc f779 723c
00000300: 57e7 40bd 8809 2c3e 734f 8b3d 9d92 183b
00000310: 560f 1fbc 73df e0bd 48f0 49bd 60cf 0c3d
00000320: 6942 183d 4614 d73e f529 083e 22f2 62bd
00000330: f21e 163e 89e5 423d 3767 3e3d b19d 30be
00000340: 3838 663b 81b8 093e 4dae e1bc 8e0b ac3d
00000350: 2804 2cbe dd4a 6fbd b8e4 613d 07f7 473c
00000360: b193 333d c5ac a73e 0583 4fbd c03d c13d
00000370: cb7e a63d c1c2 fbbc ff9f a6bc ad33 353e
00000380: 68b7 93bd 76f3 42be fe80 803c b955 233e
00000390: 9fea 0abf 6c37 b8bd 1560 233e b93c 5839
000003a0: 2a9f 25be 946e 80bb 24e1 15be 1517 493c
000003b0: 513d 03be bd8b e83d 935b 27bd 4bdb 91bd
000003c0: 425d 213e d0bd ef3d 4543 07be 8a27 b43d
000003d0: 1c35 11be 6d58 3bbe da48 df3c cf2d acbd
000003e0: ea11 83be 429c 6a3c 2817 13be b91f cbbb
000003f0: 6ed6 583d 380c 043c dd1c 90be 86e2 7f3e

fc.bias f4 [48]
0.041826736 0.11726835 0.04573739 0.13169987 0.05019067 0.13881071 0.056529626 0.1510691
0.05963572 0.15602042 0.06331699 0.16559388 0.05998941 0.1738899 0.06282702 0.1744662
0.06193011 0.18251145 0.06545139 0.17834087 0.068510205 0.18095104 0.0697738 0.18249725
0.06937982 0.17363727 0.07306776 0.18281475 0.0766925 0.1856475 0.07615425 0.18507679
0.07667229 0.17647511 0.07265156 0.16021505 0.06063737 0.15301757 0.0563865 0.14359279
0.053949 0.14063193 0.05198264 0.12626858 0.050840996 0.11611401 0.049986262 0.13360345
00000000: 8352 2b3d 642a f03d 2157 3b3d 55dc 063e
00000010: bb94 4d3d 6524 0e3e 9c8b 673d dcb1 1a3e
00000020: 9644 743d d1c3 1f3e 57ac 813d 7191 293e
00000030: 75b7 753d 3210 323e 74ab 803d 44a7 323e
00000040: 6daa 7d3d 48e4 3a3e 610b 863d fd9e 363e
00000050: 144f 8c3d 3b4b 393e 91e5 8e3d 8fe0 3a3e
00000060: 0217 8e3d f8cd 313e 8da4 953d ca33 3b3e
00000070: f510 9d3d 611a 3e3e c2f6 9b3d c584 3d3e
00000080: 5d06 9d3d e4b5 343e 57ca 943d 6a0f 243e
00000090: e45e 783d a3b0 1c3e 88f5 663d fd09 133e
000000a0: a0f9 5c3d d101 103e c0eb 543d 8d4c 013e
000000b0: a63e 503d 2fcd ed3d 65be 4c3d 58cf 083e
