models/lstm_last.pth (torch, 80418 bytes, 6 tensors)

lstm.weight_ih_l0 f4 [256, 9]
00000000: b1e0 193e dba3 983e 7258 e53d 4e7a b63e
00000010: 0880 923e 2052 c03d b982 abbd 3afc 0f3e
00000020: 6c4f 5cbe ad5c cbbd a8b0 6bbe 35ad b5be
00000030: 0fc3 b9be 5929 a3be 9f66 58bd db18 073e
00000040: d1cc 3a3e b3be 61be 8513 023e 1d02 df3e
00000050: 87bd fe3d 17a0 ec3e d9a2 d73d b4ef 713c
00000060: 3be4 cbbe bb9e 07be f480 03be 0bf1 a93c
00000070: 7629 b1bd c660 bb3d 167f 24be cdc6 98bd
00000080: 6d41 953f 124b c63b d4fb 903d eba6 323d
00000090: de2d 4dbe 6d51 51be 8b81 38be 906f 6cbd
000000a0: 5aa2 98be 6d1c 81bd 5722 e33d dec6 9abd
000000b0: b76d cabd 2886 e3bb 448f 023d 3a59 abbd
000000c0: dd79 c93e c0e5 06bc 58f6 a83d f0fc 1fbe
000000d0: 5e8f 313e 3291 fbbc 46a7 163e 75f3 353e
000000e0: af35 823d 5823 14be 454b 87bd a1ee 2b3e
000000f0: 330c fb3d d274 cbbd 7e51 083d 9fbb b2be
00000100: 329f 64be 309c 3dbe d3e6 4bbc 3155 7cbe
00000110: 4096 43bd c106 04bd d1f3 163c a5ed d2bd
00000120: 67b1 babe 704f 51be 7340 8e3c 3e2f f2bd
00000130: ffb1 b1bd f513 403d 29fb aebd 3f76 0fbe
00000140: 72d6 233e 0582 633d c697 0fbe 281a 90bd
00000150: 550a 8dbe 622e cd3c 84ff 9c3e e16c c33e
00000160: 320b 9dbe 5463 373e a80e 90bd 84ab f43b
00000170: 9d75 1cbe 1ac5 4fbe c655 0dbe a01b 2ebe
00000180: 3d79 acbc de0b 17bf 1b2b 1ebd 905d 7d3e
00000190: 2178 4bbe ab8b 273e 5118 f83e f894 bd3d
000001a0: db69 233e c84c 7dbe c3b5 eebd 74d8 ea3d
000001b0: 3a94 a3ba c620 10bd 7e3f 0bbe 9f04 e93e
000001c0: 671f e43d 5a59 27be 0050 52be 5b30 a03d
000001d0: 948f d0bd d010 5dbe 7e41 a5be 60b8 73be
000001e0: e5ee 9cbc a9c6 69be 1e09 afbd d5d5 2ebe
000001f0: 1dd3 c4bd d442 a33c 37b5 54bc ba9f 143d
00000200: d604 76bd 464e 1a3e 5c7d 0ebe 2fbc 983e
00000210: a3d6 c83d 0766 b23d 090d a43e 66c4 aa3d
00000220: 25d1 b3bd 49dc 26bd d24d 003f 8f6a 1fbe
00000230: 2eca 7ebe 7ea3 2ebe b727 293e 0e10 113d
00000240: 52ce 473c 62e3 d3bd 2eef fe3d 50e7 b5be
00000250: 2898 883d ccd6 af3e bb54 193d 27a3 3d3e
00000260: 1560 1dbe 81dd 473b 0051 6d3e 018c 503e
00000270: 9307 cf3e 2058 04bd fcfb adbe e7bd f5be
00000280: e902 803e 8e9d a0be 076e 173e 0119 29bc
00000290: 623a 6fbd 9adf 113f b88a 7b3d ea8f 7dbd
000002a0: 2770 87be 4b42 0abe 6d3b 0fbe f9a4 603e
000002b0: 9431 cb3e c1ef 343e eda8 833e 7930 573e
000002c0: 0730 adbe 04be 833e ff47 f33c 8e88 3abe
000002d0: d881 5dbe 3e2e 2abd 3281 8fbe 16f7 a1bd
000002e0: 815f 63be 997c cdbe 0c07 e9bd 42f8 1c3e
000002f0: 858c 073e fbfa bf3b 9779 b63d 0d1b 743e
00000300: 2b0c 443d 8eb9 953d 6cfa 9ebd df2c 383d
00000310: b5d0 85be 7b31 a9bd 9c64 98be 30dc 43be
00000320: 397f 41be 01de 26be af8a b4be b946 e5bd
00000330: 29fa e7bd 4264 82bd d4b0 18be 9f91 cd3c
00000340: fc75 bdbe 595f 93be 04c4 32be 65f1 cabd
00000350: 50af 3abe 19b6 63be 8242 84bd e1fe 0b3e
00000360: b166 82be e5da d8bd e43c a7be 0e94 cfbe
00000370: 6564 82be ddf4 5c3e 216a 1abd 2eba 60bd
00000380: aeb7 2e3e 5d85 00be 81f3 9ebe de23 c2be
00000390: 795c 6ebc b5ad 8abe b61d 373e 2215 2d3d
000003a0: b3fd 84bc 7c45 a03d 52d8 9cbd 9409 97be
000003b0: 7675 88be 0b12 2b3f 2dfa 153d 114c aebd
000003c0: c741 aabe 0705 48be f8d6 94bd 7299 dd3d
000003d0: 28bf 733e a9f4 e3bd a291 8f3e 1d30 7cbc
000003e0: 0c22 ad3e 1df5 3b3e 11ac 13be 9660 13bd
000003f0: bb53 2fbd 9d81 3abe e5b4 0a3e 6231 f93d
0.15027119 0.29812512 0.1119851 0.35640186 0.28613305 0.09390664 -0.08374543 0.1406106
-0.21514672 -0.09929786 -0.23016608 -0.3548371 -0.3628163 -0.31867483 -0.052832242 0.13193075
0.18242194 -0.22045402 0.12702759 0.435563 0.12438493 0.4621589 0.105291076 0.014766622
-0.39822564 -0.13244145 -0.1284216 0.020744821 -0.08650486 0.091493174 -0.16064104 -0.07459793
1.1660591 0.0060514295 0.070792824 0.043616217 -0.20037028 -0.20441218 -0.18018167 -0.05772358
-0.29811364 -0.0630425 0.11090534 -0.07557462 -0.09884208 -0.006943483 0.03187491 -0.08366628
0.39350787 -0.008233488 0.08250111 -0.15623832 0.17339846 -0.030708883 0.14712247 0.17768653
0.063578956 -0.14466608 -0.066061534 0.16790248 0.12258186 -0.09934391 0.033280842 -0.3490877
-0.22326353 -0.18516612 -0.0124451695 -0.24641873 -0.04775071 -0.032233004 0.009213404 -0.10299233
-0.36463472 -0.20440459 0.017364716 -0.11825417 -0.08676528 0.046894033 -0.08543999 -0.14009951
0.15999773 0.05554392 -0.1402274 -0.07036239 -0.27546945 0.025046531 0.30663693 0.38169006
-0.30672604 0.17908984 -0.070340455 0.0074667353 -0.15279241 -0.20290032 -0.13802251 -0.17002726
-0.021053905 -0.5900248 -0.038615327 0.24742723 -0.19870044 0.16361873 0.48456052 0.09256929
0.1595835 -0.24736321 -0.11655762 0.114670664 -0.0012480088 -0.035187505 -0.13598439 0.45511338
0.11138802 -0.16342679 -0.2053833 0.07821723 -0.10183635 -0.21588445 -0.3227653 -0.23800802
-0.019156883 -0.22829689 -0.08546661 -0.17073758 -0.09610579 0.019929327 -0.012982658 0.03628514
-0.060063206 0.15068921 -0.13915008 0.29831073 0.09806564 0.087108664 0.32041195 0.08338241
-0.087801255 -0.040737424 0.50118744 -0.15567993 -0.24881813 -0.17054555 0.16519056 0.0354157
0.012195187 -0.10346104 0.12447964 -0.3552804 0.066696465 0.34343565 0.03743432 0.18519269
-0.15368684 0.0030497017 0.2317543 0.20365907 0.40435466 -0.032310605 -0.3398131 -0.47996446
0.2500222 -0.31370205 0.14788066 -0.010320903 -0.058405288 0.56981814 0.06141159 -0.061904825
-0.26452753 -0.13501851 -0.13987513 0.21937932 0.39686263 0.17669584 0.25714818 0.21014585
-0.33825704 0.25730908 0.029697416 -0.18216154 -0.21631563 -0.041548006 -0.28028256 -0.07908456
-0.222044 -0.40134123 -0.11378297 0.15329078 0.13237198 0.0058587766 0.0890991 0.23838444
0.047863167 0.073107824 -0.07762608 0.044964667 -0.26135793 -0.08261391 -0.2976426 -0.19126964
-0.18896188 -0.16295625 -0.35262057 -0.1119513 -0.11327011 -0.06366779 -0.14911205 0.025093852
-0.37004077 -0.28783682 -0.17457587 -0.099093236 -0.18230939 -0.22237433 -0.06457998 0.13671447
-0.25468972 -0.10588626 -0.32663643 -0.40542644 -0.2546722 0.21577783 -0.03769887 -0.054865055
0.17062256 -0.12550874 -0.31045154 -0.3791799 -0.014548414 -0.27085653 0.17882428 0.042256482
-0.016234254 0.07825753 -0.07658447 -0.29499495 -0.26652116 0.66824406 0.03661554 -0.08510602
-0.3325331 -0.19533168 -0.072675645 0.10820283 0.23803389 -0.111306496 0.28040797 -0.0153923305
0.33815038 0.18355222 -0.14421107 -0.035980783 -0.04280446 -0.18213506 0.13545568 0.12167622

lstm.weight_hh_l0 f4 [256, 64]
00000000: 34a2 f9bd 7fce c73d 1cfd 08be 1034 22be
00000010: 16b6 4b3d 7352 1fbd 22e3 2a3e e6bd 963d
00000020: 5732 4dbc 3c5c 8b3d 668e 85be b6b6 113d
00000030: c774 d3bd 2bb9 46bd f87d b23e e5f3 0fbd
00000040: ba66 30be c3a6 9c3e 4ffa 9fbe 3fd5 09be
00000050: 431a 333e 3cf6 833c 387f d23d e0c9 ddbd
00000060: 4a13 e3bc 7dba b23e c053 63be 52ac 01be
00000070: 4b50 43be 5948 32bc fb32 253d 30e2 893e
00000080: 9b12 4dbe 028f 0b3e efac 4a3d bfc0 c0bc
00000090: 508d 183d 8ae1 513e 3adf 53bd 17e1 5e3c
000000a0: 8048 efbd 6fe1 843e 0824 473c d4bc 983d
000000b0: 9928 16be 08e0 363e a628 d3bc 3b87 8dbe
000000c0: aec4 99bd bd1e 4b3e 10d5 2bbe cde0 7b3e
000000d0: 58a2 cc3d 9f1f b9bd 78fe 19bd ad60 1dbe
000000e0: 70cb 4b3e 2c1e b53d 356d cbbd 76fc f7bd
000000f0: 297b 6b3d 0d6f 2bbe 03ce 0a3d ab31 a33d
00000100: febd 47be 9ac1 663d a959 99bc 0977 5f3e
00000110: 9ed7 82be 61d7 39be 53dc a83d a773 223e
00000120: 87db 5b3d e6eb 233b a6ae 673e f162 183e
00000130: 5725 9bbd 6f7f 133e 25a5 a7bb d02a c13c
00000140: 0b95 b0bb e766 733e 37ff 513e c16e 0abd
00000150: 8106 20be 29f9 a03b 013b 60be 447d 18be
00000160: 9188 bcbd 371a 9abe 2087 3f3e dacf 55be
00000170: 525a 123e 4b3f 28bd 3621 bebc c336 f0bd
00000180: 8cc5 713e c37e 4f3b 7dd6 4f3e 8e54 823e
00000190: 4c12 e5bd 38b7 b13d dbfc 7bbe ebc5 9a3d
000001a0: 35ae 45be 6d66 893d ed8c 2b3e d62d a3bd
000001b0: 128d 143c af03 b8bd 8c07 903e 4dba 1a3e
000001c0: 3e60 023e ce36 3f3e 44b0 d4bd 75ec 50be
000001d0: b51e 9b3a 680c 2a3c 2980 18be a4d2 acbd
000001e0: 0be3 f53c 3922 e83d 29c6 103d 093c 633e
000001f0: 0595 8b3c a04a 20be 4c63 8bbd 4155 513e
00000200: a6ec 113d c02f 77be a0c3 ba3d a819 b7be
00000210: 5243 7ebe ad33 143e 188f 893d f311 8eba
00000220: 9f71 d7bb c140 0bbe 75bb 80bd eb7b 84be
00000230: 04c6 913e 1d0e 08be a74c 8c3e c1b9 a43d
00000240: bb67 083e e137 b5bd 4667 42be 4fc0 b2be
00000250: 5e9b 313e ba3c 413e d1d8 66bd 732c bbbd
00000260: 335a b53c 0534 903e ba24 79be 632a e4bd
00000270: 431c f5be 2ff1 aabd 1322 093f a525 e43d
00000280: d07d 813d 3733 4b3e ae9d 69bd fd1f 043e
00000290: 5ba1 663e 6140 97be 4176 473d eb04 7b3d
000002a0: ce4d 27be be70 603e a8c7 79bd 928b ebbc
000002b0: 24a4 353e 9d08 2e3f c843 b83d 96ed 65be
000002c0: 0c05 df3c 7bb1 e23c 143e 4bbe f50f 3fbe
000002d0: c24e 9e3c 78b9 22be e4a1 12be 431a 99be
000002e0: d839 093d 8560 ae3e a4be 9ebe 6cd6 ddbd
000002f0: 4427 c93e 8010 c5bd a675 de3b 6d2c 02bd
00000300: bef7 743e 8219 ab3e d9f9 f53e 3044 18be
00000310: 7b53 81bd ef2d 523e 3ea0 b0be 84b3 0d3e
00000320: 89e0 8c3d ba18 1d3d 9da1 703e d0b0 2cbe
00000330: d24e 123e c305 5a3d 506a 9d3e e7e1 0dbe
00000340: 9aa9 b53e 1162 85bd 6703 e23d 5890 5cbe
00000350: 895b 2ebe 9c0d 1c3e 23ca 4fbe 44f5 d53e
00000360: 1a76 64be 8f98 b4bd 4522 c53d 4271 a4be
00000370: 0d4f 5a3e 6f0c cfbd 71b9 463e 6963 e5be
00000380: bf77 193e a787 433e 1c6f c2be a5a6 173f
00000390: 09d5 1ebe 0701 6a3d 2d23 123a 78b0 64be
000003a0: d0b9 b8bc 2fc5 093e 43b6 a13e 24f7 103e
000003b0: 6bd3 a43d cf80 813e abd9 913e c6a5 cb3d
000003c0: 99bc 13be 0b18 1c3d 3f26 6dbe 65a9 123e
000003d0: 308e 90be 91d3 743e 1499 233e b065 fd3c
000003e0: f07a cfbd b99c 253e 9d04 aa3d 8c13 743e
000003f0: 4893 b3bd 909f 9c3d c925 22bd ce37 53bd
-0.12189141 0.09756183 -0.13377804 -0.15840173 0.049734198 -0.03889699 0.16688207 0.07360439
-0.012524209 0.06804702 -0.26085204 0.035574637 -0.10325008 -0.048516434 0.34861732 -0.035144705
-0.17226687 0.3059598 -0.31245658 -0.13460253 0.17490487 0.016108625 0.10278171 -0.1082952
-0.027719159 0.34907904 -0.22199917 -0.12663391 -0.19073598 -0.010881507 0.040331822 0.2693038
-0.20026629 0.13628772 0.04948133 -0.023529408 0.03724414 0.20496193 -0.051726557 0.01360347
-0.1168375 0.25953242 0.012154587 0.07457891 -0.14663924 0.17858899 -0.025776219 -0.27642235
-0.07508217 0.19835944 -0.16780496 0.24597473 0.09991902 -0.09039234 -0.037596196 -0.1536891
0.19901824 0.088436455 -0.09932939 -0.121087 0.0574905 -0.16741581 0.033887874 0.07968458
-0.1950607 0.056336977 -0.018719511 0.21822752 -0.25555128 -0.18148567 0.082451485 0.1586443
0.053676154 0.0025012433 0.22625217 0.14881493 -0.075754814 0.14404081 -0.0051161223 0.023579985
-0.005388861 0.23769723 0.20507513 -0.03379703 -0.15627481 0.0049125147 -0.21897508 -0.14891535
-0.092057355 -0.30098125 0.1870389 -0.2088007 0.14292267 -0.041075986 -0.023209196 -0.11729195
0.23610514 0.003166125 0.20296665 0.25455135 -0.111851305 0.08677524 -0.24608175 0.07557281
-0.19304736 0.06708989 0.16752978 -0.07967727 0.009066837 -0.089850776 0.28130758 0.1511013
0.12732026 0.1867325 -0.103851825 -0.20402701 0.0011834713 0.010378934 -0.14892639 -0.08438614
0.03001549 0.113346525 0.03534523 0.2219087 0.017038831 -0.15653467 -0.06806049 0.20442678
0.035626076 -0.24139309 0.09119344 -0.35761762 -0.24830368 0.14472838 0.06716746 -0.001083909
-0.006574824 -0.1359892 -0.062857546 -0.25875792 0.28471386 -0.13286634 0.2740223 0.08043242
0.1332082 -0.08848549 -0.18984708 -0.34912345 0.17344424 0.18870822 -0.056359116 -0.091393374
0.022137737 0.28164688 -0.24330416 -0.11140897 -0.47873124 -0.08346783 0.5356762 0.111399926
0.06322825 0.19843756 -0.05703514 0.12902828 0.2252249 -0.29541305 0.04869676 0.061283987
-0.16338274 0.21918008 -0.060981423 -0.028753076 0.17738396 0.6798189 0.08997303 -0.22453913
0.027224086 0.02767252 -0.198479 -0.18658431 0.019324664 -0.15891063 -0.14319569 -0.2990285
0.03350243 0.34058014 -0.31004822 -0.10831913 0.3928777 -0.09622288 0.006788927 -0.03178065
0.23922631 0.33417898 0.4804218 -0.14869761 -0.06314751 0.20525335 -0.34497255 0.13838011
0.06878764 0.03835366 0.2349915 -0.16864324 0.1428788 0.05322815 0.30745173 -0.13855706
0.35480958 -0.06512845 0.11035805 -0.21539438 -0.17027105 0.15239567 -0.20291953 0.41788685
-0.22310677 -0.08818161 0.09625677 -0.3211766 0.21319218 -0.101097934 0.19406678 -0.44802406
0.14987086 0.19094716 -0.37975395 0.59238654 -0.15510954 0.057129886 0.00055746996 -0.22332942
-0.02254954 0.13454126 0.31584367 0.14156777 0.08048137 0.25293586 0.2848638 0.09943728
-0.14427413 0.038108867 -0.23159121 0.14322431 -0.2823348 0.23908831 0.15976363 0.030932277
-0.1013087 0.16173066 0.08301661 0.23835582 -0.08768326 0.07647622 -0.039586816 -0.05156689

lstm.bias_ih_l0 f4 [256]
00000000: 226a 703d 3724 57be 56c7 d23d 4a6c e23c
00000010: da9a 0fbe 452b 23be e905 b6be d3c8 70be
00000020: 95d9 42be da38 143e 1349 2abd 5d29 4dbc
00000030: e6cc ec3d 3476 5dbe 0fc1 3dbe 67db e8bd
00000040: 7039 68be d508 3b3e a9ed a33d f877 2f3e
00000050: 6588 e8bd 89b1 abbd 1efc 42be 9dcf 09be
00000060: 2716 42be c3ab 21be ea74 77bd d9cc 46bd
00000070: 72b5 e5bd 88b4 f63d 4fba 89bd ecfd b4bc
00000080: f5c7 40be 0bd1 3ebe 6bd9 d2bd e5f0 75be
00000090: aaa8 4bbe 3e98 b13c 9563 4fbe a1ae 2abc
000000a0: 3be8 0bbe 8c93 0fbc bc7c 21be bbd5 1bbe
000000b0: 9a7f 4bbe 302d 0bbe 7a1a edbd add7 52be
000000c0: d94d adbe 73fa 05bd 4526 a0bd 9a83 25bd
000000d0: b183 91be 2c03 4dbb fbd0 9cbe dc8b 22be
000000e0: 788a e4be 0f2b 2dbe 50cf 46bd 21f8 04bd
000000f0: 8d93 94bb 6e75 1cbe 8476 3abe a526 58bd
00000100: 7d7f 863d b9c4 94be ce9c b43d d3df 28be
00000110: 451b 0bbd 15d5 7fbe 9303 70ba 4a77 8abe
00000120: 0cdf 25bd 8016 a4bd 72eb 143c da91 3e3d
00000130: 46e2 25bd b7b8 173d 1f75 e9bd d8d1 4fbd
00000140: 55fa 31bd 9bb4 a8bc 1eb5 a23c 38ee c1bd
00000150: 2c34 57be 88df fbba 5098 85be 1ae6 9dbe
00000160: dcb7 55be 9176 62be deac fc3d e806 9bbd
00000170: d051 bbbd a263 373d 2b50 24be db09 56be
00000180: 2dca cebc e3d0 57be f8c5 e2bd 1614 15be
00000190: 77f9 a2be f9a4 3ebe e3bb e1bd c98e 113a
000001a0: 912d 4fbe bd0d 86bd 4ac6 e1bd 56df 26be
000001b0: 3ebc 0abe 7b09 783d 5374 49be b3cf 04bd
000001c0: 32a1 4fbd 5730 8bbe d7d1 d3bd 0474 11be
000001d0: 782d 29be 5bb3 8bbd a4e0 abbe a09b bdbd
000001e0: 27de 86be f124 7639 c2e7 043d 8aa2 27be
000001f0: 665b 8cbd f026 bb3d 307a a7be 8829 583d
00000200: b85e 52bc 9cad d0bd 8d4c 45bd 0eea 0f3e
00000210: 3b7d 003e 39c4 eebd f086 5bbd 33b6 c23c
00000220: 6128 02bd 16ee 23bd 0657 58bd 810e 2fbd
00000230: 08a4 5cbd 105f d3bd af91 a0bd a798 083e
00000240: 5f19 453d 0cc0 d73d 5c74 51bd 2a02 6f3d
00000250: e471 c3bd cecb 09be bdaa 93bd f2a8 99bd
00000260: 1fe0 553d 84a0 8b3c 7c14 d3bd d6b5 c33d
00000270: 232a dbbd 85bd 0abe f05c ebbd 06f5 a3bc
00000280: b00f 0dbd c268 08be a3eb db3b 185a 0b3e
00000290: 947a 093e ec6e 733c 424f 053e cc18 563d
000002a0: 89ad 633d fd99 23be 960b cabc 79be 703c
000002b0: 63a3 053d 506c 18be 0110 dd3b 1759 c8bb
000002c0: 2d28 0bbd efc4 68bd fbf2 c6bc e5c0 133e
000002d0: cac0 a73d ace1 9bbd 3992 a4bd 8c94 993d
000002e0: 7bca 2e3b 3223 f23c d878 fe3d 13df 41bd
000002f0: a579 223d 23af 0f3e 3a67 763d 9f97 0abe
00000300: 70f8 88be 7fc7 abbe 2baf b43c 2fe6 29bd
00000310: 41ae 0fbe 542b a0be d8d9 69be d2ee 48be
00000320: 5117 00be 2630 d7bd 35ec 78be 788d caba
00000330: 0d23 79be 12eb 61be d5f5 b0bd 985b acbd
00000340: 44f3 bcbe 6205 673d 76dd 9ebd 56c1 303d
00000350: 2000 bdbd f3e1 acbc 411f c8bd 7f32 07be
00000360: f0bc a5be 3e47 5abe 29d2 96bc 3fc3 1dbe
00000370: dd41 1dbd 69ef 87bd f193 5ebe de57 01be
00000380: 6337 2fbe 0757 6fbe 3eef 84bd f4bd 27be
00000390: 5f39 77be b98e 063d ac6c 19be cc1f eeba
000003a0: 7223 96be 0034 34be 2211 3bbe b817 83be
000003b0: 2b11 1fbe c88d 33be 4fda 44be 057c 81be
000003c0: af65 acbe 752b 5dbe e580 7fbd b243 4ebd
000003d0: 79d7 e8bd b913 2cbe 01ba babe 0bff 42be
000003e0: 211a 93be 7fd0 68be a69c 63be 20ad d2bd
000003f0: c099 e4bd b0c7 22be dad8 7fbe 6c8f 78be
0.058694966 -0.21009909 0.102919266 0.027639527 -0.14023915 -0.15934475 -0.35551384 -0.23514108
-0.19028313 0.14474812 -0.041573595 -0.012522069 0.11562519 -0.21627122 -0.18530677 -0.11369973
-0.2267816 0.18265088 0.080043145 0.17135608 -0.1135414 -0.083834715 -0.19041488 -0.13458104
-0.18953763 -0.15788178 -0.060414232 -0.0485352 -0.112162486 0.12046152 -0.06724989 -0.022093736
-0.18826278 -0.18634431 -0.102953754 -0.24017675 -0.19888559 0.02167904 -0.20252831 -0.010417611
-0.13662808 -0.008763205 -0.15770239 -0.1521825 -0.19872895 -0.13591456 -0.11577316 -0.20590086
-0.33848456 -0.03270955 -0.07819799 -0.04040871 -0.28420785 -0.0031282408 -0.3062819 -0.15873665
-0.44636893 -0.16910957 -0.048537552 -0.032463197 -0.004534191 -0.15279171 -0.18209273 -0.05277123
0.06567285 -0.29056337 0.088189706 -0.16491632 -0.033961553 -0.24983628 -0.0009155806 -0.27044135
-0.040495917 -0.08012104 0.009089338 0.046525814 -0.040498994 0.037041392 -0.11399292 -0.050737232
-0.043451626 -0.020593932 0.019861754 -0.09469265 -0.21015996 -0.0019216398 -0.26092768 -0.30839616
-0.20870918 -0.22115542 0.12337659 -0.07569677 -0.09146464 0.04477275 -0.16046207 -0.20902197
-0.02524289 -0.21075778 -0.11072916 -0.14558443 -0.31830952 -0.1861762 -0.11022165 0.00055525877
-0.20232226 -0.06545589 -0.11024149 -0.16296133 -0.13548371 0.060555916 -0.1967328 -0.03242464
-0.050690837 -0.27185318 -0.10342758 -0.14204413 -0.16521251 -0.06821319 -0.33569825 -0.09258199
-0.26341364 0.0002347415 0.032447584 -0.16370597 -0.0685337 0.09138286 -0.3271041 0.052773982
-0.0128399655 -0.10189363 -0.048168708 0.14054129 0.12547772 -0.1165852 -0.053595483 0.02376852
-0.03177679 -0.04002198 -0.052817367 -0.04273844 -0.05386737 -0.10320866 -0.07840287 0.13339482
0.0481199 0.10534677 -0.05113636 0.058351673 -0.09543207 -0.13456652 -0.072103 -0.07502927
0.05221569 0.017044313 -0.103066415 0.09556167 -0.10701396 -0.13548858 -0.11492336 -0.020014297
-0.03443879 -0.13321212 0.0067114397 0.13608587 0.13425666 0.014857989 0.13018516 0.052269742
0.055585418 -0.1597671 -0.024663728 0.01469385 0.03262652 -0.14885068 0.0067462926 -0.006114136
-0.03397386 -0.056828436 -0.024285784 0.14429052 0.081910685 -0.07611403 -0.08035702 0.07499036
0.002667098 0.029557798 0.12425393 -0.04733188 0.03966679 0.14031653 0.06015704 -0.13534401
-0.26752043 -0.3355064 0.022056183 -0.041479286 -0.14031316 -0.31283057 -0.22837007 -0.19622353
-0.12508895 -0.105072305 -0.24308856 -0.0015453538 -0.24329777 -0.22062328 -0.08640639 -0.084159076
-0.36904347 0.056401618 -0.07757084 0.04315313 -0.092285395 -0.021103835 -0.09771586 -0.13202856
-0.3237071 -0.21316239 -0.018410759 -0.15406512 -0.03839289 -0.06637461 -0.21736123 -0.12631175
-0.17110972 -0.23373042 -0.06490944 -0.16381055 -0.24142979 0.032850955 -0.14982861 -0.0018167435
-0.29323918 -0.17597961 -0.18268254 -0.25604033 -0.15533893 -0.17534554 -0.19223903 -0.25289932
-0.33671328 -0.21598609 -0.062378783 -0.050357528 -0.11369223 -0.16804399 -0.36470035 -0.19042604
-0.28730872 -0.22735785 -0.22227725 -0.10286927 -0.11162138 -0.15896487 -0.24985066 -0.24273461

lstm.bias_hh_l0 f4 [256]
00000000: b5cf f83d b1a9 9bbe ea7d 0a3e d865 0bbe
00000010: ac67 93be aa16 74be e133 4abe 0c5f 4dbe
00000020: 7516 0ebe d412 dc3d c758 bdbd a6ee 8fbc
00000030: bdb2 333d 21de 13be 8d38 32be 589e f3bc
00000040: 09fa 0abe c760 813d 5c93 1cbb 79eb 5c3e
00000050: 3ff5 08be 0d7a 793d 7076 a0be 2bd9 93be
00000060: 7202 aebe 97ed 72be f31d e8bd bd34 1ebe
00000070: b9b0 2ebe 7dc0 bc3b c5be a73d a0c5 59be
00000080: d130 96bd c8e8 e8bc 48fb 21be dbd6 5fbe
00000090: 1804 9abe 5322 1ebb 2353 76bd 09a5 2c3e
000000a0: c0a6 4cbd 2626 bdbc 42e4 0abe d140 2c3d
000000b0: c55d 61be b627 4cbe 9b95 e73b 856e 46be
000000c0: 4fe9 4dbe a383 c5bd c2c8 1ebe 69be 4c3d
000000d0: bd15 82bd a7f3 95bd 45d9 ccbe c5af eebd
000000e0: 79b1 5ebe 5d0d 04bc 261e c9bd dab3 bfbc
000000f0: 29ff 153e 42d2 493d cbe5 3cbe 4a60 563d
00000100: c909 a03b 233d b2be bc0d 033e 984b 66be
00000110: b00f 8ebc b0a6 9cbe 47e3 943c cd18 4ebe
00000120: d46c b1bd d106 54bd c24e 25be dfc6 d2bb
00000130: 9863 2ebe 19a9 16be e90d 86be 7900 293d
00000140: 38c1 8c3b 8135 f5bd ca11 10be 91e4 53bd
00000150: cde5 4fbd 7045 bc3c 5733 2cbe e001 65be
00000160: e050 c6bd 1232 82be 50a0 173e b057 dcbd
00000170: eb87 26be 7808 0e3c d29b 3abe 72d4 03be
00000180: 54be 5abe 906a 67be 174c 02bd f2f5 54be
00000190: 2038 66be b9b5 9dbe bfb9 40be ea8c 27be
000001a0: 4985 63be 585d eebc f5dc 4ebd b3d9 94bd
000001b0: 33b7 89bd 33b4 25be 764b 12be c601 7ebe
000001c0: 2afe 7abe e365 afbe 80b3 55bd f745 74bd
000001d0: 5f82 3bbe 75f9 b6bd 89bf 3fbe 3ea5 4e3c
000001e0: d50c 0abe 73b7 0cbe 3c55 8bbd 2670 1abe
000001f0: 6735 9abc 849b 92bd 349e 9dbe 0bf0 1f3e
00000200: b783 ddbd d589 4a3c 4dbe 163c afad 543d
00000210: cbc9 0a3e d44a ddbd e62b ecbc 5208 2d3d
00000220: 900f a33c 5e70 433e e813 a0bd 404d d63c
00000230: 654a 1abd dfd4 2bbd e1d3 cd3c 5cf3 3ebd
00000240: db88 58bd 17d8 10bc d772 da3d 0001 3e3e
00000250: ffed 70bb 5cb8 dfbc 41b8 453c c430 39bd
00000260: f438 5a3c 70fa b33c 68b5 b4bc 7c83 01be
00000270: e7f6 07be 4922 efbc 24b9 5d3d 377e 9dbd
00000280: a8bc a83d 9fd5 f4bd 6c2e ee3d d596 293e
00000290: 4a0b 9f3b b04e cb3d a807 b43d ac7f d8bd
000002a0: 6429 023e d97c 3d3d 7107 cdbd e98f c8bc
000002b0: 254d 41bd 56da f23c 2b44 c0bd fca1 853d
000002c0: 1695 933d a1c5 2b3d f30e f2bd c13f 723c
000002d0: be14 ab3d c6b5 d2bd 295b 943d 0d4e 06be
000002e0: 65e2 2b3d ee38 c33c 6861 7ebd cc2c b0bd
000002f0: 237b 413b 9313 a33d e90e 04be 50ca 0cbe
00000300: b400 21be 6b09 b7be 5a36 18bd 48c2 0bbc
00000310: b24d f1bd 0a0c a7be c32c 60be b517 8fbe
00000320: 2867 c5bd 265b 9abc fc79 87be dd16 77bd
00000330: 0a82 a3bd 36c8 d7bd 678c 6fbe 5aa3 cebd
00000340: b820 c9be 0a5e c0bb 6bcc 8dbd 4f3b 783d
00000350: e1e8 65be 80f2 80bd 4e37 4dbe f122 63be
00000360: 34e5 6abe c0ab 08be 6a6a 37bd a9dc 15be
00000370: 866e 54be 0800 85bd 3e77 00be ef7f 7cbd
00000380: 8117 04be 5dc8 4fbe 580a 2ebe a0c3 3fbe
00000390: 0064 85be dad0 acbd e944 94be 0a2d 43bd
000003a0: 8298 94be 1231 e0bd 028e 37be 2b24 79bd
000003b0: 12a9 18be 0226 fabd 7ebf fcbd bae6 b4bd
000003c0: 882a 01be a840 65be fe15 943c 2c92 70be
000003d0: 9102 3abe 28f9 50bd 03e0 86be da01 b4bd
000003e0: 2085 4dbe c9e7 75be a209 edbd fbff f3bd
000003f0: bf48 88bd e4b4 04be 83b1 0cbe 9ebe 56be
0.12148992 -0.30402902 0.13524595 -0.13613069 -0.28790033 -0.2383677 -0.19746353 -0.20055789
-0.13875754 0.10745779 -0.092454486 -0.017569851 0.04387163 -0.14440204 -0.17404385 -0.02973859
-0.13571943 0.06317287 -0.0023891544 0.215742 -0.13374804 0.060907412 -0.3134036 -0.28876624
-0.3398624 -0.23723446 -0.11333837 -0.15449806 -0.17059602 0.005760251 0.08190683 -0.21266794
-0.0733353 -0.028431311 -0.15818512 -0.21859305 -0.30081248 -0.0024129346 -0.06013788 0.16859831
-0.049963713 -0.02308948 -0.13563636 0.042054 -0.22008426 -0.19937024 0.007067395 -0.19378097
-0.20108531 -0.09644248 -0.1550627 0.049986277 -0.063518025 -0.073218636 -0.40009513 -0.11654619
-0.21747388 -0.008059827 -0.098202035 -0.02340119 0.14648117 0.049272783 -0.18447034 0.052337922
0.004883979 -0.3481227 0.12798208 -0.22489774 -0.017341465 -0.30595922 0.01817478 -0.20126648
-0.086633354 -0.051764313 -0.16143325 -0.0064323987 -0.1703018 -0.14712943 -0.26182488 0.041260216
0.0042954944 -0.11973096 -0.14069286 -0.05173165 -0.050756264 0.02298233 -0.1681646 -0.22363997
-0.096833944 -0.25428826 0.14807248 -0.107589126 -0.16262786 0.008669011 -0.18223503 -0.1287401
-0.21361667 -0.22599244 -0.031810846 -0.20796946 -0.22482347 -0.30802706 -0.18820857 -0.16362348
-0.22218813 -0.029097244 -0.05050369 -0.07268085 -0.067243956 -0.16182022 -0.14286599 -0.24805364
-0.24511018 -0.3425742 -0.052173138 -0.059637036 -0.18311451 -0.08934299 -0.18725409 0.012612639
-0.13481458 -0.13741855 -0.068033665 -0.15081844 -0.018824292 -0.071585685 -0.30784762 0.15618913
-0.10816138 0.012361963 0.009200645 0.05192345 0.1355354 -0.10805288 -0.028829526 0.042244263
0.019904882 0.19085833 -0.07816297 0.026159883 -0.037668604 -0.041951057 0.025125446 -0.046618804
-0.05286489 -0.008840582 0.10666435 0.18555069 -0.003676295 -0.02730959 0.012067855 -0.045212522
0.013319243 0.021970004 -0.022059157 -0.12647814 -0.1327778 -0.029191153 0.054131642 -0.07690089
0.08239108 -0.119548075 0.11629948 0.16561444 0.0048536407 0.09927118 0.08790523 -0.105712265
0.12711102 0.046261642 -0.10011185 -0.024482684 -0.04719271 0.029645126 -0.09388002 0.06525037
0.0720617 0.04193652 -0.118192576 0.014785708 0.08353566 -0.10288577 0.0724395 -0.13115712
0.041963954 0.023830857 -0.062104613 -0.08602294 0.0029522858 0.07962718 -0.12896313 -0.13749051
-0.15722924 -0.35749373 -0.03716121 -0.008530207 -0.11782397 -0.32626373 -0.21892075 -0.27947775
-0.09638816 -0.018842291 -0.26460254 -0.06032454 -0.07983787 -0.10536234 -0.23393403 -0.100897506
-0.39282775 -0.0058705853 -0.06923755 0.060603436 -0.22452118 -0.06296253 -0.20040628 -0.22181298
-0.22938997 -0.13346767 -0.04477922 -0.14634956 -0.20745286 -0.064941466 -0.12545487 -0.061645444
-0.12899591 -0.20291276 -0.16996133 -0.18726969 -0.26052856 -0.08438273 -0.28958824 -0.047650374
-0.29022604 -0.109468594 -0.17925265 -0.060825508 -0.14908245 -0.12214281 -0.12341212 -0.0883307
-0.1261388 -0.22387946 0.018076893 -0.2349326 -0.18165042 -0.051018864 -0.26342782 -0.08789416
-0.20070314 -0.240142 -0.11574103 -0.11914059 -0.066545 -0.1295963 -0.1373959 -0.20971152

fc.weight f4 [6, 64]
00000000: 2e3e 44bd d340 70bc 8ef6 25bd 6c9d b63c
00000010: 2cd9 ba3c 6328 81bd 4469 c0bd ee24 663d
00000020: 96ab d23c cdbc 0b3d c170 ae3c 1dd0 763d
00000030: 1ed0 74bd 897c 38bd 234f f2bc 437c 13be
00000040: a1a8 a33b 2d8e 0abc 86a7 6fbd 6bc4 c6bc
00000050: 1a19 033d 9d98 b5bd 2871 683a 4bd9 1dbe
00000060: 1d2e 0f3b c110 bd3c fdcb 3dbe 3cab 403c
00000070: d2d2 31bd c99c 713d 8cd3 db3c 3df9 913d
00000080: c5e0 513d d6af a2bc 07d1 d33d e1fe 87bc
00000090: fb2f 623d 1192 fa3c 4327 dc3c 17ae d73c
000000a0: cf67 04bd ff34 053e 35da ec3c 5667 853d
000000b0: 30b8 053e 6262 37bc f4fd 11be 330a 9bbd
000000c0: 9890 e13c ad50 e3bc 0021 bbbb 4bcc 04bd
000000d0: c314 d33d 1091 4abe dbd4 1fbb ee7d e1bd
000000e0: cd7b c63c e32e f639 f500 15be 0160 49bd
000000f0: d44d 043d 8d01 973c 5bd9 9fbd 9261 1d3e
00000100: 59c9 0c3e 1e3b 42be d842 66bd e835 1cbc
00000110: 49d5 9fba 7882 51be ef62 0b3a 7930 6abd
00000120: c1b2 253b f6b0 edbd faca 913c f611 e9bd
00000130: 5b46 9bbe afa4 d73d 2290 cfbd 0feb 003e
00000140: 3615 e63d ed0c dc3c d7b2 08be 87b3 503e
00000150: 5367 dd3c 0ed3 02bd 7f7d c03d 7103 fabc
00000160: 6ba1 5dbd 264d a6bd 8fcb eabd c11d 3a3e
00000170: 5569 f2bd bfa2 e13d 3ecf 9abd 5189 4e3d
00000180: 6b50 98bd d555 b73d 7d85 dabd 2351 913d
00000190: 7609 5b3d 6957 82be 7c4c 72bd 9803 433e
000001a0: 370c a3bc ac65 3b3d 1c06 71bd acbd c13d
000001b0: 33c6 2f3e db89 ebbd 5a6b b2bd 7f62 453b
000001c0: 819d 083e 9fd9 2dbe b8e6 1fbd 1b83 97bc
000001d0: e2e4 b83d 8274 ef3b 6c47 a0bd ae99 20bd
000001e0: e17d 6fbc 43a6 003e fcfe c6bd e7a7 dcbd
000001f0: d2b2 013d b90d 023e 93cf 01be 1fff 4e3d
00000200: 07b9 0bbd 2b8b 3e3d cc26 88bc 3551 9fba
00000210: 27a5 fc3b 0a71 5d3d 8479 07bc 9ec9 52be
00000220: 5a56 9fbd e9ab a73c f402 37bd 5ed3 de3d
00000230: 9253 ce3c d929 fdbd fa3c 923c 84ec 3ebd
00000240: 068b 173d 56b2 0dbd 4b70 cbbd 6bac c23c
00000250: aa0d 203e a3d7 71bd 59a8 4fbc aeb7 45bd
00000260: 8c95 d7bd c61d 903d 3a0b 7abe 5818 dc3c
00000270: 7b71 e1bd 4a00 523d 1876 efba 0449 a73d
00000280: cda4 02bd 414b a0bc 6989 aabb bcd0 c03c
00000290: d218 923d 669b 96bc afe7 693d 05d9 b13c
000002a0: 3a80 bb3d 0fc4 2bbe 378e 14bd 3902 a4bc
000002b0: d990 743d 3104 85bc 00b1 14be 3f93 023c
000002c0: 660a ebbc b6d1 693d b29a 2e3c 394e 063d
000002d0: 33f7 a23d de3b 64be 85c2 2fbd ca4a 06bd
000002e0: e434 5d3d f23e 1b3c f363 7c3d c3c7 82be
000002f0: ea1a ed3d 35bf a63b e74a 7f3c 6262 8abd
00000300: 63fe f8bd a7c2 a53d 1bfe a43d 1326 903a
00000310: dc90 cb3c d6a0 203d 0756 34bd 722b 8c3d
00000320: 2181 af3d daa9 60bc c66f dfba e5b6 90bd
00000330: a151 573e 5500 29be 8348 e8bb a189 303e
00000340: 124d 6c3c 9830 3c3e 32d3 1fbe 4025 eb3d
00000350: 343e 143e b67a 44bd a68c d0bd f79a cbbd
00000360: 17a0 983d 5f5a f9bc 15bd 1fbe fa03 07be
00000370: b54c 28bc 9e3a 2a3e 6016 643d 36c1 a63c
00000380: 25a7 d0bd 49aa 823c 9497 8e3d 503e 953d
00000390: 6a53 003d d519 08be 8631 683d c141 6b3e
000003a0: 75b6 64bc effd 69bc 8771 90bd 0cf7 00be
000003b0: 510b b3bd 9b65 9dbc 5f3d 0bbe c338 da3c
000003c0: 2677 26bd e3fd 793e be70 38be a8b3 63be
000003d0: 053b b53c 3fd1 00be 1440 4c3d 9f90 c13c
000003e0: 5a74 da3d f3a3 63bd 35d1 b03d 5e68 22be
000003f0: dcf3 d6bd 8f41 803d 7599 5dbd a903 083e
-0.04791086 -0.014663893 -0.040518336 0.022291861 0.022808634 -0.06306531 -0.09395078 0.056187563
0.025716584 0.0341156 0.021294 0.060257066 -0.05976879 -0.04504064 -0.029578751 -0.14402871
0.0049944674 -0.008456749 -0.058509372 -0.024263581 0.03200636 -0.08866999 0.0008866959 -0.15414922
0.0021847554 0.023079278 -0.18534847 0.011759575 -0.043413945 0.058987413 0.026834272 0.071276166
0.051239748 -0.019859236 0.10342603 -0.016601028 0.05522154 0.030587228 0.02687419 0.02632813
-0.032325562 0.13008498 0.028912643 0.065138504 0.13058543 -0.01119289 -0.14257032 -0.07570305
0.027534768 -0.02774843 -0.005710721 -0.03242139 0.10306694 -0.197819 -0.0024388346 -0.11010347
0.024228955 0.0004695571 -0.14551146 -0.049163822 0.032300785 0.018433357 -0.07805129 0.15369251
0.13748683 -0.18967864 -0.05621609 -0.009534337 -0.0012194301 -0.20459926 0.00053171715 -0.057175133
0.0025283548 -0.11606018 0.017796982 -0.11380379 -0.30327114 0.10529458 -0.10134913 0.12589668
0.112345144 0.026861632 -0.13349472 0.20380984 0.027026808 -0.03193956 0.093989365 -0.03051922
-0.05410902 -0.08120184 -0.11464607 0.18175413 -0.11836497 0.110173695 -0.075590596 0.050423924
-0.074372135 0.08951918 -0.10669992 0.07095554 0.05347582 -0.25457314 -0.059154972 0.1904434
-0.019903285 0.04575126 -0.058843717 0.09460005 0.17165451 -0.11500903 -0.08711882 0.0030118523
0.13341333 -0.16977547 -0.03903839 -0.018495133 0.09028031 0.00730759 -0.07826123 -0.03920906
-0.014617414 0.12563424 -0.09716603 -0.10774212 0.031664677 0.12700547 -0.1267684 0.05053627
-0.034112003 0.04651944 -0.016620062 -0.0012154939 0.0077101174 0.05406288 -0.008268718 -0.20584723
-0.07780142 0.020467715 -0.04468055 0.10880159 0.025186334 -0.123614974 0.017851342 -0.046612278
0.036997817 -0.034593903 -0.099335276 0.023763856 0.15630212 -0.059043538 -0.012674415 -0.048270874
-0.10526571 0.07036929 -0.24418345 0.026867077 -0.11007973 0.051269807 -0.0018269448 0.081682235
-0.031895448 -0.019567134 -0.005204369 0.023537032 0.0713364 -0.018384647 0.057105716 0.021709928
0.09155317 -0.16774009 -0.03626844 -0.020020591 0.05970845 -0.01623735 -0.14520645 0.0079696765
-0.028691482 0.05708476 0.010656999 0.032789443 0.07957306 -0.22288463 -0.042910118 -0.03278617
0.05400552 0.009475457 0.061618757 -0.2554303 0.11577399 0.0050887116 0.015581823 -0.06757046
-0.121578954 0.080937676 0.08056279 0.0010997675 0.024849348 0.039215885 -0.044027355 0.06844224
0.08569551 -0.013712371 -0.0017046861 -0.07066134 0.21027233 -0.16504033 -0.007088722 0.17240001
0.014422672 0.18377912 -0.15607908 0.11481714 0.14476854 -0.04796859 -0.101830766 -0.099416666
0.0745241 -0.0304386 -0.15599473 -0.1318511 -0.010272195 0.16623923 0.0556854 0.020355802
-0.1018813 0.015950339 0.06962505 0.07287276 0.03132955 -0.13291104 0.056687854 0.22974302
-0.013959517 -0.014281734 -0.070529036 -0.12594241 -0.08742393 -0.019213488 -0.1359763 0.026638394
-0.040640973 0.24413256 -0.18011758 -0.22236502 0.02212287 -0.12579821 0.049865797 0.023628531
0.106667235 -0.055576276 0.08633653 -0.15860125 -0.10495731 0.06262504 -0.054101426 0.13282646

fc.bias f4 [6]
00000000: 6fa1 143e c298 833e eb0c ba3d 3ddf 723e
00000010: 49df dc3d 6ebc 503e
0.14514707 0.25702482 0.09084495 0.23717971 0.10784776 0.2038438
