models/lstm_last.pth (torch, 80418 bytes, 6 tensors)

lstm.weight_ih_l0 f4 [256, 9]
00000000: d8a9 4c3d c24e 5a3e 755f 0a3e a91f 963d
00000010: 3f1e 9fbd ecd4 00be 5a1b eebe d719 953e
00000020: 9caa 5bbe 6d8b bd3c e694 523e 1164 aa3d
00000030: 0562 243d 6f42 2a3c 77a2 5d3e a5f9 113d
00000040: e24f a9bc 15bf 323d 956d 68bc 95f1 9ebe
00000050: 0fb7 6bbe f42b 173e c14f b13d 9bc3 413c
00000060: 8be5 6fbe f661 093d 8aba d53d ec3d eabd
00000070: 9bc3 9f3d d654 143d 6401 a33d 4dd2 d83b
00000080: 5756 0ebc 415f e4bd 4a13 1bbb 22eb bc3c
00000090: c303 f0bd 74a5 a23d c8fe 3fbc 3061 09bd
000000a0: c401 bbbd 4d91 f93d ae8c 87bd a4ec 0a3e
000000b0: f447 0abe fbd9 41be e0e9 74be 4ea6 6dbe
000000c0: 00ea ae3d 6b60 59be f18c f7bc 7017 d5bc
000000d0: 3618 603d a06b de3d 7ac8 92be 4805 24be
000000e0: 87cc 98be 7d0b 0fbd a59e 26be 5dbd dc3c
000000f0: 81c2 003e 532c 903d 68f7 243d b674 c4bd
00000100: af7e 243e d65d 4e3d 881b 0abd b614 57be
00000110: 83d5 96be 33b2 22be 135b e3bd b9e0 80bc
00000120: dc80 143d 249a cbbd d410 253d ddd6 7cbe
00000130: d63f 8bbd a825 803c 6cb0 afbc ccb1 3e3d
00000140: 028d ef3d 3169 96bd 7d6b e3bd 99b3 56bd
00000150: 1e1b 903a 179a 0dbd b3cb a1bc 81ed d8bd
00000160: 2878 ccbd 8425 6a3e e97f d33c d2e9 6a3d
00000170: 6ba8 d9bd 4db2 7a3d 2e1d 1ebd 8419 a3bd
00000180: f4c5 39be ac7c f83c cada 8bbd 47d9 dfbd
00000190: 75dd 5dbe 1734 63be 2fdc 65bd 4e2f 2cbe
000001a0: 7f72 14bd 2b61 49bd 689b 51bc 181b 18bd
000001b0: 6b77 33be 4d77 e4bd 848b 21be 8789 03be
000001c0: 21c3 fb3c 7b8a c73d d3cf 513e 2a45 5c3e
000001d0: 7eb4 d4bd 63bc b4bc fe36 50be 8f1c 443d
000001e0: 5791 c33c b29f 3dbd 98b9 443e f457 adbd
000001f0: f4e0 963c 4b62 273e 1589 2abe 3e29 88be
00000200: 484d 1cbe 0cca 9abd 386c 81bd 55a2 353e
00000210: a1d7 fabc f202 bb3d b681 47bd be3a 94bc
00000220: e535 093e d519 b83d 5c27 52bd 7d9c 073e
00000230: 5b9e b63e 42ab ca3c 4525 923d 0a07 20be
00000240: 383c 67bd d77d 57be 1afd 07bd 9d0e 4d3d
00000250: 7c46 093e aff5 89bd 1a60 dfbd 31da 05be
00000260: bec4 4f3e 5178 d5bc 77d3 9dbe ad00 10be
00000270: 862f eebc b14a 5fbd 213b 02bd feda 27be
00000280: 0fea 1dbe 8952 13bd 871b 2cbe 6612 12be
00000290: c597 debd 8c4f c1bd 2d55 bfbd 6966 84bb
000002a0: fbbd 003e 0ee9 c33d 97fb ef3d bbf2 ed3d
000002b0: 9943 39bd 810a 3fbe 481a b43d 74cf 22bd
000002c0: c9a2 1a3c 9407 92be 8dee 8ebd 2c62 da3d
000002d0: e367 8cbc e16b 6b3e e54e ce3d ba25 bb3e
000002e0: 075c b7bd 9352 a7be 45c5 1ebf 9444 50be
000002f0: cac3 ef3d 0434 13bd 10ef c2bd 762b 2c3d
00000300: 12b5 01be a58c d73d c5c4 88be 8a1c 3e3e
00000310: 21c5 05bd 7afb 8d3d 8f4d af3d 0f81 0d3e
00000320: 97ee 1ebd 1ea5 ac3d 13c3 e83c fc55 b23c
00000330: b37c f4bd 6786 edbc 511a a33c 215b a23d
00000340: 3010 82bd 266f 1b3e 5aa6 77be 4053 77bd
00000350: 6f79 96bd b8b8 2a3e 4064 5a3d f1c8 00be
00000360: 53b1 e1bd 4799 043b 6e60 f23c ff9c 5d3e
00000370: 724c 3b3d d381 a8be b9b4 87be d499 4d3d
00000380: 11ec 7f3a 35df 963d b082 123e c674 98bd
00000390: 066b 063e 8c67 a03d ffb5 393e 8033 d83c
000003a0: 3c04 a03d 190b 5a3c 4be4 c93c 5818 9e3b
000003b0: dc07 58be 2962 393e 7b17 05be 3196 a2bd
000003c0: 745d 783e d47d 78be 9e33 3a3d 894e d83c
000003d0: c30e 94be 4d18 1b3c 3ad4 553e 9c8e 01be
000003e0: 76fa fdbd beae 08be 659b 17be 2874 d73d
000003f0: adac d5bd 81af 383e 3cad c93d 6107 e3bd
0.049966663 0.21319106 0.13512976 0.073302574 -0.07769441 -0.12581223 -0.46505243 0.29121277
-0.21451801 0.023137772 0.20564613 0.083198674 0.04013254 0.010391816 0.21644007 0.03563847
-0.020667974 0.04363926 -0.014186283 -0.31043687 -0.2301905 0.1476286 0.0865779 0.011826421
-0.23427407 0.03354069 0.1043597 -0.11437592 0.07800981 0.03621372 0.079592496 0.0066168667
-0.008687577 -0.11150981 -0.002366262 0.023061339 -0.117194675 0.07941714 -0.011718459 -0.03353995
-0.09131196 0.12185917 -0.066186294 0.13566834 -0.1350401 -0.18930809 -0.23917341 -0.23207971
0.08540726 -0.21228187 -0.030218573 -0.026012152 0.05471059 0.108603716 -0.28668576 -0.1601764
-0.29843542 -0.034923065 -0.16271456 0.026945764 0.12574197 0.07039704 0.040275007 -0.09592573
0.16063951 0.050382458 -0.033717662 -0.21003994 -0.29459772 -0.1588829 -0.111013554 -0.015732156
0.036255702 -0.09941509 0.04029925 -0.24691339 -0.06799285 0.015642956 -0.02144643 0.04655628
0.11696817 -0.073442824 -0.11104486 -0.05241737 0.001099441 -0.03457078 -0.019750452 -0.10592175
-0.099838555 0.22865874 0.025817828 0.057351895 -0.10627826 0.061205197 -0.038602047 -0.07963851
-0.1814192 0.030332886 -0.0682884 -0.10930114 -0.2166651 -0.2218784 -0.056118187 -0.1681492
-0.036242004 -0.049164932 -0.012793399 -0.037135214 -0.17526023 -0.11155567 -0.15775877 -0.12845431
0.030732693 0.0974321 0.20489435 0.21510759 -0.10385989 -0.022062486 -0.20333478 0.047878798
0.023873014 -0.046294875 0.19211423 -0.08464041 0.018417813 0.1634609 -0.16653855 -0.26593965
-0.15263855 -0.07558069 -0.06319469 0.17737706 -0.030620398 0.09131421 -0.048707686 -0.018094417
0.13399465 0.08989302 -0.051307067 0.1324329 0.3566769 0.024739865 0.07136015 -0.15627685
-0.056453913 -0.21044098 -0.03320036 0.050062764 0.13405794 -0.067363136 -0.10907002 -0.13071515
0.20289895 -0.026058348 -0.30825397 -0.14062758 -0.029075395 -0.05451459 -0.03179467 -0.16392133
-0.15421318 -0.035967384 -0.16807376 -0.14264831 -0.108687915 -0.094390005 -0.09342418 -0.0040405286
0.12572472 0.09565936 0.11717909 0.11618563 -0.04523048 -0.1865635 0.08794075 -0.039748624
0.009438225 -0.28521407 -0.06979094 0.10663256 -0.01713938 0.22990371 0.10073642 0.3655222
-0.089531 -0.32680187 -0.6201976 -0.2033866 0.11707266 -0.035938278 -0.09518254 0.042033635
-0.12666729 0.10524873 -0.26712623 0.18565574 -0.0326587 0.06932731 0.08559715 0.13818763
-0.038801756 0.08429931 0.028413331 0.021769516 -0.11937847 -0.028994752 0.01991001 0.07927538
-0.06350744 0.15179119 -0.24184552 -0.060382128 -0.0734738 0.16672027 0.053318262 -0.12576653
-0.1102015 0.0020232962 0.029586997 0.2164192 0.0457272 -0.32911548 -0.26505068 0.05019553
0.00097626547 0.07366792 0.14307666 -0.07444148 0.13126764 0.0783225 0.18135832 0.026391745
0.07813308 0.01330831 0.024644991 0.0048246793 -0.21096748 0.18103851 -0.12997238 -0.07938803
0.242544 -0.2426675 0.045459382 0.026404636 -0.28917512 0.009466243 0.2088174 -0.12652057
-0.12401287 -0.13347909 -0.14805372 0.10520202 -0.10433326 0.180357 0.09847495 -0.11085392

lstm.weight_hh_l0 f4 [256, 64]
00000000: 7d13 fabe f76b 8ebc fdd9 16be 3199 18be
00000010: 2cf4 00be bf46 e7bd 6be1 e1bd 910d c2bd
00000020: b95c 70be 2ade f33d efba 003d 07c0 cc3d
00000030: 85ab 08be 2f06 71be d797 5a3e 6a1f 223e
00000040: 711e a9be c125 4a3e 2216 423c 1e0d 51be
00000050: a596 1a3f 1b05 f1bd 946e 063e 294b 8ebe
00000060: da2f 33be f521 fc3b 54a7 823d 06db 85bd
00000070: 7f0b 873b 4917 a8be 3bb8 983d 33a0 3a3e
00000080: 8b8c 0f3d be9a 3a3e 5e97 153d 65d8 efbd
00000090: cec1 a2be 8ba1 e0be 71c2 d93b c121 dfbd
000000a0: 34db d3be ed66 383e 8cb3 ecbd ada5 76bd
000000b0: 83c7 82be 03fe 103f c0c5 273e 2454 60be
000000c0: 3111 afbe 97d6 e13e 057f 60bd e3b9 d9bd
000000d0: bde7 c5bd e39f 933e e255 693e 5b13 b9bd
000000e0: 9b15 8fbe 4ed7 a33e 926e 25be 2666 993e
000000f0: a530 fc3d 2028 d23c 9c0c 883d 8635 a53e
00000100: 2e85 b0bd 192c 333d 232f 4ebe 1d0c 8cbd
00000110: ca1f efbd c45a d6bd 5b1d 42be 6f69 7cbd
00000120: 5215 883d da9f 05bd b5d6 1dbe e502 e53d
00000130: b5a0 65bd b322 41be ee60 403c 2b31 0bbd
00000140: 0f59 6bbc 8e20 73bc a691 0c3d 0389 da3c
00000150: 83ea b13d 969d f53d e9ad d9bd a475 40bd
00000160: 8873 2d3c 3f39 10be 232c 9bbc 774d 99bc
00000170: 1007 573d 0c00 4cbd 14a1 b8bc 1c19 1f3e
00000180: 4af3 babd 960b e63d 6b7a 3ebd 5252 483b
00000190: 47b2 e83c 45de 0cbe f05c 64bd 9ba8 893c
000001a0: dee7 d13c 468d 31bb 1ffb 0dbe a328 bbbc
000001b0: be99 93bc 1ce9 c13d d1ee 373c 5ab5 36be
000001c0: 06c8 043c f748 76be 1863 58bd 626f 923c
000001d0: 4c1a dcbd 7284 93bd 0099 1fbe 81dc f1bc
000001e0: d139 e7bd e882 debd c653 923d c8df 90bd
000001f0: 5b1d 92bc 07a2 913d a528 7c3e c73a 88bd
00000200: 8683 063e 6c86 a73d 61ff 0e3d a468 82be
00000210: cfa9 96bc 8496 e43d 5314 663c e474 7a3c
00000220: 1cc3 0ebe 4f02 4b3e 12ea ee3d 95d0 1b3d
00000230: 3df4 59be 4f80 563d 077a f2bd 738d 1dbd
00000240: 143d 473d 0c89 85bd bd37 043c a737 71bc
00000250: b9f8 4fbd b6aa b7bd 260c 34bc 7c70 44bd
00000260: 591e cf3d a469 1c3e 95a8 3b3d c5d7 dcbd
00000270: 7d4a bab9 9548 04be d113 2cbb 3a05 de3d
00000280: 1aa5 443d 0a1b fcbd 4bbd 07bc e79f b33d
00000290: a09e a8bc 4dcb 243e 6f3f db3d a4da 9a3c
000002a0: 1186 03bd 8d32 c23d 3270 113d 23ea 303e
000002b0: 171f 16bd 60a5 6abd e777 7fbd 6f2f 79be
000002c0: 165b 823d e4b3 00bd 9a00 99bd 0b50 61be
000002d0: 80ef 65bd 7dd1 f3bc 6e6f 083e a87f 993d
000002e0: d789 0ebe fc0a cdbc 1578 22bd 48ff d33c
000002f0: ef4f aabd 60a0 883d ecbe ffbd 2c63 3f3d
00000300: 441b 2d3e 42ec a9bc 07f5 43bd b0a4 1ebe
00000310: 3d6e f2bd f4c3 adbd a480 31bd cad5 4cbd
00000320: dcf3 d1bd b63b bd3d a40a 1b3d b7d0 953d
00000330: 47ec 93bd ffde 243c 6709 57bd 893e 14be
00000340: 3d40 3b3d 1070 063e abbe cc3a 89b5 8c3a
00000350: 425a d3bd 9387 52bd a244 93bd 999c 983c
00000360: 5006 08bd 1a8f a63d 8b91 d53d 429a 4e3d
00000370: 721c 07be 37d5 32be 49d4 99bd 668f 1ebd
00000380: 7233 143e c7b3 29bc 4604 26bd 61f6 443c
00000390: 5199 08be 2280 06bd 93ea 13be 8bce 773c
000003a0: 6200 67bd 6593 913c b996 893c 0e02 263c
000003b0: c6b3 ecbd 91c7 c1bd 8bec 243e 4564 8cbe
000003c0: bbea 2cbe 677b 2fbd 8a96 32bd 21f6 b13d
000003d0: e9f2 613e 6895 a83d cc74 0e3e 6984 fe3d
000003e0: 094c f3bd 94d2 183e a9fe 22be 641a 0f3e
000003f0: deb8 65bc 3217 233e 2da9 ddbd 0dc2 db3d
-0.48842993 -0.017385466 -0.14731593 -0.14902188 -0.12593144 -0.112927906 -0.11029323 -0.09475244
-0.23472871 0.11907609 0.031428274 0.09997564 -0.1334668 -0.23537515 0.21346985 0.15832296
-0.33031037 0.19740964 0.011846097 -0.2041516 0.60386115 -0.11768552 0.1312812 -0.27791718
-0.17498723 0.0076944777 0.063795716 -0.06535916 0.0041212435 -0.32830265 0.07457014 0.18225174
0.03504614 0.18223092 0.036521308 -0.11711196 -0.31788486 -0.43873248 0.0066454937 -0.1089511
-0.41378176 0.18008013 -0.11557683 -0.060216594 -0.2554284 0.5663759 0.1638403 -0.21907097
-0.34192804 0.44109032 -0.054808635 -0.10631158 -0.09663341 0.2883292 0.22786668 -0.09036895
-0.2794617 0.32000202 -0.1615546 0.29960746 0.12313966 0.025653899 0.0664303 0.32267398
-0.08619152 0.043743227 -0.20135169 -0.06838248 -0.11675985 -0.10466531 -0.1895651 -0.061623987
0.066446915 -0.03262315 -0.15413935 0.11182193 -0.056061465 -0.18860893 0.01174186 -0.033982437
-0.014364495 -0.014839305 0.03431859 0.02667666 0.08687308 0.11992948 -0.10628874 -0.04698719
0.010586627 -0.14084338 -0.018941944 -0.018713696 0.05249697 -0.049804732 -0.022537746 0.15536922
-0.09128435 0.112326786 -0.046503466 0.0030566645 0.028405322 -0.13756664 -0.055752695 0.01680403
0.025623258 -0.0027092262 -0.13865326 -0.022846526 -0.018017646 0.0946829 0.011226372 -0.17842618
0.00810433 -0.24051271 -0.05282888 0.017875377 -0.10747203 -0.07202996 -0.15585709 -0.02952409
-0.112903245 -0.10864812 0.07144885 -0.07073933 -0.017836263 0.071109824 0.2462488 -0.06651836
0.1313611 0.08179936 0.034911517 -0.2547046 -0.018391518 0.11161521 0.014042932 0.015286658
-0.13941616 0.198251 0.11665739 0.038040716 -0.21284576 0.05236846 -0.11839681 -0.038464975
0.048642233 -0.0652028 0.00806993 -0.014722741 -0.05077431 -0.089681074 -0.010989225 -0.047958836
0.1011321 0.15274674 0.04581507 -0.10783342 -0.00035532183 -0.12918313 -0.0026256929 0.10840841
0.048009016 -0.12309845 -0.008284877 0.08770733 -0.02058345 0.16093178 0.107054584 0.018903084
-0.032110278 0.09482298 0.03550739 0.17276816 -0.036650743 -0.05728662 -0.062370207 -0.243345
0.063650295 -0.031421557 -0.07470818 -0.2200319 -0.056136608 -0.029762978 0.13323757 0.074950516
-0.13919769 -0.025029652 -0.0396653 0.025878564 -0.083160274 0.06671214 -0.12487587 0.046725437
0.16904932 -0.02074254 -0.0478411 -0.15492511 -0.118374325 -0.08484641 -0.043335572 -0.050008573
-0.102515906 0.092399046 0.037851945 0.073152 -0.07222801 0.010062932 -0.0524992 -0.1447698
0.04571556 0.13128686 0.0015620788 0.0010735254 -0.1031995 -0.051398825 -0.07190825 0.01862936
-0.033209145 0.08132763 0.10428151 0.05044008 -0.13194445 -0.17464148 -0.07511193 -0.038710974
0.1447275 -0.010357804 -0.04053142 0.012021632 -0.13339736 -0.03283704 -0.14444952 0.015124927
-0.05639685 0.017770479 0.016795503 0.010132326 -0.115577266 -0.094618924 0.16105859 -0.2742025
-0.16886418 -0.042842295 -0.043600596 0.086895235 0.22065319 0.08231622 0.13911742 0.12427599
-0.11879737 0.14924079 -0.15917458 0.13974911 -0.014021127 0.15926817 -0.10823283 0.107303716

lstm.bias_ih_l0 f4 [256]
00000000: 44fd bebd 572f e9bc 7097 913d c1ea f73c
00000010: ed36 04be 85cf 0dbe 10ad 99bd bb64 5a3c
00000020: 52da 3ebe 19f7 8fbd 6b3a debd 1163 22be
00000030: 8a6a fdbb 0dc4 b8bd 340b c9bd 7c65 933d
00000040: 05f9 833d 7950 0abe bd9d 0abe 9446 b8bd
00000050: cd4b ed3d eabc 87bc 0c2e d4bd 39e1 813d
00000060: 5a68 613d 5610 aabd 83bc f0bd 42ae f13c
00000070: c7f4 603d 6894 113e fa83 bfbb caa5 d0bd
00000080: 8003 1fbe a1ad 21be 09bc 58be 1a7c e4bd
00000090: bd80 55be 1a52 bb3c f0fd 22be c474 06bb
000000a0: 2044 11be d49a 45be c67e 88be 80c3 30be
000000b0: 5ead 28bd c0ed c63d b164 37be 2299 aa3c
000000c0: 8f7a d3bd 8e66 ad3d 8296 19be 2ff9 053e
000000d0: cb15 7fbd 15fa 5a3e 6d79 283d f420 abbd
000000e0: bb90 a7bb 114d b5bd 8e7b 6dbe 6893 16be
000000f0: 0e6b cf3c 3916 5ebc 5e48 f0bd 9429 68be
00000100: 9b01 bb3c 1529 cebd 67a4 243d 13cc 2cbd
00000110: 070b 723c 5ffc 59be bd56 3abe 7165 10be
00000120: 9725 3ebe 37aa f2bd 2133 b03c ccde 58bd
00000130: 502f cf3d c727 3ebe ddf0 7abe b664 58be
00000140: dd8b d8bd f1bb 29be 6e89 6abd 31e2 8f3d
00000150: 1cbd a93c 83a9 d4bd 16bd 20be df45 edbd
00000160: 99f4 04bb 6c45 48be cb30 aebd b800 00be
00000170: 46ec 983d b129 1a3e 6f08 34be 2a34 b63c
00000180: 7a5e 2ebe 156b b13c 9602 3abe 39a9 0abe
00000190: 16f2 6ebe f6b9 bdbd 9260 8d3d f0e3 d2bd
000001a0: 97eb 04be c3c3 42be b1ae 26be cf77 31be
000001b0: 8c71 6e3d 15cf db3b 9f6f aabd 6f1c 3ebe
000001c0: fb49 efbc 1cac 0fbe e2ff 88be 4288 093d
000001d0: 987d 0a3d 7123 0d38 f154 3abd c4a6 a2bb
000001e0: a202 f93d eaa2 09be aecb 39be 9bd2 153d
000001f0: 2300 9c3d 3916 83be 68be 49be 0022 61bb
00000200: 0ac8 f03d 0bdd 9abc be31 24bd 8dc0 e63c
00000210: 8c6c 1c3e c184 a93d 3576 ef3d 5bd6 e1bc
00000220: 4ef2 b5bd afa1 d4bd b35f 28bd 1699 283d
00000230: 6995 053d 0d49 b23d 1cc8 20bc a1ef 143d
00000240: 8e66 ffbd c985 0fbe 9bf4 a33d 01a0 073d
00000250: 3e5b 74be c6d8 64bd fe42 c73d 666b 213d
00000260: ae4d 10bd f7b0 dbbd b297 38bc e469 5dbc
00000270: 8413 b73d b54a 723d 19f9 20bd 4bcd 8b3d
00000280: 4258 b33d 47fa d23b 8bc4 82bd c16a ed3c
00000290: 6600 a7bd 7dc1 ddbb b880 3cbd 306a b3bd
000002a0: 2708 453d 92b3 e13b d279 423d f5dc 90bd
000002b0: c6c9 923b cf1a 31bd d1fe 8a3c a1f1 8a3d
000002c0: e814 2fbd d43d 2fbe 8121 923d dc7c ca3d
000002d0: 6447 d9bc ecf8 92bd 00b0 91bb 4e21 773d
000002e0: a66f 0b3c 60d3 33bd 3ae6 c03d 4f6c a83d
000002f0: 5d66 f6bc b229 4c3d d81b f7bd 71a0 03bd
00000300: 0c8f 05be 34fb 1abe 9582 cabd ded1 38be
00000310: 3593 8dbd 73bd 033d dc3c 8dbd 5e43 e6bd
00000320: 6dca 51be c0fa 8dbd 01f1 4abe 65a0 50be
00000330: 4713 d7bd 24ce 26bd d22d 61be 89cb 283d
00000340: 1966 033d dd7c abbc 23c5 7abe 5af4 33bd
00000350: 02c7 503d cceb 1dbc 3c52 f9bd feb6 0dbe
00000360: e682 d83c 5485 b33c 9710 833d 4451 26bd
00000370: 080d f03c 3405 80bd 2526 31bd 8a11 713d
00000380: bb8f 68bd 84af 2abe 1016 8cbd cf12 61be
00000390: d25c 3fbe 157d a0bd 5765 0abe 57b5 3bbe
000003a0: 5b62 28be d4dd 45be 21a1 77be e81a 5bbd
000003b0: 61b4 30bd 34c6 7c3d 9d3e d5bd 0850 5bbd
000003c0: 0c40 27be a81d 5c3d a830 05be 5b85 ed3b
000003d0: e334 70bd d9f0 863c 6ca5 fabd 9ab3 62be
000003e0: 8789 e9bd db18 af3c 0798 10be ea88 05be
000003f0: 5fe6 53bd de45 b5bd 36e5 94bd afb0 52be
-0.0932565 -0.028464956 0.071089625 0.030263307 -0.12911578 -0.13848694 -0.07503712 0.01332968
-0.1863797 -0.07029552 -0.10850986 -0.15858103 -0.0077336477 -0.09021769 -0.0981659 0.07197091
0.06443981 -0.1350726 -0.13536735 -0.08997837 0.115867235 -0.016569573 -0.10360345 0.06341786
0.055031158 -0.08303897 -0.11754706 0.029502038 0.054920938 0.14216769 -0.0058445903 -0.10187872
-0.15528679 -0.1578889 -0.2116548 -0.11156483 -0.20849891 0.022866298 -0.15917182 -0.0020516375
-0.14186144 -0.19297343 -0.2665922 -0.17262077 -0.04118096 0.09713316 -0.17909504 0.020824973
-0.103261106 0.084668264 -0.1499882 0.13083337 -0.062276643 0.21384461 0.041131426 -0.08355895
-0.0051136888 -0.0885259 -0.23191664 -0.14704669 0.025319602 -0.013555103 -0.11732553 -0.22672111
0.022827914 -0.100664295 0.04019585 -0.042186808 0.014773137 -0.21287678 -0.1819715 -0.14101197
-0.18569027 -0.11848872 0.021508755 -0.05294685 0.10116446 -0.18569861 -0.24505945 -0.21132168
-0.10573552 -0.165756 -0.05725997 0.070255645 0.020720057 -0.10383894 -0.1569713 -0.115855925
-0.0020287393 -0.19557732 -0.085054 -0.12500274 0.074669406 0.15054967 -0.17581342 0.02224167
-0.17028227 0.021657506 -0.18165049 -0.13541116 -0.23334536 -0.09263985 0.06903185 -0.10297382
-0.12980495 -0.1901999 -0.16277577 -0.1733086 0.058213755 0.0067080357 -0.08322071 -0.18565534
-0.029210081 -0.14030498 -0.26757723 0.03357721 0.03381118 3.3650027e-05 -0.045491163 -0.0049637277
0.12158705 -0.13441053 -0.18144104 0.036577802 0.076172136 -0.25602892 -0.1970154 -0.003435254
0.117569044 -0.01890423 -0.0400865 0.028167987 0.15275782 0.08277274 0.11692468 -0.027568033
-0.088841066 -0.10382401 -0.04110689 0.04116162 0.03261319 0.087053396 -0.009813335 0.03636134
-0.12470733 -0.14015879 0.08005639 0.033111576 -0.23862931 -0.055870794 0.097295746 0.039409064
-0.03523033 -0.10727113 -0.011266636 -0.013514016 0.08939269 0.059153277 -0.039300058 0.06826266
0.08757068 0.006438527 -0.06385144 0.028981568 -0.08154373 -0.0067674504 -0.046021193 -0.08760488
0.048103478 0.0068878615 0.04747946 -0.07073394 0.0044796197 -0.043238457 0.016967209 0.06784368
-0.042744547 -0.1711343 0.071352966 0.09887096 -0.0265233 -0.07176384 -0.0044460297 0.060334496
0.008510506 -0.043902755 0.09418912 0.08223783 -0.030078107 0.04984445 -0.12065858 -0.03213543
-0.1304285 -0.15134889 -0.09888188 -0.18048808 -0.06912843 0.032163095 -0.06896374 -0.11243318
-0.20487376 -0.069325924 -0.19818498 -0.20373686 -0.10501724 -0.040723935 -0.21990135 0.04120973
0.03207979 -0.020933563 -0.24489264 -0.043934204 0.05097104 -0.009638738 -0.12173888 -0.13839337
0.026429605 0.021914162 0.06399649 -0.040604845 0.029303089 -0.062509924 -0.043249268 0.058854617
-0.056777697 -0.16668516 -0.068401456 -0.21979831 -0.18687752 -0.078363575 -0.1351522 -0.18330894
-0.1644377 -0.19322902 -0.2418256 -0.053492457 -0.043140773 0.06171246 -0.10412333 -0.05354312
-0.16333026 0.05373922 -0.13006842 0.007248563 -0.058644187 0.016472267 -0.12238583 -0.22138825
-0.114031844 0.021374157 -0.14120494 -0.1304051 -0.05173337 -0.08851217 -0.07270281 -0.20575212

lstm.bias_hh_l0 f4 [256]
00000000: 454e df3b 74e9 38bd 771c 8d3d af60 38be
00000010: b2b9 b8bd f901 39be 4979 a0bd d449 8dbd
00000020: 5c45 fbbd 16b7 fd3c 65ba 0fbe 4fe5 a8bd
00000030: cbb9 f93d 9730 06bc e6a6 6fbe 791b e8bd
00000040: 340c 48bd ceea cebc 89af c0bd 0248 8b3d
00000050: dfcc 2d3e 3d9e 0ebe adfa 7ebd 5d97 cf3c
00000060: 142c 853d cefa 13be ede4 babd 1f53 15bd
00000070: 32ea debd 639b 7abd 4288 22be 4111 65bd
00000080: 6abc 97bd dc05 42bd d213 35bd f03d 77be
00000090: dd84 b4bc 3354 493d 0f9b fcbb 1a1e 30bd
000000a0: 46e2 c1bd 3054 64be 87b1 88be 3a9f ab3b
000000b0: 387e cc3d f4b3 be3c 0cf4 46bd 5a9e cdbd
000000c0: f62e 57bd bfed 91bd 00e3 99bc d8ee 80bd
000000d0: e2ec 903c cf26 873e dddf 323c 1218 4dbe
000000e0: 2679 c53d 8b1d fbbb 8972 1dbe 92c5 abbd
000000f0: 039a 15be 6cf0 10be e74f b23d 2e46 a23c
00000100: 98da 1abe 2297 85bd d81e 52bb e3b2 babd
00000110: d33b d4bc d71b 9fbb 6ade 2ebe 57e7 d1bd
00000120: 24e8 f3bc 5459 0e3c 89ff 1fbe 0eb2 92bd
00000130: e73e bb3c 2b25 5b3c b693 17be b5d7 cebd
00000140: cd9c cf3c e315 dfbd fc45 1ebd c6e3 2bbd
00000150: 08f3 04ba 616a a1bd d2ea 66bd 610a 5cbd
00000160: f531 44be c66d cabd 7a67 1abe 85a1 333d
00000170: 255b 4d3d 86dd a33d 96b6 1abd 10d2 89bd
00000180: aff6 89bd 0eb4 96bd 15ba 27be 3d96 20be
00000190: f9c7 edbc ecd4 89bd edae 133d a22e 8f3c
000001a0: 89e5 6cbd d887 e6bd 4073 22bd ee0b 373c
000001b0: f0c0 873d 687c 1e3e db77 2dbd 58e5 423d
000001c0: 31a8 febd 6229 7e3d f968 babd dcca babc
000001d0: 0dd7 f4bc e659 a0bc 7ae6 3fbd c5cb 6cbe
000001e0: d065 c43d 24ed 00bd 0ae2 46bd d4a5 01be
000001f0: ef2b 1dbc 91c2 6abd 132b 3cbd 016d 97bd
00000200: 919f cd3c 8a18 a83c c888 22bd f11f 2cbd
00000210: acde 9d3d 99e8 9fbd d5d3 e9bc 1ec6 bb3d
00000220: ba8e 9b3d 6988 04be 8512 7fbd 0bcd 863c
00000230: 9c66 063d d361 6b3d 429c 22be f798 ae3d
00000240: f9f3 68bd 7661 383b 4219 b3bd 9996 d13c
00000250: 0797 43be ea78 a23d 2937 723c 2a3f 073d
00000260: f223 04bd 2769 97bd e718 1f3d 2cd1 23bc
00000270: 0fb6 e3bd ee19 7a3d f1ba b33b 8eda afbd
00000280: 2d15 9abd 0be5 cabd 6e56 a63d 16fb 753d
00000290: a47e b9bd 6356 fabd 266e aabd 0436 793d
000002a0: b564 023d 8578 4bbd 90d7 473c 359d debd
000002b0: d19c 973d 2fe9 b6bd 4d55 533c 671e 0b3e
000002c0: 6e3e 8abd 9b7d 96bc 4e23 803d c90f 04bd
000002d0: f711 79bc 284f 9f3c d295 bf3d f88b e03d
000002e0: bca8 05be 0d61 393d 27ee 98bd 415a dbbd
000002f0: c313 7d3d 1d8f 20bd 37a1 20bd 7c61 933c
00000300: 26c6 c9bd e2fc 9ebd 9fe4 3a3d ae56 55be
00000310: c677 e8bd f7a9 27be 98b1 78bd c057 debd
00000320: 7726 64be 5ed3 2dbe 6bc9 81bd d81e b23c
00000330: 8e04 25be 3b9c 22be 44be 7bbe 17da 9abd
00000340: 1268 e0bd 1bad 3cbe bdf9 49be 9f4a 94bd
00000350: fcd2 033e 8bf7 45bc 2417 2e3d 2830 48be
00000360: f625 35bd 1fb5 2cbe 8f94 cf3c cedd 863c
00000370: c705 2cbe dd14 d6bb 7e62 3fbe 93ef 163d
00000380: af9b fbbd d083 18be 83df b8bd 3d1a 09be
00000390: 86c9 2bbe 9b3b 2bbe aa65 cd3c 7d45 12bb
000003a0: 32fd f8bd 4b49 0cbe 122b 80bd ae21 91bc
000003b0: f232 9abd 2662 a6bd aad7 d8bd e1a8 273b
000003c0: 7262 70be 9645 05bc a4e5 d0bd fb90 e83d
000003d0: 32ad 1b3d de58 9e3d 68c9 66be 64a2 3fbe
000003e0: c675 a03d e7be febd 6b71 d8bd f909 673d
000003f0: 3f60 a4bc 8c29 97bd 035c 2d3d 870b 3ebe
0.0068147504 -0.045144513 0.06890195 -0.18005632 -0.090197936 -0.18067159 -0.07835633 -0.06898847
-0.122690886 0.030971091 -0.14035948 -0.08246862 0.1219364 -0.008190296 -0.2340351 -0.11333365
-0.048839763 -0.025258448 -0.09408481 0.06800844 0.16972683 -0.1392755 -0.06225078 0.02534073
0.06502548 -0.14451143 -0.091256954 -0.036456224 -0.10884513 -0.061183345 -0.1587229 -0.055924658
-0.07408984 -0.04736887 -0.044208355 -0.24144721 -0.02203601 0.049152564 -0.007708914 -0.042997457
-0.09466986 -0.2229774 -0.26697943 0.005237487 0.09985012 0.023279168 -0.048572585 -0.10039969
-0.05253502 -0.071254246 -0.018785 -0.06295556 0.01769108 0.26396796 0.010917631 -0.20028713
0.09642248 -0.007663434 -0.15375723 -0.08387293 -0.14609532 -0.14154214 0.087066464 0.019808855
-0.1512245 -0.06522967 -0.0032061841 -0.09116151 -0.025907433 -0.0048556137 -0.17077032 -0.10249203
-0.02977378 0.00868829 -0.15624823 -0.071628675 0.022857143 0.013375561 -0.14802441 -0.100997366
0.025343323 -0.108928464 -0.03864096 -0.04196527 -0.0005071615 -0.07881618 -0.056376286 -0.053720836
-0.19159682 -0.09884219 -0.15078536 0.04385521 0.05013575 0.080012366 -0.037771784 -0.06729519
-0.06736504 -0.073585615 -0.16379578 -0.15682311 -0.029026018 -0.06730065 0.036055494 0.017478291
-0.05783609 -0.11256379 -0.039660692 0.011172278 0.06628597 0.15477145 -0.04235063 0.047582
-0.12434424 0.062051184 -0.09102053 -0.022801809 -0.0298877 -0.019574117 -0.04685066 -0.23124607
0.09589732 -0.031476155 -0.04855541 -0.12660915 -0.009592994 -0.05731446 -0.045939516 -0.07393838
0.025100501 0.020519514 -0.039681226 -0.04202265 0.07708487 -0.07808036 -0.028543392 0.09168647
0.07595582 -0.12942661 -0.06227352 0.016455194 0.0328127 0.05746634 -0.1587992 0.085252695
-0.056873295 0.0028134263 -0.08745052 0.025584506 -0.19100581 0.07933219 0.014783659 0.033019222
-0.032260843 -0.07393103 0.038842108 -0.009998601 -0.11118709 0.061059885 0.0054849316 -0.08586608
-0.0752357 -0.09906968 0.08121954 0.060053907 -0.09057358 -0.12223508 -0.083217904 0.06084253
0.031834323 -0.049675483 0.01219739 -0.108698286 0.07402957 -0.08931195 0.012898755 0.13585816
-0.06750189 -0.01837044 0.06256734 -0.032241616 -0.015202037 0.019446924 0.09354748 0.10964197
-0.13052648 0.04525857 -0.07467299 -0.10710574 0.061786424 -0.039198983 -0.039216246 0.01799082
-0.09852247 -0.07763077 0.045628186 -0.20833847 -0.1135097 -0.1637343 -0.06071624 -0.10856581
-0.22280298 -0.16975161 -0.063372456 0.021743223 -0.16115019 -0.1587991 -0.245843 -0.075611286
-0.1095735 -0.1842541 -0.19724174 -0.07240795 0.12873453 -0.012082945 0.042502537 -0.1954962
-0.044225655 -0.16865967 0.025339393 0.016463187 -0.16799079 -0.006533249 -0.18689916 0.03684957
-0.12285554 -0.14894032 -0.090270065 -0.13388915 -0.16776094 -0.16721956 0.025072891 -0.002231925
-0.12157668 -0.13699834 -0.06258215 -0.017716255 -0.07529248 -0.08124189 -0.1058801 0.0025582837
-0.23475054 -0.008134266 -0.102000505 0.11355778 0.03800697 0.07731794 -0.22537768 -0.18714291
0.078349635 -0.124387555 -0.10568508 0.056405995 -0.020065425 -0.07380971 0.042324077 -0.18559085

fc.weight f4 [6, 64]
00000000: 23a5 0ebc c9ce 46bc 51cd fbbd 3cf3 00be
00000010: 35f0 8b3c c290 b4bd 58cf e1bd a89e 153d
00000020: b24f 663c a0b8 04bd 5c6b a53c 7cbb 123d
00000030: 981c 90bc ebde ac3d 3a04 823c d6c9 303d
00000040: af62 20be bbd3 cb3c 4a36 afbd 503c f0bd
00000050: 02f9 d8bd f9bb 43bd dfa0 1a3d ca45 81bc
00000060: e2b9 89bd a530 f93c 4b0a 923d 3da8 71bc
00000070: 4e9c 10bd c950 42bd a36d a93c e33c 90ba
00000080: 99ad 78bd e0ae 843d 665a 04bc 4524 923c
00000090: 9085 82bd 5a4a 1cbe 568e acbc d209 40bc
000000a0: f1f8 81bd c6c0 72bc a1b7 593c c68e 2e3d
000000b0: 757a 1ebd 4058 7cbd b564 5fbd 1b76 3ebc
000000c0: 3c5d 2fbc a13e 913d 2418 583d 61dd 81bc
000000d0: bdd5 c73d b1ff b9bd a3ca 6e3d 0acf b6bd
000000e0: ad5c 5bbd 3b33 363d 8cfd 1a3c 4ca7 5e3c
000000f0: aa95 78bd 8e26 8ebd f5a8 f03c 47ab ecbb
00000100: e232 01be bdf2 20bd 7399 a93d c139 3fbd
00000110: 0154 d0bd 1053 10bc 864b 683d 7610 9bbd
00000120: 9b34 10be d2e9 2d3e 9af2 153d 938a c0bd
00000130: a4b0 a6bd 1a0c bfbd 89f5 8c3d be80 8cbd
00000140: f557 80ba 0353 883c b7b2 333d 243b e5bc
00000150: 7e50 4dbe 3324 0abe 01e4 163e 6d6c ff3d
00000160: 8f2c babd d406 c83c 5fc7 103d 9fb9 113e
00000170: 0869 4abd 27ee 82bc f74f 09be 0f85 f93d
00000180: 7942 213e 0302 ba3d 296e e23d df62 ab3d
00000190: 8e68 81bd 9ced 01be a835 42be 7279 14bd
000001a0: a7b6 83bd 40ee da3d 69f6 9bbd 2e09 a2bd
000001b0: 076a 5ebd 683c 0b3e 49c6 db3d ce18 07bc
000001c0: 207f 993b e2ec 3a3e c4ce 013e 23d5 85bb
000001d0: fbdd 743d da4b 13be d945 b8bc 8033 3c3d
000001e0: b149 aebd 1c71 c8bd 4ef6 48be 3eab 253e
000001f0: f5b3 dd3c aaac 193e 9e90 00be cb5c 133e
00000200: e999 70bd 1965 79bd 15f7 bd3b 86e4 393d
00000210: c636 b03c 7163 8f3d f612 3dbd 7570 08bc
00000220: 91ab 403c 1c11 70bd e0eb a03d 030e d23c
00000230: 6ce3 6cbd 806a 143d fae0 c9bb 202f 143d
00000240: 914d fabc 3a2f 633b f752 bc3d 73ec 093d
00000250: eb7a ebbd c3e0 4d3d 1247 b93b 32b0 a43d
00000260: 7312 2bbe 1804 9cbd 15be a13b f7e1 aabd
00000270: 3bdd 0dbd ec4a 67bd 0015 be3d 99c5 78bc
00000280: 97e0 703d 9c06 323d fdbe 333d 066c c73d
00000290: f665 77bd 91b8 87bd 4861 893c b4bf 2bbd
000002a0: 3d5f d9bd 25f8 893c 8a8e 393d 1959 8abc
000002b0: faf7 ee3b 4a98 ebbd f194 4ebd 4a04 f93d
000002c0: 8ef6 6dbd 0921 c83d 0e69 a93d f3a5 db3c
000002d0: dc29 923d e65b 873d 870f cc3c 662c da3d
000002e0: eeef 3ebd b5d5 eb3c cf01 74bd 92c4 c03c
000002f0: 37c9 f8bc 0a5a 9abd bdf8 963d 0665 f63c
00000300: 33cd 9a3c a4c7 9ebc f091 8b3d c38e adbd
00000310: 60b1 f73d 6adf bfbd f57a efbc 1afc 28be
00000320: 6e98 8a3d 629f 6ebd fe64 083d 741b 073e
00000330: 287a 08bd 7471 f33c 1e7d 8f3c fe2d 3ebe
00000340: 04bf 303d d128 debc 65dd f6bd 654e 95bd
00000350: a59b 20be f89b d9bd 5650 57be e8fc 08be
00000360: 0a0d 0abe d0c7 06bd fc7b 523d 70ad 8b3d
00000370: 1c71 1a3d c8bc b7bd e935 b0bd dfbf 28bd
00000380: 6807 f13d 516b 0b3d ccb0 2cbe 2873 cfbd
00000390: 0f52 97bd 4928 38be f1eb debd f250 863d
000003a0: 0810 0cbe 38e9 2a3c 52a3 873c e55e 88bd
000003b0: 91d1 4c3d 9e36 3f3d 4ca7 fabc c353 99bc
000003c0: cb90 543d 5f7e b43d 6011 5ebe 7c7e 673d
000003d0: b757 49bd b43e 2a3e 5ddf a43d b79a dc3d
000003e0: 7891 9abc a578 8bbd 27ec 9c3d 5878 123e
000003f0: 2b85 fa3d a84c b8ba a2a5 10bd cb4e efbb
-0.008706364 -0.012134262 -0.1229502 -0.12592787 0.017082313 -0.08816673 -0.11025876 0.03652826
0.014057087 -0.032402635 0.020192795 0.03582333 -0.01759176 0.08440956 0.015871156 0.043161236
-0.15662645 0.024881234 -0.08555277 -0.11730254 -0.105943695 -0.047786687 0.037751075 -0.015780348
-0.067249075 0.030418703 0.071308695 -0.014749584 -0.035305314 -0.047440324 0.020682162 -0.0011004474
-0.06071243 0.06478667 -0.008078193 0.01783956 -0.06373131 -0.15262738 -0.021063965 -0.011721091
-0.0634631 -0.014816469 0.013288409 0.042616628 -0.038691003 -0.0616076 -0.0545394 -0.011624838
-0.010703381 0.07092024 0.052757397 -0.015852632 0.09757564 -0.090819724 0.05829872 -0.08926208
-0.05355518 0.04448245 0.009459864 0.013589691 -0.060689606 -0.069409475 0.02937744 -0.0072225663
-0.12617067 -0.039293993 0.08281221 -0.046685938 -0.101722725 -0.008808866 0.05671265 -0.07571499
-0.14082567 0.16983727 0.036608316 -0.09401431 -0.0813916 -0.0932848 0.068827696 -0.06860493
-0.0009791838 0.016641146 0.043871608 -0.027982302 -0.20050237 -0.13490371 0.14735414 0.124718525
-0.0909053 0.024417318 0.035346385 0.14230965 -0.04941657 -0.0159827 -0.1340941 0.12183582
0.15748014 0.09082415 0.11056168 0.083684675 -0.0631877 -0.12688297 -0.1896578 -0.03624863
-0.064313225 0.10689974 -0.076153584 -0.07911907 -0.054300334 0.13597262 0.10731179 -0.00824566
0.004684344 0.18254426 0.12676531 -0.004084246 0.05978201 -0.14384404 -0.022494243 0.04594755
-0.08510149 -0.09787199 -0.19625208 0.16178605 0.02706335 0.15007272 -0.12555167 0.14390866
-0.05874053 -0.06088743 0.0057972767 0.045383953 0.021510493 0.07001389 -0.04616066 -0.008327593
0.011759655 -0.058610067 0.078574896 0.025641447 -0.057834074 0.03623438 -0.0061608525 0.036177754
-0.030554565 0.00346656 0.09195512 0.03367276 -0.11498054 0.050263178 0.005654224 0.08041419
-0.16706257 -0.07617968 0.0049359896 -0.083438806 -0.03463481 -0.056467935 0.09281349 -0.01518383
0.058807936 0.043463334 0.043883312 0.09737401 -0.060399972 -0.06627 0.01677002 -0.04193087
-0.106138684 0.016841957 0.04530195 -0.016888188 0.0072927447 -0.11503656 -0.05043501 0.12159021
-0.05809646 0.09771926 0.08271991 0.02681253 0.0713689 0.06609325 0.024909748 0.106529996
-0.046615534 0.028788427 -0.059572037 0.023531232 -0.030369384 -0.07536705 0.07371662 0.030077469
0.018896675 -0.019382305 0.06814945 -0.08474495 0.120943785 -0.09368785 -0.029233435 -0.16502419
0.06767355 -0.058257468 0.03329944 0.13194066 -0.033319622 0.029717185 0.017515715 -0.18572232
0.043150917 -0.027119072 -0.120539464 -0.07290343 -0.15684374 -0.10625452 -0.2102674 -0.13377726
-0.13481537 -0.0329054 0.051387772 0.0682019 0.037705526 -0.08971554 -0.086040325 -0.041198608
0.11768991 0.03403789 -0.16864318 -0.10129386 -0.07388698 -0.17984118 -0.10884846 0.06558408
-0.1367799 0.01043158 0.01655737 -0.06658725 0.050004546 0.046682946 -0.030597351 -0.018716699
0.051895898 0.08813166 -0.21686316 0.05651711 -0.049155917 0.16625482 0.08050416 0.10771697
-0.018868193 -0.068101205 0.0766223 0.1430372 0.12232431 -0.0014060931 -0.03531421 -0.007303094

fc.bias f4 [6]
00000000: 739a 363e e939 653e 1cf5 303e 33fc 803e
00000010: 0792 193e bfef 8f3e
0.17832355 0.22385372 0.17281002 0.25192413 0.14997111 0.281126
