models/lstm_L1_best.pth (torch, 80439 bytes, 6 tensors)

lstm.weight_ih_l0 f4 [256, 9]
0.072401546 0.22369318 0.06048313 0.43747166 0.17952517 -0.03535098 0.025746673 0.23136267
-0.51356316 0.27048886 0.1525739 0.051312923 0.17830943 -0.17020223 0.080997564 -0.21336634
-0.056554567 0.0056075733 -0.09905945 0.27647296 -0.013601003 -0.011528637 0.33230755 0.09123045
-0.13618492 0.4271596 -0.1845398 -0.088616125 0.2040033 -0.13317373 0.020017441 -0.0041601756
-0.06381922 -0.11276801 0.06954041 0.2325071 -0.027893677 0.015629644 -0.12315012 -0.0054429625
-0.28836548 -0.1969377 -0.058643654 0.32600853 0.465596 -0.088986166 0.25248677 -0.10035778
0.16021581 -0.08292246 0.013181672 0.010436736 0.40389395 0.08130763 -0.11190276 0.101345025
0.003894621 -0.4049712 -0.2796853 -0.004384399 -0.16195332 0.47010323 0.2627955 0.35076037
0.2258219 0.23747626 0.40524548 0.3163786 0.12240343 -0.055804554 -0.122753456 -0.5517837
-0.3818677 -0.0800093 -0.09708229 -0.01648439 -0.2511599 -0.24338007 0.15244907 0.06992233
0.14762498 -0.27849367 0.3404643 0.059633028 0.15124361 -0.6015739 -0.054948475 0.22806744
0.58116496 0.15851219 -0.11153724 -0.010043413 -0.22390644 0.030886844 -0.07486675 0.012119238
-0.14253552 0.22560869 -0.11373381 -0.07600366 0.1785044 -0.16063616 -0.0018515522 -0.20130993
-0.05762127 0.11858307 0.28770682 0.26085898 -0.1445262 0.0702497 0.008396856 -0.2993867
-0.36861604 0.12563136 0.036203425 0.31263405 0.3457949 -0.043281112 0.0005354492 0.18233322
0.13809846 -0.6153933 0.09639059 0.14122522 0.013327331 -0.20208049 -0.19767301 0.028215785
-0.17498259 0.17500946 -0.47360393 -0.080732495 0.06672323 -0.103772625 -0.17545158 -0.0632496
0.08135503 -0.047119167 -0.019258581 -0.16630392 -0.0810126 -0.04353447 0.19169076 0.39498392
0.010389011 0.28080988 -0.10134266 -0.18991517 -0.09961499 -0.030688347 0.001957255 0.28631923
-0.098722845 -0.023626529 0.12175911 0.039660856 0.025764734 -0.16019015 -0.08991416 -0.07789059
0.08630255 0.6138848 -0.21853204 -0.18737173 -0.2428891 0.22362949 -0.3015052 -0.0098998165
0.1286071 0.20913988 -0.0067639193 -0.22632457 -0.19119538 -0.03286754 -0.020154865 -0.29188922
-0.1543443 -0.030145144 -0.07080897 -0.6226818 -0.17205992 0.10766396 -0.10620819 -0.16737607
-0.29400748 0.1166033 0.22475289 -0.1680774 0.10954074 -0.2336824 -0.051084716 -0.08448593
0.05415757 0.0027932236 -0.2405199 0.21267428 0.2116837 0.48119652 -0.41787893 0.119668275
-0.036688767 0.1718648 -0.27635723 -0.43293217 0.5621234 0.56959695 0.18897155 -0.02894456
-0.02278642 -0.15209301 -0.066438496 -0.23604809 -0.19342753 0.21358864 0.35982013 0.10497915
-0.15046619 -0.21326706 -0.03164542 -0.28094277 0.0035127162 -0.043524623 -0.11198668 0.25766027
-0.20429608 0.038366184 0.09910777 0.0050339624 0.12609012 -0.13371973 -0.007117755 0.08427402
-0.14515841 -0.5631934 -0.138815 -0.10489482 0.06803299 0.33619943 0.09032094 0.2538337
-0.041158643 -0.3719941 -0.009560223 0.2351465 0.26269984 0.12893845 0.16847798 -0.3849312
0.06211602 -0.19721906 0.31523842 0.040605973 -0.16514009 0.14368592 -0.11872162 0.1268189
00000000: 4347 943d d30f 653e 29bd 773d 49fc df3e
00000010: 72d5 373e 30cc 10bd b0ea d23c 56ea 6c3e
00000020: e078 03bf 847d 8a3e 553c 1c3e 802d 523d
00000030: bf96 363e 7e49 2ebe 0de2 a53d b57c 5abe
00000040: c3a5 67bd bcbf b73b aedf cabd dd8d 8d3e
00000050: bed6 5ebc 9ce2 3cbc 3724 aa3e 08d7 ba3d
00000060: 0f74 0bbe aab4 da3e 00f8 3cbe 5f7c b5bd
00000070: 3ee6 503e b25e 08be 9efb a33c 1552 88bb
00000080: a7b3 82bd eaf2 e6bd 346b 8e3d 5716 6e3e
00000090: 4881 e4bc bd09 803c 2136 fcbd e15a b2bb
000000a0: a4a4 93be 09aa 49be 5434 70bd 97ea a63e
000000b0: 9962 ee3e 613e b6bd f245 813e 6188 cdbd
000000c0: 9d0f 243e 40d3 a9bd f1f7 573c d8fe 2a3c
000000d0: 30cb ce3e 9d84 a63d 462d e5bd fb8d cf3d
000000e0: e63c 7f3b 6358 cfbe e932 8fbe 01ab 8fbb
000000f0: 17d7 25be 5fb1 f03e 228d 863e dd96 b33e
00000100: db3d 673e fa2c 733e 567c cf3e 60fc a13e
00000110: a6ae fa3d 5193 64bd 2a66 fbbd b241 0dbf
00000120: 2a84 c3be eadb a3bd 14d3 c6bd 450a 87bc
00000130: 0898 80be a038 79be 9c1b 1c3e 7033 8f3d
00000140: 012b 173e b996 8ebe 5651 ae3e c341 743d
00000150: 9bdf 1a3e bf00 1abf a711 61bd 838a 693e
00000160: 3ac7 143f 0551 223e a36d e4bd 218d 24bc
00000170: bb47 65be 6806 fd3c bd53 99bd c58f 463c
00000180: d5f4 11be f705 673e 46ed e8bd cfa7 9bbd
00000190: dcc9 363e ce7d 24be c8af f2ba 3124 4ebe
000001a0: 4804 6cbd aedb f23d 4f4e 933e 4f8f 853e
000001b0: adfe 13be 13df 8f3d f792 093c 3749 99be
000001c0: 3ebb bcbe 82a5 003e 0b4a 143d 9211 a03e
000001d0: 070c b13e 8947 31bd 635d 0c3a 8fb5 3a3e
000001e0: af69 0d3e 6a8a 1dbf 6e68 c53d 589d 103e
000001f0: e15a 5a3c 30ee 4ebe cb6a 4abe ca24 e73c
00000200: a32e 33be ae35 333e 377c f2be 1457 a5bd
00000210: 30a6 883d be86 d4bd 94a9 33be 0289 81bd
00000220: 779d a63d 0700 41bd 2cc4 9dbc 934b 2abe
00000230: efe9 a5bd 3351 32bd 954a 443e 553b ca3e
00000240: ac36 2a3c 50c6 8f3e be8c cfbd 1f79 42be
00000250: f202 ccbd 2166 fbbc 4a45 003b 6f98 923e
00000260: 342f cabd 6c8c c1bc d75c f93d 6c73 223d
00000270: 9010 d33c e308 24be ea24 b8bd 1a85 9fbd
00000280: 64bf b03d 8e27 1d3f ddc6 5fbe 60de 3fbe
00000290: ecb7 78be 21ff 643e e45e 9abe d732 22bc
000002a0: 94b1 033e c428 563e dea3 ddbb a1c1 67be
000002b0: b9c8 43be 1da0 06bd d11b a5bc 8172 95be
000002c0: 6f0c 1ebe f3f2 f6bc 4b04 91bd 1368 1fbf
000002d0: 7a30 30be ec7e dc3d ae83 d9bd a264 2bbe
000002e0: 2688 96be b6cd ee3d 9f25 663e 7b1c 2cbe
000002f0: e556 e03d 704a 6fbe 353e 51bd f606 adbd
00000300: 54d4 5d3d 840e 373b d94a 76be 49c7 593e
00000310: 9dc3 583e 645f f63e 3af4 d5be a414 f53d
00000320: f646 16bd 53fd 2f3e b27e 8dbe 49a9 ddbe
00000330: 52e7 0f3f 1bd1 113f c281 413e 241d edbc
00000340: 96aa babc 45be 1bbe e810 88bd 97b6 71be
00000350: de11 46be fbb6 5a3e 583a b83e 4fff d63d
00000360: cf13 1abe ae62 5abe a19e 01bd bbd7 8fbe
00000370: 9935 663b e046 32bd 4659 e5bd 0cec 833e
00000380: fe32 51be dc25 1d3d 04f9 ca3d f0f3 a43b
00000390: c51d 013e d3ed 08be 0e3c e9bb db97 ac3d
000003a0: 68a4 14be 712d 10bf 8525 0ebe 18d3 d6bd
000003b0: e154 8b3d 5522 ac3e 2ffa b83d 7ef6 813e
000003c0: f795 28bd 0376 bebe 7ba2 1cbc 3eca 703e
000003d0: 9880 863e 7108 043e 7e85 2c3e b415 c5be
000003e0: 5e6d 7e3d cbf3 49be ee66 a13e 7352 263d
000003f0: 7c1a 29be 6722 133e 5224 f3bd d0dc 013e

lstm.weight_hh_l0 f4 [256, 64]
-0.1224891 -0.033726804 0.12359026 0.016512249 -0.1723868 0.031120967 0.23444353 0.26456195
0.26410377 0.112017855 -0.11346664 -0.06909082 -0.033144087 -0.06619766 -0.20454787 0.36773178
-0.26546958 -0.13181809 -0.034819994 -0.039295703 0.0018876704 -0.25118572 0.059505273 -0.027325703
-0.03260249 0.5848642 0.08784693 0.65664655 0.08626507 -0.06281571 0.20039506 0.24245502
0.09841196 -0.01061153 0.108761735 -0.0047718785 0.28529018 0.3986221 0.050314497 -0.16027273
0.109466255 -0.17308663 0.21001841 -0.09041713 -0.16090693 0.11520156 -0.30684638 0.16926861
-0.6763636 -0.24049327 -0.01604567 -0.33456066 -0.11846017 -0.15589628 -0.12700592 -0.058768786
0.22605945 0.14643997 -1.024734 -0.65264887 -0.3741372 0.34836122 -0.119410194 0.26356652
0.7169147 -0.15439366 0.20427425 -0.11233111 -0.1956037 -0.19177726 -0.06904019 -0.5541812
0.031298574 -0.30065486 0.010318445 0.041345228 0.13935977 0.11497409 -0.17535545 0.32935286
-0.30890816 -0.15452214 -0.15710711 0.23542517 0.2958171 -0.07994529 0.0146953855 -0.049277794
0.006573044 -0.07153172 0.111185856 -0.3756904 -0.35189086 0.32482636 0.10654103 -0.24264826
-0.26281837 0.36999878 0.068689935 0.10731715 -0.103816904 -0.5109576 -0.2527774 0.065969184
-0.38918585 -0.1067036 -0.43202096 0.32255185 0.031077793 -0.4831085 0.00014462433 0.0050969496
0.24996388 0.17863055 -0.006884037 -0.2482868 -0.16738088 -0.15329535 0.051566105 0.48481992
-0.14143378 0.056716964 0.12990338 0.38839576 -0.540012 -0.018776933 -0.4629753 0.46311197
-0.2500909 -0.22808194 0.013569032 -0.15421994 -0.04354421 0.07663815 0.44166964 0.14417738
0.13649401 0.06272298 0.07472797 0.04532297 -0.12085007 -0.30403793 0.13600177 0.114142776
-0.21094932 0.24208845 -0.0045182863 -0.0763822 0.039940067 -0.041124217 0.045798108 -0.043734837
-0.09867349 0.26850244 0.0323614 0.28775388 -0.026530765 -0.29500732 0.061583497 0.023882603
0.012917009 -0.0526665 0.11309779 0.060260136 0.27115682 -0.0105854925 -0.094770074 -0.15190178
0.04459591 -0.088861614 0.3478948 -0.1647087 -0.062222663 0.21327512 -0.07760338 0.16216277
-0.066788524 0.12735754 -0.32720637 -0.20081802 0.23360862 -0.051495943 -0.18454607 0.16346802
0.23785582 0.08425863 -0.19040273 -0.37834233 0.023430951 0.26865783 0.08072565 0.20605795
-0.029886449 -0.2331726 -0.004379648 -0.036025587 -0.2536643 -0.12466082 -0.2327267 0.07963263
-0.10755451 0.1268375 -0.019858338 -0.051628053 -0.16294341 -0.07340742 -0.20460364 0.24711394
0.012515222 -0.044878975 -0.25366977 -0.2263442 0.33495525 -0.22598149 0.021120314 0.027067088
-0.15646636 0.07175177 -0.052366324 -0.19228731 -0.07250673 -0.04610339 0.010090828 0.15853633
0.084303156 0.09854234 -0.15639094 -0.06298127 -0.04839511 -0.042486627 -0.14721923 0.115041725
-0.23694462 0.06425471 -0.118527666 0.18338406 0.16889267 -0.063177064 -0.06514061 0.11273409
-0.12695523 -0.08080421 -0.14917834 -0.086318836 0.020651205 -0.061989356 -0.0067746215 0.16605102
-0.22309136 0.15759811 -0.028180754 -0.24480464 -0.0069862544 -0.08729011 -0.025278075 0.04689824
00000000: 91db fabd 1e25 0abd e41c fd3d b244 873c
00000010: 2a86 30be 66f1 fe3c f711 703e aa74 873e
00000020: 9c38 873e 9e69 e53d 3361 e8bd 7d7f 8dbd
00000030: 18c2 07bd a492 87bd ff74 51be 5747 bc3e
00000040: a1eb 87be 52fb 06be 699f 0ebd 88f4 20bd
00000050: b56b f73a 6a9b 80be cdbb 733d 27da dfbc
00000060: 308a 05bd a9b9 153f 17e9 b33d fd19 283f
00000070: beab b03d 86a5 80bd 5d34 4d3e 2146 783e
00000080: 368c c93d fcdb 2dbc 79be de3d 6b5d 9cbb
00000090: 8e11 923e 3218 cc3e 9316 4e3d 891e 24be
000000a0: d82f e03d 9f3d 31be 110f 573e 9e2c b9bd
000000b0: c9c4 24be ccee eb3d f81a 9dbe c054 2d3e
000000c0: 2a26 2dbf de43 76be 3572 83bc 894b abbe
000000d0: 3f9b f2bd 46a3 1fbe d70d 02be 8ab7 70bd
000000e0: 217c 673e 5cf4 153e 7c2a 83bf ff13 27bf
000000f0: e98e bfbe 675c b23e 558d f4bd 31f2 863e
00000100: b987 373f 5f19 1ebe 452d 513e da0d e6bd
00000110: 564c 48be 4261 44be f164 8dbd d2de 0dbf
00000120: ef32 003d 6fef 99be b20e 293c 9d59 293d
00000130: 54b4 0e3e 8977 eb3d 6190 33be f0a0 a83e
00000140: 3629 9ebe 0d3b 1ebe b0e0 20be 4c13 713e
00000150: 5775 973e 5bba a3bd eac4 703c 83d7 49bd
00000160: b162 d73b 397f 92bd 69b5 e33d 7e5a c0be
00000170: 0a2b b4be a44f a63e 2f32 da3d c978 78be
00000180: 2190 86be 7b70 bd3e 4fad 8c3d 18c9 db3d
00000190: f59d d4bd 1ece 02bf 0a6c 81be da1a 873d
000001a0: 5e43 c7be 6b87 dabd da31 ddbe 8425 a53e
000001b0: db96 fe3c ff59 f7be 4ca6 1739 5004 a73b
000001c0: 88f6 7f3e edea 363e 7d93 e1bb e53e 7ebe
000001d0: e565 2bbe 75f9 1cbe fb36 533d 513a f83e
000001e0: 04d4 10be 0c50 683d 6405 053e cfdb c63e
000001f0: 3a3e 0abf 15d2 99bc 190b edbe 031d ed3e
00000200: ea0b 80be 508e 69be a550 5e3c d5eb 1dbe
00000210: 6a5b 32bd 76f4 9c3d 8622 e23e 3ca3 133e
00000220: 16c5 0b3e e874 803d fa0a 993d 94a4 393d
00000230: 3e80 f7bd dcaa 9bbe 0c44 0b3e b0c3 e93d
00000240: 1903 58be 09e6 773e 220e 94bb 456e 9cbd
00000250: 3298 233d de71 28bd cc96 3b3d 4d23 33bd
00000260: 5415 cabd 2779 893e 638d 043d 7a54 933e
00000270: 0c57 d9bc 330b 97be fa3e 7c3d 73a5 c33c
00000280: dda1 533c d4b8 57bd d09f e73d 55d3 763d
00000290: 11d5 8a3e c66e 2dbc d016 c2bd 248c 1bbe
000002a0: 33aa 363d 14fd b5bd 441f b23e 66a9 28be
000002b0: 31dd 7ebd cb64 5a3e 85ee 9ebd ff0d 263e
000002c0: 6cc8 88bd 046a 023e 9887 a7be 3da3 4dbe
000002d0: 1937 6f3e 69ed 52bd a5f9 3cbe 2964 273e
000002e0: 7a90 733e ca8f ac3d eff8 42be 16b6 c1be
000002f0: 44f2 bf3c 858d 893e 7d53 a53d db00 533e
00000300: 6dd4 f4bc ccc4 6ebe 2683 8fbb 918f 13bd
00000310: 4ae0 81be 2c4e ffbd e84f 6ebe 6f16 a33d
00000320: 8a45 dcbd b1e1 013e f4ad a2bc f077 53bd
00000330: a3da 26be a156 96bd 9e83 51be 700b 7d3e
00000340: a50c 4d3c 04d3 37bd 01e1 81be c6c6 67be
00000350: 417f ab3e b167 67be 8204 ad3c ccbb dd3c
00000360: b838 20be 98f2 923d 127e 56bd f7e6 44be
00000370: 697e 94bd e9d6 3cbd 0054 253c 5957 223e
00000380: 22a7 ac3d 91d0 c93d f224 20be 53fc 80bd
00000390: f339 46bd 7506 2ebd a3c0 16be ff9a eb3d
000003a0: 9ca1 72be f997 833d a2be f2bd 08c9 3b3e
000003b0: 33f2 2c3e fa62 81bd 7168 85bd 21e1 e63d
000003c0: 8d00 02be ad7c a5bd 35c2 18be eec7 b0bd
000003d0: b72c a93c 8de8 7dbd a5fd ddbb 4709 2a3e
000003e0: 1072 64be 6661 213e 53db e6bc 11ae 7abe
000003f0: f3ec e4bb 28c5 b2bd f713 cfbc 5e18 403d

lstm.bias_ih_l0 f4 [256]
-0.1068448 0.04579907 -0.12457691 -0.04300882 0.0128581915 -0.035696853 -0.05474479 0.15325202
-0.0078983335 -0.15020348 -0.08789688 0.08418476 -0.09341701 0.0146140475 0.016824406 -0.01112116
0.01947899 0.0067589046 -0.14409691 -0.039980553 0.008691846 -0.15247765 -0.17199267 -0.1349284
-0.062194135 0.038718153 -0.07819409 0.23704413 0.002010402 -0.08214087 -0.030416498 0.000255924
-0.0243353 -0.051515862 -0.15087746 -0.12981549 -0.14154609 -0.1313216 -0.061568696 -0.0052950927
0.10307573 -0.056465555 -0.046394434 -0.16137052 -0.11029785 -0.17515297 -0.14215301 0.009529452
-0.105064414 -0.14529249 0.07930478 0.08330812 0.1153311 -0.21417882 -0.021928182 0.022540266
-0.0782161 -0.15379594 0.0060696774 0.06811322 0.08670413 0.03413245 -0.03745225 0.07838218
-0.08755215 -0.029091667 -0.19011354 -0.20216033 -0.13495126 0.03912984 -0.037269775 0.091575
-0.28235355 -0.10163302 -0.069924995 -0.0828973 0.05533599 -0.036132082 -0.053383954 0.0144163165
-0.083022945 -0.17957178 -0.028014995 -0.09416005 -0.12346914 -0.05373838 0.0032286553 -0.1277791
-0.15092005 -0.116298825 -0.095531076 -0.06545952 -0.19591498 -0.09966827 -0.167477 -0.06597674
-0.07207665 -0.14153634 -0.1390999 -0.27709126 -0.16511549 -0.014946042 -0.040058237 -0.076554455
0.06658888 -0.052351017 -0.15841703 -0.070132166 -0.036976717 0.028532496 -0.20538738 -0.11634442
-0.11010977 -0.16173144 -0.17221688 -0.24125406 -0.16136868 -0.15871283 -0.14960359 -0.07807204
-0.09499599 -0.081832916 -0.06971385 0.15769802 -0.12857811 -0.06648668 -0.048477214 -0.009086101
-0.07675861 0.030311096 0.04790924 -0.006555673 -0.040055905 -0.066706926 0.001977207 0.21488982
0.062022287 0.064527914 -0.013356514 -0.028102694 0.08279328 0.07254549 0.09100089 0.05285808
0.07391747 0.06956868 0.025717825 -0.019163564 -0.04813725 0.04264903 -0.12909576 -0.029293235
0.13303591 0.029407913 -0.11741853 0.12220095 -0.06925376 0.032539956 0.05984551 0.0052320636
-0.051500145 -0.10880187 0.03814092 -0.1079497 -0.07476296 0.12045307 0.029840147 0.026896633
0.15591602 -0.06931018 0.026185637 0.10329392 0.021286486 -0.028608961 0.1010941 0.056517016
-0.025514225 -0.05952714 0.059530847 0.04060045 -0.013294281 -0.03932595 -0.1283868 0.011704045
0.05104624 0.01675671 0.13167273 -0.16080126 0.057380248 -0.07642542 0.099521875 -0.026576238
-0.027511168 -0.18705264 -0.14591597 -0.05004293 -0.10988085 -0.2070919 -0.21958223 -0.24096276
-0.057426278 -0.03628321 -0.21719405 -0.10611897 -0.080721155 0.044535875 0.031362306 -0.15638444
-0.13547501 -0.06118526 0.022553787 -0.12787335 0.016519729 -0.08213999 -0.11646474 -0.15323944
-0.12912756 0.03194235 -0.0028944348 -0.046507712 -0.03646023 -0.23896796 -0.12121307 -0.016984418
-0.13923335 -0.03982997 -0.18364152 -0.19829814 -0.0076895175 -0.1758346 -0.15093467 -0.069523886
-0.097781025 -0.08287702 -0.019743148 -0.008350091 0.0729281 -0.12240526 -0.2044538 -0.11506441
-0.09511277 -0.08624135 0.0031827523 -0.10008341 -0.08037991 -0.10114773 -0.0990702 -0.18686955
-0.07992992 -0.061510846 0.17230651 0.023609605 0.06911058 0.04630389 -0.054340426 0.031246068
00000000: 72d1 dabd ce97 3b3d 2e22 ffbd 042a 30bd
00000010: 2aab 523c dd36 12bd 133c 60bd 19ee 1c3e
00000020: 0368 01bc f1ce 19be 4803 b4bd 0f69 ac3d
00000030: 6b51 bfbd c26f 6f3c 56d3 893c 8735 36bc
00000040: 6792 9f3c cd79 dd3b 248e 13be a6c2 23bd
00000050: 3f68 0e3c 1a23 1cbe d91e 30be ac2a 0abe
00000060: 47bf 7ebd ed96 1e3d 3924 a0bd b2bb 723e
00000070: f3c0 033b 7939 a8bd 052c f9bc 8a2d 8639
00000080: d35a c7bc 4c02 53bd 9f7f 1abe 5aee 04be
00000090: 75f1 10be 2b79 06be 752f 7cbd 7582 adbb
000000a0: 5e19 d33d 6d48 67bd 1708 3ebd 503e 25be
000000b0: d7e3 e1bd 4d5b 33be 8f90 11be 6b21 1c3c
000000c0: 032c d7bd 8ec7 14be 8b6a a23d 739d aa3d
000000d0: b632 ec3d b151 5bbe bba2 b3bc 5da6 b83c
000000e0: c32f a0bd af7c 1dbe 25e4 c63b f27e 8b3d
000000f0: ef91 b13d 78ce 0b3d 8867 19bd d686 a03d
00000100: 8b4e b3bd a651 eebc 20ad 42be 1e03 4fbe
00000110: aa30 0abe 9c46 203d 31a8 18bd ac8b bb3d
00000120: a590 90be f924 d0bd d634 8fbd 0fc6 a9bd
00000130: fea7 623d 3cff 13bd 22a9 5abd 6a32 6c3c
00000140: ef07 aabd aae1 37be b47f e5bc fcd6 c0bd
00000150: 63dd fcbd c71c 5cbd d997 533b 86d8 02be
00000160: c98a 1abe 142e eebd cca5 c3bd a40f 86bd
00000170: f09d 48be e11e ccbd 177f 2bbe d01e 87bd
00000180: ec9c 93bd e7ee 10be 3470 0ebe e8de 8dbe
00000190: 0914 29be 3ee0 74bc 1b14 24bd 95c8 9cbd
000001a0: c05f 883d 056e 56bd 1338 22be 74a1 8fbd
000001b0: e674 17bd fbbc e93c 1251 52be fc45 eebd
000001c0: 3b81 e1bd ed9c 25be 9f59 30be 4e0b 77be
000001d0: d53d 25be 9e85 22be af31 19be 3ce4 9fbd
000001e0: 428d c2bd 0498 a7bd 23c6 8ebd 977b 213e
000001f0: fba9 03be 2b2a 88bd 0b90 46bd dfdd 14bc
00000200: 9e33 9dbd fa4e f83c 7b3c 443d f9d0 d6bb
00000210: a911 24bd a49d 88bd 0794 013b 140c 5c3e
00000220: 150b 7e3d 3627 843d 48d5 5abc 9f37 e6bc
00000230: 868f a93d bb92 943d ad5e ba3d b781 583d
00000240: 0b62 973d 067a 8e3d 30ae d23c e8fc 9cbc
00000250: 912b 45bd c0b0 2e3d ae31 04be 5ef8 efbc
00000260: 913a 083e dde8 f03c 2079 f0bd 7e44 fa3d
00000270: ead4 8dbd 9e48 053d 9120 753d bb71 ab3b
00000280: d1f1 52bd 84d3 debd a739 1c3d bb14 ddbd
00000290: 531d 99bd 19b0 f63d 5373 f43c 5456 dc3c
000002a0: 73a8 1f3e 7ff2 8dbd 4383 d63c c38b d33d
000002b0: ff60 ae3c 575d eabc 6c0a cf3d 637e 673d
000002c0: 3503 d1bc bbd2 73bd 9ed6 733d a84c 263d
000002d0: 42d0 59bc 3f14 21bd d477 03be 53c2 3f3c
000002e0: dd15 513d 5e45 893c 37d5 063e 16a9 24be
000002f0: 8d07 6b3d ee84 9cbd 20d2 cb3d 69b6 d9bc
00000300: 1a5f e1bc ba8a 3fbe ff6a 15be d1f9 4cbd
00000310: 3609 e1bd e60f 54be 2ada 60be f1be 76be
00000320: d137 6bbd b49d 14bd 1e68 5ebe e754 d9bd
00000330: 2251 a5bd 406b 363d c375 003d 3e23 20be
00000340: f6b9 0abe 659d 7abd b8c2 b83c 3bf1 02be
00000350: 6254 873c 0339 a8bd 1185 eebd cdea 1cbe
00000360: 043a 04be fbd5 023d 8fb0 3dbb df7e 3ebd
00000370: 5257 15bd 04b4 74be 8f3e f8bd e822 8bbc
00000380: 3093 0ebe c024 23bd 860c 3cbe ab0e 4bbe
00000390: 59f8 fbbb fc0d 34be 9e8e 1abe 8a62 8ebd
000003a0: 6b41 c8bd 6dbb a9bd 62bc a1bc d2ce 08bc
000003b0: 545b 953d 9caf fabd 565c 51be e4a6 ebbd
000003c0: 7cca c2bd 4e9f b0bd b995 503b 88f8 ccbd
000003d0: 399e a4bd 8b26 cfbd 51e5 cabd bb5a 3fbe
000003e0: 4cb2 a3bd ccf2 7bbd 1e71 303e ee68 c13c
000003f0: d989 8d3d 26a9 3d3d 1194 5ebd c1f7 ff3c

lstm.bias_hh_l0 f4 [256]
0.095228456 -0.08970201 -0.0485386 -0.022380207 -0.07261616 -0.10320354 0.070756786 -0.027014257
-0.03797597 0.0010930017 -0.055294074 0.02429377 0.015535296 -0.043506324 0.016594382 0.11009345
0.13027073 -0.019514263 -0.050770767 -0.15526614 -0.07268103 -0.14351255 -0.0062744445 -0.018662982
-0.20041655 -0.024535635 -0.030084021 0.23480454 0.016111903 -0.17443766 -0.17777425 -0.11752796
-0.12604368 -0.17697471 -0.008182712 -0.11063423 0.06496778 0.035383258 -0.053502258 -0.0067011868
-0.10626493 -0.20495297 -0.06583916 -0.16161062 0.025810929 -0.10895639 -0.03661182 -0.14141949
-0.18959169 -0.069480106 -0.06750868 -0.02393748 -0.12214834 -0.17596032 0.046802875 -0.051458675
0.041337356 0.045899544 -0.029108223 0.10687087 0.08911505 -0.10584771 0.097653024 0.03386118
-0.1416565 0.04907392 -0.042696334 -0.12510408 -0.039271843 0.039704632 -0.11306572 0.076152235
-0.1323203 -0.14139315 -0.13520138 -0.16118015 -0.05553103 -0.18537252 -0.097577035 -0.1158794
-0.08307579 -0.037728265 0.01951174 -0.19680662 -0.20856512 -0.013019307 -0.043549582 -0.039326843
-0.0044052363 -0.009793122 -0.055172343 0.09116931 -0.19289294 -0.085338704 -0.046312243 -0.032229416
-0.10306577 -0.087642856 0.046155408 -0.10660828 -0.126403 -0.062297363 -0.06793084 -0.024267439
-0.13214591 -0.06593087 -0.18189602 -0.10155741 -0.17481673 -0.15143481 -0.14683443 -0.11735524
-0.16395466 -0.2352941 -0.03712919 -0.21873955 -0.25391844 -0.037982773 0.0428683 -0.10362915
-0.12510727 -0.11552058 -0.13568851 0.020968575 -0.093055375 -0.06981266 -0.11276626 -0.021929797
-0.12651622 0.004396838 0.09501704 -0.10989697 0.14118758 0.13880472 0.031302355 0.0005871486
0.016530488 0.092408255 0.014404669 0.04292495 -0.06811572 -0.011791461 0.034459695 0.020401033
-0.062286597 0.042119693 0.12101348 0.12146586 0.031062135 0.06227181 -0.06720912 0.08517852
-0.066966854 -0.0064463834 -0.07538305 0.11945032 0.109694965 0.07049164 0.0018654576 -0.051397666
0.09213335 -0.13222916 -0.0009833117 0.016236477 -0.023449905 0.085976996 0.07884889 -0.10029926
-0.00589741 -0.059983276 -0.08399334 -0.028896526 -0.1196219 0.09335289 -0.094255134 -0.10367454
0.11497497 -0.056535468 -0.07565 0.074895345 -0.02091914 -0.04513495 -0.11592375 -0.13030498
0.11259212 -0.020147372 -0.07799383 0.021335892 0.13665523 -0.0139095085 0.06959158 -0.17861213
-0.14194432 -0.13420583 -0.021931421 -0.08239359 -0.009064011 -0.12291471 -0.12916356 -0.14573722
-0.0491364 -0.1330799 -0.17602785 -0.1178967 -0.03759658 0.16369478 -0.04375964 0.07514518
-0.08797024 -0.097265325 0.042471644 -0.06083396 -0.053023145 0.033576235 -0.17892295 -0.046023168
-0.11318551 -0.068002075 -0.089548945 0.023895705 -0.21914302 -0.048534743 -0.0026905774 -0.10386369
0.01911757 -0.20228522 -0.187902 -0.27999303 -0.16370144 -0.15803172 -0.04890896 0.020695288
-0.013790534 -0.18760604 -0.017293336 -0.11790194 -0.15065844 0.049721874 -0.05697483 -0.18754946
-0.07967118 0.005991928 -0.12813124 -0.0943789 -0.14666761 -0.055402305 -0.0011756173 -0.19296792
1.8905723e-05 -0.018572127 0.008018655 -0.121955894 0.11149065 -0.04428537 -0.06867861 0.09893748
00000000: 2307 c33d b0b5 b7bd 69d0 46bd b256 b7bc
00000010: c8b7 94bd 615c d3bd efe8 903d 014d ddbc
00000020: b18c 1bbd 0d43 8f3a 0a7c 62bd ba03 c73c
00000030: c187 7e3c b033 32bd f1f0 873c ad78 e13d
00000040: b165 053e 60dc 9fbc 02f5 4fbd 16fe 1ebe
00000050: cbd9 94bd f4f4 12be db99 cdbb 1ce3 98bc
00000060: ff39 4dbe f5fe c8bc c472 f6bc 9a70 703e
00000070: 1cfd 833c c99f 32be 740a 36be 80b2 f0bd
00000080: 9811 01be dc38 35be c810 06bc 3394 e2bd
00000090: d40d 853d 09ee 103d 2f25 5bbd a195 dbbb
000000a0: 6da1 d9bd 31df 51be aed6 86bd 417d 25be
000000b0: 7171 d33c 8724 dfbd 47f6 15bd 45d0 10be
000000c0: 5324 42be 964b 8ebd fe41 8abd 8918 c4bc
000000d0: e928 fabd f12e 34be 5fb4 3f3d 55c6 52bd
000000e0: 5c51 293d 2901 3c3d 5e74 eebc 1ddf da3d
000000f0: f481 b63d afc6 d8bd 4ffe c73d 05b2 0a3d
00000100: 670e 11be bc01 493d 5ae2 2ebd 491b 00be
00000110: 83db 20bd 53a1 223d 008f e7bd b4f5 9b3d
00000120: f97e 07be 5ec9 10be 3b72 0abe 690c 25be
00000130: 8174 63bd 4bd2 3dbe 78d6 c7bd 2e52 edbd
00000140: a423 aabd f488 1abd 16d7 9f3c ad87 49be
00000150: 1892 55be ee4e 55bc 0c61 32bd 2f15 21bd
00000160: cd59 90bb 5573 20bc 65fc 61bd fab6 ba3d
00000170: ba85 45be 0fc6 aebd e8b1 3dbd fe02 04bd
00000180: 2514 d3bd 197e b3bd 740d 3d3d 7155 dabd
00000190: ca6f 01be 852b 7fbd 531f 8bbd 82cc c6bc
000001a0: 4251 07be c406 87bd f342 3abe 55fd cfbd
000001b0: 2803 33be ba11 1bbe c45b 16be f257 f0bd
000001c0: bbe3 27be f0f0 70be c714 18bd 43fd 5fbe
000001d0: 9901 82be d393 1bbd ac96 2f3d 853b d4bd
000001e0: 1f1c 00be 0e96 ecbd eef1 0abe 4ac6 ab3c
000001f0: d193 bebd f1f9 8ebd fff1 e6bd 1ea6 b3bc
00000200: 788d 01be 5a13 903b 4b98 c23d aa11 e1bd
00000210: 7a93 103e d322 0e3e e636 003d e0ea 193a
00000220: f26a 873c 8a40 bd3d 9001 6c3c 13d2 2f3d
00000230: 4180 8bbd f930 41bc 9c25 0d3d 1120 a73c
00000240: 3b20 7fbd b385 2c3d ead5 f73d 18c3 f83d
00000250: 0576 fe3c ba10 7f3d efa4 89bd 1372 ae3d
00000260: eb25 89bd 2f3c d3bb 6e62 9abd 5fa2 f43d
00000270: c1a7 e03d ec5d 903d 5f82 f43a 5c86 52bd
00000280: 69b0 bc3d 1567 07be 77e2 80ba 5c02 853c
00000290: 041a c0bc b514 b03d 877b a13d b369 cdbd
000002a0: 103f c1bb 06b1 75bd b304 acbd 68b8 ecbc
000002b0: 54fc f4bd cd2f bf3d d608 c1bd 5153 d4bd
000002c0: ff77 eb3d bc91 67bd 63ee 9abd bb62 993d
000002d0: 9e5e abbc 6ddf 38bd 6e69 edbd ab6e 05be
000002e0: b396 e63d 1a0c a5bc 3bbb 9fbd 9cc8 ae3c
000002f0: 59ef 0b3e b5e4 63bc 0886 8e3d 19e6 36be
00000300: da59 11be 416d 09be 86a9 b3bc f8bd a8bd
00000310: 3881 14bc b5ba fbbd 7443 04be 233c 15be
00000320: 4043 49bd 1946 08be a540 34be d373 f1bd
00000330: dffe 19bd 9b9f 273e 4f3d 33bd b7e5 993d
00000340: be29 b4bd 0b33 c7bd bff6 2d3d 082d 79bd
00000350: cc2e 59bd 3c87 093d 9437 37be ca82 3cbd
00000360: cecd e7bd ac44 8bbd 7065 b7bd edc0 c33c
00000370: 0767 60be 5ecc 46bd 6654 30bb 7cb6 d4bd
00000380: 739c 9c3c db23 4fbe 6269 40be 3f5b 8fbe
00000390: 5aa1 27be 11d3 21be c354 48bd 2a89 a93c
000003a0: b1f1 61bc cc1b 40be c1aa 8dbc 9376 f1bd
000003b0: 3546 1abe 2aa9 4b3d 705e 69bd f70c 40be
000003c0: a52a a3bd ef57 c43b d634 03be ba49 c1bd
000003d0: 0930 16be 87ed 62bd 2c17 9aba 6299 45be
000003e0: bb97 9e37 9324 98bc ad60 033c 03c4 f9bd
000003f0: 3655 e43d 9364 35bd 5fa7 8cbd bc9f ca3d

fc.weight f4 [6, 64]
-0.032045018 -0.012988108 -0.043311384 -0.06178659 0.074646436 0.063903645 -0.01851425 -0.020359376
-0.00028519932 -0.1715309 -0.040505935 -0.13083337 0.114581294 -0.11915675 -0.065136984 0.07521031
-0.0022495287 0.0059903436 -0.00746747 0.023034353 -0.014549043 0.037853174 0.05818904 -0.067175224
0.10242203 0.07245109 0.030356752 0.028272316 0.045180347 0.16005504 0.058305345 0.06710761
0.0881783 -0.02815238 0.13352518 -0.036981415 0.09352196 -0.04556138 -0.034056533 -0.04421383
-0.07131044 -0.07704706 0.086301476 -0.047978982 0.0418967 0.00886394 0.04061827 0.07662091
0.1826616 0.13088405 -0.024024192 -0.07597506 0.0010930486 0.040045034 0.025957622 -0.046951298
-0.11167354 0.097033255 0.15189677 0.036478374 -0.041494202 0.045583997 0.12816587 0.071748994
0.064149514 -0.088864364 0.025198221 -0.14694148 0.1830157 0.03226047 -0.18300581 -0.00458066
-0.0973498 -0.05610787 0.031683277 0.14688277 -0.043118358 -0.06314591 -0.12727022 -0.06472684
-0.1981879 0.31637207 -0.06096109 -0.09764656 -0.043208994 0.066354714 -0.037130073 -0.095894724
-0.0028678481 -0.069896646 -0.020032803 -0.11731467 0.008918686 0.083369985 0.0066946857 0.0836827
-0.08156373 -0.09663399 0.1274983 -0.12579848 -0.0019165047 -0.034540907 0.010672169 -0.16827966
0.0595475 -0.11786227 0.050164685 -0.06801739 -0.13966966 -0.13278787 0.09080518 0.0036023434
0.07060612 0.031239465 0.009671707 0.2821742 0.22101893 -0.048131786 -0.025602104 0.058432557
0.21172947 -0.09266662 0.21475253 0.06032692 0.09991766 0.14453793 0.22238827 0.22438692
-0.021752892 -0.014027184 -0.023014061 0.060087577 0.07009797 -0.03799902 0.014113503 -0.030039147
0.10180099 -0.22095291 -0.06198206 -0.1408962 0.046072714 -0.19169044 -0.09810833 0.008473301
-0.005869228 -0.021512168 -0.0372119 -0.063515685 -0.011819908 0.048818167 0.067026064 -0.14065589
0.02000183 0.049305294 -0.03288864 0.024860017 -0.03935908 0.12020595 0.110586 0.08188024
-0.100024134 0.007689409 0.15919857 0.02624107 0.06432367 -0.06808672 0.028635237 0.044457078
0.02258243 0.053136215 0.009845987 0.021093022 0.0019645486 -0.025902487 -0.037128568 -0.02458975
0.1535829 0.12342974 -0.042501125 -0.16047734 0.009869734 -0.07725963 -0.045191582 0.06121576
0.023060111 0.10870891 0.1855456 0.0037610945 -0.012825538 0.0071419547 0.12359024 0.04669108
0.12927642 0.22158109 0.12140945 0.053131554 0.029933104 -0.07184714 0.022782532 0.07535763
-0.088417225 -0.1002078 -0.04876655 -0.11575038 -0.13187791 -0.111553594 -0.10603106 0.16275306
-0.15193444 0.057966165 -0.020644668 -0.104878366 -0.11687693 0.087793 -0.035221763 -0.05404362
-0.06253463 -0.19077387 0.011429742 -0.13283055 -0.048997194 -0.04024054 -0.06890688 0.1560648
-0.014708966 -0.1800561 0.09428696 -0.007271048 0.1149253 -0.22107162 0.09282074 -0.09134382
0.1175619 0.006925852 0.14867401 -0.17862809 -0.16343658 -0.07667473 -0.068196565 -0.07098511
0.040189493 0.14044364 0.0377274 0.03902553 -0.023884034 0.02502176 0.042386662 0.07598062
0.05321773 -0.03546972 0.056845054 0.19268236 0.1553686 0.14742012 0.057231463 0.084943056
00000000: a341 03bd 13cc 54bc 4767 31bd ef13 7dbd
00000010: 3be0 983d eadf 823d 32ab 97bc b5c8 a6bc
00000020: ce86 95b9 cca5 2fbe 8de9 25bd 2ff9 05be
00000030: 99a9 ea3d 7408 f4bd 8a66 85bd dd07 9a3d
00000040: d46c 13bb a54a c43b aeb1 f4bb 8ab2 bc3c
00000050: 1c5f 6ebc ee0b 1b3d a157 6e3d 2a93 89bd
00000060: a4c2 d13d 3d61 943d b9ae f83c 589b e73c
00000070: 070f 393d 78e5 233e 96d1 6e3d b76f 893d
00000080: d396 b43d d29f e6bc d3ba 083e d379 17bd
00000090: 7188 bf3d 929e 3abd dd7e 0bbd 9019 35bd
000000a0: 350b 92bd d9ca 9dbd d4be b03d 9c85 44bd
000000b0: e09b 2b3d 0f3a 113c 585f 263d 6ceb 9c3d
000000c0: a40b 3b3e 7806 063e 62ce c4bc d098 9bbd
000000d0: a044 8f3a 4306 243d 14a5 d43c 0150 40bd
000000e0: 19b5 e4bd 5fb9 c63d d48a 1b3e 596a 153d
000000f0: d3f5 29bd 49b6 3a3d ea3d 033e 23f1 923d
00000100: d260 833d 85fe b5bd 806c ce3c d477 16be
00000110: 7868 3b3e 8e23 043d e065 3bbe 5c19 96bb
00000120: 555f c7bd 5ed1 65bd 53c6 013d 7068 163e
00000130: e09c 30bd a552 81bd 2053 02be 818f 84bd
00000140: c5f1 4abe 85fb a13e 56b2 79bd ebfa c7bd
00000150: eafb 30bd fbe4 873d b415 18bd 7464 c4bd
00000160: 82f2 3bbb f925 8fbd d51b a4bc ac42 f0bd
00000170: ae1f 123c e2bd aa3d 185f db3b d661 ab3d
00000180: e30a a7bd 0be8 c5bd ea8e 023e 51d1 00be
00000190: 3a33 fbba c47a 0dbd 52da 2e3c 8151 2cbe
000001a0: 14e8 733d c661 f1bd 7c79 4d3d b44c 8bbd
000001b0: 9005 0fbe 8bf9 07be 11f8 b93d 4b15 6c3b
000001c0: f199 903d e8e9 ff3c 1476 1e3c 2379 903e
000001d0: c952 623e d625 45bd 81bb d1bc fa56 6f3d
000001e0: 9ccf 583e ffc7 bdbd 16e8 5b3e 5c19 773d
000001f0: a1a1 cc3d c001 143e c0b9 633e afc5 653e
00000200: 1f33 b2bc 46d2 65bc fc87 bcbc 641e 763d
00000210: 868f 8f3d dca4 1bbd 523c 673c a814 f6bc
00000220: 0a7d d03d 7b41 62be e7e0 7dbd 1847 10be
00000230: beb6 3c3d 804a 44be 05ed c8bd 9ad3 0a3c
00000240: a752 c0bb 493a b0bc 816b 18bd 8314 82bd
00000250: 4aa8 41bc 8ff5 473d f644 893d 1908 10be
00000260: e1da a33c 59f4 493d 3db6 06bd 3ca7 cb3c
00000270: fd36 21bd 8a2e f63d ea7a e23d d4b0 a73d
00000280: 74d9 ccbd 70f7 fb3b f304 233e 83f7 d63c
00000290: 21bc 833d 0d71 8bbd 7294 ea3c a018 363d
000002a0: cafe b83c 5ca5 593d 1051 213c 46cb ac3c
000002b0: a8bf 003b 7431 d4bc 2014 18bd 7270 c9bc
000002c0: d644 1d3e bbc8 fc3d a915 2ebd 2c54 24be
000002d0: aab4 213c 4c3a 9ebd cf1a 39bd 60bd 7a3d
000002e0: 8fe8 bc3c c7a2 de3d aaff 3d3e b27c 763b
000002f0: 3522 52bc 0f07 ea3b e11c fd3d 253f 3f3d
00000300: 0a61 043e 27e6 623e 85a5 f83d 79a0 593d
00000310: 4536 f53c 9824 93bd 6fa2 ba3c 1a55 9a3d
00000320: 1714 b5bd bf39 cdbd 6fbf 47bd 890e edbd
00000330: 010b 07be 3676 e4bd d026 d9bd bda8 263e
00000340: b494 1bbe ee6d 6d3d 021f a9bc 78ca d6bd
00000350: 2c5d efbd d1cc b33d b244 10bd d85c 5dbd
00000360: 2812 80bd 3a5a 43be d043 3b3c bb04 08be
00000370: 48b1 48bd 44d3 24bd 0d1f 8dbd 73cf 1f3e
00000380: e0fd 70bc a060 38be 8619 c13d f941 eebb
00000390: f55d eb3d 9960 62be cd18 be3d 7812 bbbd
000003a0: 4bc4 f03d 42f2 e23b 003e 183e 48ea 36be
000003b0: eb5b 27be a407 9dbd a4aa 8bbd a460 91bd
000003c0: bd9d 243d 75d0 0f3e 0c88 1a3d 3cd9 1f3d
000003d0: 73a8 c3bc 6ffa cc3c a39d 2d3d ba9b 9b3d
000003e0: d6fa 593d b248 11bd 5cd6 683d 864e 453e
000003f0: f218 1f3e 4df5 163e 8a6b 6a3d a0f6 ad3d

fc.bias f4 [6]
0.007887583 0.008866016 0.020966396 0.09504277 0.056722023 0.11103446
00000000: ec3a 013c c442 113c b8c1 ab3c c9a5 c23d
00000010: 5a55 683d 0966 e33d
