models/lstm_last.pth (torch, 80418 bytes, 6 tensors)

lstm.weight_ih_l0 f4 [256, 9]
0.09281282 0.104546264 0.08876637 0.017314803 0.007944484 -0.14375828 -0.093965456 0.039993986
0.07138034 0.053397186 -0.27656394 -0.10946807 -0.027221654 -0.039982513 -0.035364885 0.088550515
-0.08834204 0.13427846 -0.07471023 0.007826884 0.05166223 -0.08863638 -0.1577009 -0.21033621
-0.11501467 -0.1475437 0.024162877 0.1662138 -0.05019249 0.01225167 0.14326268 -0.051467326
-0.063713685 -0.054051295 -0.043074157 0.01846981 -0.052163284 -0.13715513 0.055140194 0.106581785
0.040063567 0.04731826 0.0031930136 0.021943387 0.15793654 -0.0022503682 0.034630165 -0.1253622
0.09044553 0.0579446 -0.06387542 0.029204413 -0.17036168 -0.058068708 0.073159665 0.08146007
0.036225032 -0.05880009 0.025721764 0.17027456 -0.09817916 0.01355136 0.09419754 0.063632116
0.1353212 -0.16935219 0.14596431 -0.11024223 -0.015230699 0.33887503 0.14630325 -0.06682501
-0.10518425 0.10827807 -0.04623819 0.096210904 0.08910153 -0.01779472 -0.058572095 -0.05913079
-0.048662916 0.0989094 0.12108614 0.15322496 0.014169873 0.039259475 -0.113829955 -0.12157814
0.005585608 -0.21009716 0.14552327 0.22412802 -0.06889184 0.16458414 0.044585187 0.083861604
-0.048192494 0.07047641 -0.040394146 0.009749457 -0.11477418 -0.119324505 0.009870088 -0.14401072
-0.19124885 -0.0053970953 0.12102786 0.1281419 0.050000995 0.22814171 -0.002599624 0.014635584
-0.07903731 0.006832625 -0.08203308 0.16392586 -0.09049573 0.043949816 0.06214235 -0.0135971075
-0.09505844 0.009473297 0.025593778 -0.11999204 -0.10544346 0.12443126 0.042334713 -0.09530399
-0.16921502 -0.0063294047 -0.047167096 0.017221235 0.083611414 0.06641188 -0.06019982 -0.04445883
-0.07533643 0.039960716 0.050077304 0.06405614 0.01771766 -0.0075463415 -0.15535456 0.09984984
0.19106905 0.09747817 0.094242945 0.22194768 0.07604333 -0.05541034 -0.15052561 -0.11627444
-0.0015586336 0.069721475 -0.079003915 -0.14995852 0.041523565 0.11127969 -0.06233321 0.14887466
0.045851983 -0.14153926 0.08753573 -0.20099752 0.06027435 0.21971749 -0.07592817 0.04721248
-0.09743187 -0.09513954 0.10354127 0.0891382 -0.12919427 0.021986837 0.111259386 -0.035833824
-0.012826593 -0.07217544 -0.04075054 -0.052003272 0.03163188 -0.048200227 -0.12509368 0.15181004
0.018768836 0.021252548 -0.23757593 0.15574957 0.13385083 -0.019053077 0.0291643 -0.036824167
0.06732521 -0.12543763 0.08028348 -0.008490666 -0.038219824 0.047107674 0.1502034 0.07201804
-0.15404809 0.25723344 -0.10424815 0.06334346 -0.16372998 -0.054164223 0.097063996 0.069069125
-0.19944069 0.09637832 0.023754166 -0.12237027 -0.016573666 -0.20796373 0.003569761 0.00082818174
-0.06086224 -0.059218846 -0.15742898 0.04483208 0.07651406 -0.07066948 0.0040597995 0.08452077
-0.046509914 -0.11168067 0.12506011 -0.12440477 0.16118078 0.12092792 -0.030055776 0.19326189
-0.11107863 0.016797215 0.15407851 0.3309861 -0.0333437 0.09913229 -0.04708033 -0.13473146
-0.37264648 0.016217867 -0.14087015 0.063886866 0.3463834 0.1350205 0.023615697 -0.002514571
0.09196573 -0.17216983 0.10680542 -0.052291207 0.12809475 0.12451846 0.055065338 0.2522245
00000000: a614 be3d 5a1c d63d 25cb b53d c6d7 8d3c
00000010: 9529 023c 5f35 13be f670 c0bd bcd0 233d
00000020: db2f 923d 02b7 5a3d ca99 8dbe cc30 e0bd
00000030: f2ff debc b4c4 23bd c5da 10bd f959 b53d
00000040: acec b4bd 4b80 093e ad01 99bd 553c 003c
00000050: c69b 533d fe86 b5bd 587c 21be 6062 57be
00000060: d08c ebbd b215 17be 3af1 c53c f333 2a3e
00000070: a496 4dbd 3abb 483c 74b3 123e 67cf 52bd
00000080: 527c 82bd e464 5dbd 876e 30bd 004e 973c
00000090: 2ba9 55bd 6572 0cbe afda 613d 8d47 da3d
000000a0: b219 243d cbd0 413d e141 513b 9ec2 b33c
000000b0: 1eba 213e ea7a 13bb 5cd8 0d3d f35e 00be
000000c0: 823b b93d 5157 6d3d 1ed1 82bd 183e ef3c
000000d0: 4b73 2ebe 74d9 6dbd bcd4 953d 8ad4 a63d
000000e0: b360 143d 5dd8 70bd 73b6 d23c 745c 2e3e
000000f0: 2812 c9bd 8606 5e3c a4ea c03d 8e51 823d
00000100: a491 0a3e a96a 2dbe ab77 153e aec6 e1bd
00000110: 2f8a 79bc 0781 ad3e 85d0 153e 8ddb 88bd
00000120: d76a d7bd e5c0 dd3d 4264 3dbd 390a c53d
00000130: dd7a b63d 3cc6 91bc 4be9 6fbd 2133 72bd
00000140: c452 47bd 0391 ca3d 03fc f73d 01e7 1c3e
00000150: c128 683c 8bce 203d ae1f e9bd f6fd f8bd
00000160: 7a07 b73b b623 57be 0d04 153e d181 653e
00000170: 2a17 8dbd bf88 283e f59e 363d a2bf ab3d
00000180: 7e65 45bd f055 903d 5574 25bd 30bc 1f3c
00000190: ba0e ebbd 6860 f4bd 26b6 213c 8c77 13be
000001a0: bdd6 43be 1eda b0bb 74dd f73d a137 033e
000001b0: d8cd 4c3d fb9d 693e 745e 2abb 17ca 6f3c
000001c0: 50de a1bd 36e4 df3b f600 a8bd 2edc 273e
000001d0: d355 b9bd b904 343d fa88 7e3d 67c6 5ebc
000001e0: 00ae c2bd e335 1b3c 0baa d13c 63be f5bd
000001f0: bef2 d7bd d1d5 fe3d 2a67 2d3d bd2e c3bd
00000200: b446 2dbe e566 cfbb 4932 41bd 8c13 8d3c
00000210: 763c ab3d f402 883d 1694 76bd 761a 36bd
00000220: fc49 9abd d9ad 233d dc1d 4d3d de2f 833d
00000230: a024 913c 4d47 f7bb 4415 1fbe 137e cc3d
00000240: 9ba7 433e a3a2 c73d 7202 c13d 4146 633e
00000250: 9bbc 9b3d f4f5 62bd 6323 1abe 4b21 eebd
00000260: 114b ccba 22ca 8e3d cecc a1bd ba8e 19be
00000270: 9d14 2a3d 9be6 e33d 1c51 7fbd 9972 183e
00000280: 4acf 3b3d abef 10be ef45 b33d 4bd2 4dbe
00000290: 3de2 763d 9ffd 603e 3a80 9bbd e061 413d
000002a0: 5c8a c7bd 85d8 c2bd 720d d43d 178e b63d
000002b0: 814b 04be bd1d b43c f6db e33d 7dc6 12bd
000002c0: a126 52bc b8d0 93bd 0aea 26bd 6201 55bd
000002d0: 6e90 013d 9a6d 45bd 8f18 00be 1774 1b3e
000002e0: 1ac1 993c d319 ae3c 1b47 73be d17c 1f3e
000002f0: 3110 093e 3315 9cbc f8e9 ee3c f0d4 16bd
00000300: cde1 893d b972 00be aa6b a43d 6f1c 0bbc
00000310: 648c 1cbd faf3 403d ecce 193e 327e 933d
00000320: c8be 1dbe 1ab4 833e 0e80 d5bd 37ba 813d
00000330: d5a8 27be 4edb 5dbd 7dc9 c63d 1d74 8d3d
00000340: 2e3a 4cbe ff61 c53d 1998 c23c 449d fabd
00000350: 7fc5 87bc 72f4 54be a7f2 693b 561a 593a
00000360: af4a 79bd 768f 72bd 1035 21be d8a1 373d
00000370: 67b3 9c3d 29bb 90bd 1108 853b 3a19 ad3d
00000380: 2e81 3ebd d6b8 e4bd c20f 003e eec7 febd
00000390: 930c 253e 0fa9 f73d 8837 f6bc 72e6 453e
000003a0: 317d e3bd 509a 893c c2c6 1d3e 0377 a93e
000003b0: 6793 08bd df05 cb3d 4ed7 40bd 0bf7 09be
000003c0: 85cb bebe 55db 843c 4440 10be 1ed7 823d
000003d0: 2a59 b13e d042 0a3e b575 c13c 80cb 24bb
000003e0: 8758 bc3d 4a4d 30be cdbc da3d 4e2f 56bd
000003f0: 452b 033e 8903 ff3d 318c 613d 9223 813e

lstm.weight_hh_l0 f4 [256, 64]
-0.16907236 -0.12468772 -0.03618295 -0.0045223916 0.06891771 -0.04994831 0.06328424 -0.14073986
-0.00085853064 0.061733607 0.06755143 0.13915402 0.027383655 -0.10291199 0.029150572 -0.08632884
0.041077923 -0.0054010977 0.029089142 0.125831 -0.06820284 -0.06638194 -0.020177655 0.0564524
0.14426205 0.095860444 0.07099841 0.17277962 -0.10655175 0.022312658 -0.09514168 0.10965211
-0.094295435 -0.14231496 0.02095293 0.12725398 0.038847126 -0.016161859 -0.10877524 0.011385845
0.057902317 -0.10263763 -0.17451486 -0.094559595 0.21547359 -0.0023145755 -0.18021664 0.02754402
0.15925449 -0.05954695 -0.05158683 0.02653962 0.057616353 0.14669162 -0.101531945 0.18459098
-0.040706504 0.047559053 0.104129754 -0.096583925 0.09534825 -0.076760314 0.15560174 -0.110891685
-0.34559512 -0.054397106 -0.07814067 0.0042841616 -0.04884563 0.08054167 0.18001293 0.18952529
0.102526695 0.071335286 -0.11169493 -0.00042452075 -0.04325879 -0.01258204 -0.02442666 -0.17790659
0.16118528 -0.07441145 -0.06260622 0.19918677 -0.19315568 0.12486761 -0.027810993 -0.032603726
0.051785957 0.16813926 0.17570244 0.28440085 0.13033722 -0.11267331 0.12126845 0.10515948
-0.21085785 0.010672937 0.024182947 0.011773808 -0.071976855 0.050671346 -0.051368117 -0.076688275
0.010782797 -0.13391657 0.06494853 -0.035510674 -0.07078624 0.22075066 0.008084123 -0.06289798
0.3107066 -0.1441723 0.108006425 0.13379413 0.22458102 0.14967038 0.044532564 -0.060158193
0.064238556 -0.07925617 0.07388113 0.05647688 -0.06102749 -0.13766973 0.1606685 0.20998925
0.0030099044 -0.14193681 -0.09039528 0.06063734 -0.06486234 0.07481206 -0.09208489 0.017920624
0.09451812 0.1945355 0.046081197 0.12344723 -0.11164263 -0.10951136 0.010817974 -0.14142162
0.04916831 0.0194353 0.07595922 -0.02303576 -0.020424616 0.010311405 0.073784284 -0.029885406
-0.007826843 0.012092529 0.08309839 -0.025376977 0.018659946 0.11972427 -0.067167625 -0.14490892
-0.2296166 0.03948335 -0.04752354 0.014905559 0.041727122 0.06490004 -0.02020297 0.019354735
-0.12262641 -0.03696509 -0.07134186 -0.09677301 -0.058158215 0.080379516 -0.12862952 0.022743445
0.107033744 -0.15858531 -0.09283932 0.04460542 0.13250993 0.18112491 -0.131295 0.06545924
-0.07703313 0.018822417 0.12003435 0.051806837 0.02192313 0.12762086 -0.09715452 0.03844796
-0.06441651 0.024943596 0.0695478 -0.091930434 0.04395823 -0.056751795 -0.035851546 0.08972519
0.08909798 -0.08697612 0.07234863 -0.021412814 0.10250996 0.0029005024 -0.043548487 -0.05165445
-0.09490345 -0.013791396 0.19546776 -0.08459212 -0.031273328 0.06598206 -0.0787234 -0.052193858
0.050031677 0.19561654 -0.046286408 0.05249602 0.114033565 -0.07863412 0.14581005 -0.03808177
-0.04749212 0.15957226 0.18572229 -0.22602719 -0.025580786 0.06350281 -0.07586333 -0.037377253
-0.1383458 -0.038911972 0.039042093 0.12088609 0.04573036 0.1571479 0.026915565 -0.0056185964
0.13576843 -0.0528766 0.040172547 -0.0130028855 0.042057417 0.058000877 0.015399554 -0.12402137
0.033887926 0.15084761 0.03763118 -0.11836011 0.12375256 0.14376834 0.16663633 0.016344482
00000000: 4e21 2dbe 465c ffbd 9334 14bd 9230 94bb
00000010: ba24 8d3d 9996 4cbd 2b9b 813d 1c1e 10be
00000020: 040f 61ba 61dc 7c3d 6758 8a3d 647e 0e3e
00000030: b053 e03c 85c3 d2bd 2ecd ee3c 2dcd b0bd
00000040: 5341 283d b1fb b0bb 5a4c ee3c d7d9 003e
00000050: eead 8bbd 41f3 87bd 9c4b a5bc a23a 673d
00000060: 6eb9 133e 7b52 c43d 9d67 913d 24ed 303e
00000070: ce37 dabd 09c9 b63c a4d9 c2bd 4991 e03d
00000080: f71d c1bd 03bb 11be 7ba5 ab3c de4e 023e
00000090: 2a1e 1f3d e065 84bc 8ec5 debd b28b 3a3c
000000a0: fb2a 6d3d ae33 d2bd 06b4 32be 76a8 c1bd
000000b0: 1ca5 5c3e 22b0 17bb b68a 38be ffa3 e13c
000000c0: 9c13 233e 81e7 73bd b64c 53bd 9e69 d93c
000000d0: 20ff 6b3d 5436 163e fbef cfbd 6b05 3d3e
000000e0: ddbb 26bd 48cd 423d fb41 d53d cbcd c5bd
000000f0: f145 c33d 8334 9dbd 1056 1f3e 2e1b e3bd
00000100: d8f1 b0be 80cf 5ebd 3708 a0bd 2762 8c3b
00000110: 5b12 48bd 08f3 a43d 4f55 383e eb12 423e
00000120: 84f9 d13d 3c18 923d 50c0 e4bd 3692 deb9
00000130: 2130 31bd e724 4ebc 6b1a c8bc 252d 36be
00000140: c10d 253e 0865 98bd b137 80bd 9ef7 4b3e
00000150: 9aca 45be 97ba ff3d e1d3 e3bc 7c8b 05bd
00000160: 831d 543d b32c 2c3e 57eb 333e fd9c 913e
00000170: 1f77 053e 44c1 e6bd 985b f83d da5d d73d
00000180: 1feb 57be 8bdd 2e3c 511b c63c eee6 403c
00000190: 9a68 93bd c28c 4f3d 6067 52bd be0e 9dbd
000001a0: 54aa 303c 6d21 09be bc03 853d a473 11bd
000001b0: 60f8 90bd 760c 623e 4573 043c a8d0 80bd
000001c0: ef14 9f3e e7a1 13be 7932 dd3d 5401 093e
000001d0: 91f8 653e 3143 193e c767 363d 7068 76bd
000001e0: 818f 833d 0f51 a2bd fd4e 973d 4d54 673d
000001f0: f6f7 79bd 4bf9 0cbe 4986 243e 6c07 573e
00000200: d141 453b e257 11be 2921 b9bd dc5e 783d
00000210: 8cd6 84bd 1137 993d 0197 bcbd 46ce 923c
00000220: b792 c13d 5034 473e a3bf 3c3d e7d1 fc3d
00000230: e4a4 e4bd 7e47 e0bd df3d 313c d4d0 10be
00000240: b664 493d c736 9f3c 8290 9b3d 7db5 bcbc
00000250: 8651 a7bc 2bf1 283c 371c 973d 3dd2 f4bc
00000260: 293c 00bc be1f 463c 7d2f aa3d 61e3 cfbc
00000270: bedc 983c 0032 f53d 2e8f 89bd 0163 14be
00000280: 9d20 6bbe 4bb9 213d 0ba8 42bd 7236 743c
00000290: 0fea 2a3d 50ea 843d b380 a5bc d28d 9e3c
000002a0: 8e23 fbbd b568 17bd ae1b 92bd ee30 c6bd
000002b0: 4f37 6ebd 049e a43d 75b7 03be 7650 ba3c
000002c0: 8234 db3d 3064 22be 8b22 bebd 2cb4 363d
000002d0: afb0 073e cf78 393e 3272 06be 7e0f 863d
000002e0: 8cc3 9dbd 7831 9a3c 92d4 f53d 6833 543d
000002f0: 2398 b33c 0baf 023e f3f8 c6bd 9c7b 1d3d
00000300: ceec 83bd 8356 cc3c 146f 8e3d 0646 bcbd
00000310: 8c0d 343d 9274 68bd 12d9 12bd d7c1 b73d
00000320: 0079 b63d 8920 b2bd 852b 943d ed69 afbc
00000330: bef0 d13d 5b16 3e3b e65f 32bd 9e93 53bd
00000340: bd5c c2bd 4ff5 61bc b328 483e a23e adbd
00000350: 7618 00bd 9a21 873d bc39 a1bd 3ac9 55bd
00000360: 04ee 4c3d b44f 483e d196 3dbd 1106 573d
00000370: 6e8a e93d ed0a a1bd 3b4f 153e a1fb 1bbd
00000380: 1987 42bd e966 233e fc2d 3e3e ac73 67be
00000390: cc8e d1bc c30d 823d 3c5e 9bbd e418 19bd
000003a0: 85aa 0dbe 2962 1fbd 9aea 1f3d 2093 f73d
000003b0: c24f 3b3d 61eb 203e 087e dc3c 341c b8bb
000003c0: e106 0b3e 2295 58bd f88b 243d 0e0a 55bc
000003d0: 6644 2c3d 5492 6d3d 694e 7c3c ebfe fdbd
000003e0: 11ce 0a3d cc77 1a3e 2723 1a3d c966 f2bd
000003f0: fb71 fd3d 0238 133e b7a2 2a3e dde4 853c

lstm.bias_ih_l0 f4 [256]
-0.028415624 0.09948728 -0.017160034 0.07387842 0.12054903 -0.021423882 -0.0039731557 0.036207817
-0.009778664 0.06777493 0.16083519 0.061280042 0.1531293 0.055978116 -0.018975453 -0.013286057
-0.024727521 -0.037500262 -0.0074818106 0.04238399 -0.07957587 0.08411468 0.10497844 -0.08029999
0.098000206 0.06841457 0.15792036 0.120994404 0.021463804 0.078965075 0.025239734 0.07898169
0.023607273 0.1381345 0.053124204 -0.014185489 -0.079106525 0.024930015 0.07220142 -0.061382044
-0.010076312 0.017418899 0.076609656 0.031376354 -0.07161567 -0.021927314 0.034283023 -0.015075829
0.04932506 -0.064744845 0.04429555 -0.083557494 -0.10661326 0.11761213 -0.05132999 0.12829594
0.11267175 -0.10556697 0.11644436 -0.12796114 -0.093185335 0.20128481 -0.049424164 0.14410496
-0.0067033665 0.01620235 -0.08218052 -0.020794077 -0.07052651 -0.0014079434 0.039272524 -0.115271755
0.10720395 0.12620652 -0.060823195 0.051918242 -0.078765534 -0.11153874 -0.054560706 -0.032663077
0.075242214 0.038250435 0.04222372 0.0023795594 -0.011882785 -0.02088256 0.13287742 0.12974302
-0.05269689 -0.1513834 -0.045366872 -0.02919745 -0.04577831 -0.08461418 -0.040841617 0.027476814
0.07249424 0.12732896 -0.06988132 0.06297778 0.013602166 0.05091252 -0.065513775 -0.040039342
0.080243275 0.039108805 0.006066486 0.003380014 -0.011007468 0.051131573 -0.07174326 0.020580288
-0.0776824 -0.03216724 0.0031089461 0.13155249 -0.0928124 0.08205525 0.045799114 -0.015076185
0.12198228 -0.178713 -0.104826905 -0.13822086 -0.10069873 0.16051915 0.077425346 -0.07300054
-0.064480476 -0.05296375 -0.025809996 -0.11807558 0.15013048 0.10375713 0.012843872 0.06543101
0.13544805 0.04513419 0.10849412 -0.04441665 -0.051921055 0.09657751 -0.0005919392 -0.08150033
-0.1214358 -0.11776388 -0.026846943 0.02474741 0.008297989 -0.031180127 -0.056145526 -0.032633316
-0.06970801 -0.11745382 -0.12634988 -0.04684028 0.0732206 0.03676445 0.0020896364 -0.03910247
-0.021500178 0.072120704 -0.0799891 0.08378092 0.085620984 -0.020812273 -0.01299347 0.11147772
0.08641237 -0.12309451 0.026831225 0.036602736 -0.08275935 0.026397794 0.11867774 -0.031808194
0.057675663 0.007317428 -0.07947806 0.07167582 0.013532777 0.035834413 -0.06639986 -0.07916377
0.0013643971 0.123566754 -0.03550149 -0.06732191 -0.014086002 0.010301583 -0.121923424 -0.0022014903
-0.046418536 -0.10290134 -0.10580193 -0.120922275 -0.010066331 0.09034856 -0.053355172 0.08733383
-0.087554306 0.1455618 0.18696676 -0.11324704 0.08657846 -0.08097692 -0.0018022838 -0.0276196
0.12771188 0.0655007 -0.08858583 -0.022419447 -0.0076432917 -0.0024379224 0.07502406 0.069560386
-0.09792063 -0.10555547 0.107624866 0.22281373 -0.04156352 0.093849264 -0.09870863 -0.08509996
-0.040255636 0.014879694 0.04184174 0.025411148 -0.090432435 -0.103593014 -0.055969488 0.15127851
0.022604924 0.08705877 0.10909652 -0.067367695 0.00970548 -0.030143209 0.010465788 -0.02450542
-0.04573831 -0.025058841 -0.084994905 0.06214344 -0.07633395 -0.030712275 -0.1063167 0.050158743
-0.017013207 -0.09520053 0.05918442 -0.101925015 -0.0100625865 0.11957097 -0.12032371 0.13760135
00000000: e2c7 e8bc fdbf cb3d 3393 8cbc 924d 973d
00000010: 69e2 f63d 2381 afbc 3f31 82bb a64e 143d
00000020: b136 20bc 95cd 8a3d fbb1 243e c800 7b3d
00000030: edcd 1c3e 4f49 653d 6972 9bbc c3ad 59bc
00000040: 5f91 cabc e099 19bd fa29 f5bb d69a 2d3d
00000050: acf8 a2bd 5144 ac3d f0fe d63d 5274 a4bd
00000060: 55b4 c83d f01c 8c3d e0b5 213e eacb f73d
00000070: dcd4 af3c 71b8 a13d 8fc3 ce3c 27c1 a13d
00000080: 0a64 c13c 2173 0d3e c498 593d 416a 68bc
00000090: 9a02 a2bd 083a cc3c 57de 933d bd6b 7bbd
000000a0: 1e17 25bc 14b2 8e3c 86e5 9c3d 7e84 003d
000000b0: 3dab 92bd e9a0 b3bc 5b6c 0c3d 9c00 77bc
000000c0: 1309 4a3d f298 84bd 406f 353d 3120 abbd
000000d0: 0e58 dabd a1de f03d 653f 52bd 0360 033e
000000e0: 72c0 e63d 7f33 d8bd 617a ee3d 3f08 03be
000000f0: f4d7 bebd 9b1d 4e3e fe70 4abd 4090 133e
00000100: eaa7 dbbb caba 843c 434e a8bd 5758 aabc
00000110: 3470 90bd be8a b8ba 3adc 203d 9913 ecbd
00000120: bf8d db3d 483c 013e be21 79bd 39a8 543d
00000130: d34f a1bd 6c6e e4bd 0c7b 5fbd b8c9 05bd
00000140: 9718 9a3d 7dac 1c3d c8f2 2c3d 62f2 1b3b
00000150: 03b0 42bc e711 abbc 0511 083e 5bdb 043e
00000160: b2d8 57bd 4004 1bbe 9dd2 39bd 7e2f efbc
00000170: 0a82 3bbd 334a adbd 8a49 27bd 0e17 e13c
00000180: dc77 943d 8662 023e f01d 8fbd 7ffa 803d
00000190: 9fdb 5e3c a689 503d 162c 86bd 4b00 24bd
000001a0: 9656 a43d 8e30 203d 5fc9 c63b 3a83 5d3b
000001b0: ab58 34bc 576f 513d 21ee 92bd fe97 a83c
000001c0: f317 9fbd ccc1 03bd 76bf 4b3b b2b5 063e
000001d0: 6d14 bebd 950c a83d da97 3b3d 1a02 77bc
000001e0: d8d1 f93d 8a00 37be 7daf d6bd c589 0dbe
000001f0: 233b cebd 225f 243e 2e91 9e3d 4f81 95bd
00000200: 570e 84bd 84f0 58bd 7c6f d3bc 9cd1 f1bd
00000210: cebb 193e 9e7e d43d 1b6f 523c b200 863d
00000220: e5b2 0a3e a1de 383d 2a32 de3d 3cee 35bd
00000230: 2cab 54bd 6eca c53d 5e2c 1bba a5e9 a6bd
00000240: 55b3 f8bd 302e f1bd 1fee dbbc 15bb ca3c
00000250: 4af4 073c 776d ffbc daf8 65bd 83aa 05bd
00000260: 13c3 8ebd a18b f0bd dd61 01be 98db 3fbd
00000270: aff4 953d 5296 163d 48f2 083b e929 20bd
00000280: 2421 b0bc 05b4 933d 53d1 a3bd 5595 ab3d
00000290: 0e5a af3d 807e aabc 90e2 54bc 6e4e e43d
000002a0: f8f8 b03d f918 fcbd 28cd db3c c0ec 153d
000002b0: bc7d a9bd 3040 d83c 510d f33d 4f49 02bd
000002c0: 513d 6c3d 09c7 ef3b 65c5 a2bd c6ca 923d
000002d0: 95b8 5d3c 1bc7 123d a6fc 87bd 9d20 a2bd
000002e0: 92d5 b23a 9110 fd3d 036a 11bd 12e0 89bd
000002f0: f9c8 66bc f9c7 283c fdb2 f9bd e146 10bb
00000300: 5d21 3ebd f0bd d2bd afae d8bd 19a6 f7bd
00000310: 41ed 24bc aa08 b93d f48a 5abd 14dc b23d
00000320: ac4f b3bd 270e 153e 3774 3f3e 10ee e7bd
00000330: 0c50 b13d 3ad7 a5bd 9c3a ecba 8042 e2bc
00000340: e7c6 023e 3b25 863d 7d6c b5bd fda8 b7bc
00000350: 9474 fabb 8dc5 1fbb 37a6 993d ad75 8e3d
00000360: 9c8a c8bd 772d d8bd 6d6a dc3d 4829 643e
00000370: 823e 2abd 0b34 c03d c027 cabd e348 aebd
00000380: 18e3 24bd f6c9 733c 3f62 2b3d 0a2b d03c
00000390: a434 b9bd 9328 d4bd 4340 65bd c1e8 1a3e
000003a0: f62d b93c de4b b23d ff6d df3d 13f8 89bd
000003b0: bc03 1f3c e4ee f6bc b278 2b3c 97bf c8bc
000003c0: 1858 3bbd 3348 cdbc cf11 aebd 1f8a 7e3d
000003d0: f954 9cbd 4f98 fbbc 92bc d9bd 4173 4d3d
000003e0: 485f 8bbc 7ff8 c2bd 5d6b 723d 10be d0bd
000003f0: 8cdd 24bc a0e1 f43d 476c f6bd 5ee7 0c3e

lstm.bias_hh_l0 f4 [256]
-0.091462314 0.10696607 0.06528362 0.1011118 0.0788971 -0.028120957 0.13180791 -0.119576976
0.05834698 0.114780664 0.0426549 -0.08087764 0.05628425 0.05201575 0.061107416 0.11967833
0.11415543 -0.03949055 -0.099775515 -0.12397442 -0.024839057 -0.0856561 0.0013200587 -0.040715378
0.033932425 0.14915983 0.12950222 0.19057396 0.020475194 0.045187734 -0.14213763 -0.002149431
-0.058084458 -0.0044220374 -0.04693914 -0.10551887 -0.010556652 0.06708984 0.038873788 0.11102011
-0.009226946 0.046812687 0.12719677 -0.10846321 0.021586848 0.084533714 -0.0030828263 0.023228383
0.1115465 0.14212313 0.14724928 -0.11781697 -0.03694301 -0.101168446 -0.13980962 0.08902999
0.12772611 -0.09331069 -0.010265151 0.027510574 -0.0881446 0.19148451 -0.0324543 0.13369568
0.031155022 -0.0416911 -0.020014828 0.11019561 0.057027493 0.02856883 -0.06330759 0.057887506
-0.07036955 -0.023177836 -0.04115777 -0.10937453 -0.057361014 -0.04759353 -0.11178519 -0.091463186
0.08329112 0.11450917 -0.01870466 -0.14280854 -0.078935675 -0.049735654 0.12395633 0.060082406
0.065378584 -0.12319243 0.11873971 0.08795357 -0.04999776 0.096868016 0.05814476 0.10604196
-0.1278873 0.032188177 -0.056334533 -0.031157888 -0.14287755 0.11218969 0.09579157 -0.08123297
-0.061591644 0.09122942 -0.109620236 -0.12775505 0.0013582199 0.102898836 0.057418197 -0.05409853
-0.10838277 -0.032985836 -0.0043335804 0.11055191 -0.108681835 -0.08524369 -0.03746956 -0.0734287
0.031144714 -0.028995872 0.03172939 -0.10634752 -0.1257107 0.107129626 -0.077761315 -0.07431283
0.06305643 -0.07066452 0.081235096 -0.09693435 0.06534684 0.027809279 0.030783555 0.11575529
-0.03032224 0.010693356 0.052624553 0.11083241 -0.119714245 0.077770345 -0.018003153 0.103716664
0.046684027 0.05786312 0.10260096 -0.00846783 -0.0547127 -0.023103844 -0.007978792 -0.07042909
0.044934142 -0.003964034 -0.045986958 0.02834571 0.011561853 0.0945181 -0.11102545 0.10764756
-0.07732364 0.12705332 -0.08169031 -0.035891425 -0.037030213 -0.0339672 -0.11649076 0.07147823
-0.04266114 -0.1271541 0.0057686786 0.08343347 -2.2772105e-05 0.07198805 -0.094461575 0.027415674
0.02868761 0.080622084 0.0655587 -0.017575305 0.08984212 -0.14727184 -0.040605657 0.0061997664
0.010083336 -0.05080287 0.07000086 -0.031055884 -0.055911597 -0.13087097 0.06782935 0.08070786
-0.07731147 -0.019262476 -0.11053663 0.0113117 -0.080502585 -0.072941735 0.016434593 0.024815395
-0.083578125 -0.016625699 0.13363303 -0.05533199 0.090352304 0.045806542 0.0064510563 -0.110783406
-0.061092418 0.060961172 -0.05451281 -0.114915185 -0.05652923 -0.036218483 -0.050072964 -0.047850493
-0.051318213 -0.041709654 0.16154917 0.2016379 -0.103183635 0.013022731 0.01167238 -0.05997563
0.1299409 0.12697005 0.09714516 0.020370364 -0.12398445 0.033979006 0.032655034 0.107672386
0.1467487 -0.149174 0.06663376 0.07622841 0.042500068 0.055153936 0.06669813 -0.017180815
-0.09836945 -0.028968103 0.017177422 -0.022925146 0.011965974 -0.008893105 0.060136087 0.060295053
-0.0006345487 -0.12162014 0.018131154 -0.010719883 -0.052447654 0.0044912733 0.051586356 -0.08124156
00000000: 9850 bbbd 0711 db3d 6bb3 853d b413 cf3d
00000010: ce94 a13d ec5d e6bc a7f8 063e c6e4 f4bd
00000020: 3efd 6e3d 2012 eb3d e8b6 2e3d 2da3 a5bd
00000030: 508a 663d 780e 553d c54b 7a3d ea19 f53d
00000040: 52ca e93d d8c0 21bd 1b57 ccbd 4de6 fdbd
00000050: 477b cbbc 776c afbd d205 ad3a 2bc5 26bd
00000060: bafc 0a3d 5bbd 183e 3b9c 043e d225 433e
00000070: 98bb a73c c616 393d 878c 11be 78dd 0cbb
00000080: f8e9 6dbd bde6 90bb 4143 40bd 471a d8bd
00000090: cff5 2cbc 6666 893d 1f3a 1f3d 835e e33d
000000a0: 9e2c 17bc a9be 3f3d df3f 023e f621 debd
000000b0: e7d6 b03c 0320 ad3d 3e09 4abb 7349 be3c
000000c0: 7e72 e43d ba88 113e 84c8 163e 064a f1bd
000000d0: 8e51 17bd 6731 cfbd 412a 0fbe 5b55 b63d
000000e0: a2ca 023e ad19 bfbd 2a2f 28bc db5d e13c
000000f0: 2885 b4bd 8414 443e cdee 04bd 85e7 083e
00000100: d138 ff3c 49c4 2abd 23f6 a3bc 3cae e13d
00000110: a995 693d 2e09 ea3c 69a7 81bd 731b 6d3d
00000120: e91d 90bd 72df bdbc 0d95 28bd c1ff dfbd
00000130: 62f3 6abd 6ff1 42bd a2ef e4bd 0d51 bbbd
00000140: 8994 aa3d c983 ea3d 843a 99bc 673c 12be
00000150: 07a9 a1bd 9db7 4bbd d1dc fd3d f818 763d
00000160: 35e5 853d 504c fcbd ce2d f33d 0021 b43d
00000170: 74ca 4cbd bd62 c63d 3329 6e3d 872c d93d
00000180: e3f4 02be c0d7 033d 0abf 66bd d43e ffbc
00000190: 7e4e 12be b5c3 e53d 5f2e c43d 795d a6bd
000001a0: 8547 7cbd 7dd6 ba3d 9380 e0bd 38d2 02be
000001b0: 4c06 b23a a0bc d23d 582f 6b3d 6c96 5dbd
000001c0: c9f7 ddbd 281c 07bd b500 8ebb 0a69 e23d
000001d0: 9594 debd 3e94 aebd ae79 19bd c961 96bd
000001e0: 3323 ff3c c088 edbc adf6 013d bbcc d9bd
000001f0: 4eba 00be c766 db3d 5341 9fbd 5331 98bd
00000200: bb23 813d 8fb8 90bd 965e a63d 8485 c6bd
00000210: 90d4 853d 49d0 e33c cb2d fc3c 1c11 ed3d
00000220: 5966 f8bc 3033 2f3c d88c 573d 1afc e23d
00000230: be2c f5bd 0f46 9f3d 597b 93bc 6769 d43d
00000240: c037 3f3d e101 6d3d 7420 d23d a7bc 0abc
00000250: 6d1a 60bd 4644 bdbc 7bb9 02bc 203d 90bd
00000260: dd0c 383d bae4 81bb d25c 3cbd 4335 e83c
00000270: ed6d 3d3c b592 c13d 5061 e3bd 5376 dc3d
00000280: db5b 9ebd 441a 023e 404d a7bd e302 13bd
00000290: feac 17bd 3121 0bbd b592 eebd 2e63 923d
000002a0: 73bd 2ebd af34 02be 2f07 bd3b 2bdf aa3d
000002b0: b906 bfb7 796e 933d 1275 c1bd d696 e03c
000002c0: 4702 eb3c 311d a53d a443 863d 16fa 8fbc
000002d0: 25ff b73d 6ece 16be 1e52 26bd 6927 cb3b
000002e0: 9434 253c ac16 50bd 9c5c 8f3d e968 febc
000002f0: 8f03 65bd 0a03 06be 1dea 8a3d 2a4a a53d
00000300: 7a55 9ebd 57cc 9dbc 0761 e2bd b554 393c
00000310: 8ade a4bd 7a62 95bd d7a1 863c a849 cb3c
00000320: 022b abbd 9e32 88bc 19d7 083e cca3 62bd
00000330: a10a b93d a49f 3b3d 6263 d33b 69e2 e2bd
00000340: 0b3c 7abd 6cb2 793d d348 5fbd a758 ebbd
00000350: 328b 67bd d559 14bd 4f19 4dbd e1fe 43bd
00000360: 0c33 52bd bed7 2abd 256d 253e 2a7a 4e3e
00000370: f151 d3bd 4b5d 553c 833d 3f3c 02a9 75bd
00000380: 3a0f 053e 7004 023e 0bf4 c63d c0df a63c
00000390: 8feb fdbd 922d 0b3d 49c1 053d 5783 dc3d
000003a0: 4b45 163e 12c1 18be 4877 883d a41d 9c3d
000003b0: 8d14 2e3d 18e9 613d 0799 883d c8be 8cbc
000003c0: ec75 c9bd 844e edbc aab7 8c3c 84cd bbbc
000003d0: ef0c 443c 63b4 11bc 4251 763d f2f7 763d
000003e0: d857 26ba fb13 f9bd c987 943c 73a2 2fbc
000003f0: 5ad3 56bd 882b 933b 374c 533d fa61 a6bd

fc.weight f4 [6, 64]
-0.11281601 0.106445126 0.09185918 -0.07109836 0.05392248 0.07242751 0.0023672977 0.0017812632
0.03819328 -0.038343772 -0.07600465 0.009723605 0.054825716 -0.04009802 -0.054007307 -0.10132598
-0.13215755 -0.03171021 0.13739233 0.105757944 0.022614572 -0.012775864 -0.083027236 -0.1337242
0.03259201 -0.09358477 -0.055550054 0.013063379 -0.07207785 -0.0005042414 -0.06182814 0.041762922
-0.024114775 0.010076929 -0.101417065 -0.1061042 -0.031018564 -0.023118444 -0.08812063 -0.015837038
-0.014427735 -0.11586263 -0.024204507 0.049241412 -0.036177218 0.15039855 0.032081414 -0.021240044
-0.05050559 0.16518423 -0.14122465 -0.07686251 0.07955612 0.05015415 -0.124739915 -0.03794154
-0.0397333 0.03071067 0.11544178 -0.0623757 -0.035859093 -0.02728253 -0.12903525 0.034918692
0.098248914 -0.036891177 -0.06869679 0.011513592 0.08663316 0.073363625 0.017274858 -0.05690921
0.066560015 -0.026381357 0.085779585 0.039406642 0.11286988 0.08112791 -0.004335864 -0.0600848
-0.006013043 -0.10991201 -0.007672975 -0.028379701 0.014221583 0.097319834 -0.16779652 -0.14075363
-0.05710326 0.10381948 -0.1768293 -0.046408232 -0.14538819 0.09651119 -0.16322868 0.13278227
-0.12566367 0.060955763 -0.12636776 0.033889882 0.021942196 -0.055838678 -0.039405715 0.060844205
0.005248612 -0.015229893 0.032910988 0.099379726 0.10033745 -0.083250776 -0.08298192 -0.07015613
0.016142447 -0.04074185 -0.14577332 0.105431244 -0.11944265 -0.1529667 -0.048169672 0.1467514
0.016149564 0.15735522 -0.10185135 0.017630786 -0.050320536 -0.04624121 -0.16537586 -0.058627244
0.03322763 -0.024256164 -0.0932852 -0.059339013 -0.002061758 -0.062153418 0.07134604 0.07977364
0.04624417 -0.007426689 0.05051097 -0.004136042 -0.047728404 -0.01576718 -0.0013385162 -0.13837636
-0.042698886 0.031541288 0.05165874 0.0026121163 0.07057787 0.028411029 -0.050962903 0.023611685
0.12637016 0.05827282 -0.0036005003 -0.052220557 -0.043663986 0.085997954 0.0856329 0.014960024
-0.05114494 -0.07496011 0.08667762 0.060435727 0.10214103 -0.121287666 -0.11595094 0.10131727
-0.0057797898 -0.024461199 -0.07063123 0.118342884 -0.094931856 0.0395656 -0.007473552 0.06275637
0.025594687 -0.04059361 0.01519429 0.0009953701 0.1259128 -0.07992689 -0.13549373 0.060803108
-0.12719274 8.891829e-06 -0.040946577 0.09652691 0.06804598 0.081136145 0.07972527 0.058775328
-0.0922418 0.0992817 -0.01600829 0.058927707 -0.026046943 0.098272115 -0.015395214 -0.14754479
0.057000116 0.15372397 -0.01809013 0.037104893 -0.02688025 -0.13091119 -0.06389151 0.094786145
-0.115530565 -0.13612762 -0.07975218 0.04793289 -0.07673835 -0.021140259 -0.11244027 -0.030102221
0.08104809 0.027777791 -0.068242185 -0.05734643 0.19903047 0.06713912 0.0061284406 -0.018370526
-0.08233768 0.15498666 -0.007349275 -0.019730888 -0.012043966 -0.08313489 -0.04107015 -0.034372848
0.07590479 -0.09851523 -0.06435927 -0.01430862 -0.05914828 0.09300472 -0.03296849 0.043063086
0.013763368 0.11264657 -0.13469782 -0.039242554 -0.08774567 0.023652054 -0.08819524 -0.09365143
-0.14437382 0.12756962 -0.035606723 0.015137877 -0.104353555 -0.04015349 -0.009991968 -0.044835668
00000000: 150c e7bd e7ff d93d aa20 bc3d 049c 91bd
00000010: d2dd 5c3d e054 943d aa24 1b3b 4679 e93a
00000020: 8f70 1c3d 5c0e 1dbd 53a8 9bbd c14f 1f3c
00000030: ee90 603d d23d 24bd c436 5dbd ff83 cfbd
00000040: 4f54 07be 91e2 01bd 93b0 0c3e 9f97 d83d
00000050: 3242 b93c dc51 51bc 2f0a aabd ffee 08be
00000060: 337f 053d 5fa9 bfbd 7488 63bd c807 563c
00000070: 8d9d 93bd 112f 04ba 813f 7dbd 990f 2b3d
00000080: 598c c5bc b419 253c c0b3 cfbd 294d d9bd
00000090: a51a febc e462 bdbc 9778 b4bd adbc 81bc
000000a0: 4e62 6cbc 6349 edbd 8848 c6bc 5db1 493d
000000b0: 902e 14bd 1402 1a3e cd67 033d 9aff adbc
000000c0: f3de 4ebd 0e26 293e 329d 10be 176a 9dbd
000000d0: 52ee a23d 706e 4d3d a477 ffbd 9768 1bbd
000000e0: 63bf 22bd f194 fb3c bd6c ec3d a97d 7fbd
000000f0: fce0 12bd 9d7f dfbc d121 04be e706 0f3d
00000100: ba36 c93d 341b 17bd e7b0 8cbd 81a3 3c3c
00000110: ba6c b13d ab3f 963d 0184 8d3c a219 69bd
00000120: 9e50 883d b71d d8bc 35ad af3d dc68 213d
00000130: 5328 e73d 6426 a63d dd13 8ebb 7b1b 76bd
00000140: 1009 c5bb 8c19 e1bd 946d fbbb 8c7c e8bc
00000150: a401 693c 9f4f c73d dad2 2bbe b821 10be
00000160: 1ce5 69bd 4f9f d43d bd12 35be 8f16 3ebd
00000170: a4e0 14be a9a7 c53d 6b25 27be 13f8 073e
00000180: faad 00be c0ac 793d 8d66 01be 1ed0 0a3d
00000190: 1fc0 b33c 19b7 64bd e367 21bd c637 793d
000001a0: 8cfc ab3b cd86 79bc accd 063d 9987 cb3d
000001b0: b97d cd3d 627f aabd 6df2 a9bd 04ae 8fbd
000001c0: 2a3d 843c ede0 26bd 9a45 15be 56ec d73d
000001d0: 599e f4bd 4da3 1cbe 904d 45bd 0046 163e
000001e0: 174c 843c ba21 213e 7197 d0bd 706e 903c
000001f0: e81c 4ebd 6c67 3dbd 4a58 29be 1f23 70bd
00000200: b219 083d ddb4 c6bc 500c bfbd 770d 73bd
00000210: 8f1e 07bb 9594 7ebd df1d 923d 5d60 a33d
00000220: 876a 3d3d 955b f3bb 97e4 4e3d a387 87bb
00000230: dc7e 43bd 2c2a 81bc 2771 afba 88b2 0dbe
00000240: 07e5 2ebd 7031 013d 1d98 533d 0a30 2b3b
00000250: 218b 903d 3fbe e83c 7abe 50bd 4b6d c13c
00000260: 2e67 013e 7baf 6e3d 5ff6 6bbb 39e5 55bd
00000270: 02d9 32bd b21f b03d 4d60 af3d e31a 753c
00000280: 5b7d 51bd b084 99bd 0984 b13d 748b 773d
00000290: 512f d13d ab65 f8bd b077 edbd 6e7f cf3d
000002a0: 6464 bdbb da62 c8bc 1ba7 90bd c15d f23d
000002b0: a26b c2bd 8a0f 223d b3e4 f4bb 6986 803d
000002c0: f3ab d13c 7c45 26bd 79f1 783c 1477 823a
000002d0: 49ef 003e b6b0 a3bd debe 0abe ae0c 793d
000002e0: d03e 02be 1d2e 1537 99b7 27bd e7af c53d
000002f0: b15b 8b3d b52a a63d 0147 a33d 66be 703d
00000300: 45e9 bcbd 3454 cb3d d123 83bc 2e5e 713d
00000310: 6660 d5bc e442 c93d 353c 7cbc fb15 17be
00000320: f478 693d d169 1d3e c131 94bc 4dfb 173d
00000330: f833 dcbc 950d 06be 8dd9 82bd 3d1f c23d
00000340: 4a9b ecbd 0a65 0bbe 1c55 a3bd 4755 443d
00000350: ff28 9dbd 562e adbc 1647 e6bd ef98 f6bc
00000360: 8afc a53d 408e e33c 8fc2 8bbd 17e4 6abd
00000370: a5ce 4b3e 3c80 893d 16d1 c83b c97d 96bc
00000380: a8a0 a8bd d3b4 1e3e 30d2 f0bb aca2 a1bc
00000390: 0e54 45bc a042 aabd 2c39 28bd 8bca 0cbd
000003a0: f873 9b3d 5ac2 c9bd cbce 83bd b46e 6abc
000003b0: 7845 72bd 4279 be3d f809 07bd eb62 303d
000003c0: c07f 613c 3fb3 e63d 3aee 09be cdbc 20bd
000003d0: 00b4 b3bd f4c1 c13c b59f b4bd 52cc bfbd
000003e0: bbd6 13be 9ca1 023e 5bd8 11bd dc04 783c
000003f0: 51b7 d5bd fc77 24bd 5ab5 23bc 9ba5 37bd

fc.bias f4 [6]
-0.033905268 0.09422349 0.09104986 0.12973882 -0.025178365 0.13912795
00000000: 40e0 0abd 3ff8 c03d 5978 ba3d 41da 043e
00000010: dc42 cebc 8f77 0e3e
