models/lstm_7f_rec_best.pth (torch, 77395 bytes, 6 tensors)

lstm.weight_ih_l0 f4 [256, 7]
0	0x3e69725c	0.22797531
1	0x3d8bb904	0.06822398
2	0xbf83de74	-1.0302262
3	0x3d3e9f6a	0.046538748
4	0xbdd2ad7c	-0.10286996
5	0x3d88531d	0.066564776
6	0x3f2ac1e1	0.66702086
7	0xbd26943f	-0.040668722
8	0xbc6ae325	-0.014336382
9	0xbebc0da2	-0.3672915
10	0xbd2e5016	-0.042556845
11	0x3d348cf4	0.044079736
12	0x3e8dc908	0.27692437
13	0x3ebd2287	0.36940405
14	0xbe7e1af4	-0.2481497
15	0xbe3620cd	-0.1778595
16	0xbe18d7d7	-0.14926086
17	0xbeddf312	-0.4334951
18	0x3e8a901d	0.27063075
19	0x3ee54a8e	0.44783443
20	0xbce59943	-0.028027182
21	0xbdf5636e	-0.11981855
22	0x3e9de2ba	0.3083704
23	0xbe852233	-0.26002654
24	0x3d5df940	0.05419278
25	0x3d6ebe03	0.058286678
26	0x3e6f5bf6	0.23374924
27	0xbed538bb	-0.41644844
28	0xbd1f9f78	-0.03897044
29	0x3b5d5a43	0.0033775724
30	0x3d90a687	0.070630126
31	0x3d8ae767	0.06782418
32	0x3d215615	0.039388735
33	0x3ef0542d	0.4693922
34	0x3eebfa59	0.46089438
35	0xbdb757aa	-0.089522675
36	0xbd6bc498	-0.057560533
37	0xbeee6511	-0.46561483
38	0x3daba027	0.08380156
39	0xbd275fb9	-0.040862773
40	0x3f4ec086	0.8076252
41	0x3f54694c	0.8297317
42	0xbdee898b	-0.11647328
43	0xbe15496c	-0.1457879
44	0xbee86317	-0.453881
45	0x3dc0dab5	0.09416715
46	0x3dabc8b1	0.08387888
47	0x3e6c6cbf	0.23088358
48	0x3d87a544	0.06623319
49	0xbf14d469	-0.5813661
50	0xbda155e8	-0.078777134
51	0xbeb7a0de	-0.3586492
52	0xbe716d78	-0.23576915
53	0x3eca62e1	0.39528564
54	0x3f205922	0.62636006
55	0x3ea94548	0.3306067
56	0xbd600544	-0.05469252
57	0xbe30a218	-0.17249334
58	0xbdf1a0c6	-0.11798243
59	0xbdcc72a5	-0.09982804
60	0x3e29cb18	0.1658138
61	0x3e95368d	0.2914318
62	0x3e8d41be	0.2758922
63	0xbcc7e3c5	-0.024400601
64	0x3d52e482	0.051487453
65	0xbec20aa8	-0.37898755
66	0xbd61ff2b	-0.055174988
67	0xbc4bfad4	-0.012449939
68	0xbf28eacf	-0.6598329
69	0xbe84c631	-0.25932458
70	0xbe23d2b7	-0.1599835
71	0x3e0cbb53	0.13743334
72	0xbf3aca22	-0.7296468
73	0x3da85bb2	0.082206145
74	0x3ad74742	0.0016424435
75	0x3e39a6af	0.18129991
76	0x3d05dcc3	0.032681238
77	0xbdb46d3c	-0.08809897
78	0xbda423d6	-0.08014648
79	0xbe5c29c0	-0.21500301
80	0xbd732132	-0.05935783
81	0xbc8a10cd	-0.016853714
82	0xbdcdb044	-0.100433856
83	0x3e0dbd4b	0.13841741
84	0x3d1f1f33	0.038848113
85	0xbe52dfec	-0.20593232
86	0xbe29b701	-0.16573717
87	0xbddd7baa	-0.10814603
88	0x3d2987fd	0.041389454
89	0x3e27797d	0.16354938
90	0xbdd8de07	-0.10589223
91	0xbe2bc064	-0.1677261
92	0x3e20ec22	0.15715078
93	0xbf008d8c	-0.50215983
94	0xbe74ea08	-0.23917401
95	0x3a995e6d	0.0011701115
96	0x3f055be3	0.52093333
97	0xbe1886c8	-0.14895165
98	0x3e417c43	0.18895058
99	0xbde75f49	-0.11297471
100	0x3e1961a5	0.14978655
101	0xbd4f76a5	-0.050650258
102	0x3e0f8062	0.14013818
103	0x3d449be0	0.048000216
104	0xbd91ff2b	-0.071287476
105	0xbe191d19	-0.14952506
106	0x3e31d128	0.17364943
107	0xbecfb884	-0.40570462
108	0xbd3b32a6	-0.0457026
109	0x3e0b999c	0.13632816
110	0x3ea6c17d	0.32569495
111	0x3dcfc433	0.10144844
112	0xbe3784e8	-0.17921793
113	0xbc894831	-0.016758056
114	0xbd649552	-0.055806465
115	0xbd23bbf7	-0.03997418
116	0xbe060fc1	-0.13091947
117	0x3eb7c789	0.3589442
118	0x3d867ec3	0.06567147
119	0x3dac81a0	0.084231615
120	0xbe55ffc4	-0.20898348
121	0xbe8b3f65	-0.27196804
122	0xbc11f7f3	-0.008909213
123	0xbcedf385	-0.029046783
124	0x3e4ec841	0.20193578
125	0x3e8f5e55	0.28001657
126	0x3ea05c7e	0.31320566
127	0x3f2d86b8	0.6778369
128	0x3d85c11c	0.06530973
129	0x3d54b026	0.0519258
130	0xbdbe786a	-0.09300311
131	0x3e65a870	0.22427535
132	0x3d3e9d0e	0.046536498
133	0xbe5cb66e	-0.21553966
134	0x3e8d6f54	0.27624
135	0xbe15ec73	-0.1464098
136	0x3d8a032e	0.06738888
137	0xbd637ffb	-0.055541974
138	0xbe5f6d17	-0.21818958
139	0xbe33db8a	-0.17564216
140	0xbd8e46c8	-0.06947094
141	0x3db58d4d	0.088648416
142	0x3d037c42	0.032100923
143	0xbe0a70b2	-0.13519552
144	0x3e082e3c	0.13298887
145	0x3e2969e4	0.165443
146	0xbe59cc02	-0.21269229
147	0x3cc81206	0.024422657
148	0x3ca048b2	0.019565914
149	0x3c96fdce	0.01843157
150	0xbbc928b0	-0.0061388835
151	0x3e8e7b05	0.2782823
152	0x3dc9d7e0	0.09855628
153	0xbda48f07	-0.08035093
154	0xbd04d6b7	-0.03243133
155	0xbd915aaf	-0.07097375
156	0xbe227a75	-0.15867026
157	0xbe080b15	-0.13285477
158	0xbcc593d1	-0.024118336
159	0x3e0c0622	0.13674214
160	0x3d520b7b	0.05128048
161	0xbd26e0cf	-0.040741738
162	0x3d66bb1f	0.056330796
163	0xbe814b54	-0.25252783
164	0x3e090e2a	0.1338431
165	0x3e9a5c74	0.3014866
166	0x3e13e5fa	0.14443198
167	0x3d069f28	0.032866627
168	0xbded0bc1	-0.115745075
169	0x3dc18356	0.094488785
170	0xbc3230e6	-0.010875916
171	0xbdaeaa97	-0.08528631
172	0x3cc0f5cc	0.023554705
173	0x3ca7c914	0.020481624
174	0x3e8bac6e	0.2727999
175	0xbe4422ef	-0.19153951
176	0x3dfdaab8	0.12386078
177	0x3d1c819f	0.038209554
178	0xbe4b08d1	-0.19827582
179	0x3e143e66	0.14476928
180	0xbddfc937	-0.109270506
181	0x3e3c8e35	0.18413623
182	0x3e9dcf3e	0.30822176
183	0xbe655413	-0.22395353
184	0xbe1d3dc3	-0.15355591
185	0x3c0c8a86	0.008577948
186	0xbe6f26b1	-0.23354603
187	0x3e638d6e	0.2222192
188	0x3f6b1dd3	0.91842383
189	0x3be05968	0.0068465956
190	0x3ee6ba45	0.45063987
191	0xbe2134dd	-0.15742822
192	0x3cf4854c	0.029848717
193	0x3e1e8bfb	0.15483086
194	0x3e1035c7	0.14083014
195	0xbe50a1c8	-0.20374215
196	0xbc2fa7c3	-0.01072115
197	0xbde3a29d	-0.111150004
198	0xbe36d978	-0.17856395
199	0xbdeea83f	-0.11653184
200	0xbc3809b5	-0.011232783
201	0x3e15f726	0.14645061
202	0x3e2f5444	0.17121989
203	0xbe2730ce	-0.16327211
204	0x3d312857	0.04325136
205	0xbe7923b1	-0.24330021
206	0xbe8cd1a1	-0.27503684
207	0x3e9be4d5	0.30448022
208	0x3dee2203	0.11627581
209	0xbe878588	-0.26469064
210	0xbe1ec24d	-0.15503807
211	0x3f143045	0.57886153
212	0xbdda665d	-0.106640555
213	0x3d91b984	0.071154624
214	0xbcc97b9b	-0.024595072
215	0xbeddc8de	-0.43317312
216	0xbe914bdb	-0.28378186
217	0xbe49642c	-0.19667119
218	0xbe15747f	-0.14595221
219	0xbe84e632	-0.25956875
220	0x3da24938	0.079241216
221	0x3d059696	0.032614313
222	0x3e04077b	0.12893479
223	0x3e0a3755	0.1349767
224	0xbe56a637	-0.20961843
225	0x3cd87d00	0.026426792
226	0xbe4bb386	-0.19892702
227	0xbde2aa69	-0.110676594
228	0xbbb131c0	-0.005407542
229	0x3e76e6d7	0.24111496
230	0x3dd5a9a2	0.104327455
231	0xbe830dce	-0.2559647
232	0x3ea5670b	0.32305178
233	0xbe795f0c	-0.24352664
234	0x3e29a09a	0.16565171
235	0x3d0c3b3d	0.03423618
236	0xbe391bae	-0.18076965
237	0x3befc22a	0.0073168473
238	0xbd89dbd9	-0.06731386
239	0xbe666993	-0.22501211
240	0xbe164560	-0.14674902
241	0xbe3d1001	-0.18463136
242	0x3d025378	0.031817883
243	0x3bc8c4ef	0.006126992
244	0x3e4843e6	0.19557151
245	0xbeb129f3	-0.34602317
246	0x3d0ef0bd	0.034897555
247	0xbe385baa	-0.18003717
248	0xbdbaaab5	-0.09114591
249	0x3e7a560e	0.2444689
250	0x3e9f9335	0.31166998
251	0x3de3983d	0.111130215
252	0xbdb2f1d7	-0.087375335
253	0x3d7a4da1	0.06110919
254	0xbef07a29	-0.469682
255	0xbcc732f7	-0.024316294

lstm.weight_hh_l0 f4 [256, 64]
0	0xbc80ce77	-0.01572345
1	0xbd1453d8	-0.036212772
2	0x3e226db1	0.15862156
3	0x3e7379f9	0.23776998
4	0xbf613e9c	-0.8798616
5	0xbe1d5c84	-0.15367323
6	0x3dd5fb6c	0.104483455
7	0xbde645a0	-0.11243749
8	0xbe1240de	-0.14282557
9	0x3e4db6a2	0.200892
10	0x3e50ff3c	0.20409864
11	0x3ea83e7b	0.3286017
12	0x3f0fb754	0.5613911
13	0xbf0c9073	-0.5490791
14	0x3d89cec2	0.06728889
15	0x3c48c56d	0.012254101
16	0x3eb179ab	0.34663138
17	0xbe646f74	-0.22308141
18	0x3f823959	1.0173751
19	0xbee619a0	-0.44941425
20	0x3e139140	0.14410877
21	0xbefa95fd	-0.48942557
22	0xbe879f2c	-0.26488626
23	0xbddf18c6	-0.10893397
24	0x3f141cbb	0.5785634
25	0xbdbbef8e	-0.09176551
26	0x3da10755	0.078627266
27	0x3ee0cb45	0.43905082
28	0x3e3300b9	0.17480744
29	0xbe6dc5ec	-0.23220032
30	0x3f4bb842	0.7957803
31	0x3eab9f41	0.3351994
32	0x3e85148b	0.25992236
33	0xbdf3da14	-0.119068295
34	0x3bf12871	0.0073595573
35	0x3e2300f6	0.15918335
36	0x3e0513ca	0.1299583
37	0xbe934265	-0.28761593
38	0x3ee6aa1f	0.45051667
39	0xbe13ad48	-0.1442157
40	0x3f364006	0.7119144
41	0xbe970c16	-0.29501408
42	0x3d06c8f1	0.032906476
43	0x3f8c05de	1.093929
44	0xbf872f4f	-1.0561312
45	0xbf0f4d93	-0.55977744
46	0x3edd695e	0.4324445
47	0xbf4eda05	-0.8080142
48	0x3e8c7cc3	0.27438936
49	0x3f802ff3	1.0014633
50	0xbe089539	-0.13338174
51	0x3f7c2ee8	0.98509073
52	0x3e8e09c4	0.27741826
53	0xbf552b3a	-0.83269083
54	0x3e42bd47	0.19017516
55	0x3b7749c8	0.0037733186
56	0xbd40bccb	-0.047055047
57	0x3f0e79be	0.55654514
58	0x3e52ab4f	0.20573162
59	0x3d64dc17	0.055873957
60	0xbcef453b	-0.029207816
61	0x3e26d65d	0.1629271
62	0x3c9e11f5	0.019295672
63	0xbdd9e7d0	-0.10639918
64	0x3e6ad16c	0.2293145
65	0xbe8cee4f	-0.27525565
66	0x3e3f4dea	0.18682066
67	0xbd9046d4	-0.070447594
68	0xbed9005e	-0.42383093
69	0x3e41a3c7	0.18910132
70	0xbd8d26ed	-0.0689219
71	0x3da2c2d9	0.079473205
72	0xbe0ae3df	-0.13563488
73	0xbe4d1c07	-0.20030223
74	0xbe178a02	-0.1479874
75	0x3e07e95f	0.13272618
76	0x3ea656cc	0.32488096
77	0xbda8a54a	-0.082346514
78	0xbd9132a8	-0.0708974
79	0x3e97164f	0.29509208
80	0x3c8a7cec	0.01690527
81	0xbb3d8dee	-0.0028923708
82	0x3db82ca9	0.08992893
83	0xbe49308d	-0.19647427
84	0x3e7e8bca	0.24858013
85	0xbea305ba	-0.31840307
86	0x3c59f017	0.013301871
87	0xbe78dfd0	-0.24304128
88	0x3e96600a	0.29370147
89	0x3e86d852	0.26336914
90	0x3df4988c	0.119431585
91	0x3d1838c9	0.03716353
92	0x3e8f017b	0.27930817
93	0x3dbdc3d8	0.0926587
94	0xbdb30275	-0.08740703
95	0x3e3dec96	0.18547282
96	0x3e03648e	0.12831327
97	0x3ebdab28	0.37044644
98	0x3de3762c	0.11106524
99	0x3ed92116	0.42408055
100	0x3d0b6844	0.034034982
101	0xbee3b6be	-0.4447536
102	0x3f0760f9	0.52882344
103	0x3e8dc10a	0.2768634
104	0x3e807fd6	0.2509753
105	0xbe5a0591	-0.21291186
106	0xbd1bf1fe	-0.03807258
107	0xbe30c853	-0.17263918
108	0xbcb6aeed	-0.022300208
109	0xbea1af28	-0.31578946
110	0x3e01c161	0.12671424
111	0x3e5c4f12	0.21514538
112	0x3e3519ec	0.1768567
113	0x3e90905b	0.28235134
114	0x3d6bfa0c	0.05761151
115	0xbe601c58	-0.21885812
116	0x3e471400	0.19441223
117	0xbeb97ea1	-0.36229423
118	0x3eb76d4c	0.35825574
119	0x3ea61257	0.32435867
120	0xbc91ebd0	-0.01781264
121	0x3eac3007	0.33630392
122	0x3e6d4397	0.23170315
123	0xbc102b5b	-0.008799399
124	0xbe189c1c	-0.14903301
125	0x3d98dac4	0.07463601
126	0xbdaf966c	-0.085736126
127	0x3e951eaa	0.29124957
128	0xbe353272	-0.17695025
129	0x3e8625f0	0.2620082
130	0x3e1a6993	0.15079336
131	0xbc3ec632	-0.011643933
132	0x3d6fc60c	0.05853848
133	0xbe98ed86	-0.29868716
134	0xbe57b4e2	-0.21065095
135	0x3d0e3a02	0.03472329
136	0x3e50273e	0.2032747
137	0x3d39684d	0.045265485
138	0xbd870fb0	-0.06594789
139	0xbe215416	-0.15754732
140	0xbd949b2f	-0.072561614
141	0x3ead335b	0.33828244
142	0xbd9b1dd4	-0.07574049
143	0xbd2719b9	-0.040796015
144	0x3d6da226	0.058015965
145	0x3b7c0869	0.0038457161
146	0xbe361a1b	-0.17783396
147	0xbc9cf597	-0.019160075
148	0x3da8b4b7	0.082375936
149	0xbdab6441	-0.08368731
150	0x3ea16bee	0.31527656
151	0xbdfa5a41	-0.12224246
152	0xbdad0eec	-0.08450112
153	0x3ec1a927	0.37824365
154	0x3dea765e	0.11448358
155	0xbe8d2388	-0.2756617
156	0xbd147e6f	-0.03625339
157	0xbebb091d	-0.3653039
158	0xbec1605a	-0.37768823
159	0x3ca69544	0.020334847
160	0xbdae762e	-0.08518635
161	0x3e6532a5	0.223826
162	0xbe02c837	-0.12771688
163	0x3eeb76ab	0.45988974
164	0x3c0be4df	0.008538454
165	0x3d81c897	0.063370876
166	0xbdd05368	-0.101721585
167	0x3e52ccb0	0.20585895
168	0x3d4f3ea7	0.05059686
169	0xbe0a6d9b	-0.13518374
170	0xbd1f726f	-0.03892749
171	0x3dd67122	0.10470797
172	0x3ebe2808	0.37139916
173	0xbdf3c485	-0.119027175
174	0x3e786549	0.24257387
175	0x3dbb9977	0.091601305
176	0xbe00ab3e	-0.12565324
177	0x3d191be0	0.0373801
178	0x3d3020cd	0.04300003
179	0x3cdcd2c8	0.026955977
180	0xbdc18807	-0.09449773
181	0x3dacf01e	0.08444236
182	0x3d1f5c35	0.038906295
183	0x3e5f9fab	0.21838252
184	0xbed31cb9	-0.4123285
185	0x3c16cf63	0.009204718
186	0x3ed5c417	0.41751167
187	0x3e0a8a65	0.13529356
188	0xbeca215d	-0.3947858
189	0xbce56874	-0.028003909
190	0xbeae29f4	-0.34016383
191	0xbcd1ad21	-0.02559525
192	0xbef7fbcd	-0.48434296
193	0xbe975cfd	-0.29563132
194	0xbe408e21	-0.18804218
195	0xbe89b180	-0.26893234
196	0xbf0154b7	-0.5051989
197	0x3da1612d	0.07879863
198	0x3ba267a0	0.0049562007
199	0xbdb3ced8	-0.08779687
200	0x3e0ba57e	0.13637349
201	0x3dfd1188	0.123568594
202	0xbd8a6880	-0.06758213
203	0x3e8c4346	0.27395076
204	0x3e921023	0.28527936
205	0xbdf04e5a	-0.117336944
206	0x3d2222df	0.039584037
207	0x3db59fc8	0.088683665
208	0x3e529d24	0.20567757
209	0xbb4ef301	-0.0031577947
210	0x3e744e75	0.23858054
211	0xbe3c49be	-0.18387505
212	0xbed117cc	-0.40838468
213	0xbed0174e	-0.4064278
214	0xbe2d0e3b	-0.1689996
215	0xbd44e968	-0.048074156
216	0x3e1e0e94	0.15435249
217	0x3ea53653	0.3226801
218	0x3e945c43	0.2897664
219	0x3d3b96e2	0.04579819
220	0x3d9d9e3f	0.07696199
221	0xbe09c78e	-0.1345503
222	0x3e8d3f58	0.2758739
223	0x3e9158ff	0.2838821
224	0x3d902dcf	0.07039987
225	0x3e683bca	0.22679058
226	0x3db15879	0.08659453
227	0xbd82b346	-0.0638185
228	0x3e16f7ef	0.14743017
229	0xbe749d3a	-0.23888102
230	0x3d501b29	0.050807152
231	0x3e319ae4	0.17344242
232	0x3f0b6a31	0.5445891
233	0x3d19caaa	0.03754679
234	0x3e91c2c0	0.28468895
235	0x3e70705b	0.2348036
236	0xbdf3fac1	-0.11913062
237	0xbdbdb2f0	-0.09262645
238	0x3da035fb	0.07822796
239	0xbd121264	-0.03566207
240	0xbd6ff73c	-0.05858539
241	0x3f0d0694	0.5508816
242	0xbea470b2	-0.3211723
243	0x3f8191b0	1.0122585
244	0x3e5b1b5c	0.21397156
245	0xbec465fb	-0.38359055
246	0x3e65e82a	0.22451845
247	0x3d19494d	0.03742342
248	0xbddb1622	-0.10697581
249	0x3e9c6245	0.30543724
250	0x3d8bed92	0.06832422
251	0x3eb68f20	0.3565607
252	0x3c2a01a5	0.010376369
253	0x3e83ea54	0.25764716
254	0xbd85b2c0	-0.065282345
255	0x3dd2e493	0.10297503

lstm.bias_ih_l0 f4 [256]
0	0x3d8d3132	0.06894149
1	0x3c579084	0.013157014
2	0xbdc63ac9	-0.09679181
3	0xbd9f59f5	-0.0778083
4	0xbe416708	-0.1888696
5	0xbdcae817	-0.09907549
6	0xbe0b13d4	-0.13581783
7	0xbe227c18	-0.1586765
8	0xbe82fd4e	-0.2558388
9	0xbe935992	-0.28779274
10	0x3e2f6b49	0.1713077
11	0xbda92285	-0.08258537
12	0x3dd30826	0.103042886
13	0xbe992e89	-0.29918316
14	0xbe2b8279	-0.1674899
15	0xbcbe5096	-0.023231786
16	0xbe348a16	-0.176308
17	0x3c668957	0.01407083
18	0x3d375086	0.044754528
19	0xbe25328d	-0.16132565
20	0xbd813e58	-0.06310719
21	0x3cba0084	0.022705324
22	0xbdb9e433	-0.09076729
23	0xbe4473a0	-0.19184732
24	0xbd888c61	-0.066674
25	0x3d7b8be6	0.061412714
26	0x3dad21de	0.08453725
27	0xbe46797e	-0.19382283
28	0x3d9fdb85	0.07805542
29	0xbda5c850	-0.08094847
30	0xbd94168c	-0.07230863
31	0xbe77b142	-0.24188712
32	0xbe5df2d7	-0.21674667
33	0x3d54123b	0.0517752
34	0xbe4122e6	-0.18860969
35	0xbd96e980	-0.07368755
36	0xbd868933	-0.065691374
37	0xbe7c359a	-0.24629822
38	0xbe5b34de	-0.21406886
39	0xbd1a8180	-0.037721157
40	0xbc06fd84	-0.008239154
41	0xbcd63805	-0.02614976
42	0xbd5cac57	-0.053875294
43	0x3dd3ef73	0.10348406
44	0x3e279e71	0.16369034
45	0xbc1fc32a	-0.009751121
46	0xbdda7bd4	-0.106681496
47	0xbd1e408c	-0.038635775
48	0x3e31fcb0	0.17381549
49	0xbdee0c70	-0.11623466
50	0xbe13294e	-0.14371225
51	0x3e1c761c	0.1527943
52	0xbe20e2c8	-0.1571151
53	0xbe1822d7	-0.1485704
54	0x3ce0eec1	0.027457597
55	0xbe0dc7c8	-0.13845742
56	0xbdf4a6ab	-0.11945852
57	0xbe0ab5bb	-0.13545887
58	0x3cf1e14b	0.029526373
59	0xbe829df7	-0.25511143
60	0x387473d0	5.8281992e-05
61	0xbd14621f	-0.036226388
62	0xbda4819c	-0.080325335
63	0xbe6f87e3	-0.2339168
64	0x3c3f2907	0.0116674965
65	0xbdb89a17	-0.09013765
66	0xbd93dd9d	-0.07220004
67	0xbe610f0b	-0.21978395
68	0x3b589aed	0.0033051327
69	0xbe2275db	-0.15865271
70	0x3b3dbccb	0.002895164
71	0xbdd9bac5	-0.106313266
72	0xbe2c622a	-0.16834322
73	0xbe0b1945	-0.13583858
74	0xbe0a2ae7	-0.13492928
75	0xbe3afc12	-0.1826022
76	0x3d00b3d8	0.031421512
77	0xbe7feb5d	-0.24992128
78	0xbd8cbd04	-0.06871989
79	0xbe2e749b	-0.17036669
80	0xbd7f353b	-0.062306624
81	0xbc2abdcf	-0.01042123
82	0xbc966df0	-0.01836297
83	0xbe04cff6	-0.12969956
84	0xbd917529	-0.07102425
85	0xbceab580	-0.028651
86	0xbd9d49ab	-0.07680067
87	0xbd3201ab	-0.043458622
88	0xbde81103	-0.1133137
89	0x3caa907f	0.020820854
90	0xbe3a6df2	-0.18206003
91	0xbd1e14c9	-0.03859404
92	0x3b831d9d	0.004001333
93	0x3ba8ec7d	0.0051551447
94	0xbbb5c183	-0.00554675
95	0xbde601aa	-0.11230786
96	0xbe599aa6	-0.212504
97	0x3ce0eec1	0.027457597
98	0x3ce466e2	0.02788109
99	0xbe50b6c3	-0.20382218
100	0xbd48586d	-0.048912454
101	0xbe40de62	-0.18834832
102	0xbde55b23	-0.111990236
103	0xbeaf667c	-0.34257877
104	0xbe5e9902	-0.21738055
105	0xbe161f35	-0.14660342
106	0x3d5ae317	0.053439226
107	0xbb133f97	-0.0022468322
108	0xbe42b370	-0.19013762
109	0xbe02b63e	-0.12764832
110	0xbd806e82	-0.06271078
111	0xbd4322e3	-0.047640692
112	0xbe026ec0	-0.1273756
113	0xbe0aff7b	-0.1357402
114	0xbe48fa76	-0.19626793
115	0x3dca8067	0.09887772
116	0xbdf11cf0	-0.117730975
117	0xbde422d8	-0.111394584
118	0xbd5a13fa	-0.053241707
119	0xbe605278	-0.2190646
120	0xbdf878cd	-0.12132416
121	0xbd5760f6	-0.052582704
122	0xbe14e5a3	-0.14540724
123	0xbe5c6bae	-0.21525452
124	0x3d8f2bfc	0.06990811
125	0x3dc855ac	0.097819656
126	0xbe40df9e	-0.18835303
127	0xbe2e50bb	-0.17022984
128	0x3d84ee91	0.064908154
129	0x3db1657b	0.08661934
130	0xbb5c3bfd	-0.0033605092
131	0xbdc26fb7	-0.09493964
132	0xbb5e55d3	-0.0033925667
133	0x3dd46874	0.10371485
134	0xbcadf073	-0.02123282
135	0x3e2988e9	0.16556133
136	0xbd433924	-0.047661915
137	0xbdba6d3e	-0.091028675
138	0xbd82fdff	-0.06396102
139	0x3b883e37	0.004157807
140	0xbd96b3bf	-0.073585026
141	0x3d9882e5	0.07446841
142	0x3d2b7978	0.04186389
143	0xbd605482	-0.054768093
144	0xbdd4dad5	-0.103933014
145	0x3d368724	0.044562474
146	0xbd760554	-0.060063675
147	0xbb898fb3	-0.0041980385
148	0xbdad658b	-0.084666334
149	0x3d5e58d9	0.05428395
150	0xbc6d8e06	-0.014499193
151	0x3d272e4e	0.040815644
152	0x3ca14361	0.01968545
153	0x3ce6eeee	0.028190102
154	0x3d20f820	0.03929913
155	0x3cc1c6e4	0.023654409
156	0x3c46f444	0.012143198
157	0xbd271faf	-0.0408017
158	0xbdd47f7e	-0.1037588
159	0xbcead30f	-0.028665094
160	0xbc24136a	-0.010014394
161	0xbcf5cef1	-0.030005904
162	0x3d377859	0.044792507
163	0xbd439b3e	-0.047755472
164	0x3b08773e	0.0020823027
165	0xbd38113f	-0.044938322
166	0xbd8d7c22	-0.06908442
167	0xbcec24a4	-0.028826065
168	0xbd0186bd	-0.031622637
169	0xbd249638	-0.040182322
170	0xbc1b3ec5	-0.009475415
171	0xbdadc6ea	-0.084852055
172	0x3cb4ea6f	0.022084443
173	0x3d16b698	0.03679523
174	0x3c21087a	0.009828681
175	0x3e0d2be3	0.13786273
176	0xbcf8baad	-0.030362451
177	0x3cb50852	0.022098694
178	0x3d8cac04	0.06868747
179	0x3c7d13f5	0.015446653
180	0xbd76ed4b	-0.060284894
181	0xbd4e71be	-0.05040144
182	0x3d771bba	0.060329176
183	0xbd6faa6c	-0.058512136
184	0x3dc29908	0.09501845
185	0xbc903eb4	-0.017608024
186	0xbd012308	-0.03152755
187	0xbcc14e9e	-0.023597058
188	0xbd43ae79	-0.047773812
189	0xbd8d480a	-0.06898506
190	0xbd252bee	-0.040325098
191	0xbd02a874	-0.03189893
192	0x3e97512e	0.29554123
193	0xbe321229	-0.1738974
194	0xbdd10172	-0.10205354
195	0xbd8d2d44	-0.06893399
196	0xbe2a1f04	-0.16613394
197	0xbd76b5d1	-0.060231987
198	0xbe8fd918	-0.28095317
199	0xbdd46aa8	-0.103719056
200	0xbdf8320f	-0.12118923
201	0xbe5329f2	-0.2062147
202	0x3df65472	0.120278254
203	0xbe30997b	-0.17246048
204	0x3a8dd90a	0.0010822129
205	0xbe2a1c52	-0.16612366
206	0xbe1cccbf	-0.1531248
207	0xbe2087de	-0.15676829
208	0xbdfd4c78	-0.12368101
209	0x3d87a47f	0.06623172
210	0xbd1832a3	-0.037157666
211	0xbe5e34c2	-0.21699813
212	0xbe90320d	-0.28163186
213	0xbd986a33	-0.07442131
214	0xbcf8f7da	-0.030391622
215	0xbdc4a267	-0.09601288
216	0xbe302a07	-0.17203532
217	0xbd41a872	-0.047279783
218	0x3dff7319	0.12473125
219	0xbdd22c7a	-0.102623895
220	0x3d9628af	0.073319785
221	0xbe5d7762	-0.21627572
222	0xbe4aa471	-0.19789292
223	0xbe048331	-0.1294067
224	0xbe6371ae	-0.22211334
225	0xbe1a3a02	-0.1506119
226	0xbda8c2b3	-0.08240261
227	0xbe399d50	-0.18126416
228	0xbdf8de6e	-0.121518
229	0xbe3fb355	-0.18720753
230	0xbe3c4fd0	-0.18389821
231	0xbd8ca01f	-0.06866478
232	0xbe932ae2	-0.28743654
233	0xbd6d648d	-0.05795722
234	0xbaa4c1a8	-0.0012569921
235	0xbe131cec	-0.14366502
236	0x3d43ab22	0.047770627
237	0xbe0e626b	-0.13904731
238	0xbe075ec6	-0.13219747
239	0xbe2a9be2	-0.16661027
240	0x3db590cc	0.088655084
241	0xbe08efdd	-0.1337275
242	0xbd92c9fb	-0.07167431
243	0x3c8324aa	0.016008694
244	0xbdfa3ce7	-0.122186475
245	0x3b35bbe6	0.0027730404
246	0x3c8c15e5	0.017100284
247	0xbdf02501	-0.11725808
248	0xbdd07936	-0.10179369
249	0xbdd68e81	-0.10476399
250	0xbdfb1128	-0.12259132
251	0xbdbf03db	-0.09326907
252	0xbdaeb5c2	-0.08530761
253	0x3defc283	0.11707022
254	0xbda0436d	-0.078253604
255	0xbe034b36	-0.1282166

lstm.bias_hh_l0 f4 [256]
0	0x3e67d53c	0.22639936
1	0x3d89624d	0.067082025
2	0xbc8db278	-0.017297015
3	0xbd0cf580	-0.034413815
4	0xbd288468	-0.041141897
5	0x3dbdfc2e	0.09276615
6	0xbdb8f286	-0.09030633
7	0xbe4dc3b3	-0.20094185
8	0xbdc9e203	-0.098575614
9	0xbe2ab660	-0.16671133
10	0x3e446723	0.19179969
11	0xbe54c356	-0.2077764
12	0x3de9cce1	0.11416031
13	0xbe0068d2	-0.12539986
14	0xbd2d4fe9	-0.042312536
15	0x3ca742da	0.02041762
16	0xbe3d6920	-0.18497133
17	0x3dfbcf66	0.122954175
18	0x3e032819	0.12808265
19	0xbe19b87c	-0.15011781
20	0xbe7e7c28	-0.2485205
21	0x3d050f81	0.03248549
22	0xbe45fe5b	-0.1933531
23	0xbe1bbe98	-0.15209424
24	0xbd7f8924	-0.062386647
25	0xbbfcc3d3	-0.0077137738
26	0x3e31ac4f	0.17350887
27	0xbe4fea76	-0.20304283
28	0x3c9628d7	0.01833002
29	0xbe87eb93	-0.26546916
30	0xbddceb4e	-0.10787068
31	0xbdd90887	-0.105973296
32	0xbe052f9c	-0.13006443
33	0xbcd699ba	-0.02619635
34	0xbd70987e	-0.058739178
35	0xbc744e27	-0.014911211
36	0xbd962d17	-0.07332819
37	0xbd92349f	-0.07138943
38	0xbd9d776e	-0.07688795
39	0xbe251a38	-0.16123283
40	0xbcfa6b26	-0.03056867
41	0xbd1084e5	-0.035282988
42	0xbd337a0e	-0.043817572
43	0x3d9eed00	0.07760048
44	0x3db04502	0.08606912
45	0xbe61fe78	-0.22069728
46	0xbe256d92	-0.16155079
47	0xbe12a782	-0.14321712
48	0x3e48b27a	0.19599333
49	0xbe1b9da4	-0.15196854
50	0xbd2632c2	-0.04057575
51	0xbc6e3ef5	-0.014541377
52	0xbdf982ac	-0.12183127
53	0xbdd226c3	-0.102612995
54	0x3bbb6677	0.005719002
55	0xbe687985	-0.22702606
56	0xbdf45703	-0.11930659
57	0xbd643788	-0.05571702
58	0x3b3f1d32	0.002916169
59	0xbe445458	-0.191728
60	0xbde6c314	-0.11267677
61	0x3d65eb87	0.05613282
62	0xbe5722be	-0.21009347
63	0xbe69b7c3	-0.22824006
64	0x3d948652	0.07252182
65	0xbd42557a	-0.047444798
66	0x3b8b5a4a	0.0042527067
67	0xbdd9fe71	-0.10644234
68	0x3d179c9a	0.03701458
69	0xbdb35d17	-0.0875799
70	0xbe00a2ba	-0.12562075
71	0xbe392a93	-0.18082647
72	0xbe736379	-0.23768415
73	0xbe0b2114	-0.13586837
74	0xba7acae4	-0.0009566976
75	0xbdbca689	-0.092114516
76	0xbddcab30	-0.10774839
77	0xbe1b2111	-0.15149333
78	0xbe50ea13	-0.20401792
79	0xbd370262	-0.044680007
80	0xbdcf6e5e	-0.10128473
81	0xbda6a756	-0.081373855
82	0x3ca08eb4	0.019599296
83	0xbe8ac4aa	-0.27103168
84	0xbca15de8	-0.019698098
85	0xbe2b9fc7	-0.16760169
86	0xbdd9f19d	-0.10641787
87	0xbe26fc7e	-0.16307256
88	0xbd856390	-0.06513131
89	0xbd997683	-0.074933074
90	0xbe4e5ab3	-0.20151787
91	0x3dc07956	0.09398143
92	0xbe39a7d1	-0.18130423
93	0xbe5b1677	-0.21395288
94	0x3d5ba2f0	0.053622186
95	0xbe1b650f	-0.1517527
96	0xbdfd4f08	-0.1236859
97	0xbce5e1b3	-0.028061723
98	0x3d46b7a0	0.048514962
99	0xbd94b00e	-0.07260142
100	0xbe50cf76	-0.2039164
101	0xbe098784	-0.13430601
102	0xbe8edb87	-0.2790186
103	0xbe3c83cf	-0.18409656
104	0xbda4ed16	-0.08053033
105	0xbe13ce7c	-0.14434236
106	0xbd09101f	-0.03346264
107	0x3d4b3780	0.049613476
108	0xbeaf6ea7	-0.3426411
109	0x3da0faa4	0.07860306
110	0xbce597ae	-0.028026428
111	0x3c08a312	0.00833966
112	0xbd67e638	-0.056616038
113	0xbe8cac25	-0.27475086
114	0xbe36cbdd	-0.17851205
115	0x3d630acd	0.055430222
116	0xbe0812f1	-0.13288476
117	0xbdf13d14	-0.11779228
118	0xbd68b9a2	-0.05681766
119	0xbe8bb153	-0.27283725
120	0xbe261968	-0.16220629
121	0xbe4e1a82	-0.201273
122	0xbe282d6c	-0.16423577
123	0xbe99f3be	-0.30068773
124	0x3b7bb059	0.0038404672
125	0xbd56d9ea	-0.052453913
126	0xbe2772ee	-0.16352436
127	0xbea0438d	-0.31301537
128	0x3b8c53ba	0.004282442
129	0x3cff624e	0.031174805
130	0x3bd730d8	0.006567102
131	0xbde8fd93	-0.113764904
132	0x3cdd17ed	0.026988948
133	0x3d823fb8	0.0635981
134	0x3c78f375	0.015194763
135	0xbd283dc5	-0.041074533
136	0xbd622ff4	-0.055221513
137	0x3da9d89d	0.08293269
138	0x3de292ee	0.11063181
139	0x3d16a270	0.036776006
140	0xbd22b809	-0.03972629
141	0xbcafb368	-0.021447852
142	0xbdc8cf4e	-0.09805165
143	0xbc0755d8	-0.008260213
144	0xbdbc9741	-0.09208537
145	0xbc8043d1	-0.015657337
146	0xbddc90af	-0.10769784
147	0xbc7fd38d	-0.0156144025
148	0x3b593e5e	0.0033148746
149	0x3d2e5aa5	0.042566914
150	0x3cebfa70	0.028805941
151	0x3db586e4	0.08863619
152	0x3d7913e4	0.060809985
153	0xbd974b2c	-0.07387385
154	0xbd8e5439	-0.06949658
155	0xbd518140	-0.051148653
156	0xbc899c6e	-0.016798224
157	0x3da9db8c	0.08293828
158	0x3b977553	0.0046221404
159	0x3d95f1f0	0.073215365
160	0x3b9d60d7	0.004802804
161	0x3de1c8f8	0.1102466
162	0x3d26e6f3	0.040747594
163	0x3dad53f7	0.08463281
164	0x3d810d57	0.063013725
165	0x3c4326e1	0.011911125
166	0x3dcdf769	0.10056955
167	0xbd3650ca	-0.04451064
168	0xbda571e2	-0.08078362
169	0xbdaa1877	-0.083054475
170	0xbdc82b4b	-0.097738825
171	0xbe01c6bd	-0.12673469
172	0xbd33eebe	-0.043928854
173	0x3d0a1995	0.033715803
174	0x3db39124	0.08767918
175	0x3d976465	0.073921956
176	0xbbb5a08b	-0.00554282
177	0xbcdf1095	-0.027229587
178	0xbd3eb24b	-0.046556752
179	0x3e331105	0.17486961
180	0x3dc2780b	0.09495553
181	0x3d149005	0.03627016
182	0x3c137a75	0.009001364
183	0x3ce32137	0.027725799
184	0xbd2a7f68	-0.04162541
185	0x3d94d2e4	0.07266787
186	0x3d2c75dc	0.042104587
187	0x3c934d55	0.01798121
188	0x3dcf8090	0.10131943
189	0xbc92a2da	-0.01789992
190	0xbd7c64e0	-0.06161964
191	0x3c4bdd99	0.01244297
192	0x3e1f1088	0.1553365
193	0xbe2159f2	-0.15756968
194	0xbcc196da	-0.023631502
195	0xbde72efb	-0.11288258
196	0xbdcdc8af	-0.10048043
197	0xbda77187	-0.081759505
198	0xbe8c59b7	-0.27412197
199	0xbddeca69	-0.108784504
200	0xbe6a5115	-0.22882493
201	0xbe4ce2d4	-0.20008403
202	0x3e23f810	0.16012597
203	0xbe2221dd	-0.1583323
204	0xbe0910d5	-0.13385327
205	0xbe3ca3f3	-0.18421917
206	0xbe42f281	-0.1903782
207	0x3cb3fd86	0.021971475
208	0xbdeae2ad	-0.11469016
209	0x3cc663a2	0.02421743
210	0xbd9a841b	-0.07544728
211	0xbe305a8c	-0.17222041
212	0xbdc72124	-0.09723118
213	0xbd6c6105	-0.057709713
214	0xbe5409c5	-0.20706852
215	0xbe41b1d9	-0.189155
216	0xbe94bf04	-0.29051983
217	0xbd4b1f02	-0.04959012
218	0x3d666c55	0.056255657
219	0xbdab18d5	-0.08354346
220	0xbd713005	-0.058883686
221	0xbe650b7d	-0.22367664
222	0x3c02eaec	0.00799058
223	0xbdee2577	-0.116282396
224	0xbe0c2623	-0.13686423
225	0xbe05e635	-0.13076098
226	0xbe306a32	-0.1722801
227	0x3b50b7b5	0.003184778
228	0xbe5b3fb7	-0.21411024
229	0xbe22345d	-0.15840288
230	0xbd4847bd	-0.04889654
231	0xbe42ff97	-0.19042812
232	0xbe47e4ad	-0.19520827
233	0xbe0113f2	-0.12605265
234	0xbe111111	-0.14166667
235	0xbda5b930	-0.08091962
236	0xbda4a16d	-0.08038602
237	0xbe12a8f1	-0.14322259
238	0x3d00bf82	0.031432636
239	0xbdf835bb	-0.12119623
240	0x3e4e7f48	0.20165741
241	0xbe39a131	-0.18127896
242	0xbdf1b297	-0.118016414
243	0x3cfcae2a	0.030844767
244	0xbe2945e1	-0.16530563
245	0xbceed80e	-0.029155757
246	0xbcd091c7	-0.025460137
247	0xbe9401eb	-0.28907713
248	0xbdd5b2c8	-0.104344904
249	0xbe2f8fad	-0.17144652
250	0xbdde7ab1	-0.10863245
251	0xbe1ba8b4	-0.15201074
252	0xbbd2b287	-0.0064299735
253	0x3cb5cf47	0.022193564
254	0xbc4dd4da	-0.012562955
255	0xbe586ea2	-0.21135953

fc.weight f4 [2, 64]
0	0x3dba05d3	0.09083142
1	0xbdab990b	-0.083788
2	0x3da81958	0.08207959
3	0xbc4e8380	-0.012604594
4	0xbdac4abd	-0.08412693
5	0x3d761f94	0.06008871
6	0xbd77c826	-0.06049361
7	0x3e18b94d	0.14914437
8	0xbdbc950e	-0.092081174
9	0x3b565c24	0.0032708729
10	0x3ddbfb58	0.107412994
11	0xbd1d4a6d	-0.038401056
12	0x3c0aa5a6	0.008462345
13	0xbdd78b65	-0.10524634
14	0x3c087467	0.008328534
15	0x3e451da3	0.19249587
16	0xbdc81c33	-0.097710036
17	0x3dd9d4ae	0.106362686
18	0x3ca15f77	0.019698841
19	0x3c0d81e8	0.008636929
20	0xbb1b1abf	-0.0023667065
21	0xbc25256f	-0.010079726
22	0x3d39315e	0.045213096
23	0xb9c6b2cf	-0.00037898726
24	0x3d146649	0.03623036
25	0xbc8954e7	-0.016764117
26	0xbd1e77cb	-0.038688462
27	0x3dc14dee	0.09438692
28	0xbccd9034	-0.025093175
29	0x3d9c0c60	0.07619548
30	0x3d96b9e0	0.073596716
31	0x3d02f758	0.031974167
32	0x3d886a25	0.066608705
33	0x3d5a65d0	0.053319752
34	0x3d7685db	0.06018625
35	0x3da0e564	0.07856253
36	0xbc7bcfc3	-0.0153693585
37	0xbe0375f4	-0.12837964
38	0x3d992f84	0.07479766
39	0xbd372a95	-0.044718344
40	0xbd7e3f7f	-0.062072273
41	0xbe26716d	-0.16254206
42	0xbddfcc2e	-0.10927616
43	0xbc7b710a	-0.015346775
44	0x3c06487e	0.008195994
45	0xbbb3730c	-0.005476361
46	0xb977f34d	-0.00023646392
47	0x3cb99f63	0.02265901
48	0x3e1e5afb	0.15464394
49	0x3d4ec5be	0.05048155
50	0x3df05d53	0.1173655
51	0xbc77c8f1	-0.015123592
52	0x3cffe836	0.031238656
53	0x3c11f16f	0.00890766
54	0x3e3d2f31	0.18475033
55	0xbd2c376e	-0.04204505
56	0x3df1f467	0.11814194
57	0x3d415a99	0.04720554
58	0x3d940f17	0.07229441
59	0xbd054442	-0.0325358
60	0xbbd8b7fe	-0.0066137305
61	0xbd426e6a	-0.04746858
62	0x3e52a123	0.20569281
63	0x3db7a130	0.08966291
64	0x3ece5d0d	0.40305367
65	0x3dec731f	0.11545395
66	0xbba71971	-0.0050994684
67	0x3dcea64e	0.10090314
68	0xbe40b31d	-0.18818326
69	0xbe750556	-0.23927817
70	0xbb298f3e	-0.0025872733
71	0x3dd463c6	0.10370593
72	0xbd8b176c	-0.06791577
73	0xbdae716e	-0.08517729
74	0xbe92974c	-0.28631055
75	0x3e170f29	0.14751877
76	0x3c9a6412	0.018846545
77	0xbbc1fc6c	-0.0059199836
78	0xbd82ddb4	-0.06389943
79	0xbbdb12c1	-0.0066855852
80	0xbd12fb12	-0.03588397
81	0x3e03ff5b	0.12890379
82	0x3e1d6743	0.15371422
83	0xbda135b0	-0.07871568
84	0xbd97b26f	-0.074070804
85	0xbce435c8	-0.027857676
86	0x3d631650	0.0554412
87	0x3d455d7d	0.04818486
88	0x3de4c1a8	0.111697495
89	0xbdaf86b8	-0.085706174
90	0xbe89cdd3	-0.26914844
91	0xbcafb901	-0.021450521
92	0x3d6bc771	0.05756325
93	0xbc5b7b97	-0.013396165
94	0xbc031e03	-0.008002761
95	0x3d584bf4	0.05280681
96	0x3d3038a9	0.043022785
97	0x3d0818b8	0.0332267
98	0x3d9a5fe0	0.07537818
99	0xbd477587	-0.048696067
100	0xbe1e8511	-0.15480448
101	0x3d67db7b	0.056605797
102	0xbcd25d4b	-0.025679251
103	0x3e155d40	0.14586353
104	0x3d732d7e	0.059369557
105	0x3d5593c0	0.05214286
106	0x3d8f5ad2	0.069997445
107	0x3d85c5d9	0.06531877
108	0xbe5a228d	-0.21302243
109	0xbd63dc01	-0.055629734
110	0x3d4942f0	0.049136102
111	0xbca04ca4	-0.019567795
112	0x3e89a460	0.2688322
113	0x3e08b34f	0.13349651
114	0xbd2d2017	-0.04226693
115	0xbd8c2502	-0.06842996
116	0x3dacb7f2	0.08433522
117	0xbdb27f79	-0.0871572
118	0x3dd522d5	0.10407034
119	0x3db37ce9	0.08764059
120	0xbd6525aa	-0.055944122
121	0x3d72d1c9	0.059282098
122	0x3d076fe1	0.03306568
123	0x3b9320dd	0.0044900016
124	0xbe2ee3ac	-0.17079037
125	0xbdf0ae81	-0.11752034
126	0x3db1fc45	0.08690695
127	0xba5f4b93	-0.00085180363

fc.bias f4 [2]
0	0xbc6082b8	-0.013703041
1	0x3cf1ac0d	0.029500986
