models/lstm_9f_best.pth (torch, 91383 bytes, 6 tensors)

lstm.weight_ih_l0 f4 [256, 9]
-0.119584695 -0.06099164 -0.06849115 -0.25651062 -0.2752034 -0.14709742 0.090672545 0.09264175
0.2886516 -0.011431322 -0.30736658 0.051905718 0.38815787 -0.28863412 -0.15681022 0.0066903215
0.26516291 0.3654272 0.076651625 0.0027946073 0.041382063 -0.46725798 -0.18628673 0.12441671
0.07937445 -0.02197729 0.41785043 -0.02787533 -0.055631038 0.08335022 0.1494667 0.5171245
-0.07048076 0.013066042 -0.05314544 0.06369002 -0.22550738 0.27990642 -0.17970222 0.5432962
-0.32708848 -0.12782818 0.1765425 0.71340275 -0.0077826297 0.16522515 0.054485574 -0.016624808
0.45450062 -0.16336021 -0.11167892 -0.10066124 0.17303504 -0.22333501 0.2540799 0.05269424
-0.0106348675 -0.06863427 -0.30675623 0.14064278 -0.19266891 0.026444342 -0.29095796 0.0631044
-0.064491995 0.097502686 -0.17910784 0.30761063 -0.035068255 0.1601499 0.28909642 0.41815126
-0.02754948 0.004103684 0.050638463 0.13039647 0.06509741 -0.20179033 0.3615432 0.7176022
0.5987981 -0.071239 -0.14587957 0.0037532854 0.032143142 -0.2016885 -0.05000386 0.08045841
0.47729903 0.40620175 -0.19230767 -0.013038875 -0.04362272 0.18341838 0.05737451 0.12900263
-0.0011688578 0.13917847 -0.01749796 -0.033241007 -0.18694803 -0.19499734 -0.27134508 -0.04160876
-0.36949673 -0.1295129 -0.33199427 0.26821116 0.01735943 -0.04441479 -0.036499035 0.0067403424
0.19205374 -0.085882664 0.038825024 -0.06450232 0.1383353 -0.39695626 -0.08682835 -0.10189564
-0.05452831 -0.21627802 -0.10081212 0.24861744 0.16122764 0.13409892 0.15947878 0.16069888
0.11415176 0.01120777 -0.35174942 -0.1785276 -0.0039015508 0.21746388 0.09019603 -0.08176788
0.030279338 0.07495251 0.09566536 0.21927491 0.054557987 -0.008523097 0.2297377 -0.024543835
-0.0071134306 0.043922573 -0.1115159 0.39656338 0.11404298 -0.019405296 -0.05625335 0.044738267
0.31126586 -0.09938434 0.025832811 0.22085938 -0.012274942 0.021589927 0.23374648 -0.041691992
0.2714694 0.37499052 -0.086139806 0.18554664 0.09034568 0.044066966 0.14194341 -0.16701283
-0.016542597 0.3795319 0.20206052 -0.14971447 -0.40422317 -0.049586408 0.116283834 -0.25460878
-0.07060602 0.1426702 -0.037223127 0.11472907 0.21667984 0.05988866 0.114622265 0.60897446
0.32592213 0.26173902 -0.03914227 0.35674584 0.29783374 -0.2717267 -0.0353913 -0.043878652
-0.08525325 -0.051195446 -0.095347635 0.16219571 0.35674793 0.15204173 -0.6355658 -0.010921059
-0.115774654 0.25941128 -0.07503229 0.13652113 0.13050054 -0.03706287 0.40723023 0.10797594
0.049206126 0.16341682 0.30449626 0.16422346 0.072847255 -0.039241135 0.1318514 0.38808447
-0.05273018 -0.03522905 -0.007569706 0.34414002 -0.06210092 -0.061103784 -0.058317583 -0.14515713
-0.025639985 -0.09586622 0.0057697315 -0.15841913 -0.1959838 -0.09426818 0.13685344 0.035872493
0.3159593 0.46773946 0.15899739 -0.116882734 0.19102298 -0.005118123 0.029156048 -0.034014095
-0.18428381 -0.052099813 0.06238128 0.164161 0.010400999 0.086415306 0.052901164 0.19476065
-0.2367817 -0.15591466 0.14597997 0.09934704 -0.3558392 -0.37031808 -0.3957508 -0.026081264
00000000: d2e8 f4bd 5fd2 79bd 1745 8cbd 5c55 83be
00000010: 76e7 8cbe b5a0 16be 87b2 b93d f5ba bd3d
00000020: 24ca 933e 714a 3bbc 275f 9dbe 179b 543d
00000030: a1bc c63e dac7 93be dc92 20be 7c3a db3b
00000040: 6fc3 873e 4619 bb3e 87fb 9c3d bb25 373b
00000050: 3d80 293d 703c efbe f3c1 3ebe 30ce fe3d
00000060: 128f a23d b809 b4bc 7ef0 d53e ce5a e4bc
00000070: 5fdd 63bd 85b3 aa3d cc0d 193e 4562 043f
00000080: 3758 90bd f412 563c 08af 59bd ea6f 823d
00000090: 68eb 66be e54f 8f3e dc03 38be 7615 0b3f
000000a0: 2478 a7be 64e5 02be 8fc7 343e 90a1 363f
000000b0: 6e05 ffbb c830 293e 442c 5f3d c030 88bc
000000c0: 4eb4 e83e e647 27be ebb7 e4bd 7b27 cebd
000000d0: 1930 313e efb1 64be c316 823e ead5 573d
000000e0: de3d 2ebc 2090 8cbd 270f 9dbe a904 103e
000000f0: 004b 45be cea1 d83c 71f8 94be e13c 813d
00000100: 6114 84bd 7daf c73d 0c68 37be 247f 9d3e
00000110: bba3 0fbd 56fe 233e 7204 943e ec17 d63e
00000120: 72af e1bc 3278 863b 476a 4f3d a786 053e
00000130: ca51 853d 20a2 4ebe 311c b93e c7b4 373f
00000140: d54a 193f c1e5 91bd 7461 15be aef9 753b
00000150: 87a8 033d 6e87 4ebe d9d0 4cbd 61c7 a43d
00000160: 8a60 f43e adf9 cf3e 4dec 44be 01a1 55bc
00000170: bdad 32bd 07d2 3b3e 8901 6b3d 4419 043e
00000180: 5c34 99ba cd84 0e3e e257 8fbc b927 08bd
00000190: 4e6f 3fbe 62ad 47be beed 8abe f26d 2abd
000001a0: ad2e bdbe 089f 04be 27fb a9be f952 893e
000001b0: 5d35 8e3c 48ec 35bd 0380 15bd 17de dc3b
000001c0: bca9 443e 40e3 afbd fd06 1f3d cb19 84bd
000001d0: c5a7 0d3e da3d cbbe 10d3 b1bd a9ae d0bd
000001e0: 1459 5fbd fc77 5dbe 9676 cebd 9295 7e3e
000001f0: dc18 253e 3a51 093e 684e 233e 3f8e 243e
00000200: 66c8 e93d cba0 373c 8018 b4be f0cf 36be
00000210: 29b1 7fbb daae 5e3e b2b8 b83d eb75 a7bd
00000220: 600c f83c b480 993d 33ec c33d 9a89 603e
00000230: 3278 5f3d 76a4 0bbc 5c40 6b3e 2710 c9bc
00000240: c817 e9bb 28e8 333d 7362 e4bd 5b0a cb3e
00000250: 5e8f e93d dbf7 9ebc ea69 66bd 793f 373d
00000260: 3d5e 9f3e 048a cbbd 559f d33c f628 623e
00000270: d71c 49bc 5cdd b03c 3d5b 6f3e 39c5 2abd
00000280: 0afe 8a3e c2fe bf3e 116a b0bd f0ff 3d3e
00000290: 2807 b93d 907f 343d 9d59 113e 6905 2bbe
000002a0: 5784 87bc 0152 c23e f4e8 4e3e c04e 19be
000002b0: 57f6 cebe 1e1b 4bbd 3826 ee3d 155c 82be
000002c0: e499 90bd 2318 123e 4777 18bd 13f7 ea3d
000002d0: 52e1 5d3e d04d 753d 14bf ea3d c0e5 1b3f
000002e0: 44df a63e a802 863e a553 20bd 64a7 b63e
000002f0: aa7d 983e c31f 8bbe 78f6 10bd 1aba 33bd
00000300: 4299 aebd 51b2 51bd 9f45 c3bd a216 263e
00000310: aaa7 b63e d4b0 1b3e 71b4 22bf 3eee 32bc
00000320: 431b edbd 8ed1 843e 87aa 99bd 32cc 0b3e
00000330: efa1 053e 3ccf 17bd 7b80 d03e 7d22 dd3d
00000340: 5d8c 493d bd56 273e efe6 9b3e 322a 283e
00000350: f130 953d 50bb 20bd 0e04 073e 02b3 c63e
00000360: 9afb 57bd 564c 10bd 4c0b f8bb 1f33 b03e
00000370: 895d 7ebd f647 7abd 6bde 6ebd 12a4 14be
00000380: f20a d2bc 8255 c4bd 0410 bd3b a038 22be
00000390: faaf 48be ad0f c1bd 4f23 0c3e 09ef 123d
000003a0: 6bc5 a13e 8c7b ef3e 36d0 223e 3760 efbd
000003b0: 879b 433e edb5 a7bb aad8 ee3c 5d52 0bbd
000003c0: e5b4 3cbe 9d66 55bd 8383 7f3d d219 283e
000003d0: f468 2a3c 82fa b03d e4ae 583d 566f 473e
000003e0: e776 72be 18a8 1fbe c67b 153e 7676 cb3d
000003f0: 8e30 b6be 559a bdbe d99f cabe 60a8 d5bc

lstm.weight_hh_l0 f4 [256, 64]
-0.017590052 0.3890722 0.36407888 0.002974671 0.35175034 -0.1441863 -0.10173077 -0.2436185
0.0005331203 -0.11539063 -0.15089175 -0.285798 -0.18589582 -0.0996019 -0.39987072 -0.25482672
0.044571076 0.40220746 0.3368803 0.023568531 -0.24719839 0.14485514 0.30772552 -0.19329935
0.019540926 0.19051418 -0.46899164 -0.47263992 0.28449184 0.04360061 0.017496668 0.04353209
0.32052356 -0.5307277 0.017247502 0.08207846 0.77596503 -0.17030098 -0.18096311 0.24095453
-0.19672517 0.008232528 -0.22106858 -0.013755844 0.12744886 0.2123229 -0.047422573 -0.29786453
0.569091 -0.12746754 0.14980695 0.41748944 0.21832296 0.18296526 -0.19364311 -0.041863907
0.045765135 0.36668688 0.16428192 -0.059746943 -0.1355889 -0.25052184 0.28308526 0.43350416
0.12665714 -0.015687322 -0.016953733 0.1024511 0.2501375 0.20034514 -0.21646522 -0.34922978
0.18085843 -0.13577572 -0.04932853 -0.16246632 0.12107854 -0.037545286 -0.14672147 -0.23819935
-0.06396622 -0.48968068 -0.27960497 0.07138843 -0.32382223 0.38420707 -0.068255335 -0.23851573
-0.32018346 -0.015410175 -0.4853756 0.48710448 0.1752288 0.18254392 0.10176051 0.06219296
-0.16186997 -0.15018961 0.115027264 0.3923579 0.07717573 0.3461937 0.07665068 0.21109603
-0.29328284 -0.16137333 0.4046874 0.766528 0.54740125 -0.097545594 0.013033954 0.010605551
0.36552027 -0.14193574 0.009887539 0.43318427 0.3077347 0.05063521 0.08127612 -0.5653444
0.66705996 0.37870792 0.61126995 0.014728593 -0.17762786 -0.16569775 0.33606562 -0.35659146
-0.4172992 -0.24023345 -0.24155569 0.2629376 -0.4038 0.110990465 0.3976057 0.26327914
0.6636488 0.10087049 -0.08215944 -0.1072022 -0.21189451 0.41579717 0.19933875 -0.076943666
0.2564768 0.13317811 -0.018193346 -0.25281417 0.014214123 -0.15405548 -0.07965229 -0.23047534
-0.3701215 -0.05820153 -0.26513916 -0.4609813 -0.094490215 -0.23212908 0.012266596 -0.06588915
0.29367572 0.70384663 -0.122020766 -0.34126475 0.26116642 0.077308245 0.06546824 0.043218035
0.33528084 -0.4492516 -0.2788376 -0.2594996 0.06867751 0.055478092 0.08070992 -0.15548888
0.20975085 0.11583796 -0.3019389 -0.22459817 0.3171108 0.21398216 0.10668193 -0.15841031
0.22512448 -0.14800408 -0.45731628 -0.23750396 -0.24992655 0.06786042 -0.054790374 0.3067577
0.37805623 0.027523458 -0.99484974 0.8146773 0.2070449 0.031685296 0.17751224 -0.07249922
0.09339635 0.06422523 0.18822885 0.05641529 0.21361017 -0.083353415 -0.2822527 0.11632649
-0.05307378 -0.08866317 -0.45166066 -0.3763769 -0.22679849 -0.41859376 -0.0782437 -0.57851756
0.31285226 -0.02210541 -0.3550838 0.09467015 -0.15685214 0.0594449 1.0117137 0.20695497
-0.016928133 0.10407464 0.09582634 0.10891073 -1.003289 0.25349146 0.24448664 -0.13037021
-0.3662099 -0.06918271 -0.25682968 -0.10976352 -0.12455473 -0.023653807 -0.4783849 0.50873023
-0.3562811 -0.19478302 -0.222079 0.35199884 -0.7072939 0.66211814 -0.24328443 -0.030162184
0.21217762 -0.09361522 -0.39413092 0.45916903 0.46920213 -0.21934311 -0.13629156 0.025521353
00000000: 0319 90bc 7934 c73e 8c68 ba3e b3f2 423b
00000010: 9f18 b43e 93a5 13be 3958 d0bd 2177 79be
00000020: 19c1 0b3a ec51 ecbd 5e83 1abe 1e54 92be
00000030: 795b 3ebe 15fc cbbd dbbb ccbe a678 82be
00000040: 2990 363d 23ee cd3e 937b ac3e cb12 c13c
00000050: 9321 7dbe e854 143e 338e 9d3e 44f0 45be
00000060: 4b14 a03c 2616 433e ac1f f0be dcfd f1be
00000070: eaa8 913e 8e96 323d 2c55 8f3c b44e 323d
00000080: aa1b a43e c5dd 07bf a24a 8d3c c018 a83d
00000090: a5a5 463f 6163 2ebe 654e 39be c9bc 763e
000000a0: 5372 49be bae1 063c cd5f 62be 3160 61bc
000000b0: f481 023e 2d6b 593e 2c3e 42bd b381 98be
000000c0: f3af 113f da86 02be fe66 193e 2dc1 d53e
000000d0: 0e90 5f3e 3f5b 3b3e 614a 46be 7d79 2bbd
000000e0: 3974 3b3d 62be bb3e 8539 283e 36b9 74bd
000000f0: d1d7 0abe 6644 80be 8df0 903e 42f4 dd3e
00000100: 69b2 013e b382 80bc 8ee2 8abc e2d1 d13d
00000110: 0612 803e 4727 4d3e 0fa9 5dbe 3fce b2be
00000120: f432 393e ca08 0bbe b60c 4abd 925d 26be
00000130: 07f8 f73d 16c9 19bd 273e 16be 88ea 73be
00000140: b900 83bd 6db7 fabe 6228 8fbe 1934 923d
00000150: 07cc a5be cab6 c43e 74c9 8bbd 783d 74be
00000160: 16ef a3be f57a 7cbc 2783 f8be c265 f93e
00000170: 2e6f 333e cbec 3a3e d067 d03d 0cbe 7e3d
00000180: 3ec1 25be 4ecb 19be 6a93 eb3d 22e3 c83e
00000190: 4f0e 9e3d 4d40 b13e 08fb 9c3d 8f29 583e
000001a0: 2b29 96be 0d3f 25be 3033 cf3e 2e3b 443f
000001b0: 7d22 0c3f fcc5 c7bd 5e8c 553c e8c2 2d3c
000001c0: 7925 bb3e 9a57 11be 58ff 213c 54ca dd3e
000001d0: 678f 9d3e de66 4f3d 1874 a63d 69ba 10bf
000001e0: 71c4 2a3f 01e6 c13e 307c 1c3f 3250 713c
000001f0: 14e4 35be acac 29be cb10 ac3e 2893 b6be
00000200: 3ea8 d5be c2ff 75be 605a 77be c29f 863e
00000210: e0be cebe f84e e33d f992 cb3e 86cc 863e
00000220: e3e4 293f 3095 ce3d 3543 a8bd d48c dbbd
00000230: e0fa 58be 5ee3 d43e 751f 4c3e a494 9dbd
00000240: ed50 833e d85f 083e 360a 95bc dc70 81be
00000250: 5ae2 683c b8c0 1dbe bd20 a3bd ba01 6cbe
00000260: 9180 bdbe ba64 6ebd 52c0 87be be05 ecbe
00000270: 1684 c1bd 3fb3 6dbe d5f9 483c e4f0 86bd
00000280: aa5c 963e 4b2f 343f 06e6 f9bd 41ba aebe
00000290: 9bb7 853e c953 9e3d 3614 863d 6505 313d
000002a0: eea9 ab3e 4e04 e6be cdc3 8ebe 22dd 84be
000002b0: cba6 8c3d ff3c 633d 3e4b a53d 7a38 1fbe
000002c0: edc8 563e 743c ed3d bc97 9abe 10fd 65be
000002d0: 595c a23e 241e 5b3e 0e7c da3d 5036 22be
000002e0: 0887 663e 628e 17be 5c25 eabe 3d34 73be
000002f0: bfec 7fbe 67fa 8a3d df6b 60bd 580f 9d3e
00000300: 9690 c13e e078 e13c 79ae 7ebf b18e 503f
00000310: 9403 543e 71c8 013d c5c5 353e 797a 94bd
00000320: 9646 bf3d 8488 833d 10bf 403e b813 673d
00000330: a0bc 5a3e 32b5 aabd 6d83 90be 953c ee3d
00000340: e463 59bd 0995 b5bd 1140 e7be 79b4 c0be
00000350: dd3d 68be ec51 d6be 3c3e a0bd ba19 14bf
00000360: 2c2e a03e 6816 b5bc 8bcd b5be 6ce2 c13d
00000370: d99d 20be 7f7c 733d d67f 813f 01ec 533e
00000380: deac 8abc 1625 d53d 9a40 c43d 970c df3d
00000390: c66b 80bf a2c9 813e b55a 7a3e c57f 05be
000003a0: dd7f bbbe aaaf 8dbd 2e7f 83be b2cb e0bd
000003b0: 8d16 ffbd a1c5 c1bc deee f4be 253c 023f
000003c0: 7a6a b6be 3375 47be ad68 63be 3139 b43e
000003d0: 3711 35bf 9380 293f 8e1f 79be af16 f7bc
000003e0: 1745 593e 56b9 bfbd 87cb c9be 3418 eb3e
000003f0: 433b f03e 7b9b 60be 0490 0bbe 2812 d13c

lstm.bias_ih_l0 f4 [256]
-0.060374677 -0.07660496 -0.05713473 -0.15690623 -0.14702584 -0.18261375 -0.18206407 -0.038658734
-0.05515625 0.0042243297 -0.090962455 -0.39137998 -0.14282627 -0.19731289 0.021215674 -0.026093919
-0.22386673 0.0543244 -0.25015226 -0.24866782 0.10717121 -0.23363109 -0.1096463 -0.051899876
-0.10847172 -0.20248866 -0.16523422 0.07115237 -0.23483743 -0.24543782 -0.039991274 -0.1365316
-0.17492533 -0.29151994 -0.2597377 -0.11102752 -0.05379022 -0.11095093 -0.10072714 -0.15311374
-0.040769044 -0.24611482 -0.11211437 -0.22573489 -0.07765946 -0.29346916 -0.19811013 -0.08990077
-0.14483696 -0.08708246 -0.17405337 -0.0908489 -0.28692693 -0.10973928 -0.3021249 -0.061305817
-0.13128841 -0.005588519 -0.13644764 -0.12669943 -0.088547476 -0.25757453 0.009371122 -0.29840848
-0.07799732 0.3311272 -0.11473795 -0.2092734 -0.13012518 -0.40103087 -0.20878269 0.07347224
-0.064652674 0.06688575 0.015950525 -0.1115295 -0.24426708 -0.16352852 0.050360553 -0.15359388
-0.2431413 -0.22578794 -0.16423394 -0.00457822 0.12671043 -0.103074774 -0.0047254073 -0.041298665
-0.12535073 -0.10529179 -0.10745608 -0.061269432 -0.11087231 -0.12241615 -0.16737124 -0.13027154
-0.18723252 -0.09829805 0.10647063 -0.27482855 0.09132906 -0.04738174 0.2158031 -0.069425516
0.012351701 -0.18879208 -0.028768681 -0.1583925 -0.062206324 -0.18971127 -0.09237462 -0.14824943
-0.1663131 -0.06202186 -0.014838598 -0.2227445 -0.24779576 -0.16367468 -0.01065369 -0.065272436
-0.06317824 0.010210107 0.06557317 -0.2982605 -0.21085061 -0.22233577 -0.027817473 -0.09294293
-0.036154684 -0.07240421 -0.11421676 0.062853724 0.039047446 -0.037473116 -0.028586945 -0.063672125
-0.06186358 0.0600907 -0.12177628 0.119509846 -0.0063730506 0.064071216 -0.065091826 0.039246283
-0.0033844505 0.07842388 -0.09175501 0.101194866 -0.032291256 -0.10708672 0.09391528 0.06417701
0.08905342 -0.06186816 0.14597566 0.04417781 0.014061592 0.04163134 0.03799195 -0.035895195
-0.13364534 0.1265614 -0.09039374 0.03077868 -0.14954709 0.0011203036 0.22450544 -0.14964607
-0.03628725 0.049865205 0.08263298 -0.074664384 0.040245175 0.10548988 0.024273815 0.07752787
0.0067298524 0.00039759994 -0.1182306 -0.06841617 0.01720259 -0.034424763 -3.581683e-05 0.07325893
-0.13857774 -0.028550722 0.030607423 0.13528046 0.094633915 0.01084076 -0.11165185 0.118679024
-0.07536888 -0.13391216 -0.06266565 -0.19027226 -0.2236768 -0.10036179 -0.1897024 -0.23157644
-0.25150567 -0.011321763 -0.18011178 -0.2864417 -0.14304501 -0.27599016 -0.09592816 -0.07995935
-0.22072491 -0.00077703135 -0.10620501 -0.2933691 0.07431747 -0.23876493 -0.18306583 0.033015292
-0.29988733 -0.30057254 -0.13064295 0.036203343 -0.29781547 -0.3266967 -0.107466795 -0.3420131
-0.17811042 -0.25211212 -0.20348765 -0.17712231 -0.06419244 -9.6075484e-05 -0.109236635 -0.2585404
-0.09274442 -0.30907205 -0.016990699 -0.20329885 -0.23614453 -0.031665314 -0.27276555 -0.27678823
-0.115618445 -0.045222256 -0.094149746 -0.120115936 -0.29716274 -0.09626712 -0.22812937 0.03374507
-0.22165735 -0.11535148 -0.08398401 -0.32426348 -0.19470964 -0.3394452 -0.19377002 -0.24142815
00000000: 704b 77bd 10e3 9cbd 1b06 6abd 07ac 20be
00000010: f18d 16be 19ff 3abe 016f 3abe 9f58 1ebd
00000020: 85eb 61bd 3f6c 8a3b 864a babd f562 c8be
00000030: 0d41 12be 640c 4abe 7ecc ad3c eac2 d5bc
00000040: 523d 65be 4383 5e3d f513 80be c7a2 7ebe
00000050: 947c db3d fd3c 6fbe 3d8e e0bd f794 54bd
00000060: 6c26 debd 3059 4fbe 2933 29be 55b8 913d
00000070: 3979 70be 0d54 7bbe e4cd 23bd f1ce 0bbe
00000080: a01f 33be 1a42 95be 57fc 84be 6562 e3bd
00000090: 2253 5cbd 3e3a e3bd 084a cebd d9c9 1cbe
000000a0: 71fd 26bd 8605 7cbe 389c e5bd 0c27 67be
000000b0: ec0b 9fbd 9741 96be 62dd 4abe e51d b8bd
000000c0: 2450 14be 4a58 b2bd 0c3b 32be fd0e babd
000000d0: 16e8 92be fdbe e0bd 1db0 9abe cf1b 7bbd
000000e0: 7870 06be e51f b7bb eeb8 0bbe 7fbd 01be
000000f0: 6158 b5bd cfe0 83be 5689 193c ffc8 98be
00000100: 0fbd 9fbd 8189 a93e bbfb eabd c44b 56be
00000110: 893f 05be eb53 cdbe 21cb 55be 9d78 963d
00000120: 9f68 84bd 65fb 883d adaa 823c 9469 e4bd
00000130: 2621 7abe 0574 27be de46 4e3d b747 1dbe
00000140: 08fa 78be f434 67be f12c 28be e504 96bb
00000150: 61c0 013e de18 d3bd 97d7 9abb ca28 29bd
00000160: f15b 00be 39a3 d7bd ef11 dcbd a8f5 7abd
00000170: 0611 e3bd 52b5 fabd 5e63 2bbe e765 05be
00000180: e2b9 3fbe 7d50 c9bd 460d da3d 54b6 8cbe
00000190: bb0a bb3d 5b13 42bd 7dfb 5c3e f72e 8ebd
000001a0: ca5e 4a3c b652 41be 4cac ebbc a531 22be
000001b0: 0fcc 7ebd ac43 42be e82e bdbd b3ce 17be
000001c0: fb4d 2abe a20a 7ebd 971d 73bc 2217 64be
000001d0: 2cbe 7dbe 569a 27be d18c 2ebc 8ead 85bd
000001e0: 9863 81bd 4b48 273c 3a4b 863d 9ab5 98be
000001f0: 39e9 57be fdab 63be 78e1 e3bc dd58 bebd
00000200: ef16 14bd a948 94bd 7aea e9bd 74b9 803d
00000210: 37f0 1f3d 697d 19bd 2b2f eabc 8866 82bd
00000220: aa64 7dbd aa21 763d d865 f9bd 94c1 f43d
00000230: 06d5 d0bb c537 833d dd4e 85bd b6c0 203d
00000240: a8cd 5dbb b39c a03d 0dea bbbd 413f cf3d
00000250: d643 04bd 4850 dbbd a856 c03d 3c6f 833d
00000260: a461 b63d 7869 7dbd a57a 153e cbf3 343d
00000270: 9762 663c a085 2a3d 729d 1b3d d706 13bd
00000280: 53da 08be 5099 013e 5a20 b9bd 9223 fc3c
00000290: df22 19be 27d7 923a c1e4 653e d23c 19be
000002a0: f1a1 14bd 753f 4c3d 7b3b a93d a4e9 98bd
000002b0: 20d8 243d 140b d83d e1d9 c63c efc6 9e3d
000002c0: 1886 dc3b f674 d039 e322 f2bd c71d 8cbd
000002d0: 72ec 8c3c fb00 0dbd 073a 16b8 c708 963d
000002e0: 53e7 0dbe 34e3 e9bc 6bbc fa3c f686 0a3e
000002f0: 6dcf c13d 719d 313c baa9 e4bd fd0d f33d
00000300: 005b 9abd 4520 09be d956 80bd bbd6 42be
00000310: 880b 65be 7b8a cdbd 5941 42be 6022 6dbe
00000320: 5ac5 80be ea7e 39bc 396f 38be 7da8 92be
00000330: 647a 12be 954e 8dbe fc75 c4bd bac1 a3bd
00000340: b605 62be b1b1 4bba 0382 d9bd 7a34 96be
00000350: c233 983d cb7e 74be 9c75 3bbe 0b3b 073d
00000360: d58a 99be a5e4 99be 44c7 05be f549 143d
00000370: 457b 98be ca44 a7be 8d17 dcbd 571c afbe
00000380: 9462 36be d714 81be 115f 50be 8d5f 35be
00000390: 5377 83bd 227c c9b8 75b7 dfbd 685f 84be
000003a0: c9f0 bdbd b13e 9ebe 1430 8bbc 932d 50be
000003b0: dfcf 71be 7db3 01bd eda7 8bbe 30b7 8dbe
000003c0: 5dc9 ecbd f93a 39bd 95d1 c0bd 58ff f5bd
000003d0: b725 98be b227 c5bd bf9a 69be 4538 0a3d
000003e0: 25fa 62be 663d ecbd cfff abbd dd05 a6be
000003f0: f761 47be c3cb adbe a66b 46be f138 77be

lstm.bias_hh_l0 f4 [256]
-0.039954785 -0.22355537 -0.13700184 -0.118978225 -0.34919018 -0.011835837 -0.21071616 -0.17149842
-0.23365538 -0.115515806 -0.07695224 -0.18844743 -0.24079816 -0.14177667 0.12270601 -0.07092441
-0.11319313 0.0293215 -0.16659097 -0.35470217 -0.028645301 -0.23957632 -0.15293097 0.160453
-0.1775996 -0.32400453 -0.14593822 0.1038318 -0.20681116 -0.21173559 0.005922702 -0.13623022
-0.08552262 -0.09683702 -0.27646637 -0.08280957 -0.016564518 -0.035014156 -0.20344493 -0.15020642
-0.010479553 -0.17295076 -0.23204494 -0.120184615 -0.19763976 -0.14167267 -0.30762598 -0.027914237
-0.13559799 -0.14601389 -0.15688965 -0.042065248 -0.23125733 -0.12083004 -0.31086713 0.11447519
-0.11154102 -0.039803997 0.053469505 -0.118996106 -0.04592398 -0.18785545 -0.15292504 -0.17031242
0.061782993 0.22609179 -0.21988556 -0.25643513 -0.12284818 -0.18649922 -0.23456393 -0.036988445
-0.06553399 0.11815787 -0.031352207 -0.11263531 -0.031603828 -0.19362038 0.017940763 -0.16381183
-0.1286352 -0.15598643 -0.18978009 0.03394223 -0.098365635 -0.09569652 0.079936475 -0.16777582
-0.01683493 -0.20672475 0.003038798 -0.084120765 0.0064243083 -0.06757516 -0.1305367 -0.18031476
-0.19964157 -0.06795113 0.030548451 -0.19609675 0.0025752292 -0.11009638 0.114191554 -0.07489691
0.019573255 -0.18157254 -0.044897996 -0.13624103 -0.059306804 -0.23533936 -0.14608341 -0.053317502
-0.29352888 -0.041939117 -0.02900448 -0.17691143 -0.15121306 -3.1439777e-05 0.012191625 -0.2344241
-0.06143356 -0.0803727 -0.08492324 -0.12684937 -0.028302854 -0.24023716 0.055250518 -0.0965325
-0.031804316 -0.048522085 -0.013647041 0.046215426 0.062395398 0.08538011 0.08025506 0.15797873
0.013889307 0.07818316 -0.13185632 0.06909639 -0.072147705 0.048058763 0.03134854 0.1472926
0.056114007 -0.027063321 -0.07321801 0.13120878 0.0029652324 -0.16726321 0.19733267 0.026561795
0.08380487 -0.08326089 0.11097157 -0.008044406 -0.060653757 -0.052607905 0.019543549 -0.0027986742
-0.16831657 -0.04146072 -0.019951114 -0.07438777 -0.18095393 -0.17082503 0.031688057 -0.019617215
-0.050897446 0.087756835 -0.009898094 -0.03826107 -0.00473582 -0.07030303 0.024095252 0.043418694
-0.039602336 0.16415858 0.020451397 -0.121424295 -0.1258987 -0.067405686 0.05304163 0.04792723
-0.09077301 0.04747882 0.0855846 -0.069880635 0.054358467 -0.09508103 -0.028719138 0.050674867
-0.14714025 -0.17965595 -0.058900703 -0.19338928 -0.12805988 -0.06444375 -0.14689928 -0.14138243
-0.15579969 -0.20327887 -0.18662626 -0.17396803 -0.10364255 -0.089208186 -0.052949913 0.026579065
-0.27695692 -0.06772005 -0.08777515 -0.16252623 0.08206863 -0.102867335 -0.22480018 0.09048258
-0.14901479 -0.33848757 -0.14015566 -0.039709274 -0.31775394 -0.10831396 -0.14425208 -0.20352046
-0.06248785 -0.16264464 -0.16958562 -0.29994765 -0.107292764 -0.07232955 -0.24096277 -0.03114388
-0.04168183 -0.26449913 -0.024064356 -0.18598208 -0.2009846 -0.13497718 -0.32734823 -0.053662468
-0.07155859 -0.21589395 -0.27044782 -0.06390534 -0.29080665 -0.19608037 -0.20702496 0.080387175
-0.3113618 -0.08828615 -0.10425163 -0.111461215 -0.08306615 -0.32408825 -0.08054856 -0.30648264
00000000: a1a7 23bd b3eb 64be 364a 0cbe dbaa f3bd
00000010: 0ec9 b2be 19eb 41bc fac5 57be 489d 2fbe
00000020: 5b43 6fbe 8d93 ecbd 2399 9dbd 5df8 40be
00000030: cb93 76be e72d 11be 4a4d fb3d d140 91bd
00000040: cdd1 e7bd a433 f03c d396 2abe 869b b5be
00000050: 8da9 eabc 7f53 75be f099 1cbe cb4d 243e
00000060: abdc 35be ece3 a5be d470 15be c4a5 d43d
00000070: 4ec6 53be 37d1 58be 3a13 c23b ef7f 0bbe
00000080: 7c26 afbd 7d52 c6bd 008d 8dbe 1098 a9bd
00000090: 50b2 87bc 016b 0fbd de53 50be b6cf 19be
000000a0: 6eb2 2bbc 011a 31be 309d 6dbe 5a23 f6bd
000000b0: 1462 4abe a412 11be 2781 9dbe 66ac e4bc
000000c0: 33da 0abe aa84 15be aea7 20be 9c4c 2cbd
000000d0: b9ce 6cbe bd75 f7bd fa29 9fbe f871 ea3d
000000e0: 9e6f e4bd 8409 23bd d702 5b3d 3bb4 f3bd
000000f0: c91a 3cbd 2e5d 40be 6298 1cbe 6166 2ebe
00000100: 2a10 7d3d 9b84 673e ae29 61be 774b 83be
00000110: d497 fbbd a7f9 3ebe 8731 70be 3281 17bd
00000120: af36 86bd c1fc f13d 2c6b 00bd 57ad e6bd
00000130: 0473 01bd 6c44 46be 82f8 923c 4abe 27be
00000140: f2b8 03be e8ba 1fbe b655 42be 0207 0b3d
00000150: ec73 c9bd 89fc c3bd bcb5 a33d 6dcd 2bbe
00000160: 68e9 89bc a7af 53be 9226 473b 8247 acbd
00000170: 0183 d23b d864 8abd 6aab 05be 6fa4 38be
00000180: d76e 4cbe f629 8bbd bf40 fa3c 96cd 48be
00000190: 2dc5 283b 367a e1bd 43dd e93d 8d63 99bd
000001a0: 1758 a03c 27ee 39be f6e6 37bd c582 0bbe
000001b0: b1eb 72bd cdfc 70be e496 15be 7463 5abd
000001c0: 6b49 96be 5ac8 2bbd ce9a edbc 4528 35be
000001d0: 99d7 1abe 34de 03b8 62bf 473c df0c 70be
000001e0: c2a1 7bbd 719a a4bd 3cec adbd cde4 01be
000001f0: 63db e7bc bb00 76be 5e4e 623d d5b2 c5bd
00000200: 3e45 02bd 18bf 46bd d797 5fbc 634c 3d3d
00000210: 5192 7f3d c4db ae3d c45c a43d 2dc5 213e
00000220: fa8f 633c 7e1e a03d 5805 07be 6882 8d3d
00000230: 2dc2 93bd 44d9 443d 5467 003d dfd3 163e
00000240: cdd7 653d e6b3 ddbc 53f3 95bd 985b 063e
00000250: 5854 423b 0c47 2bbe 9311 4a3e 1f98 d93c
00000260: e3a1 ab3d af84 aabd 1045 e33d afcc 03bc
00000270: 1370 78bd 637b 57bd cb19 a03c f669 37bb
00000280: 2e5b 2cbe b7d2 29bd 8570 a3bc 9d58 98bd
00000290: fd4b 39be c2ec 2ebe 56cb 013d 48b4 a0bc
000002a0: d779 50bd dbb9 b33d 9e2b 22bc a4b7 1cbd
000002b0: f02e 9bbb 09fb 8fbd 6863 c53c cdd7 313d
000002c0: 0f36 22bd 3019 283e b089 a73c 4dad f8bd
000002d0: 97eb 00be fe0b 8abd 2e42 593d 584f 443d
000002e0: 33e7 b9bd 2779 423d fb46 af3d 941d 8fbd
000002f0: fca6 5e3d d8b9 c2bd 6644 ebbc 7390 4f3d
00000300: efab 16be bbf7 37be dd41 71bd d707 46be
00000310: 2122 03be 16fb 83bd c46c 16be 8ec6 10be
00000320: f489 1fbe 5628 50be f41a 3fbe ad24 32be
00000330: 8c42 d4bd c8b2 b6bd 02e2 58bd 57bc d93c
00000340: 4ccd 8dbe cfb0 8abd 75c3 b3bd 476d 26be
00000350: 9913 a83d 1cac d2bd 0532 66be ee4e b93d
00000360: 5597 18be 3e4e adbe f784 0fbe 31a6 22bd
00000370: a5b0 a2be b6d3 ddbd d1b6 13be ab67 50be
00000380: 43f3 7fbd 518c 26be daa7 2dbe bd92 99be
00000390: 4fbc dbbd 8421 94bd f2be 76be 7321 ffbc
000003a0: 91ba 2abd 6e6c 87be 9d22 c5bc 1672 3ebe
000003b0: e8ce 4dbe 7537 0abe 309a a7be 2dcd 5bbd
000003c0: 4f8d 92bd 4e13 5dbe 2378 8abe cee0 82bd
000003d0: 9ce4 94be 4bc9 48be 5afe 53be 08a2 a43d
000003e0: d06a 9fbe 5ecf b4bd e181 d5bd c745 e4bd
000003f0: 961e aabd e5ee a5be a5f6 a4bd 4beb 9cbe

fc.weight f4 [48, 64]
0.0498133 0.01571925 0.065051585 -0.0052408976 0.14708999 -0.23206717 0.096058466 -0.02260836
0.064579755 -0.12049078 -0.034168385 0.11405638 0.05042251 0.01737302 -0.041981667 -0.15986009
-0.03307057 0.1331363 0.06868404 -0.19537483 -0.017221117 -0.033744678 0.052710894 -0.028932432
-0.0010860787 0.110664554 -0.05212387 0.02759867 -0.017823467 0.09604122 -0.038664103 0.049490787
0.2255757 -0.09963336 0.0058296784 0.1147094 0.016624594 0.050447058 -0.0077192197 -0.0036146527
0.06569636 -0.19532749 -0.17097694 -0.191528 0.047275327 0.3995026 0.010891097 0.048768837
0.09901834 0.09269398 0.12259224 0.10308788 -0.09626443 -0.068827845 -0.06313008 0.013726586
-0.35182685 -0.05094231 0.019524304 -0.08402554 -0.22452173 0.16245084 0.079370536 0.043960817
0.08291689 0.038098622 -0.03383037 0.024668694 -0.008809297 -0.27229652 0.053787347 0.16647553
0.025573662 -0.07009476 -0.045529228 -0.09438397 0.16810654 0.14842483 -0.120949216 0.11838422
-0.03901505 0.0036848981 -0.10989216 -0.041973226 -0.14029944 -0.04152726 0.122649424 -0.1666591
-0.03305019 0.31730857 0.045832366 0.09370804 -0.060881395 0.16016711 -0.3326721 -0.013663937
0.005641459 -0.090326846 -0.10708028 -0.20393457 -0.0065699876 0.14772353 -0.084621094 0.07376861
0.13483658 -0.112796426 -0.016345154 -0.13010432 -0.11292341 0.069157995 0.088327095 0.08514125
0.25882995 0.0696636 0.16784562 0.17043813 0.0022100555 -0.18415679 -0.0070524933 -0.49862483
0.21038207 0.1616501 0.010046686 0.3940308 -0.22524737 0.35764626 -0.064239874 0.015266949
0.07527055 0.023510039 0.055737447 -0.0022025483 0.28909618 -0.18838383 0.040907986 0.009608699
0.044254653 -0.1390608 -0.02004955 0.03245472 0.000347257 0.0063941935 -0.06706011 -0.11243347
-0.013083561 0.1521057 0.07928509 -0.10115407 -0.019776836 -0.005492312 0.05308992 0.0084291175
0.07525119 0.058282055 -0.062991776 0.018333303 -0.0074727396 0.076426566 -0.025259577 0.019072767
0.1944077 -0.09939028 -0.052963253 0.13356614 0.029362023 0.10069968 -0.016923277 -0.0005592476
0.08457176 -0.05781707 -0.13206455 -0.14999269 0.053315014 0.33348775 0.13011746 0.037598383
0.05903859 0.095189236 0.057445813 0.19569989 -0.072870396 -0.03277406 -0.059306767 0.052657794
-0.21656194 -0.018730126 0.02582068 -0.118636295 -0.15223454 0.08103429 0.008207996 0.052142445
0.0010569722 0.044706088 -0.0046247686 0.015215444 -0.017905105 -0.14707713 -0.02731749 0.27521294
0.05954279 -0.025740162 -0.06899231 -0.15685245 -0.23854585 0.08367401 -0.4851798 0.18715447
0.08940051 -0.019595908 -0.033190943 -0.05866531 -0.069196135 -0.001088528 0.08625158 0.11238291
-0.016223118 0.28076187 -0.09394711 -0.08823644 0.010407014 0.045391202 -0.2575263 0.26344875
0.16874447 -0.059039164 -0.12814188 0.05044849 0.057567075 0.0055836276 -0.07900157 0.039757866
0.15341954 -0.18366237 -0.0194626 -0.060916062 -0.11551205 0.06511412 0.16583782 0.07796783
0.012503344 0.050997104 0.15108968 0.35755643 -0.010156297 0.017766647 -0.005041695 -0.15319516
0.112326875 0.10430788 -0.028270863 0.09054812 -0.15316528 0.006560982 -0.07222847 0.018885897
00000000: 0809 4c3d a8c5 803c c439 853d d6bb abbb
00000010: c29e 163e 04a3 6dbe 4dba c43d 2b35 b9bc
00000020: 6442 843d dfc3 f6bd 26f4 0bbd 6496 e93d
00000030: d587 4e3d dd51 8e3c f8f4 2bbd 5db2 23be
00000040: 0275 07bd e254 083e 38aa 8c3d 5710 48be
00000050: 4d13 8dbc dc37 0abd 61e7 573d b503 edbc
00000060: c15a 8eba 19a4 e23d d77f 55bd 9b16 e23c
00000070: 8502 92bc 42b1 c43d 405e 1ebd dab6 4a3d
00000080: 51fd 663e 930c ccbd e306 bf3b c3ec ea3d
00000090: 4d30 883c 93a1 4e3d 82f1 fcbb cfe3 6cbb
000000a0: d08b 863d ee03 48be 9414 2fbe eb1f 44be
000000b0: c6a3 413d 9b8b cc3e 9270 323c d5c1 473d
000000c0: 21ca ca3d 57d6 bd3d a411 fb3d bd1f d33d
000000d0: 4926 c5bd 9df5 8cbd 584a 81bd 79e5 603c
000000e0: a622 b4be e2a8 50bd 6ff1 9f3c 9515 acbd
000000f0: 06e9 65be 8359 263e 058d a23d 4210 343d
00000100: 55d0 a93d 4d0d 1c3d b791 0abd 0016 ca3c
00000110: df54 10bc 736a 8bbe 1f50 5c3d 9078 2a3e
00000120: db7f d13c d78d 8fbd db7c 3abd 624c c1bd
00000130: 1f24 2c3e aefc 173e 39b4 f7bd 6d73 f23d
00000140: 3fce 1fbd 557e 713b 240f e1bd 1eec 2bbd
00000150: a8aa 0fbe 7d18 2abd 9f2f fb3d afa8 2abe
00000160: a35f 07bd 4576 a23e b8ba 3b3d 00ea bf3d
00000170: c55e 79bd d902 243e ff53 aabe b5de 5fbc
00000180: fddb b83b 48fd b8bd e84c dbbd 39d4 50be
00000190: 0d49 d7bb d644 173e d34d adbd ff13 973d
000001a0: 9a12 0a3e d001 e7bd 46e6 85bc 113a 05be
000001b0: 6444 e7bd b5a2 8d3d d6e4 b43d 895e ae3d
000001c0: 5c85 843e caab 8e3d b9df 2b3e 5587 2e3e
000001d0: 94d6 103b 9993 3cbe 9a18 e7bb c14b ffbe
000001e0: 666e 573e 9b87 253e db9a 243c 68be c93e
000001f0: 3fa7 66be 691d b73e 3290 83bd 3a22 7a3c
00000200: 7227 9a3d 2098 c03c f34c 643d a158 10bb
00000210: 6a04 943e b1e7 40be 228f 273d ce6d 1d3c
00000220: 5e44 353d f465 0ebe f43e a4bc 3eef 043d
00000230: 0c10 b639 6286 d13b d056 89bd 8543 e6bd
00000240: 6f5c 56bc 99c1 1b3e 3960 a23d dd29 cfbd
00000250: 0803 a2bc daf8 b3bb d174 593d 481a 0a3c
00000260: 4c1d 9a3d 2ab9 6e3d d501 81bd b92f 963c
00000270: e2dd f4bb 8885 9c3d 2ced cebc 7e3e 9c3c
00000280: d012 473e 228d cbbd ffef 58bd 90c5 083e
00000290: a088 f03c a23b ce3d afa2 8abc 799a 12ba
000002a0: f533 ad3d 98d1 6cbd ee3b 07be af97 19be
000002b0: d860 5a3d e8be aa3e 833d 053e c300 1a3d
000002c0: 73d2 713d 93f2 c23d 4d4c 6b3d 8d65 483e
000002d0: 133d 95bd 183e 06bd a7eb 72bd b3af 573d
000002e0: 6ac2 5dbe ec6f 99bc e485 d33c 96f7 f2bd
000002f0: 5fe3 1bbe 4ef5 a53d d57a 063c 5193 553d
00000300: 1a8a 8a3a bb1d 373d 5f8b 97bb 334a 793c
00000310: baad 92bc 639b 16be eec8 dfbc b6e8 8c3e
00000320: 24e3 733d 08dd d2bc d74b 8dbd ee9d 20be
00000330: 5d45 74be 485d ab3d 7d69 f8be 6ca5 3f3e
00000340: 9d17 b73d 9987 a0bc 3af3 07bd 094b 70bd
00000350: b4b6 8dbd f0ac 8eba aba4 b03d 0329 e63d
00000360: 58e6 84bc 05c0 8f3e 5867 c0bd 4fb5 b4bd
00000370: 2e82 2a3c 20ec 393d 7dda 83be c1e2 863e
00000380: 5acb 2c3e 0dd3 71bd a037 03be 13a3 4e3d
00000390: 74cb 6b3d ddf6 b63b 93cb a1bd 25d9 223d
000003a0: 031a 1d3e fd11 3cbe 0870 9fbc 1f83 79bd
000003b0: 9591 ecbd 8d5a 853d 64d1 293e 99ad 9f3d
000003c0: d3da 4c3c 57e2 503d 41b7 1a3e a311 b73e
000003d0: 9966 26bc 5c8b 913c ce34 a5bb 31df 1cbe
000003e0: a20b e63d 5f9f d53d 4c98 e7bc 4b71 b93d
000003f0: 5cd7 1cbe 82fd d63b 85ec 93bd 99b6 9a3c

fc.bias f4 [48]
0.04716845 0.089083 0.052495528 0.12613508 0.058399092 0.12600462 0.06198927 0.12786214
0.07522504 0.14500837 0.07519977 0.14289787 0.076013535 0.11860425 0.07553014 0.11694552
0.07644074 0.12231631 0.07703577 0.12929408 0.0784486 0.14062867 0.08029555 0.1368484
0.084414035 0.13432316 0.083753474 0.14670387 0.07772013 0.14413647 0.073999554 0.13259248
0.07397149 0.14766738 0.06980568 0.13710152 0.07610165 0.11609674 0.075015135 0.1240844
0.07746617 0.120994814 0.0682371 0.11940991 0.064452566 0.1219448 0.061865732 0.10851418
00000000: b433 413d 2671 b63d 8d05 573d 8e29 013e
00000010: e333 6f3d 5b07 013e 76e8 7d3d 4bee 023e
00000020: 960f 9a3d 137d 143e 5602 9a3d d253 123e
00000030: fcac 9b3d c9e6 f23d 8caf 9a3d 2281 ef3d
00000040: f68c 9c3d f980 fa3d eec4 9d3d ab65 043e
00000050: a9a9 a03d f600 103e fe71 a43d fd21 0c3e
00000060: 44e1 ac3d 038c 093e f186 ab3d 8a39 163e
00000070: bb2b 9f3d 8398 133e 148d 973d 53c6 073e
00000080: 5d7e 973d 1e36 173e 48f6 8e3d 5764 0c3e
00000090: 2fdb 9b3d 21c4 ed3d 89a1 993d f61f fe3d
000000a0: 95a6 9e3d 21cc f73d e5bf 8b3d 2f8d f43d
000000b0: b5ff 833d 32be f93d ec66 7d3d af3c de3d
