models/lstm_4f_best.pth (torch, 86263 bytes, 6 tensors)

lstm.weight_ih_l0 f4 [256, 4]
0.080468 0.40918836 0.23533231 -0.22451238 -0.60646677 0.13392445 0.0412955 0.47464034
0.25581762 0.25058603 -0.05356682 -0.040416636 0.11851291 0.05052397 0.5566846 0.47963852
0.22869754 -0.2324303 -0.122475795 0.022185426 0.20772626 -0.40298063 0.35378736 0.21137325
-0.19079685 0.04587393 0.20771593 0.113964796 0.07777725 -0.15162534 0.22010301 -0.050984498
0.0116428435 -0.14282031 0.6226949 0.3954773 0.48911446 0.031542834 -0.05644974 0.03297493
0.1809586 -0.21708788 -0.10239107 -0.08741859 0.37901402 -0.39041325 0.20352292 0.510245
0.016530238 -0.4488253 0.72781867 -0.21404867 -0.3695511 0.11269048 0.18957645 0.25299296
-0.18226777 -0.07584238 0.06754547 -0.058577295 -0.1700652 -0.31571567 -0.03746182 0.078891784
0.017684018 -0.50492096 0.581639 0.5331164 0.47627974 -0.12970944 -0.15215066 0.2606014
-0.12863822 0.1911393 -0.16978481 -0.27652642 0.24457622 0.09387054 0.30968538 0.023082396
-0.14582336 0.6753588 -0.14756778 0.22100423 0.28812894 0.10113696 0.23371363 0.017925663
0.44093925 -0.12069661 -0.24682371 0.06349359 -0.011092428 -0.18676788 0.6246361 0.20022629
-0.10822478 0.37060842 0.3895626 0.01949436 0.04220063 0.20833674 0.41511738 0.27435806
-0.031189134 0.07419633 0.11200318 0.46514288 0.15385951 -0.11456566 0.33388656 0.27836302
-0.44877368 -0.40790546 0.23991519 0.34493917 0.0428637 0.5236628 -0.28681624 -0.30519477
0.19004132 -0.22791846 1.0221289 0.251813 -0.046088543 0.25600928 0.10708709 -0.17390186
0.20952544 0.19594067 0.31029978 0.7152387 -0.09469489 -0.24681698 0.2730575 0.16498469
-0.057434216 0.4539005 0.6637423 0.08966966 0.26819038 0.11166766 0.3050247 -0.31000558
0.0045857187 -0.100124754 0.15600933 -0.16821998 0.13467574 -0.055298388 0.010473929 0.3045088
-0.014933647 -0.182012 0.20117733 0.085353635 0.6880452 -0.47286853 0.41383457 0.73447007
0.8885601 0.16286092 -0.06465691 -0.24827227 -0.23148593 0.23388554 0.19828618 0.06522684
0.030621529 -0.09433305 0.35916868 -0.14179423 -0.06695208 0.12668976 -0.053616427 0.11864034
-0.08867569 -0.081106335 -0.12054809 -0.15567848 0.08567641 -0.13776506 0.59966695 0.0594534
0.24191661 -0.49271622 0.09172553 -0.020794807 -0.08434549 0.46692565 0.15960643 0.034729835
-0.15539439 -0.009482434 0.025152415 0.14407946 -0.10120279 -0.11779827 -0.14957663 -0.21704347
0.054659598 0.081966296 0.040131576 -0.4840816 0.16515654 0.073815905 -0.0031059796 0.16749422
-0.22951816 -0.2568429 0.25045833 0.09549329 0.67475665 0.061736867 -0.049099904 0.15161748
0.61897814 -0.31514275 -0.9174003 -0.39809445 0.10670985 0.17302507 -0.063361295 0.05189056
-0.242116 0.5683404 0.07379327 0.31006274 0.14306867 0.18049006 0.15184073 0.1055358
-0.1026187 0.18986778 0.10302396 -0.14566036 0.56496286 -0.39695415 0.022513015 -0.019307323
0.47123 -0.1204514 0.17194705 -0.368841 0.768796 -0.22649348 0.5173425 0.54230034
0.21813686 -0.00947587 0.07422329 -0.29861602 -0.48792115 -0.23897666 0.12267993 0.07709593
00000000: 68cc a43d 2381 d13e f4fa 703e 93e6 65be
00000010: 6841 1bbf 7e23 093e 7825 293d 0f04 f33e
00000020: 87fa 823e d04c 803e e268 5bbd ea8b 25bd
00000030: e6b6 f23d 39f2 4e3d e282 0e3f 2e93 f53e
00000040: b02f 6a3e 3502 6ebe 97d4 fabd 36be b53c
00000050: 31b6 543e 7a53 cebe 9e23 b53e 3b72 583e
00000060: 4060 43be 4de6 3b3d 7cb3 543e 6066 e93d
00000070: ae49 9f3d ac43 1bbe af62 613e 1fd5 50bd
00000080: a0c1 3e3c 7d3f 12be ef68 1f3f 007c ca3e
00000090: 366d fa3e 0f33 013d d837 67bd b810 073d
000000a0: 364d 393e 494c 5ebe 69b2 d1bd 8508 b3bd
000000b0: 200e c23e 3fe4 c7be 5068 503e 6b9f 023f
000000c0: 6c6a 873c 6ecc e5be 5352 3a3f 932f 5bbe
000000d0: cd35 bdbe 44ca e63d 5420 423e 4b88 813e
000000e0: 67a4 3abe 4053 9bbd 4855 8a3d bfee 6fbd
000000f0: 9225 2ebe 7ca5 a1be 9171 19bd 0492 a13d
00000100: 13de 903c 8042 01bf 4be6 143f 517a 083f
00000110: f0da f33e 8dd2 04be 62cd 1bbe 8c6d 853e
00000120: bdb9 03be 05ba 433e 12dc 2dbe df94 8dbe
00000130: 3072 7a3e 333f c03d 158f 9e3e 4b17 bd3c
00000140: b852 15be 50e4 2c3f 021c 17be ef4e 623e
00000150: a385 933e e520 cf3d a052 6f3e d7d8 923c
00000160: cac2 e13e c92f f7bd 5bbf 7cbe ed08 823d
00000170: 04bd 35bc 1440 3fbe 27e8 1f3f 1f08 4d3e
00000180: f4a4 ddbd 63c0 bd3e c074 c73e a3b2 9f3c
00000190: 91da 2c3d 3a56 553e 448a d43e a978 8c3e
000001a0: 5b80 ffbc 3ff4 973d ec61 e53d 3527 ee3e
000001b0: 598d 1d3e 67a1 eabd 2ef3 aa3e 9985 8e3e
000001c0: aac5 e5be fcd8 d0be 54ac 753e de9b b03e
000001d0: d991 2f3d c40e 063f 94d9 92be 7d42 9cbe
000001e0: 319a 423e 7563 69be 1fd5 823f a2ed 803e
000001f0: 57c7 3cbd a613 833e 7a50 db3d 5413 32be
00000200: d68d 563e aca4 483e 9ddf 9e3e e219 373f
00000210: 65ef c1bd 97bd 7cbe 31ce 8b3e bff1 283e
00000220: 2440 6bbd a565 e83e 04eb 293f baa4 b73d
00000230: 4050 893e 04b2 e43d 332c 9c3e 0db9 9ebe
00000240: cc43 963b 350e cdbd e9c0 1f3e dc41 2cbe
00000250: 70e8 093e 9080 62bd d89a 2b3c 94e8 9b3e
00000260: 41ac 74bc 5b61 3abe 6e01 4e3e e3cd ae3d
00000270: bb23 303f d31b f2be 20e2 d33e 3b06 3c3f
00000280: ad78 633f 03c5 263e d86a 84bd 163b 7ebe
00000290: a60a 6dbe b17f 6f3e 880b 4b3e a695 853d
000002a0: 00da fa3c b031 c1bd f5e4 b73e 8232 11be
000002b0: 2c1e 89bd f6ba 013e e69c 5bbd b5f9 f23d
000002c0: 9a9b b5bd 141b a6bd ebe1 f6bd 2e6a 1fbe
000002d0: 1d77 af3d 4912 0dbe c683 193f 6985 733d
000002e0: fdb8 773e 4d45 fcbe 98da bb3d df59 aabc
000002f0: 54bd acbd e110 ef3e de6f 233e df40 0e3d
00000300: b51f 1fbe 365c 1bbc 700c ce3c 9189 133e
00000310: 6943 cfbd 3840 f1bd 9e2a 19be a540 5ebe
00000320: bee2 5f3d f2dd a73d 0261 243d 8bd9 f7be
00000330: cc1e 293e cb2c 973d b18d 4bbb 9b83 2b3e
00000340: cf06 6bbe ea80 83be 133c 803e fc91 c33d
00000350: dabc 2c3f ccdf 7c3d fb1c 49bd 9d41 1b3e
00000360: 5a75 1e3f 645a a1be bfda 6abf 09d3 cbbe
00000370: b28a da3d 7c2d 313e 91c3 81bd 328b 543d
00000380: 42ed 77be c27e 113f ed20 973d 8bc0 9e3e
00000390: 9880 123e 63d2 383e 237c 1b3e 2723 d83d
000003a0: c129 d2bd b36c 423e 3afe d23d fd27 15be
000003b0: 68a1 103f 933d cbbe 376d b83c 642a 9ebc
000003c0: 0f45 f13e 39af f6bd e312 303e bad8 bcbe
000003d0: d1cf 443f e8ed 67be 8f70 043f 32d4 0a3f
000003e0: 455f 5f3e ae40 1bbc 6102 983d 33e4 98be
000003f0: cdd0 f9be 4cb6 74be 9d3f fb3d 79e4 9d3d

lstm.weight_hh_l0 f4 [256, 64]
0.039454203 -0.14702208 0.038384713 -0.19858661 0.04651804 0.16307133 -0.047430642 0.35248646
-0.054453213 -0.10466246 -0.018799333 0.016349273 -0.3640198 0.0716903 -0.14940192 -0.020558732
-0.24885944 -0.22097404 -0.25902522 0.03410834 -0.48677158 0.018396296 0.074519336 -0.28811526
-0.5748748 0.15191506 -0.088923015 -0.1333518 0.072527304 0.14969605 0.35068715 0.17605107
0.84838486 0.046056148 -0.23989096 0.4198913 -0.16450739 -0.12053537 0.0696204 0.033876386
-0.22288886 0.16870324 0.14768325 0.18439099 0.113382086 -0.003422035 -0.24082771 -0.11137196
0.11705502 0.056341186 -0.18179847 -0.050083596 -0.15109788 -0.31581262 -0.17430168 -0.27825493
0.3169656 -0.19994481 -0.03415273 0.14894211 0.021260057 -0.033021517 0.39268935 -0.08476102
0.1699548 0.1514185 -0.04730343 0.01351409 0.10468863 0.15364069 -0.042638678 -0.15853989
0.10500344 0.18728618 -0.12707806 0.18999061 -0.15801895 -0.42875203 0.1532024 -0.19597754
0.09184178 0.0774659 -0.030312294 0.2654194 -0.098877154 -0.22252451 0.38103384 -0.15231389
-0.14506575 -0.23799358 0.278532 -0.08868653 0.20511565 0.13517676 0.37116122 0.013591171
-0.009703495 0.01123685 -0.6005133 -0.037912752 0.20094183 0.2914953 0.10398986 0.44260004
0.048224833 0.0015974372 -0.22309427 0.04943191 -0.051557627 -0.3901602 0.06432392 0.01956887
0.11535173 -0.13081312 -0.21057694 0.08364913 0.3056436 -0.18850793 0.34628338 0.5836638
-0.16631229 -0.13544142 -0.027148105 -0.10679098 0.026670145 0.26288426 0.1287058 0.22823703
-0.14506727 0.018665973 -0.21764646 -0.019647337 0.3768225 -0.4741005 -0.26735178 0.39891556
-0.19959785 -0.23955864 0.5518957 0.38495904 0.34708062 -0.38468692 -0.5206658 -0.112891026
0.22295408 -0.70747405 -0.7519679 0.22692083 -0.19494079 -0.06923609 0.23073268 -0.53625864
-0.26728493 0.401851 -0.031789564 -0.20282914 0.17081486 -0.4775342 -0.24893028 0.22037698
0.21527416 0.34098545 -0.22054753 -0.008925138 -0.15660469 -0.14505179 -0.24321394 -0.19709656
-0.54251724 0.61627626 0.001469231 -0.37544537 0.43319008 0.16703247 -0.3079678 0.16544886
-0.18236834 0.121368416 0.12281711 -0.09728922 -0.38848302 -0.36803246 -0.3541176 -0.4213098
0.31305847 0.16598503 -0.33651623 0.65198666 -0.35596052 -0.0012256723 -0.23887627 -0.3219561
0.13764971 0.15756772 -0.06038967 0.12508932 0.060660064 -0.04526333 0.028925532 0.003347036
-0.17430326 -0.022282533 0.3340638 0.014741808 -0.108700864 0.035353333 0.1432241 -0.06368427
-0.041091602 -0.039331008 0.017817868 -0.13373743 0.19863288 0.4928653 -0.1201388 -0.052654
0.009652298 -0.025020909 0.06162374 0.012515969 0.13059925 -0.13804594 -0.046859205 0.317842
-0.21118455 0.07677665 0.13135722 0.04786923 -0.16605936 -0.024511984 -0.06236979 0.056085426
-0.20296419 -0.03387555 0.12863936 -0.25680804 0.19621108 0.031846043 -0.3258748 0.06515275
0.1065289 0.023987003 -0.19144045 0.03460134 -0.1656852 0.079140574 -0.050372068 0.06589115
0.17498986 -0.045326184 0.040226955 -0.22422597 -0.43285382 -0.10852646 0.00798936 0.062368076
00000000: bb9a 213d f58c 16be 4a39 1d3d 4a5a 4bbe
00000010: b389 3e3d 2cfc 263e a246 42bd 1b79 b43e
00000020: 550a 5fbd 4659 d6bd 0f01 9abc e9ee 853c
00000030: ce60 babe 5dd2 923d d1fc 18be c96a a8bc
00000040: 02d5 7ebe 0547 62be f49e 84be 30b5 0b3d
00000050: 203a f9be d4b3 963c 989d 983d d883 93be
00000060: ff2a 13bf 9f8f 1b3e 451d b6bd 608d 08be
00000070: 3289 943d ec49 193e 448d b33e bb46 343e
00000080: c02f 593f 5fa5 3c3d faa5 75be fefb d63e
00000090: a074 28be 40db f6bd 2495 8e3d f7c1 0a3d
000000a0: fa3c 64be 8bc0 2c3e 473a 173e fed0 3c3e
000000b0: de34 e83d 3844 60bb 8a9b 76be fb16 e4bd
000000c0: 8bba ef3d 04c6 663d 6129 3abe 7524 4dbd
000000d0: 67b9 1abe 31b2 a1be 247c 32be 6e77 8ebe
000000e0: 5149 a23e 55be 4cbe bce3 0bbd 4884 183e
000000f0: 9229 ae3c 9241 07bd 940e c93e 3097 adbd
00000100: a208 2e3e 740d 1b3e 3ec1 41bd 346a 5d3c
00000110: fe66 d63d fc53 1d3e e5a5 2ebd 4858 22be
00000120: 0b0c d73d f3c7 3f3e c020 02be e68c 423e
00000130: b8cf 21be 6385 dbbe 17e1 1c3e 56ae 48be
00000140: 8b17 bc3d 71a6 9e3d 7d51 f8bc 0de5 873e
00000150: 1b80 cabd 77dd 63be de16 c33e 2cf8 1bbe
00000160: 1e8c 14be 97b4 73be bf9b 8e3e 49a1 b5bd
00000170: d609 523e c76b 0a3e d808 be3e 81ad 5e3c
00000180: 68fb 1ebc c41a 383c 3dbb 19bf 674a 1bbd
00000190: b2c3 4d3e df3e 953e a3f8 d43d 799c e23e
000001a0: 6787 453d 1961 d13a d372 64be 1d79 4a3d
000001b0: 172e 53bd 14c3 c7be 42bc 833d e54e a03c
000001c0: 873d ec3d e0f3 05be 7ba1 57be 3c50 ab3d
000001d0: 517d 9c3e 3908 41be 0e4c b13e fe6a 153f
000001e0: c54d 2abe 28b1 0abe b465 debc 3bb5 dabd
000001f0: 597b da3c c498 863e 74cb 033e f8b6 693e
00000200: 848c 14be 62e9 983c b7de 5ebe 74f3 a0bc
00000210: e1ee c03e 4dbd f2be 55e2 88be a93e cc3e
00000220: 6163 4cbe dc4e 75be 0949 0d3f 5a19 c53e
00000230: 8db4 b13e aff5 c4be 5b4a 05bf 6933 e7bd
00000240: 134e 643e 051d 35bf f880 40bf ef5d 683e
00000250: 8f9e 47be a7cb 8dbd 3045 6c3e 3f48 09bf
00000260: 92d9 88be 6abf cd3e c635 02bd 71b2 4fbe
00000270: 17ea 2e3e 5d7f f4be 94e7 7ebe 81aa 613e
00000280: d470 5c3e a595 ae3e 36d7 61be be3a 12bc
00000290: fb5c 20be 7588 14be 130d 79be aed3 49be
000002a0: 69e2 0abf 48c4 1d3f 3693 c03a 603a c0be
000002b0: 17cb dd3e 8f0a 2b3e f5ad 9dbe 6d6b 293e
000002c0: c4be 3abe 0190 f83d 8987 fb3d 923f c7bd
000002d0: 3fe7 c6be c06e bcbe e74e b5be ebb5 d7be
000002e0: 3349 a03e fbf7 293e db4b acbe 99e8 263f
000002f0: 7540 b6be bda6 a0ba fb9b 74be 6ed7 a4be
00000300: 0cf4 0c3e 6f59 213e 295b 77bd 6a17 003e
00000310: b076 783d 0b66 39bd 3df5 ec3c f259 5b3b
00000320: 8e7c 32be dc89 b6bc 690a ab3e a087 713c
00000330: 8f9e debd a8ce 103d 57a9 123e e66c 82bd
00000340: ab4f 28bd 8d19 21bd c7f6 913c 77f2 08be
00000350: 6b66 4b3e d758 fc3e 550b f6bd b9ab 57bd
00000360: ac24 1e3c a6f8 ccbc 2d69 7c3d c70f 4d3c
00000370: cfbb 053e ea5b 0dbe 70ef 3fbd 30bc a23e
00000380: c340 58be 143d 9d3d 8282 063e 8712 443d
00000390: 770b 2abe 5bcd c8bc 7777 7fbd d5b9 653d
000003a0: d8d5 4fbe 17c1 0abd 09ba 033e 587c 83be
000003b0: 8feb 483e ff70 023d 10d9 a6be ce6e 853d
000003c0: d32b da3d 6480 c43c f708 44be 22ba 0d3d
000003d0: 62a9 29be 7414 a23d f152 4ebd f0f1 863d
000003e0: 8b30 333e f3a7 39bd 05c5 243d 7e9b 65be
000003f0: 049f ddbe 1f43 debd cee5 023c ab75 7f3d

lstm.bias_ih_l0 f4 [256]
0.1259761 0.095788226 0.2742096 -0.11906954 -0.07417183 -0.061155047 -0.07665237 0.006202316
0.03185969 -0.20086782 -0.108450435 -0.13229133 -0.13529892 -0.083195716 -0.09340308 -0.16420798
0.09602101 -0.020129506 -0.121349424 -0.12296942 -0.1374252 -0.024539227 0.035100453 0.0059940848
-0.101018265 0.03019608 -0.23120067 -0.19605689 0.07928321 -0.017624166 -0.08580267 -0.20608683
0.4302896 -0.24633628 -0.061020978 -0.18167278 -0.060587797 -0.027323266 -0.1804589 0.2074052
0.11059963 -0.090873 -0.18570383 -0.17064801 -0.03882814 -0.072004646 0.049011745 -0.06444584
-0.29827204 -0.19504999 -0.21459526 -0.17035009 -0.13239826 -0.067701586 -0.1504552 -0.018396733
0.067221686 -0.05693334 -0.18816535 0.15681979 -0.106460765 -0.08189756 -0.059735376 -0.18012139
0.07716437 -0.22930038 0.24494427 -0.013207237 -0.009753273 0.060911573 0.09245627 0.1634202
0.08162048 -0.19925494 0.01602407 -0.15731347 -0.25001958 -0.07061699 -0.014472283 -0.12562159
-0.14168826 -0.1984372 -0.01170482 0.037017636 -0.020733671 0.1325084 -0.19491641 -0.33408147
-0.0887966 0.122863784 -0.01046542 0.0044980333 -0.17336532 -0.09194052 -0.14954099 -0.07577327
0.0454852 -0.22199444 -0.09784713 -0.20400648 -0.116593935 -0.15057154 0.068050124 -0.20126432
-0.06401883 0.001119841 0.08089355 0.049573164 0.052154597 -0.04082241 -0.22904384 -0.09059134
-0.05897517 -0.17126037 -0.0500613 -0.0652088 0.011328236 -0.09208497 -0.010210857 -0.11460315
-0.0008582753 -0.16117848 -0.119831644 -0.040954348 -0.034926996 -0.03568808 -0.17801805 -0.08437565
-0.010924511 -0.047868002 -0.098373435 0.0026869145 0.038378187 0.085449174 0.03726996 -0.008495856
0.03448337 -0.025429416 -0.00492506 -0.01203078 0.03536424 0.03676561 -0.025888551 -0.015258548
0.009900152 -0.020100828 -0.059119858 0.03585807 0.040397577 -0.10300804 -0.029951673 -0.03238805
0.11354323 0.090052016 0.0865244 -0.043592144 -0.067683406 0.10639017 -0.10084226 -0.06398297
0.07564731 0.009967276 -0.040737223 0.039838515 0.01785026 -0.06819773 0.01881675 -0.11666177
-0.11667161 -0.16006857 -0.11433111 -0.013283236 0.033686463 -0.027207876 0.031778224 -0.0016214586
-0.055896554 -0.10576973 0.077655956 -0.058504622 -0.024330756 -0.12055519 -0.037666094 -0.090701334
-0.04218516 0.08217095 -0.028559186 -0.080267265 0.010478353 -0.045581628 0.043358877 -0.05320962
0.07353332 0.010681276 0.2527726 -0.20131892 -0.078159496 -0.13776384 -0.13217705 -0.07472761
-0.015383159 -0.034305807 -0.17828612 -0.0023485385 -0.1922689 -0.0008231329 -0.21458071 0.043783516
-0.093340896 -0.11138805 -0.07918854 -0.09714311 -0.3647902 -0.14991692 -0.03353257 -0.00014614714
-0.33354214 -0.15376106 -0.059639107 0.026296351 0.023555081 -0.09609433 -0.107135236 -0.2801388
0.4180709 -0.09836922 -0.09835735 -0.20159423 -0.03573373 0.03292775 -0.124434754 0.0061546653
0.032001264 -0.12056446 -0.18633716 -0.04828284 -0.19915324 -0.17942494 0.17163964 -0.1482716
-0.15521513 -0.20075841 -0.24776435 -0.15418014 -0.055915426 0.021478483 -0.13427009 0.02396026
-0.10678644 -0.075805865 -0.22814907 -0.064524084 0.009009782 -0.12258307 -0.11393502 -0.16681166
00000000: e1ff 003e 9e2c c43d 3365 8c3e bbda f3bd
00000010: 67e7 97bd b77d 7abd ebfb 9cbd cc3c cb3b
00000020: 4e7f 023d 4bb0 4dbe 431b debd 6177 07be
00000030: cd8b 0abe 8462 aabd 1d4a bfbd 2326 28be
00000040: aaa6 c43d a2e6 a4bc 0c86 f8bd 64d7 fbbd
00000050: 31b9 0cbe 7d06 c9bc 7ec5 0f3d 076a c43b
00000060: aae2 cebd c55d f73c debf 6cbe 23c3 48be
00000070: 3c5f a23d 8e60 90bc 4fb9 afbd 6d08 53be
00000080: eb4e dc3e 943f 7cbe 22f1 79bd 6e08 3abe
00000090: e92a 78bd 0bd5 dfbc 38ca 38be 0762 543e
000000a0: 0f82 e23d a01b babd 2529 3ebe 5abe 2ebe
000000b0: 410a 1fbd 2c77 93bd 8ac0 483d 2efc 83bd
000000c0: 1db7 98be 2fbb 47be dcbe 5bbe 4170 2ebe
000000d0: 6993 07be 21a7 8abd ee10 1abe bfb4 96bc
000000e0: 86ab 893d ef32 69bd 6bae 40be 5e95 203e
000000f0: 1a08 dabd e8b9 a7bd 15ad 74bd be71 38be
00000100: 5a08 9e3d b8cd 6abe acd2 7a3e 2b63 58bc
00000110: 31cc 1fbc 6a7e 793d b659 bd3d a057 273e
00000120: a328 a73d 7d09 4cbe e944 833c c816 21be
00000130: 9102 80be a49f 90bd 281d 6dbc f2a2 00be
00000140: ba16 11be 1f33 4bbe 93c5 3fbc ce9f 173d
00000150: a9d9 a9bc 48b0 073e 2b98 47be ba0c abbe
00000160: feda b5bd 02a0 fb3d 2777 2bbc 3d64 933b
00000170: ae86 31be 504b bcbd 4621 19be 042f 9bbd
00000180: b04e 3a3d 8352 63be 1364 c8bd 13e7 50be
00000190: cdc8 eebd 6d2f 1abe dd5d 8b3d 3c18 4ebe
000001a0: 4e1c 83bd a1c7 923a 84ab a53d 3b0d 4b3d
000001b0: 0fa0 553d 6635 27bd 788a 6abe f487 b9bd
000001c0: f38f 71bd e15e 2fbe 140d 4dbd 318c 85bd
000001d0: 119a 393c 0b97 bcbd 704b 27bc 0eb5 eabd
000001e0: e1fd 60ba f90b 25be 4b6a f5bd bfbf 27bd
000001f0: 9c0f 0fbd aa2d 12bd 5d4a 36be 24cd acbd
00000200: b8fc 32bc 3d11 44bd 0378 c9bd f216 303b
00000210: 7232 1d3d faff ae3d 63a8 183d 3432 0bbc
00000220: 6f3e 0d3d 5a51 d0bc 6662 a1bb c01c 45bc
00000230: 18da 103d 8997 163d 3a14 d4bc fdfe 79bc
00000240: 3f34 223c 7eaa a4bc aa27 72bd e9df 123d
00000250: ee77 253d e1f5 d2bd 365d f5bc 55a9 04bd
00000260: 5a89 e83d 316d b83d b433 b13d ad8d 32bd
00000270: 999d 8abd 17e3 d93d 6386 cebd 8109 83bd
00000280: faec 9a3d c94d 233c 13dc 26bd b62d 233d
00000290: b53a 923c 40ab 8bbd 9625 9a3c 5eec eebd
000002a0: 86f1 eebd 04e9 23be 6e26 eabd eea1 59bc
000002b0: d1fa 093d 0de3 debc e229 023d 1f87 d4ba
000002c0: c9f3 64bd cd9d d8bd 160a 9f3d 8ba2 6fbd
000002d0: 4b51 c7bc a4e5 f6bd c347 1abd 9fc1 b9bd
000002e0: 59ca 2cbd 3e49 a83d f4f4 e9bc 2a63 a4bd
000002f0: 66ad 2b3c cdb3 3abd 1499 313d 55f2 59bd
00000300: a398 963d 8500 2f3c 696b 813e 8c26 4ebe
00000310: 1612 a0bd f711 0dbe 6c59 07be ca0a 99bd
00000320: a509 7cbc 3f84 0cbd a390 36be f0e9 19bb
00000330: 23e2 44be 84c7 57ba 0cbb 5bbe 5856 333d
00000340: 8329 bfbd 6b1f e4bd 9a2d a2bd f8f2 c6bd
00000350: c8c5 babe d283 19be 7359 09bd 133f 19b9
00000360: 09c6 aabe 8a73 1dbe 2348 74bd 726b d73c
00000370: 96f6 c03c 1bcd c4bd b869 dbbd 5a6e 8fbe
00000380: 640d d63e cd75 c9bd 946f c9bd b86e 4ebe
00000390: 885d 12bd 40df 063d a6d7 febd 13ad c93b
000003a0: c213 033d 80ea f6bd 2bcf 3ebe 3ac4 45bd
000003b0: d4ee 4bbe 2cbb 37be 4dc2 2f3e 83d4 17be
000003c0: b7f0 1ebe 9d93 4dbe f0b5 7dbe 66e1 1dbe
000003d0: 9307 65bd a5f3 af3c 197e 09be 4f48 c43c
000003e0: d9b2 dabd 1b40 9bbd e99f 69be 3425 84bd
000003f0: c49d 133c d50c fbbd c456 e9bd add0 2abe

lstm.bias_hh_l0 f4 [256]
-0.0031740677 -0.036685213 0.43395573 -0.17610405 -0.19146398 -0.22896045 -0.015871475 -0.18927987
0.02006277 -0.12625788 -0.061185136 -0.15795082 -0.2532037 -0.05875804 -0.17567053 -0.11892513
0.085263126 -0.16791803 -0.0033283497 -0.17776167 -0.14131173 -0.0622975 0.043079358 0.033398256
-0.065935634 -0.0011999903 -0.034937587 -0.19379932 -0.11232642 0.02643776 -0.100352146 -0.22235245
0.4415257 -0.09507123 0.052586857 -0.17407702 -0.02164489 0.12513848 -0.077239595 0.07032947
0.104563355 -0.12336506 -0.09201682 -0.18938568 -0.26806945 -0.14874862 -0.006271086 -0.2256866
-0.29865077 -0.14197771 -0.12233672 -0.27852374 0.012880729 -0.15371801 -0.2347717 -0.116565265
0.052701943 -0.05188074 -0.14913625 0.10780983 -0.17493339 -0.102800146 -0.15450174 -0.20438474
0.009138727 -0.18430452 0.2890528 -0.023066215 -0.018204 -0.090240054 0.26609918 0.078495316
0.0018770108 -0.2154893 0.07397724 -0.27586547 -0.17861493 -0.16818762 -0.012101474 -0.15383725
0.017790921 -0.120515615 -0.14180937 0.060479175 -0.102413096 0.12495149 -0.20316307 -0.20571312
-0.046540443 0.17624284 -0.03540801 0.18707335 -0.069451004 0.044530578 -0.15597826 -0.12173649
-0.119382866 -0.0056179143 0.06597904 -0.019384148 -0.1413821 0.07612252 -0.032375447 -0.32604194
-0.12620352 -0.042161603 0.08716528 0.089248024 0.22611023 -0.1199999 -0.18446265 -0.005903398
-0.18728067 -0.1464985 0.055337396 0.01192917 -0.06473178 -0.11420847 -0.20756473 -0.15425053
-0.06539641 -0.0885765 -0.17513217 -0.05846604 0.14456202 0.027247684 -0.097718336 -0.18155986
-0.06143832 -0.020375079 -0.044664692 0.0017646301 -0.008753534 -0.066124685 -0.0351241 0.012817695
-0.07435954 0.028789243 -0.032924682 0.037793823 0.0011864034 -0.05830772 0.05917617 0.07368302
0.015052825 -0.014825024 -0.03472602 0.10130571 0.048011538 0.021787023 -0.06642447 -0.04385493
0.00042726265 -0.045121536 -0.09890473 0.062198047 0.025859281 -0.059525862 0.12213904 0.046196707
0.026456587 0.011078018 0.07666453 -0.0015078819 -0.020504806 0.08681512 -0.0065478515 0.009471804
0.047682974 0.051922794 0.09579716 0.0111044515 -0.09997391 0.048504975 -0.03566369 0.094979934
0.04949086 0.08360923 0.044294298 0.054029573 -0.03833697 -0.07245702 -0.006723814 -0.045587316
0.06217862 -0.16192605 0.040914636 -0.011687027 -0.032847393 0.082947224 -0.023656728 -0.030339297
-0.002262405 -0.17938001 0.13706256 -0.0298562 -0.110073015 -0.08165145 -0.028921561 -0.16335787
0.091606565 -0.25760138 0.014216922 -0.12904947 -0.20546192 -0.042716477 -0.1590981 -0.1665746
-0.09131378 -0.110749476 -0.07018579 -0.008660669 -0.4058183 -0.091506414 -0.14819872 -0.14824879
-0.15543576 -0.14764763 -0.16670068 -0.0936432 0.03350597 -0.026512034 -0.15176219 -0.17784108
0.44394025 -0.06939834 0.02603439 -0.26162526 -0.12168929 -0.0831858 0.016121665 -0.098384164
0.18400504 -0.23310106 -0.08482466 -0.08085525 -0.06362277 -0.14345005 0.14260146 -0.21820536
-0.31934285 -0.1542581 -0.08316774 -0.11763829 -0.11425807 -0.21476553 -0.329428 -0.048441406
0.055619232 0.054850753 -0.057918068 0.065509215 -0.19104598 -0.020304916 -0.1503225 -0.03985253
00000000: 0504 50bb 3c43 16bd 722f de3e 9f54 34be
00000010: 220f 44be 9c74 6abe e504 82bc 95d2 41be
00000020: ae5a a43c bf49 01be 449d 7abd dcbd 21be
00000030: eaa3 81be 45ac 70bd fae2 33be 058f f3bd
00000040: 6f9e ae3d b4f2 2bbe 7120 5abb 2807 36be
00000050: 06b4 10be aa2b 7fbd fb73 303d 9ccc 083d
00000060: 4309 87bd fe48 9dba b71a 0fbd 5473 46be
00000070: 650b e6bd 0094 d83c 6d85 cdbd 5cb0 63be
00000080: a80f e23e b4b4 c2bd 5165 573d 3f41 32be
00000090: a050 b1bc 4d24 003e cb2f 9ebd e608 903d
000000a0: 5025 d63d d2a6 fcbd 5173 bcbd 52ee 41be
000000b0: 6640 89be 8f51 18be af7d cdbb 631a 67be
000000c0: c1e8 98be 9b62 11be ad8b fabd aa9a 8ebe
000000d0: b109 533c 4168 1dbe fe67 70be c5b9 eebd
000000e0: fedd 573d e680 54bd 2cb7 18be 66cb dc3d
000000f0: bd21 33be e288 d2bd b435 1ebe 3c4a 51be
00000100: 99ba 153c 53ba 3cbe bbfe 933e 5cf5 bcbc
00000110: 8e20 95bc c7cf b8bd 273e 883e 27c2 a03d
00000120: 0806 f63a 3aa9 5cbe 6181 973d 3d3e 8dbe
00000130: d5e6 36be 6039 2cbe 4345 46bc 8387 1dbe
00000140: 44be 913c e4d0 f6bd 7a36 11be 03b9 773d
00000150: f5bd d1bd 91e6 ff3d fb09 50be 76a6 52be
00000160: 31a1 3ebd 0179 343e fd07 11bd 2890 3f3e
00000170: 543c 8ebd b265 363d c4b8 1fbe fb50 f9bd
00000180: 017f f4bd 7b16 b8bb 0520 873d 81cb 9ebc
00000190: 78c6 10be 20e6 9b3d 1e9c 04bd f8ee a6be
000001a0: 7f3b 01be a5b1 2cbd b683 b23d abc7 b63d
000001b0: 7189 673e 82c2 f5bd c7e3 3cbe 4b71 c1bb
000001c0: 81c6 3fbe b403 16be 77a9 623d 9172 433c
000001d0: 1892 84bd 21e6 e9bd d98b 54be daf3 1dbe
000001e0: 8eee 85bd 9967 b5bd d955 33be 167a 6fbd
000001f0: 1108 143e 8936 df3c 8d20 c8bd d4ea 39be
00000200: bfa6 7bbd a3e9 a6bc 53f2 36bd 294b e73a
00000210: fc6a 0fbc 616c 87bd 4ade 0fbd 4f01 523c
00000220: d149 98bd 6bd7 eb3c 08dc 06bd b2cd 1a3d
00000230: 1881 9b3a 13d4 6ebd b662 723d 20e7 963d
00000240: 20a0 763c a8e4 72bc df3c 0ebd 5e79 cf3d
00000250: bfa7 443d b37a b23c 8d09 88bd 3aa1 33bd
00000260: 3902 e039 5cd1 38bd 908e cabd 61c3 7e3d
00000270: d8d6 d33c 64d1 73bd 0824 fa3d c238 3d3d
00000280: 7cbb d83c 9380 353c 4b02 9d3d 1fa4 c5ba
00000290: b2f9 a7bc 20cc b13d 5c8f d6bb a02f 1b3c
000002a0: 394f 433d ffac 543d 4d31 c43d 72ef 353c
000002b0: 1fbf ccbd 27ad 463d 1714 12bd d784 c23d
000002c0: eeb6 4a3d 513b ab3d f06d 353d 1d4e 5d3d
000002d0: 3a07 1dbd 5964 94bd 7153 dcbb c4b9 3abd
000002e0: 02af 7e3d f1cf 25be 1b96 273d f27a 3fbc
000002f0: fd8a 06bd 3ce0 a93d c1cb c1bc 1e8a f8bc
00000300: db44 14bb 65af 37be 215a 0c3e fd94 f4bc
00000310: f66d e1bd e038 a7bd e9ec ecbc 4947 27be
00000320: 399c bb3d 54e4 83be 18ee 683c 8b25 04be
00000330: 9c64 52be 79f7 2ebd 9dea 22be 8892 2abe
00000340: b802 bbbd 9fd0 e2bd 91bd 8fbd 7be5 0dbc
00000350: 6bc7 cfbe b767 bbbd 68c1 17be 88ce 17be
00000360: 8d2a 1fbe f130 17be 95b3 2abe 02c8 bfbd
00000370: 8e3d 093d c42f d9bc 8c67 1bbe f91b 36be
00000380: 234c e33e b820 8ebd 1346 d53c bff3 85be
00000390: 3c38 f9bd 515d aabd 9511 843c a37d c9bd
000003a0: d16b 3c3e 0bb2 6ebe 8db8 adbd 7097 a5bd
000003b0: a84c 82bd 92e4 12be 1e06 123e 3a71 5fbe
000003c0: e880 a3be d6f5 1dbe d953 aabd 58ec f0bd
000003d0: 2300 eabd 7feb 5bbe c9aa a8be 7f6a 46bd
000003e0: fed0 633d 2fab 603d 7f3b 6dbd b229 863d
000003f0: 8fa1 43be 7f56 a6bc 24ee 19be 683c 23bd

fc.weight f4 [48, 64]
0.047217038 0.10165512 0.090838805 0.13569476 0.17261125 -0.1126774 -0.065584995 -0.10398479
0.3275195 0.07859961 0.0014656628 -0.24295776 0.111493036 -0.10929409 0.016020963 -0.11200798
-0.19723678 0.039558005 0.0033287287 -0.115787506 0.030085215 0.062098093 0.13915733 0.3725316
-0.0068536145 -0.078034766 -0.013794187 -0.016688772 -0.22966047 -0.00293286 -0.13468416 0.022747513
-0.20247294 0.11462617 -0.06731406 0.13724878 0.0011908283 -0.060916148 -0.19514158 -0.08607473
-0.08019284 -0.0015497892 0.12091384 0.09328559 0.03821131 0.021972863 0.022208452 -0.01037421
-0.16364916 -0.15726873 -0.02221682 0.02484113 -0.009221415 -0.07810661 -0.12265219 -0.088674664
-0.032786466 0.17863342 -0.091299 0.11801308 -0.05288752 0.19580126 0.23523651 0.0020029414
0.1692458 -0.01707117 0.08577391 0.06676413 -0.12732774 -0.24153325 -0.039671615 -0.076487675
0.123981446 -0.0034833476 -0.11147522 -0.0104562845 0.32349676 -0.37506235 0.016046464 -0.31971234
0.14346677 -0.36424446 0.13245119 -0.022657659 0.09795057 0.07415269 0.13867286 0.09479292
-0.00017556008 -0.063977346 0.073825985 -0.1632094 0.25239882 0.046041835 0.07517722 0.009855481
-0.20347132 0.359933 0.13999714 0.07590881 -0.022700032 0.13132483 0.04944652 0.34654948
-0.014081008 0.08114817 -0.078004256 -0.16894123 0.037523977 -0.13791136 -0.10934832 0.09859833
0.0238232 0.10741414 -0.047166962 0.0133917825 -0.028506504 0.15112641 -0.0222914 0.18473257
-0.15145761 0.08037001 -0.20583671 0.024623489 -0.106321685 0.22637554 -0.03855027 0.068853766
0.03439063 0.14664617 0.12710057 0.14896658 0.11047302 -0.15814872 -0.057029102 -0.046650056
0.21137281 0.11651449 0.061927587 -0.2524416 0.1739942 -0.09192811 -0.06008037 -0.022322001
-0.16546719 0.044674378 -0.1624939 0.017559342 0.05105576 0.042887945 0.11610881 0.30577618
0.08472416 -0.047904346 0.044067625 -0.006445175 -0.22771542 -0.037303615 -0.22820444 0.034491803
-0.13011654 0.13664632 -0.047076695 -0.017225638 -0.031910226 -0.018805092 -0.29535985 -0.049199123
0.0387982 0.00709793 0.0062343143 0.030457204 0.013063954 0.13742337 0.013177999 0.07085922
-0.082507305 -0.030575834 0.011124466 0.003793614 0.005808964 -0.03791568 -0.14312357 -0.100941546
-0.021330496 0.19227767 -0.04755757 0.07069902 -0.10183068 0.20277432 0.10043941 0.07380104
0.1433793 0.02012034 0.0582541 0.27620435 -0.10917467 -0.09239289 -0.036403812 -0.0560775
0.07642142 0.0031540084 0.016652515 -0.0113201365 0.15255052 -0.07609497 -0.042100858 -0.21603365
0.061094318 -0.062132012 -0.041706864 -0.043064013 0.06863526 -0.0054037776 0.5091372 0.06879218
0.10445998 -0.0032415288 -0.0046848957 -0.21554174 0.18881649 0.030300884 -0.11862908 -0.040106088
-0.062015418 0.23226817 0.051959403 -0.15095142 -0.09319097 0.134158 -0.05386763 -0.026908534
0.03808097 0.03321055 -0.05167347 -0.08569591 0.11097028 -0.009933094 -0.04837148 0.1463549
0.10347141 0.17905135 -0.05129116 0.015223659 0.050537806 0.12703556 -0.049645707 0.112536065
-0.13082637 0.20405932 -0.20805597 -0.30921525 -0.013503133 0.20544612 0.1255334 0.08954338
00000000: a766 413d 8f30 d03d b209 ba3d 91f3 0a3e
00000010: 01c1 303e 69c3 e6bd 6d51 86bd faf5 d4bd
00000020: a3b0 a73e d5f8 a03d 7c1b c03a ebc9 78be
00000030: 7656 e43d 94d5 dfbd 653e 833c 7164 e5bd
00000040: 70f8 49be 9307 223d cd26 5a3b 0022 edbd
00000050: 4575 f63c 925a 7e3d 427f 0e3e 76bc be3e
00000060: 4994 e0bb b1d0 9fbd 0401 62bc e4b6 88bc
00000070: 1d2c 6bbe 3a35 40bb a5ea 09be fe58 ba3c
00000080: 1155 4fbe 20c1 ea3d f4db 89bd f28a 0c3e
00000090: 9115 9c3a 3683 79bd 32d3 47be f347 b0bd
000000a0: 253c a4bd 4c22 cbba ada1 f73d 840c bf3d
000000b0: 7683 1c3d 6f00 b43c 80ee b53c 97f8 29bc
000000c0: a593 27be 0e0b 21be 0c00 b6bc a07f cb3c
000000d0: 6b15 17bc 5cf6 9fbd 1231 fbbd 109b b5bd
000000e0: 1a4b 06bd aeeb 363e f8fa babd d7b0 f13d
000000f0: 96a0 58bd 2080 483e d7e1 703e c843 033b
00000100: c54e 2d3e d7d8 8bbc 3baa af3d a2bb 883d
00000110: 3462 02be 7e54 77be b47e 22bd 92a5 9cbd
00000120: fce9 fd3d e048 64bb 1f4d e4bd d650 2bbc
00000130: 5ea1 a53e 2c08 c0be e073 833c 56b1 a3be
00000140: f4e8 123e 407e babe 49a1 073e 8e9c b9bc
00000150: 4f9a c83d 5edd 973d 4200 0e3e ca22 c23d
00000160: 8d16 38b9 8e06 83bd 1432 973d 5d20 27be
00000170: 6b3a 813e 5d96 3c3d 84f6 993d e278 213c
00000180: c95a 50be 2349 b83e 695b 0f3e 1476 9b3d
00000190: 6bf5 b9bc 047a 063e 6f88 4a3d ef6e b13e
000001a0: 07b4 66bc 0331 a63d b2c0 9fbd eefe 2cbe
000001b0: beb2 193d a338 0dbe 03f2 dfbd eced c93d
000001c0: df28 c33c f2fb db3d 2532 41bd 3569 5b3c
000001d0: 7986 e9bc e2c0 1a3e 749c b6bc 892a 3d3e
000001e0: b417 1bbe 0899 a43d dcc6 52be 33b7 c93c
000001f0: 2fbf d9bd fdce 673e e3e6 1dbd 3403 8d3d
00000200: 30dd 0c3d 6a2a 163e a726 023e b28a 183e
00000210: ae3f e23d bdf1 21be 5997 69bd 2114 3fbd
00000220: 1d72 583e 269f ee3d c8a7 7d3d 0740 81be
00000230: 892b 323e ce44 bcbd d616 76bd a1dc b6bc
00000240: 3b70 29be 7bfc 363d cd64 26be 9cd8 8f3c
00000250: d81f 513d 45ab 2f3d 75ca ed3d b28e 9c3e
00000260: dc83 ad3d 5937 44bd 4180 343d 0c32 d3bb
00000270: 3b2e 69be adcb 18bd 6dae 69be 4747 0d3d
00000280: 453d 05be 03ed 0b3e 7ed3 40bd c81c 8dbc
00000290: 4cb4 02bd 230d 9abc 6839 97be 0585 49bd
000002a0: ddea 1e3d c195 e83b 3849 cc3b 6381 f93c
000002b0: 320a 563c b6b8 0c3e 89e8 573c a41e 913d
000002c0: 97f9 a8bd 2c7a fabc 6443 363c 489e 783b
000002d0: 1f59 be3b 794d 1bbd fc8e 12be 71ba cebd
000002e0: 4bbd aebc 70e4 443e bacb 42bd a6ca 903d
000002f0: 9b8c d0bd 12a4 4f3e 2db3 cd3d 0025 973d
00000300: 06d2 123e 69d3 a43c da9b 6e3d a86a 8d3e
00000310: f896 dfbd 7c38 bdbd 2a1c 15bd 85b1 65bd
00000320: d582 9c3d 7bb3 4e3b db6a 883c 1878 39bc
00000330: 3436 1c3e aed7 9bbd f371 2cbd ed37 5dbe
00000340: 093e 7a3d 237e 7ebd d1d4 2abd e463 30bd
00000350: a590 8c3d 2c12 b1bb d156 023f eae2 8c3d
00000360: 1def d53d d46f 54bb c183 99bb f9b6 5cbe
00000370: 1c59 413e 8f39 f83c cef3 f2bd 4846 24bd
00000380: e103 7ebd b5d7 6d3e 62d3 543d 0293 1abe
00000390: e8da bebd b760 093e 4ea4 5cbd 496f dcbc
000003a0: cbfa 1b3d c907 083d 8fa7 53bd 5681 afbd
000003b0: 6344 e33d 6abe 22bc 2c21 46bd 0fde 153e
000003c0: d2e8 d33d 3d59 373e ae16 52bd a76c 793c
000003d0: bb00 4f3d 9c15 023e 4c59 4bbd 4f79 e63d
000003e0: 59f7 05be edf4 503e a00c 55be 7651 9ebe
000003f0: 3f3c 5dbc 7860 523e d48b 003e 8562 b73d

fc.bias f4 [48]
0.035744037 0.10255195 0.03160832 0.10345582 0.028328773 0.09384449 0.046428937 0.11234825
0.04742202 0.106994085 0.050937474 0.11769613 0.054847807 0.12452694 0.060283784 0.1375493
0.06992772 0.15876003 0.075446606 0.16415781 0.082586184 0.14037617 0.07701971 0.12837364
0.07383689 0.14436011 0.077779144 0.14179425 0.06779115 0.14980395 0.057132464 0.13254428
0.0701953 0.153667 0.0777489 0.13862422 0.06411284 0.12305629 0.05437025 0.12116665
0.044627123 0.10190006 0.038238816 0.09802976 0.036666147 0.10978593 0.047501888 0.12546976
00000000: 5768 123d c206 d23d ba77 013d a5e0 d33d
00000010: be11 e83c 8a31 c03d 452c 3e3d d716 e63d
00000020: 983d 423d b71f db3d d0a3 503d ab0a f13d
00000030: 18a8 603d fb07 ff3d 21ec 763d b9d9 0c3e
00000040: 4436 8f3d fd91 223e c083 9a3d fc18 283e
00000050: f222 a93d c5be 0f3e 82bc 9d3d 6174 033e
00000060: cc37 973d 23d3 133e ac4a 9f3d 8332 113e
00000070: 16d6 8a3d 3566 193e bb03 6a3d b0b9 073e
00000080: 8ec2 8f3d e25a 1d3e d13a 9f3d 82f3 0d3e
00000090: 984d 833d f004 fc3d 57b3 5e3d 3826 f83d
000000a0: eeca 363d fbb0 d03d 4ea0 1c3d d4c3 c83d
000000b0: 3e2f 163d 72d7 e03d 5791 423d 257b 003e
