models/lstm_L1_best.pth (torch, 80439 bytes, 6 tensors)

lstm.weight_ih_l0 f4 [256, 9]
0	0x3e6f56e0	0.23372984
1	0x3effb4f1	0.49942735
2	0x3dc79e7b	0.097470246
3	0x3e3b3fd6	0.1828607
4	0x3e6aa80b	0.22915666
5	0x3de123c3	0.10993149
6	0x3e49984c	0.19687003
7	0x3dedb0de	0.11606
8	0xbdf1c694	-0.11805454
9	0xbdd8ca36	-0.10585444
10	0xbe17fc47	-0.1484233
11	0xbd78fbea	-0.06078712
12	0xbc86bfa1	-0.016448798
13	0xbdd22cf4	-0.102624804
14	0x3ee4bbd6	0.44674557
15	0xbdf3cdd5	-0.11904494
16	0x3dfc1235	0.1230816
17	0x3acdd97a	0.0015705072
18	0xbe8ab9b3	-0.27094802
19	0xbe873422	-0.26406962
20	0xbe844150	-0.2583108
21	0xbe12078c	-0.14260691
22	0xbc76169d	-0.01502004
23	0xbe0dd941	-0.13852407
24	0xbce1b028	-0.027549818
25	0xbe726fc3	-0.23675446
26	0x3e6fb953	0.2341054
27	0xbddd1038	-0.10794109
28	0xbddf5f60	-0.10906863
29	0xbddbb567	-0.10727959
30	0xbe1146a0	-0.14187098
31	0xbdf777eb	-0.120834194
32	0x3e8d171b	0.2755669
33	0xbd85937c	-0.06522271
34	0xbd9b0051	-0.0756842
35	0x3d1849eb	0.03717987
36	0xbdd49fbf	-0.10382032
37	0x3e8bcdba	0.27305394
38	0xbcc363aa	-0.023851234
39	0x3dd63eb1	0.10461176
40	0x3da2b9cc	0.07945594
41	0x3f19d161	0.6008511
42	0xbe78e8ab	-0.24307506
43	0x3e37f343	0.1796389
44	0xbe7096be	-0.23495004
45	0xbd9d4d35	-0.07680742
46	0xbe686e52	-0.22698334
47	0xbe3b422e	-0.18286964
48	0x3c9f1fb1	0.019424291
49	0xbe12a780	-0.14321709
50	0x3d50ed99	0.05100784
51	0x3c37b861	0.011213393
52	0xbdc68a9c	-0.096944064
53	0xbdb7568a	-0.08952053
54	0xbe0b81ad	-0.13623686
55	0xbe37c935	-0.17947848
56	0x3ccd1c7d	0.025037998
57	0x3dec409c	0.11535761
58	0xbe6ce0a3	-0.23132567
59	0x3c98fcda	0.018675257
60	0x3cd6ae98	0.0262063
61	0xbdb08043	-0.08618214
62	0x3d8533a5	0.06503991
63	0xbddb9396	-0.10721509
64	0xbe0f7a9d	-0.14011617
65	0xbe025bf4	-0.1273039
66	0xbe93b4c6	-0.28848857
67	0xbdd753e3	-0.10514047
68	0xbcb9c582	-0.022677187
69	0xbe0cd3cd	-0.1375267
70	0x3e5b98e0	0.21445036
71	0x3e8c9fef	0.2746577
72	0x3dca27b8	0.09870857
73	0x3d9d93bf	0.07694196
74	0xbb0f687d	-0.0021882348
75	0x3e0cae44	0.13738352
76	0x3cbc93b9	0.023019658
77	0x3c093fc3	0.008377018
78	0xbe411ecd	-0.18859406
79	0xbdd23927	-0.10264807
80	0x3d2d6da5	0.042340893
81	0xbea786d4	-0.32720053
82	0xbe964b1a	-0.29354173
83	0xbe2cc467	-0.16871797
84	0xbe5c40dc	-0.21509117
85	0xbcc59c94	-0.024122514
86	0xbe0a5ecc	-0.13512725
87	0xbd2a57dc	-0.041587695
88	0x3d6a39f4	0.057184175
89	0x3e16e13b	0.14734356
90	0xbd129283	-0.035784256
91	0xbe549841	-0.20761205
92	0x3c81da49	0.015851157
93	0x3e522a97	0.20524059
94	0xbd8da872	-0.06916894
95	0xbea30c92	-0.31845528
96	0xbdf02a90	-0.11726868
97	0x3c459035	0.012058307
98	0x3e20fad9	0.15720691
99	0xbc09b0da	-0.008403981
100	0x3f18d288	0.59696245
101	0x3e0f2076	0.13977227
102	0x3e00319e	0.12518927
103	0xbd834ec6	-0.06411509
104	0xbe8502a1	-0.25978568
105	0x3d351530	0.04420966
106	0x3eef0cf0	0.46689558
107	0xbf0809c2	-0.5313989
108	0x3eaf37bb	0.34222206
109	0x3e4ecec4	0.20196062
110	0x3d34cd78	0.044141263
111	0x3edb4307	0.42824575
112	0x3e8202a1	0.2539263
113	0xbeae9f1d	-0.3410577
114	0x3d8f62e2	0.07001282
115	0xbe03f0ea	-0.1288487
116	0xbcdcef4a	-0.02696957
117	0x3e0ac486	0.1355153
118	0xbcea250e	-0.028582122
119	0x3d97bb2b	0.07408746
120	0xbdb88d72	-0.090113536
121	0x3e629564	0.221273
122	0xbdabbeb3	-0.08385982
123	0x3e2e4d03	0.17021565
124	0x3e61aaf1	0.22037865
125	0xbd69f151	-0.057114903
126	0xbe940bd2	-0.28915268
127	0xbebe5208	-0.3717196
128	0xbdb38e56	-0.08767383
129	0xbeac3d4e	-0.33640522
130	0xbe50c097	-0.20385967
131	0xbc9ffb86	-0.019529115
132	0xbdb2c678	-0.08729261
133	0x3d2d02a4	0.042238846
134	0x3dc36d3e	0.09542321
135	0xbe8c135a	-0.27358514
136	0xbdf6d76a	-0.12052806
137	0xbe15693a	-0.14590922
138	0xbdbc2e7e	-0.09188555
139	0xbd5637a4	-0.052299157
140	0xbe66e8eb	-0.22549789
141	0xbe692cdd	-0.2277102
142	0xbd95a9d5	-0.073077835
143	0x3dea978e	0.11454688
144	0x3d407a21	0.04699147
145	0xbeab05a2	-0.33402735
146	0x3e1888b3	0.14895897
147	0xbe632aa0	-0.22184229
148	0x3e03a652	0.12856415
149	0x3ddda211	0.10821927
150	0xbe73c7cb	-0.23806684
151	0xbe01e0ba	-0.12683383
152	0x3ef9a0e7	0.4875557
153	0x3dff961d	0.12479804
154	0x3d665ce4	0.05624093
155	0xbda7d05a	-0.08194037
156	0xbe0df1a4	-0.1386171
157	0xbce010a9	-0.027351694
158	0xbea20c78	-0.31650138
159	0xbd97b641	-0.07407809
160	0x3d59fddb	0.05322061
161	0x3dde3412	0.108497754
162	0xbdbd68ee	-0.092485294
163	0xbdf86698	-0.12128943
164	0xbe2be98f	-0.16788314
165	0x3cfe6ff0	0.031059235
166	0xbe8a9fc7	-0.27075025
167	0x3c9040f8	0.017609105
168	0xbc74ca20	-0.0149407685
169	0xbe2f28e7	-0.17105447
170	0x3d7e0086	0.062012218
171	0xbd88ea12	-0.0668527
172	0xbed9cb12	-0.42537743
173	0xbe9de44f	-0.30838248
174	0x3dcad807	0.09904485
175	0xbdf67229	-0.12033493
176	0x3e96ddca	0.29466087
177	0x3de1d9d7	0.11027878
178	0xbb7f0d56	-0.003891786
179	0x3e264233	0.1623619
180	0x3a695caa	0.00089020527
181	0xbe41bc08	-0.18919384
182	0xbdcd2242	-0.100163
183	0xbcd77a7a	-0.026303519
184	0xbe4e51cb	-0.20148389
185	0xbe8a1ccc	-0.26975095
186	0xbd608082	-0.054810055
187	0xbe5cc132	-0.21558073
188	0x3e661087	0.22467242
189	0x3d2fc3c7	0.042911317
190	0xbe6d226e	-0.23157665
191	0x3dc057c2	0.093917385
192	0x3de63203	0.11240008
193	0x3c111657	0.008855424
194	0xbcd8cd11	-0.02646497
195	0xbdbd9b83	-0.09258177
196	0x3b8513cd	0.0040611983
197	0x3df65f15	0.12029854
198	0xbe415287	-0.18879138
199	0xbd3c9823	-0.046043526
200	0xbe30e71b	-0.1727566
201	0x3cd00e2c	0.025397383
202	0xbe1018bb	-0.14071934
203	0x3d8cc619	0.06873722
204	0xbb175bfa	-0.0023095594
205	0xbdfc9378	-0.12332815
206	0xbccf9517	-0.025339646
207	0x3ae453a5	0.0017419948
208	0xbe024a64	-0.1272369
209	0x3d236df6	0.03989979
210	0xbe75b7c1	-0.23995878
211	0xbdbcc4c7	-0.0921722
212	0x3e0d7a2a	0.13816133
213	0x3dc657e5	0.09684733
214	0x3e4bb408	0.19892895
215	0xb9da8031	-0.0004167571
216	0x3c279d59	0.010230386
217	0xbe3ec64a	-0.18630329
218	0xbd841aff	-0.064504616
219	0x3dd01c6c	0.10161671
220	0xbd007d6e	-0.03136962
221	0xbdd4279e	-0.10359119
222	0xbeb435a4	-0.35197175
223	0x3e575437	0.21028219
224	0x3dde977f	0.10868739
225	0xbd84d586	-0.06486039
226	0x3d59270d	0.053015757
227	0x3db685b3	0.0891222
228	0x3e9642e6	0.29347914
229	0xbdd4bcdc	-0.103875846
230	0xbe00bce3	-0.12572055
231	0x3ce3acd9	0.027792381
232	0xbedac0db	-0.42725262
233	0xbe40dbff	-0.18833922
234	0xbe7fa1dc	-0.24964088
235	0xbda2ae55	-0.079434074
236	0xbd2b2430	-0.041782558
237	0xbe465391	-0.19367816
238	0xbda53fbd	-0.08068798
239	0xbebd5484	-0.36978543
240	0x3c317fe0	0.01083371
241	0xbb5db533	-0.0033829927
242	0x3e477d3f	0.19481371
243	0xbd05c383	-0.032657158
244	0xbe6ad96d	-0.22934504
245	0x3c33e73d	0.0109804245
246	0xbd8a4493	-0.06751361
247	0xbe36ecac	-0.1786372
248	0x3cf29462	0.02961177
249	0xbd32b46c	-0.043629095
250	0x3e08239b	0.13294832
251	0xbe03ac98	-0.12858808
252	0xbde44ac3	-0.11147072
253	0xbd4a40c5	-0.049378175
254	0xbcabbf23	-0.020965165
255	0x3e39d372	0.18147066

lstm.weight_hh_l0 f4 [256, 64]
0	0xbe93fe0f	-0.2890477
1	0xbf117de4	-0.5683272
2	0xbe1f3c55	-0.15550359
3	0xbe9a5c11	-0.30148366
4	0xbf26ffb6	-0.65233934
5	0x3e61eef3	0.22063808
6	0xbebe32c8	-0.37148118
7	0x3e3a6d37	0.18205725
8	0xbd879424	-0.066200525
9	0xbd129386	-0.03578522
10	0xbec9e011	-0.39428762
11	0x3ed0eb36	0.40804452
12	0xbe55c71d	-0.20876737
13	0x3d372a85	0.044718284
14	0x3d0613bc	0.032733664
15	0x3e95bd5c	0.29246032
16	0x3def6e91	0.11691011
17	0xbe190e1f	-0.14946793
18	0x3d6154da	0.05501256
19	0x3e889718	0.26677775
20	0x3e0f8a8c	0.14017695
21	0x3eaa49f0	0.33259535
22	0xbe6bd78d	-0.23031445
23	0xbeb15bb3	-0.34640273
24	0xbeb36b55	-0.35042825
25	0x3e86247f	0.2619972
26	0x3e3e5936	0.18588719
27	0xbe9b1016	-0.3028571
28	0xbc50f087	-0.012752659
29	0xbdcd5c7b	-0.10027405
30	0xbd540e1f	-0.05177128
31	0x3e845564	0.25846398
32	0x3f3cc785	0.7374194
33	0x3dcf05fc	0.10108563
34	0x3e5fac67	0.2184311
35	0x3d1293d6	0.03578552
36	0xbdfcd529	-0.123453446
37	0xbe8b201b	-0.27172932
38	0xbe8a08eb	-0.2695993
39	0xbe869c03	-0.26290902
40	0xbd98886b	-0.07447895
41	0x3db9297b	0.09041115
42	0xbd9bea8a	-0.07613094
43	0x3e009f66	0.12560806
44	0xbf1c29b4	-0.61001134
45	0x3e1ef365	0.15522535
46	0x3c84b1c3	0.016198045
47	0xbe5783c2	-0.21046355
48	0x3d8ead3a	0.06966634
49	0x3e037d7c	0.12840837
50	0x3ce313e9	0.027719455
51	0xbe2db4a5	-0.16963442
52	0x3e80d05a	0.2515896
53	0xbd8bf1fb	-0.068332635
54	0x3d94062d	0.072277404
55	0xbc123924	-0.008924756
56	0x3dcf1c00	0.101127625
57	0xbd21edac	-0.039533302
58	0xbee990e9	-0.4561837
59	0xbf06de43	-0.52682894
60	0xbdf8e1e8	-0.12152463
61	0x3d14415a	0.036195137
62	0xbe59b60c	-0.21260852
63	0xbe3c7b79	-0.18406476
64	0xbeaa67bc	-0.33282268
65	0xbdd7fa19	-0.10545749
66	0x3e490331	0.19630124
67	0x3c5e55ac	0.01357023
68	0x3da26ada	0.079305366
69	0x3c020de9	0.007937887
70	0x3db0f56c	0.086405605
71	0xbd8f954b	-0.07010897
72	0x3dbde425	0.09272031
73	0xbdb39182	-0.08767988
74	0x3e5025e9	0.20326962
75	0x3db73be4	0.0894697
76	0xbea2ab05	-0.31771103
77	0x3d4a2c4b	0.049358647
78	0xbd90727a	-0.07053085
79	0xbd468b09	-0.048472438
80	0xbc9c3d7c	-0.019072287
81	0x3d297044	0.04136683
82	0x3dd6881d	0.1047518
83	0x3df9c073	0.1219491
84	0xbd1667b8	-0.036720008
85	0x3d905e75	0.07049266
86	0x3e2597e4	0.16171223
87	0xbe5e49cf	-0.21707843
88	0x3da85ebe	0.08221196
89	0x3deda594	0.11603847
90	0xbd71581f	-0.05892193
91	0x3da4d1ce	0.080478296
92	0x3e6bd502	0.23030475
93	0x3e56aee6	0.20965156
94	0xbe0b5da5	-0.13609941
95	0xbd53dd3c	-0.051724657
96	0x3f10e81c	0.5660417
97	0xbd2985cb	-0.04138736
98	0xbd7b4923	-0.061349045
99	0x3e16fa33	0.14743881
100	0xbd6afa75	-0.05736776
101	0xbaeb21c8	-0.0017939145
102	0xbd19fc92	-0.037594385
103	0xbd822e9a	-0.06356545
104	0x3cd7d270	0.026345462
105	0xbda76fd8	-0.081756294
106	0x3de9d814	0.11418167
107	0xba2098d0	-0.00061262865
108	0xbf29786c	-0.66199374
109	0xbd38fd67	-0.04516354
110	0xbe57c33e	-0.21070573
111	0x3ececd96	0.40391225
112	0xbe615e28	-0.22008574
113	0x3d9ec79e	0.07752918
114	0xbc1b5f14	-0.009483118
115	0x3e185c23	0.14878897
116	0x3daab52a	0.083353356
117	0x3d657328	0.056018025
118	0x3e342e22	0.17595723
119	0x3dd56458	0.1041953
120	0xbe7080b9	-0.23486604
121	0xbdc0616c	-0.09393582
122	0xbec18078	-0.37793326
123	0x3e7acecf	0.24492954
124	0xbd24f726	-0.04027476
125	0xbe076513	-0.1322215
126	0xbd3e3457	-0.046436634
127	0x3d9b551d	0.075845934
128	0x3cd20c46	0.025640618
129	0x3e961003	0.2930909
130	0x3ca9ef5d	0.02074402
131	0x3e09c6ea	0.13454786
132	0x3ea03f41	0.3129826
133	0xbd72b49f	-0.059254285
134	0x39676576	0.00022067674
135	0xbe3107a4	-0.17288071
136	0xbd508da6	-0.050916336
137	0xbd058e03	-0.032606136
138	0x3dbfdfce	0.09368859
139	0x3e5763b8	0.21034133
140	0x3db2446d	0.087044574
141	0xbd5d2a60	-0.05399549
142	0xbdeb01c2	-0.11474945
143	0xbbb7176d	-0.0055875094
144	0x3e1150fa	0.14191046
145	0xbd9dcf74	-0.07705584
146	0xbe20824a	-0.15674701
147	0x3d9bb7c4	0.0760341
148	0x3d459502	0.048237808
149	0x3daf735b	0.08566924
150	0x3e2d7a6d	0.16941233
151	0xbd10566b	-0.035238665
152	0xbcb6e64a	-0.022326607
153	0xbeb267de	-0.3484487
154	0x3d6e7665	0.05821838
155	0x3e7c1840	0.24618626
156	0x3c767e29	0.015044727
157	0xbdd08038	-0.10180706
158	0x3da45e63	0.08025815
159	0xbd60b039	-0.05485556
160	0x3d75025b	0.0598167
161	0x3e1a54f5	0.15071471
162	0x3c33af79	0.010967129
163	0x3ca89572	0.020579074
164	0xbe08e52c	-0.13368672
165	0x3d43b348	0.047778398
166	0xbdc9a9fc	-0.09846875
167	0x3e05994e	0.13046762
168	0xbcf65d1f	-0.0300737
169	0xbda15a8b	-0.07878598
170	0x3db992ae	0.0906118
171	0xbd9b3695	-0.0757877
172	0xbe14c938	-0.14529884
173	0x3dcbd033	0.0995182
174	0xbe147eb4	-0.14501458
175	0xbdfc827f	-0.12329578
176	0x3dd7e7fd	0.10542295
177	0x3d89223b	0.06695982
178	0x3d683928	0.056695133
179	0x3d436c48	0.047710687
180	0xbe8e4381	-0.27785876
181	0xbd2d60ca	-0.042328633
182	0xbdfd9465	-0.1238182
183	0xbd1d5154	-0.03840764
184	0xbd79c74d	-0.060981084
185	0xbe761c84	-0.24034315
186	0x3d81f7cd	0.063460924
187	0x3e6625de	0.22475383
188	0xbc5e9059	-0.01358422
189	0xbe858d2a	-0.26084262
190	0xbcbfe0f1	-0.02342269
191	0x3c2c1096	0.010502001
192	0xbf1cc32b	-0.612353
193	0xbe150f80	-0.14556694
194	0xbc64c36e	-0.01396261
195	0x3d487e77	0.04894873
196	0xbc58a614	-0.01322319
197	0x3e2d5089	0.16925253
198	0xbde9ba5c	-0.11412498
199	0x3e088c3a	0.13334742
200	0xbe10e64b	-0.1415035
201	0xbd8f6f71	-0.07003678
202	0xbd9fbd53	-0.077997826
203	0x3df399ed	0.118945934
204	0xbe9cfe59	-0.30662802
205	0xbdee2af5	-0.11629287
206	0xbd9f0c62	-0.07766034
207	0xbdb5b042	-0.08871509
208	0x3e2628d9	0.1622652
209	0xbeaa5fd2	-0.3327623
210	0x3cf7745e	0.030206855
211	0x3dd00578	0.10157293
212	0xbd458351	-0.048220936
213	0x3e27966a	0.16365972
214	0x3e4df954	0.20114642
215	0xbe68b086	-0.22723588
216	0x3e6f2244	0.23352915
217	0x3e1d0b9e	0.15336463
218	0x3e483ab3	0.19553642
219	0x3d23047e	0.039799206
220	0xbe05af81	-0.1305523
221	0x3e12c5e1	0.14333297
222	0xb972d222	-0.00023157199
223	0xbc82d202	-0.01596928
224	0x3ee90198	0.45509028
225	0x3e0cb9dc	0.13742775
226	0xbe6c209f	-0.23059319
227	0x3cb4f784	0.02209068
228	0x3d865695	0.06559483
229	0x3e12e56a	0.14345327
230	0xbe2881e6	-0.16455802
231	0xbe0275c6	-0.1274024
232	0x3bce1150	0.006288685
233	0xbccd7a43	-0.025082713
234	0x3e2cbd5d	0.16869111
235	0xbcd81a9f	-0.026379881
236	0xbed6ff1d	-0.4199151
237	0x3c49fa99	0.012327814
238	0xbe3818a1	-0.17978145
239	0x3cf1b854	0.02950684
240	0x3ea5740c	0.323151
241	0xba842ec2	-0.0010084736
242	0xbda7249d	-0.0816128
243	0x3dcf1cf9	0.10112948
244	0xbbf9fe4d	-0.007629192
245	0xbe1aa52b	-0.15102069
246	0x3dc709f8	0.09718698
247	0x3d11f7a5	0.035636563
248	0xbe3717cb	-0.1788017
249	0xbea5e6f8	-0.32402778
250	0xbe88f13a	-0.2674654
251	0x3d93e3d9	0.07221193
252	0x3dc0ae13	0.09408202
253	0xbcc5448d	-0.02408054
254	0xbceb0246	-0.028687607
255	0x3cced663	0.025248712

lstm.bias_ih_l0 f4 [256]
0	0x3e3212cd	0.17389984
1	0x3d493b06	0.049128555
2	0xbe76fdb8	-0.24120224
3	0xbe4e5d17	-0.20152698
4	0xbdab9509	-0.083780356
5	0xbd81cd00	-0.06337929
6	0xbdc0aad6	-0.09407584
7	0xbe308dc9	-0.17241587
8	0x3d507f09	0.0509024
9	0xbe24c818	-0.16091955
10	0x3c8e39d2	0.017361555
11	0xbddafdcd	-0.1069294
12	0x3d7effd9	0.062255714
13	0x3cb9c79c	0.022678189
14	0xbc20a1df	-0.009804218
15	0x3cd54ef3	0.026038622
16	0x3cb37983	0.021908527
17	0xbe20690b	-0.1566507
18	0xbdac1abe	-0.08403538
19	0xbdae54bf	-0.08512258
20	0xbe02dee0	-0.12780333
21	0x3d70478f	0.058661994
22	0xbda66f28	-0.0812667
23	0xbdf7a840	-0.12092638
24	0xbd62344f	-0.055225667
25	0xbe2ea68a	-0.17055717
26	0xbd6bcdf6	-0.057569467
27	0xbdc3ea9e	-0.09566234
28	0xbdd2fb68	-0.10301858
29	0x3d292e5e	0.041303985
30	0xbdfa5878	-0.12223905
31	0x3e5a54f3	0.21321468
32	0xbdc55984	-0.096362144
33	0xbe3febe9	-0.18742336
34	0xbccf38ee	-0.0252957
35	0xbdaaea33	-0.08345451
36	0xbd95186a	-0.07280047
37	0xbe85d638	-0.26139998
38	0xbdabfcd1	-0.0839783
39	0xbe525404	-0.20539862
40	0xbe2a8d2a	-0.16655412
41	0xbc82990a	-0.015942115
42	0xbe61ef9a	-0.22064057
43	0xbcb7edad	-0.0224522
44	0xbe6d4c13	-0.23173551
45	0xbe1e59a3	-0.15463881
46	0xbc3c5ecf	-0.0114972135
47	0x3d8aa7ba	0.067702726
48	0xbc6785f9	-0.014131063
49	0xbdb1c4b9	-0.086801
50	0xbde4fc8f	-0.11180984
51	0xbe239428	-0.15974486
52	0xbdf63faf	-0.120238654
53	0xbdb631c2	-0.08896209
54	0xbdac99f1	-0.084277995
55	0xbd49d309	-0.049273524
56	0x3cd1877d	0.025577301
57	0xbe01e69a	-0.12685624
58	0x3da12d35	0.07869951
59	0x3e62b039	0.22137536
60	0xbcd46e1a	-0.025931407
61	0x3d8205d7	0.0634877
62	0xbc151875	-0.009100069
63	0x3d3dfdd1	0.046384636
64	0xbe3e824c	-0.18604392
65	0xbe0cb780	-0.13741875
66	0xbd6ed803	-0.058311474
67	0xbe5b8d5f	-0.21440648
68	0xbd82f546	-0.063944384
69	0xbe92e118	-0.28687358
70	0xbe45871c	-0.19289821
71	0xbdf0d874	-0.11760035
72	0xbe302d6e	-0.1720483
73	0xbdacc76b	-0.084364735
74	0x3d71687e	0.058937542
75	0xbbdea0f9	-0.006794092
76	0x3caa7c0b	0.020811101
77	0xbe9d68a0	-0.30743885
78	0xbe498468	-0.19679415
79	0xbd37f59b	-0.044911962
80	0x3d87fbb3	0.06639805
81	0xbebb7b9b	-0.3661774
82	0xbdbf861a	-0.0935175
83	0xbd8bb8f1	-0.06822384
84	0xbe120f86	-0.14263734
85	0xbb8cbb0b	-0.004294758
86	0xbe4be1b4	-0.19910318
87	0xbe48d41b	-0.19612162
88	0x3d2560f4	0.040375665
89	0x3d91e6ae	0.07124077
90	0xbe28446d	-0.16432352
91	0xbe3655c8	-0.1780616
92	0x3cca5724	0.024699755
93	0xbdd95c28	-0.106132805
94	0xbdce7f62	-0.1008289
95	0x3ddac755	0.10682551
96	0x3d49a1c2	0.04922653
97	0xbda6c4d9	-0.081430145
98	0x3dd2ee5c	0.1029937
99	0xbe26a543	-0.1627398
100	0xbe3bc5e3	-0.18337207
101	0xbe2240b7	-0.15844999
102	0xbe3ea85d	-0.18618913
103	0xbdbbb089	-0.09164531
104	0xbd2079cb	-0.03917865
105	0xbd0f9cf1	-0.03506178
106	0xbd8ea309	-0.0696469
107	0x3d8a0b57	0.06740444
108	0x3d85c59d	0.06531832
109	0x3d06eb39	0.03293917
110	0xbe633cff	-0.22191237
111	0xbb0d09b1	-0.002152067
112	0xbe0d4b2d	-0.13798209
113	0xbe0094a1	-0.12556697
114	0xbe3ce049	-0.18444933
115	0xbd3a3309	-0.045458827
116	0x3c1b5032	0.009479569
117	0xbdb24dfc	-0.087062806
118	0x3cf6d4ae	0.03013071
119	0xbc991c83	-0.018690353
120	0xbc6fe036	-0.014640858
121	0xbdd11866	-0.10209732
122	0xbd259b80	-0.0404315
123	0xbcad84be	-0.02118146
124	0xbdc31255	-0.09524981
125	0xbe70e121	-0.2352338
126	0xbc276927	-0.010217941
127	0xbe39eef7	-0.18157564
128	0xbcc13be3	-0.023588127
129	0x3dbee694	0.09321323
130	0x3cb83b1d	0.022489125
131	0x3d1ce23f	0.038301703
132	0x3d0a5530	0.033772647
133	0x3e0e2d7e	0.13884541
134	0xbc50df25	-0.012748514
135	0x3cb8b7ce	0.022548582
136	0xbc8d4692	-0.017245565
137	0x3deb2fb7	0.1148371
138	0xbd2e9f8a	-0.042632617
139	0x3d012ce9	0.03153697
140	0xbd491247	-0.049089696
141	0x3cf36cd3	0.029714977
142	0x3d9fc361	0.078009374
143	0xbd161fdb	-0.036651473
144	0xbdf414c3	-0.119180225
145	0xbdb335ae	-0.08750473
146	0x3d9f7dac	0.07787642
147	0xbdadd587	-0.08487993
148	0x3da8eb03	0.0824795
149	0x3dd05ef6	0.10174362
150	0xbd1dcbec	-0.038524553
151	0xbdfa72f3	-0.12228956
152	0x3d3a5a03	0.045495998
153	0x3d566ed1	0.052351777
154	0xbd590adf	-0.052988883
155	0xbc9a45c1	-0.01883209
156	0x3b07509b	0.002064741
157	0xbbd2ed83	-0.006437005
158	0x3b43e70e	0.0029892358
159	0x3de2c9a3	0.110736154
160	0xbdd0ade0	-0.10189414
161	0x3ddd385f	0.108017676
162	0x3db3bce7	0.08776265
163	0x3c8d3a81	0.01723981
164	0x3d015c03	0.03158189
165	0xbac0e35c	-0.0014716196
166	0x3d65fbbe	0.056148283
167	0xbdbb8d02	-0.091577545
168	0xbd6d74e3	-0.0579728
169	0x3d75991b	0.059960466
170	0x3cce2f11	0.025168927
171	0x3d8e9059	0.06961126
172	0x3cc1ccd1	0.023657234
173	0x3d6eee4f	0.058332738
174	0x3d766fbe	0.06016516
175	0xbab1dfac	-0.0013570688
176	0xbcc5f837	-0.02416621
177	0x3d81a435	0.06330148
178	0xbd7cd449	-0.06172589
179	0xbdb43706	-0.087995574
180	0x3d18557a	0.03719089
181	0x3aae3fab	0.0013294121
182	0xbd483202	-0.048875816
183	0xbd644be8	-0.055736452
184	0x3dad5aa6	0.084645554
185	0xbc29eb07	-0.010370976
186	0xbd445a50	-0.04793769
187	0x3ccd7468	0.02507992
188	0xbd089bf7	-0.033351865
189	0xbd0e0dd0	-0.03468114
190	0xbd368cb5	-0.044567782
191	0x3deaa46e	0.11457144
192	0xbd8b8f98	-0.06814498
193	0xbb06347a	-0.0020478056
194	0xbe6b02a9	-0.22950234
195	0xbe5dd253	-0.21662264
196	0xbd8bd0cd	-0.06826935
197	0xbe24203b	-0.1602792
198	0xbba9ba4d	-0.0051796795
199	0xbe4975c6	-0.19673833
200	0xbdbef174	-0.09323397
201	0xbe308bd2	-0.17240837
202	0xbe267dba	-0.16258898
203	0x3a8bd44c	0.0010668128
204	0xbe093862	-0.13400415
205	0xbe102c8b	-0.14079492
206	0xbe2fdc5f	-0.17173909
207	0x3b65c0a7	0.0035057457
208	0xbb9668a6	-0.004590112
209	0xbda42885	-0.08015541
210	0xbe920329	-0.28518036
211	0xbd9d6ed1	-0.07687152
212	0xbdf7120a	-0.120639876
213	0xbe277cd9	-0.1635622
214	0xbe10df5d	-0.14147706
215	0xbe3ec58a	-0.18630043
216	0x3d30840b	0.043094676
217	0xbe13a984	-0.14420134
218	0xbe0d1ea2	-0.13781217
219	0xbea270c7	-0.31726667
220	0xbe5d788f	-0.2162802
221	0xbd3a6c6a	-0.045513548
222	0xbdb987ca	-0.09059103
223	0xbc990bec	-0.018682443
224	0xbdebbe46	-0.11510901
225	0xbe084be3	-0.13310198
226	0x3d722c85	0.05912449
227	0xbe08b4e7	-0.13350259
228	0xbe7ffb53	-0.24998216
229	0xbe19a488	-0.1500417
230	0x3c004ffe	0.007831572
231	0xbe03b1c1	-0.12860776
232	0xbddc2a5a	-0.107502654
233	0xbe552e9c	-0.20818561
234	0xbe4f19a5	-0.20224626
235	0xbb2df927	-0.0026546211
236	0xbdcb21bd	-0.099185444
237	0xbdb387ce	-0.08766137
238	0xbe64dd4b	-0.22350042
239	0xbdfc1980	-0.12309551
240	0xbe1b11b1	-0.15143467
241	0xbd247384	-0.040149227
242	0xbd97ce2d	-0.07412372
243	0xbe857985	-0.26069275
244	0xbe530d4a	-0.20610538
245	0x3c66bcbb	0.014083083
246	0xbd9b3e2d	-0.075802185
247	0xbdd6ed6d	-0.10494504
248	0xbba3c5d0	-0.0049979463
249	0xbd36b978	-0.04461047
250	0x3d9821e7	0.07428341
251	0xbe6e2c4d	-0.23259087
252	0xbd933f35	-0.0718979
253	0x3ccf07a4	0.025272198
254	0xbdb90a6c	-0.09035191
255	0x3b3b47e4	0.0028576786

lstm.bias_hh_l0 f4 [256]
0	0x3e330eab	0.17486064
1	0x3c715300	0.014729261
2	0xbda7dcda	-0.08196421
3	0xbe92eb26	-0.2869503
4	0xbc857349	-0.016290324
5	0xbdd5fbc9	-0.10448415
6	0x3d456c30	0.04819888
7	0xbe95ec88	-0.29282022
8	0x3d086fd2	0.033309765
9	0xbe5d2ed1	-0.2159989
10	0xbccc8110	-0.024963886
11	0x3dbb506c	0.09146199
12	0x3c926734	0.017871477
13	0xbe077d42	-0.13231376
14	0x3d8ea83d	0.06965683
15	0x3c694000	0.01423645
16	0x3c55078b	0.013002287
17	0xbddaeaa9	-0.10689289
18	0xbe749c62	-0.2388778
19	0xbe296016	-0.1654056
20	0xbdd09716	-0.10185067
21	0xbdeb267e	-0.11481951
22	0xbe4ab290	-0.19794679
23	0xbe1666e1	-0.14687683
24	0x3da7552e	0.081705436
25	0xbe4f6071	-0.20251633
26	0x3cd83bc0	0.026395679
27	0xbdeae943	-0.114702724
28	0xbe2c4de6	-0.16826591
29	0xbbbd31c9	-0.005773757
30	0xbd9c2d60	-0.07625842
31	0x3e5e7fb0	0.21728396
32	0xbc2b3806	-0.010450369
33	0xbd21a224	-0.03946127
34	0xbda5a6c5	-0.080884494
35	0xbccdb9ce	-0.025113013
36	0xbe5dbe5b	-0.21654646
37	0xbe84ef95	-0.25964037
38	0x3d39141a	0.045185186
39	0xbe22ae69	-0.15886845
40	0x3c53a25a	0.012917126
41	0x3d0e298e	0.0347076
42	0xbdf28438	-0.11841625
43	0x3db67429	0.089088745
44	0xbe71907c	-0.23590273
45	0xbdb952e0	-0.0904901
46	0xbc932ff7	-0.017967207
47	0xbdc4c888	-0.09608561
48	0xbc144bd5	-0.009051283
49	0xbe444ff4	-0.19171125
50	0xbdd115ab	-0.10209211
51	0xbe13b058	-0.14422739
52	0xbe2d2deb	-0.16912048
53	0xbe4d9826	-0.20077571
54	0xbde270e2	-0.11056687
55	0x3d77f462	0.060535796
56	0xbce94ef9	-0.02848004
57	0xbe35d85e	-0.17758319
58	0xbd94ae47	-0.07259803
59	0x3e5c8e58	0.21538675
60	0xbe56f61b	-0.2099232
61	0xbd64ab16	-0.055827223
62	0x3d288578	0.04114291
63	0x3d92d622	0.07169749
64	0xbe2abdcb	-0.16673963
65	0x3bb82adb	0.005620343
66	0xbe0460c9	-0.12927546
67	0xbe873f88	-0.26415658
68	0x3d1527d5	0.03641494
69	0xbe1c2131	-0.15247037
70	0xbde71208	-0.11282736
71	0xbe180426	-0.14845333
72	0xbe3a1b24	-0.18174416
73	0xbcc48a19	-0.023991631
74	0xbde2a1c4	-0.110660106
75	0x3cdba0ed	0.026810134
76	0xbcbac734	-0.022800066
77	0xbddca693	-0.10773959
78	0xbe12ced8	-0.14336717
79	0x3ca50d5d	0.020147974
80	0x3d436ae1	0.04770935
81	0xbe44587d	-0.1917438
82	0xbe74242d	-0.23841925
83	0x3c882d74	0.016623236
84	0xbe4e02ad	-0.20118208
85	0xbe3bff8d	-0.18359204
86	0xbd30b137	-0.043137755
87	0xbdbc33c9	-0.09189565
88	0xbd9249c2	-0.071429744
89	0xbde6b9aa	-0.11265881
90	0xbd82cf29	-0.06387169
91	0xbddabec9	-0.10680921
92	0xbdbd7d8b	-0.09252461
93	0xbd929688	-0.07157618
94	0xbd8b6a95	-0.06807438
95	0x3e1c1bd7	0.15244995
96	0x3d3ee351	0.046603505
97	0xbcccde3d	-0.025008315
98	0x3cf43fa1	0.029815497
99	0xbe48a936	-0.19595799
100	0xbd6803d0	-0.05664426
101	0xbe47f491	-0.19526888
102	0x3b93448b	0.004494255
103	0xbe1d0b3b	-0.15336315
104	0x3caa5562	0.020792667
105	0xbdb855c9	-0.09000737
106	0xbdb10ece	-0.08645402
107	0x3c6a3044	0.014293734
108	0xbd550461	-0.05200613
109	0xbe38058c	-0.17970866
110	0xbe858335	-0.26076666
111	0xbdda38ec	-0.10655388
112	0xbe22d7d8	-0.1590265
113	0x3c9e36ad	0.01931318
114	0xbdcb8220	-0.09936929
115	0xbd833899	-0.064072795
116	0xbe362073	-0.17785816
117	0xbd73e3b9	-0.059543345
118	0xbdcb8cda	-0.09938975
119	0x3dc6ca42	0.09706546
120	0xbd87d73b	-0.06632849
121	0xbd8526a0	-0.06501508
122	0xbd9fa2e3	-0.0779474
123	0x3e3b5b07	0.18296443
124	0xbe46f8a0	-0.1943078
125	0xbd96eab8	-0.07368988
126	0xbdcd692d	-0.10029826
127	0xbe7254e0	-0.2366519
128	0xbd8ac69d	-0.06776164
129	0xbdfd223e	-0.12360047
130	0x3d1ac8ed	0.037789274
131	0x3dfaedd2	0.12252392
132	0x3c26151f	0.010136872
133	0xbd76e745	-0.06027915
134	0x3d461a45	0.048364896
135	0x3cbbeceb	0.02294012
136	0xbc3361c6	-0.010948604
137	0x3dedfda3	0.11620643
138	0xbd38bcba	-0.04510186
139	0xbb23691f	-0.0024934483
140	0xbd51cc6b	-0.05122034
141	0x3dc86db0	0.09786546
142	0x3e463d03	0.19359212
143	0xbe025734	-0.12728578
144	0xbc8cd7e0	-0.017192781
145	0x3d1a4f75	0.037673432
146	0xbd12823a	-0.035768725
147	0xbdefd35c	-0.117102355
148	0xbc11663a	-0.00887447
149	0xbb818fca	-0.0039539086
150	0x3d980e46	0.074245974
151	0x3dcb8b2e	0.09938656
152	0xbd0f2a96	-0.034952722
153	0xbdb65721	-0.08903337
154	0xbd871229	-0.06595261
155	0xbd24a5ff	-0.04019737
156	0x3dc70a9c	0.097188205
157	0xbe316613	-0.17324094
158	0x3defb955	0.11705271
159	0xbd9df623	-0.077129625
160	0xbd989718	-0.07450694
161	0x3d71b432	0.05900974
162	0xbd267f92	-0.040649004
163	0xbd68f7bb	-0.05687688
164	0xbcee56de	-0.029094156
165	0xbb18bc03	-0.0023305423
166	0x3dcff9d9	0.101550765
167	0xbc1abccd	-0.009444428
168	0x3e147fa1	0.14501812
169	0xbd8adf2f	-0.0678085
170	0xbdd05990	-0.10173333
171	0x3d84d56c	0.064860195
172	0xbce1dab9	-0.027570115
173	0x3d972b9c	0.07381365
174	0x3d9b7e95	0.07592503
175	0x3d6980ce	0.057007603
176	0x3e195acb	0.14976041
177	0xbc8ff86e	-0.017574515
178	0xbe11b83b	-0.14230435
179	0xbe277f8a	-0.16357246
180	0x3dc97bbf	0.09838056
181	0x3d083f70	0.033263624
182	0x3ddbd2e8	0.107335865
183	0x3d0eb5de	0.03484141
184	0x3d088b60	0.033336043
185	0x3da77c1c	0.08177969
186	0x3d303d9f	0.043027516
187	0xbb663c51	-0.0035131166
188	0x3d48042d	0.048832107
189	0x3d4ef977	0.050530877
190	0x3d2eb4b0	0.042652786
191	0x3dcace62	0.09902646
192	0xbe2d2886	-0.1690999
193	0xbe45b4f1	-0.19307305
194	0xbe8651b6	-0.26234215
195	0xbe7839aa	-0.24240747
196	0xbd64ea10	-0.055887282
197	0xbe5f4c41	-0.21806432
198	0xbe45e621	-0.19326068
199	0xbe9ec8a8	-0.31012464
200	0xbdfc8bf0	-0.123313785
201	0xbdb4beea	-0.088254765
202	0x3c8938fb	0.016750803
203	0x3c35d8c5	0.011099045
204	0x3c841db9	0.016127454
205	0xbe08828f	-0.13331054
206	0xbb9142d4	-0.0044330154
207	0xbe072254	-0.13196689
208	0xbe46f780	-0.19430351
209	0xbd421dac	-0.04739158
210	0xbe91f342	-0.28505903
211	0xbdc74192	-0.097293034
212	0xbbf1b08a	-0.0073757814
213	0xbcf4cb9b	-0.029882243
214	0xbe2e3b83	-0.1701489
215	0xbd81ff0f	-0.06347477
216	0xbd8a4959	-0.06752271
217	0x3d56411a	0.05230818
218	0xbda04aaa	-0.07826741
219	0xbe20a6c6	-0.15688619
220	0xbe405c59	-0.18785228
221	0xbdcabbe4	-0.098991185
222	0xbdabaa17	-0.083820514
223	0xbd77f3ae	-0.060535125
224	0xbe222f1d	-0.15838285
225	0xbe2355c0	-0.1595068
226	0xbdb0ebd2	-0.08638729
227	0xbd6648e9	-0.056221876
228	0xbe61acec	-0.2203862
229	0xbe7b783b	-0.24557583
230	0x3c3757fb	0.01119041
231	0xbd57fad0	-0.052729428
232	0xbdf1baf2	-0.11803235
233	0xbe184c89	-0.14872946
234	0xbd41e971	-0.047341768
235	0xbd1249db	-0.035714965
236	0xbe1d6f7c	-0.15374559
237	0xbd639beb	-0.055568617
238	0xbe17d75f	-0.14828251
239	0xbd22b862	-0.039726622
240	0xbe192ca5	-0.14958437
241	0xbbde6dc5	-0.006787988
242	0xbe8776ab	-0.26457724
243	0xbe998257	-0.29982254
244	0xbe333b93	-0.17503195
245	0x3cb3c820	0.021946013
246	0xbe763f16	-0.24047503
247	0xbde47940	-0.11155939
248	0x3cee05cc	0.029055499
249	0xbe1fd4d8	-0.15608537
250	0x3d8d1f08	0.06890684
251	0xbde7d302	-0.113195434
252	0xbd02e787	-0.031959083
253	0xbd8b9dfb	-0.06817242
254	0xbcb075c4	-0.02154053
255	0xbe2ff268	-0.17182314

fc.weight f4 [6, 64]
0	0x3cbc5b0d	0.022992635
1	0x3c7dfd3f	0.015502273
2	0xbdd7170e	-0.10502444
3	0xbd144a35	-0.03620358
4	0x3d3092d8	0.04310879
5	0xbc78e6a1	-0.015191705
6	0xbd8b5722	-0.06803729
7	0x3d89aa40	0.06721926
8	0xbba2359d	-0.004950239
9	0x3d8fd97a	0.07023902
10	0x3d937055	0.0719916
11	0x3baf9f01	0.005359531
12	0x3cf14a27	0.029454304
13	0x3d4bfc79	0.049801324
14	0xbbcf328d	-0.006323165
15	0x3cbbe96f	0.022938458
16	0x3d0a52e2	0.03377045
17	0xbd8866df	-0.06660246
18	0xbdb8575b	-0.09001037
19	0x3d7eeac5	0.062235612
20	0xbe00b52f	-0.12569116
21	0x3d80f098	0.062958896
22	0x3dae44f2	0.08509244
23	0x3dae79be	0.08519314
24	0x3d08c7ce	0.033393674
25	0xbd575460	-0.0525707
26	0xbd3f9120	-0.04676926
27	0x3d12e461	0.03586233
28	0xbdf9732e	-0.12180172
29	0xbdcaa8c0	-0.09895468
30	0xbd8f256d	-0.0698956
31	0x3d6c2ec4	0.057661787
32	0x3ce1f36c	0.027581893
33	0xbd6eec17	-0.05833062
34	0x3cdb2225	0.02674968
35	0xbcb489d8	-0.022038385
36	0xbca490a3	-0.0200885
37	0xbd9fe8c8	-0.078080714
38	0x3c72f301	0.014828444
39	0x3d19d574	0.03755708
40	0xbd2868fd	-0.04111575
41	0xbe084371	-0.13306977
42	0xbd435f34	-0.047698215
43	0x3e1b2d8b	0.15154092
44	0x3d99bac9	0.075063296
45	0x3d59acca	0.0531433
46	0x3dc87d68	0.09789544
47	0xbd9e68a9	-0.07734806
48	0xbc89b37b	-0.016809216
49	0x3d31697b	0.043313485
50	0x3cbe869e	0.02325755
51	0xbb1feaeb	-0.0024401497
52	0xbdd9fc8e	-0.10643874
53	0xbd2a152e	-0.041524105
54	0xbd38dd81	-0.045133118
55	0xbdc1ec9f	-0.0946896
56	0x3daf5fa3	0.08563163
57	0x3d895b13	0.06706824
58	0xbc8e060e	-0.017336871
59	0xbcb6b0d3	-0.022301113
60	0x3c8cfbd7	0.01720993
61	0xbc7da70c	-0.015481722
62	0xbe5fe018	-0.21862829
63	0x3a1ff9c7	0.00061025884
64	0x3e2a7d70	0.16649413
65	0xbdbca4f3	-0.09211149
66	0xbd3da671	-0.04630131
67	0x3d4dfe41	0.050291304
68	0x3d57ede9	0.052717123
69	0x3dd50c83	0.10402777
70	0x3d4292fc	0.047503456
71	0xbd6c594a	-0.05770234
72	0xbe7bd83a	-0.24594203
73	0x3de90b5a	0.11379118
74	0xbe08e944	-0.13370234
75	0xbc2f2b04	-0.010691408
76	0x3e707ac1	0.23484327
77	0x3d6c8a63	0.057749163
78	0x3daacb18	0.08339518
79	0xbd3371ee	-0.043809824
80	0x3b9ab375	0.0047211
81	0xbd909e4d	-0.070614435
82	0x3d1458d4	0.036217526
83	0xbc951f26	-0.01820333
84	0xbcd47455	-0.025934378
85	0x3d1f0ffc	0.038833603
86	0x3df897c8	0.12138325
87	0x3d0e16b6	0.034689628
88	0x3db56c47	0.08858543
89	0xbd034655	-0.032049496
90	0x3d1e6d76	0.03867861
91	0x3da47032	0.08029212
92	0x3d31cf3a	0.043410517
93	0xbe2ebf1c	-0.1706509
94	0xbd0eaaf4	-0.034831002
95	0x3dd5f06a	0.10446246
96	0xbae74f4d	-0.0017647535
97	0x3cec42e1	0.028840484
98	0x3d8e6bda	0.06954165
99	0xbc878bb1	-0.016546102
100	0x3c520fb9	0.012821131
101	0xbdab955d	-0.08378098
102	0x3e098a73	0.1343172
103	0xbdad2673	-0.08454599
104	0x3cd5218c	0.026016973
105	0xbd808e29	-0.06277115
106	0x3c994c61	0.018713178
107	0x3e13316d	0.14374323
108	0x3d3de246	0.04635837
109	0x3e3b8a06	0.1831437
110	0x3e4fe4ea	0.20302168
111	0xbe138b03	-0.14408498
112	0xbdc6a9db	-0.09700366
113	0x3d252768	0.040320784
114	0xbdb07d85	-0.08617691
115	0xbdd71bab	-0.10503324
116	0xb9d3000e	-0.00040245097
117	0x3bddefab	0.0067729554
118	0xbc7f39b9	-0.015577727
119	0x3c1780ae	0.009246988
120	0xbd5dd836	-0.054161273
121	0xbdb65c36	-0.089043066
122	0xbdfbce8b	-0.12295254
123	0xbe91f03d	-0.285036
124	0xbdd2c462	-0.10291363
125	0xbdce6349	-0.10077531
126	0x3d155105	0.03645422
127	0xbe504c31	-0.20341565
128	0x3d56d23e	0.052446596
129	0x3d553a57	0.05205759
130	0xbcc68034	-0.024231054
131	0x3b22f10d	0.0024862916
132	0xbd5accd2	-0.053417988
133	0xbd92a421	-0.07160211
134	0x3dbeeee6	0.0932291
135	0x3ce7662c	0.028246962
136	0x3cf18d8a	0.029486436
137	0xbca3db85	-0.020002136
138	0x3c9e5b14	0.019330539
139	0x3bd3cb08	0.006463412
140	0xbd529f20	-0.051421285
141	0x3ccfd84b	0.025371691
142	0x3daf035b	0.08545562
143	0x3d595f12	0.05306918
144	0x3db7f308	0.089819014
145	0x3cdc26d3	0.026873982
146	0xbd8a7a47	-0.06761604
147	0x3d872c11	0.06600202
148	0x3d29bd25	0.041440148
149	0x3d99cb5a	0.07509489
150	0x3c952de2	0.018210355
151	0xbd909ff4	-0.07061759
152	0x3cb6cc42	0.022314195
153	0xbd8e1847	-0.06938224
154	0x3c9ce20d	0.019150758
155	0x3dc07e0d	0.09399042
156	0x3c0f9de7	0.008765674
157	0xbdb48c27	-0.088157944
158	0x3d68db35	0.056849677
159	0x3d4137f0	0.047172487
160	0x3c6dd312	0.014515655
161	0xbe185c84	-0.14879042
162	0xbd63a6f8	-0.055579156
163	0x3be65552	0.007029214
164	0xbd473a5d	-0.048639644
165	0x3d832d29	0.06405098
166	0xbd7ae02a	-0.061248936
167	0x3ce2dbbf	0.027692674
168	0x3d61bd48	0.055112153
169	0x3c65d9a1	0.014028938
170	0x3dbaefd5	0.091277756
171	0x3dab4acc	0.08363876
172	0x3d56133c	0.052264437
173	0x3dc7091a	0.09718533
174	0xbd87cda4	-0.0663102
175	0xbe070ed1	-0.13189246
176	0x3d8bc7af	0.06825196
177	0x3cd9119b	0.026497653
178	0x3d98ff60	0.07470584
179	0xbd00cfda	-0.031448223
180	0xbd0f59dc	-0.034997806
181	0x3ceb8d65	0.028753946
182	0xbb98236a	-0.0046428936
183	0xbdd15415	-0.102211155
184	0x3dc6f0d5	0.09713904
185	0xbd43d4b4	-0.04781027
186	0x3c1a01a9	0.00939981
187	0xbcca2c3d	-0.024679298
188	0x3b661087	0.0035105066
189	0xbcd894cc	-0.02643814
190	0xbe1f252f	-0.15541528
191	0xbb62e8f3	-0.0034623712
192	0x3dfabcb6	0.12243025
193	0xbd9ed97c	-0.077563256
194	0x3c6be5a2	0.01439801
195	0xbdddf97b	-0.108386
196	0xbe43053e	-0.19044968
197	0x3ac8eaac	0.0015328727
198	0x3c19ff87	0.009399301
199	0xbc3da497	-0.011574886
200	0x3e8960f9	0.26831797
201	0x3dca75fe	0.098857865
202	0xbce4b1de	-0.027916845
203	0x3e15f9ee	0.14646122
204	0xbd099a39	-0.033594344
205	0x3e22a496	0.15883097
206	0xbd2d4208	-0.0422993
207	0xbe27efb7	-0.16400038
208	0x3cb5392a	0.022121985
209	0xbe3d225f	-0.18470143
210	0xbdc37a28	-0.09544784
211	0xbd2c92ec	-0.042132303
212	0x3d55e497	0.052219953
213	0x3c236244	0.009972159
214	0xbd817117	-0.06320398
215	0xbd06e179	-0.03292987
216	0x3da77cd9	0.0817811
217	0xbd9a78c2	-0.07542564
218	0x3e2c9fc3	0.1685782
219	0xbdd8e6f5	-0.105909266
220	0xbdfa855b	-0.12232467
221	0xbde7faf8	-0.11327165
222	0x3d8b5646	0.06803565
223	0x3df78e74	0.12087718
224	0xbab3192a	-0.0013664116
225	0x3dc28aa9	0.094991036
226	0x3dc036fc	0.093854874
227	0xbb163f59	-0.0022925942
228	0xbb6e64ad	-0.0036375925
229	0xbd03600e	-0.032074027
230	0xbdbc07ac	-0.09181151
231	0xbbfbe58a	-0.0076872753
232	0xbdaef0ee	-0.085420474
233	0x3e4926d7	0.19643722
234	0x3c886216	0.016648334
235	0x3e1a2cea	0.15056196
236	0xbde4c477	-0.11170285
237	0x3e5351c7	0.20636664
238	0xbcaf8cd5	-0.021429459
239	0xbdd7f5d0	-0.10544932
240	0xbe45ed50	-0.19328809
241	0x3db37e07	0.08764272
242	0xbd22ed45	-0.03977706
243	0xbc08503d	-0.008319912
244	0x3b3a6132	0.002843928
245	0xbd4c0fd8	-0.049819797
246	0xbd5269b9	-0.051370356
247	0xbd93dd35	-0.07219926
248	0x3d53e377	0.0517306
249	0x3dfc764c	0.12327251
250	0x3cf147b7	0.029453142
251	0xbe5d3228	-0.21601164
252	0xbd10d487	-0.035358932
253	0x3d994761	0.074843176
254	0xbd136773	-0.03598733
255	0xbe0d8781	-0.13821222

fc.bias f4 [6]
0	0x3dfda620	0.123852015
1	0x3e37713d	0.1791429
2	0x3e0ce8a3	0.13760619
3	0x3e3099fe	0.17246243
4	0x3e003e20	0.12523699
5	0x3e3da27d	0.18519016
