models/lstm_7f_best.pth (torch, 89335 bytes, 6 tensors)

lstm.weight_ih_l0 f4 [256, 7]
0	0xbd3655a4	-0.044515267
1	0x3e8af3f3	0.27139243
2	0xbce7d38f	-0.028299121
3	0xbe28d94d	-0.16489144
4	0x3b427c6a	0.0029676207
5	0x3cae8042	0.021301392
6	0x3f18bde6	0.5966476
7	0xbea2d2a8	-0.31801343
8	0x3df6bf05	0.12048153
9	0x3d95c82c	0.073135704
10	0xbe17f8c3	-0.14840989
11	0x3e49dc4b	0.19712941
12	0x3d773fa2	0.06036342
13	0x3e1d9a07	0.15390788
14	0x3d8d3546	0.06894927
15	0x3ea726b7	0.32646725
16	0xbe44c3cf	-0.1921532
17	0xbcb048d0	-0.021519095
18	0x3b368224	0.0027848566
19	0x3e0a3735	0.13497622
20	0x3e926d29	0.28598908
21	0x3eac3968	0.33637547
22	0x3f2d09aa	0.6759287
23	0x3e6efb9a	0.23338166
24	0x3e7482c3	0.23878007
25	0xbe038398	-0.12843168
26	0x3e1cc9aa	0.15311304
27	0x3eb5338a	0.35390884
28	0x3e534af5	0.20634063
29	0x3e96ac41	0.29428294
30	0xbe6bf1d5	-0.2304147
31	0xbc5a0bc2	-0.013308467
32	0xbd62a7ee	-0.05533593
33	0x3e0f407c	0.13989443
34	0xbcff8d88	-0.031195417
35	0xbd12ad4c	-0.0358098
36	0x3e241847	0.16024886
37	0xbafba630	-0.0019199308
38	0x3bb50d02	0.0055252323
39	0xbd643abc	-0.055720076
40	0xbd72b31f	-0.059252854
41	0x3ecb704b	0.3973411
42	0xbe060e18	-0.13091314
43	0x3e2f250e	0.17103979
44	0xbd4a9594	-0.049459055
45	0xbe566b04	-0.2093926
46	0x3e1356d5	0.14388593
47	0x3f3af395	0.73027927
48	0x3e6e0229	0.23243012
49	0xbd67e867	-0.05661812
50	0xbe07e35a	-0.13270321
51	0x3e0af815	0.13571198
52	0xbd6771f0	-0.056505144
53	0xbdfa150e	-0.12211047
54	0x3dedd1d2	0.11612286
55	0x3e832711	0.25615743
56	0x3b269538	0.002541853
57	0x3eda7bb2	0.42672497
58	0x3ead8518	0.33890605
59	0xbe4a44d8	-0.19752824
60	0xbd7526c1	-0.05985141
61	0x3de62a55	0.11238543
62	0x3d841ca1	0.06450773
63	0xbc75b02a	-0.014995614
64	0xbced6eb5	-0.028983453
65	0xbe052829	-0.13003601
66	0x3d95e16a	0.07318385
67	0x3e044f65	0.12920912
68	0x3e1020a8	0.14074957
69	0x3ec4ac35	0.38412634
70	0x3d6fe0a4	0.058563843
71	0x3e543445	0.20723064
72	0x3df9ec64	0.12203291
73	0x3dc1ec62	0.094689146
74	0x3d32b130	0.04362601
75	0x3d53fa83	0.05175258
76	0x3e2e6070	0.17028975
77	0x3d9660ce	0.07342683
78	0x3edd5121	0.4322596
79	0x3d06b229	0.03288475
80	0xbe16a321	-0.14710666
81	0xbd170c51	-0.03687698
82	0x3e19eed4	0.15032512
83	0x3b6491b8	0.0034876894
84	0xbe534abc	-0.20633978
85	0x3cb1c875	0.02170203
86	0xbe977ff4	-0.29589808
87	0xbe932842	-0.28741652
88	0x3e369775	0.17831214
89	0x3f819822	1.0124552
90	0x3ebdb1fa	0.37049848
91	0xbe877745	-0.26458183
92	0xbd04eb4f	-0.03245097
93	0xbe8405c0	-0.25785637
94	0xbd95b689	-0.073102064
95	0x3d4100d3	0.047119927
96	0x3ed5d5a5	0.4176456
97	0x3e8a8975	0.27057996
98	0xbe01b0ad	-0.12665053
99	0x3e743c12	0.2385104
100	0x3ea200c4	0.3164121
101	0xbbf30eb0	-0.0074175224
102	0x3e306dfc	0.17229456
103	0x3e38135c	0.17976135
104	0x3ed9aa61	0.425128
105	0xbea23967	-0.3168442
106	0x3e802f15	0.2503592
107	0xbdeb7f44	-0.11498883
108	0xbe63de9d	-0.22252889
109	0x3e0ce485	0.13759048
110	0x3ead8e1c	0.33897483
111	0x3ef54770	0.47906065
112	0x3dfa518b	0.12222584
113	0x3f392521	0.7232228
114	0x3dc11200	0.09427261
115	0x3e00e799	0.12588347
116	0xbd44d3b3	-0.048053455
117	0xbd638c7b	-0.055553894
118	0xbe1e4438	-0.15455711
119	0x3db1ff20	0.08691239
120	0x3ea11b21	0.3146601
121	0x3ee7b754	0.45257056
122	0xbdc8d117	-0.09805506
123	0xbd957b25	-0.072988786
124	0x3e9df9a8	0.30854535
125	0x3e18fecd	0.14940949
126	0xbd9f7d0b	-0.07787522
127	0x3cc6fee2	0.02429146
128	0x3e6d5b3a	0.23179331
129	0xbce9dde0	-0.028548181
130	0xbe04a1bf	-0.12952326
131	0x3d37ef41	0.044905905
132	0xbdd2d022	-0.102936044
133	0xbc727494	-0.014798302
134	0xbe12d275	-0.14338095
135	0x3d2b9c50	0.041897118
136	0xbe07d1cf	-0.1326363
137	0x3d378d03	0.044812214
138	0xbdffa57a	-0.12482734
139	0xbd79e277	-0.06100699
140	0xbe95e49b	-0.29275975
141	0xbd3789c9	-0.044809137
142	0xbdebb019	-0.11508197
143	0xbe2cc7a4	-0.16873032
144	0x3e0908d0	0.13382268
145	0xbcf2f52a	-0.029657919
146	0xbe6c1433	-0.2305458
147	0xbeb3b7db	-0.35101208
148	0x3d00f2de	0.031481616
149	0xbe48dee1	-0.19616272
150	0xbdbb8caa	-0.09157689
151	0x3d965d76	0.07342045
152	0x3f3340e5	0.70020896
153	0x3f0ac4ca	0.54206526
154	0xbee95672	-0.45573765
155	0xbe130c4e	-0.14360163
156	0x3d07d15b	0.03315864
157	0xbe1a770e	-0.15084478
158	0x3e116324	0.14197975
159	0xbd29d4a7	-0.041462567
160	0xba29ed03	-0.0006482156
161	0xbd8e2a6d	-0.06941686
162	0x3f35330d	0.7078102
163	0xbe0855e1	-0.1331401
164	0xbe7d4505	-0.2473336
165	0xbd2a721c	-0.04161273
166	0x3e152467	0.14564668
167	0x3e56b22e	0.20966408
168	0xbf0bd366	-0.54619443
169	0xbde686b2	-0.1125616
170	0x3e4ae44d	0.19813652
171	0xbed70730	-0.4199767
172	0x3e5a2aca	0.21305385
173	0x3db89687	0.09013086
174	0x3d9693e2	0.07352425
175	0x3e05e728	0.1307646
176	0x3ea2f0d8	0.31824374
177	0xbdac8f37	-0.084257536
178	0xbd109214	-0.03529556
179	0xbe1a58fd	-0.15073009
180	0xbd94a4ba	-0.072579816
181	0xbe0fd681	-0.1404667
182	0xbaf5963d	-0.0018736791
183	0x3ea87eaf	0.32909152
184	0xbe3bb0a5	-0.18329103
185	0xbe8a07c4	-0.2695905
186	0x3e010287	0.1259862
187	0xbe1326e9	-0.14370312
188	0x3ea1f048	0.31628633
189	0xbe0c9644	-0.13729197
190	0x3e2538cf	0.16134952
191	0x3b03428b	0.0020028676
192	0x3cd2f462	0.025751296
193	0xbcc70232	-0.024293039
194	0xbdd8ae6b	-0.105801426
195	0xbe5978d4	-0.21237499
196	0x3eabf515	0.3358542
197	0xbe261e67	-0.16222535
198	0xbe3c1adb	-0.1836962
199	0x3df50a19	0.119648166
200	0xbe2b95fe	-0.16756436
201	0x3dbac304	0.091192275
202	0x3ea6abdc	0.32552993
203	0xbee796c6	-0.45232219
204	0x3f28092c	0.65638995
205	0x3d6c6afd	0.05771922
206	0xbeade0ea	-0.33960658
207	0x3d010520	0.03149903
208	0xbc6d1c90	-0.014472142
209	0x3eb4619e	0.35230726
210	0xbe52d083	-0.20587353
211	0xbd1e6f7f	-0.03868055
212	0x3e8a040b	0.2695621
213	0xbcae1c7e	-0.02125382
214	0x3e2f2c9e	0.17106864
215	0x3c768b3b	0.015047844
216	0x3e1283fc	0.1430816
217	0x3d882261	0.06647182
218	0xbc2ff0e2	-0.010738583
219	0x3de4fb80	0.11180782
220	0xbe2ece2e	-0.17070839
221	0xbe087330	-0.1332519
222	0x3ec875e6	0.3915245
223	0x3ea95221	0.33070472
224	0xbe120f7f	-0.14263724
225	0x3efe6125	0.4968349
226	0x3d11f583	0.03563453
227	0x3e17e62c	0.14833897
228	0xbe4a368e	-0.19747373
229	0x3dd4b152	0.10385384
230	0xbe5f2869	-0.21792759
231	0x3e04979a	0.12948456
232	0xbf444c62	-0.7667905
233	0xbc899e20	-0.016799033
234	0xbd544079	-0.0518193
235	0x3c92f4ac	0.017938934
236	0x3ef605aa	0.48051196
237	0x3e8ab664	0.27092278
238	0x3dd641a8	0.10461742
239	0xbefa66fe	-0.48906702
240	0x3e4c86b2	0.19973257
241	0x3ed20d7e	0.4102592
242	0xbd5e798d	-0.05431514
243	0x3e730910	0.23733926
244	0x3f1eb6ac	0.61997485
245	0xbe3c21a3	-0.18372206
246	0xbe1dee36	-0.15422902
247	0xbe15ff2e	-0.14648125
248	0xbde6d099	-0.112702556
249	0x3dfa4610	0.122203946
250	0x3d91ed91	0.0712539
251	0xbe847c87	-0.25876257
252	0xbed294f0	-0.41129255
253	0x3e00f818	0.1259464
254	0x3e975e40	0.29564095
255	0xbe780ef7	-0.24224459

lstm.weight_hh_l0 f4 [256, 64]
0	0xbe69c8d2	-0.22830513
1	0xbe91a6c2	-0.2844754
2	0x3d7cfd57	0.06176504
3	0xbdbef253	-0.093235634
4	0x3e229d83	0.15880398
5	0xbe8e2512	-0.27762657
6	0x3c532faf	0.012889787
7	0xbe959b3c	-0.29219997
8	0x3f78d110	0.97194004
9	0x3dc5f91b	0.09666654
10	0x3f0866cb	0.5328185
11	0x3dc7d3e4	0.09757212
12	0xbf29107d	-0.66040784
13	0xbdf75e17	-0.12078493
14	0x3ddb8480	0.10718632
15	0x3e02c37c	0.12769884
16	0x3d1696af	0.036764797
17	0xbe2b12d0	-0.16706395
18	0xbdc095f7	-0.094036035
19	0xbe7a939a	-0.24470368
20	0xbe80ec9a	-0.25180513
21	0xbe076480	-0.13221931
22	0xbde3dee7	-0.111264996
23	0xbe3b7fe2	-0.18310502
24	0x3dcb9f23	0.09942462
25	0xbcbea9a0	-0.023274243
26	0x3e379019	0.17926063
27	0xbe93bbba	-0.28854162
28	0x3d8d0d6e	0.06887327
29	0x3e17288d	0.14761563
30	0x3d88a0c8	0.066712916
31	0x3d9326fa	0.071851686
32	0x3e98ee4b	0.29869303
33	0xbcd31706	-0.025767814
34	0x3e0d1e9b	0.13781206
35	0xbeaeea38	-0.3416307
36	0x3ede8382	0.43459707
37	0x3e8b3369	0.2718766
38	0xbe603e9d	-0.21898885
39	0x3e88b7e5	0.267028
40	0xbd1a1119	-0.03761396
41	0xbc1e0eab	-0.009647052
42	0x3d9bd9fa	0.07609935
43	0x3db396f4	0.087690264
44	0xbed15095	-0.40881792
45	0xbeff6159	-0.49878958
46	0x3db0a2a3	0.086247705
47	0x3e34d8fb	0.17660896
48	0x3ca4f000	0.020133972
49	0x3da99297	0.08279913
50	0xbebab288	-0.36464334
51	0x3e66ddbb	0.22545521
52	0xbef67c02	-0.48141485
53	0x3db8fade	0.09032224
54	0x3e21a8ff	0.15787123
55	0x3ea38bc5	0.31942573
56	0x3e4394f5	0.19099791
57	0x3e6fc7dc	0.23416084
58	0xbd4b9947	-0.049706724
59	0x3d2b2596	0.04178389
60	0x3daffc18	0.08593005
61	0xbe48b973	-0.19601993
62	0xbd7e29af	-0.06205147
63	0xbbc965d8	-0.006146174
64	0xbda45fc9	-0.08026082
65	0xbe339771	-0.17538239
66	0xbf0e36aa	-0.5555216
67	0x3d9733fd	0.07382963
68	0x3efb26cf	0.49053046
69	0x3eafd389	0.34341076
70	0x3e15ebc3	0.14640717
71	0x3e83cb9b	0.25741276
72	0x3e62297c	0.22086138
73	0xbe89ffb2	-0.26952893
74	0x3e8aae35	0.27086034
75	0x3db1efdf	0.0868833
76	0xbd0d09b9	-0.0344331
77	0xbe4d8d3c	-0.20073408
78	0xbe9cffb1	-0.30663827
79	0xbecef7bc	-0.4042338
80	0xbdfaf698	-0.12254065
81	0xbdc4ae08	-0.09603506
82	0x3e910296	0.28322285
83	0x3e5b763d	0.21431823
84	0xbe0eca8e	-0.13944456
85	0xbea523f4	-0.32253993
86	0xbe634e62	-0.2219787
87	0x3e55ed77	0.20891367
88	0x3d9aec3a	0.07564588
89	0x3eba42e6	0.36379164
90	0x3dc45f87	0.09588533
91	0xbe872762	-0.26397234
92	0x3e01c857	0.1267408
93	0xbe9e6888	-0.30939126
94	0xbd813d0a	-0.063104704
95	0x3cad6e3f	0.021170733
96	0x3b8b8ecb	0.0042589656
97	0x3d5eee9e	0.05442678
98	0x3ecaadab	0.39585623
99	0x3eacdf31	0.33764032
100	0x3de6ca1d	0.11269019
101	0xbe60693e	-0.21915147
102	0x3e6e2a3d	0.232583
103	0x3c66d165	0.0140880095
104	0xbdddd521	-0.10831667
105	0x3e0fa2f6	0.14027008
106	0x3cf0110b	0.029305002
107	0x3e7e954e	0.24861643
108	0xbded3791	-0.11582864
109	0xbec60570	-0.38676023
110	0xbd9846c5	-0.07435373
111	0xbe75d2b7	-0.24006163
112	0x3e96188e	0.2931561
113	0xbe63330a	-0.22187439
114	0xbd3a5438	-0.045490474
115	0xbefa9c7d	-0.48947516
116	0xbe18efbd	-0.14935203
117	0xbe862b00	-0.2620468
118	0xbe32576b	-0.1741616
119	0xbd886529	-0.0665992
120	0xbe0921ee	-0.1339185
121	0x3c67ccc6	0.014147943
122	0x3d826f83	0.063689254
123	0x3ef32753	0.4749094
124	0xbdb0fd3c	-0.086420506
125	0xbea6ae17	-0.32554695
126	0x3dd45959	0.10368604
127	0xbe3a6b04	-0.18204886
128	0xbe762cf6	-0.24040589
129	0xbde279d9	-0.11058397
130	0x3e4baf34	0.19891053
131	0xbee4add1	-0.4466386
132	0xbdaede5b	-0.08538505
133	0xbded2c5b	-0.11580726
134	0xbd8611b5	-0.06546346
135	0x3e93966c	0.288257
136	0xbe06581e	-0.13119552
137	0x3db3cada	0.08778925
138	0x3ed0353f	0.40665624
139	0x3d8e64da	0.0695283
140	0xbc07285e	-0.00824937
141	0xbdd96049	-0.10614068
142	0xbe3d8003	-0.18505864
143	0x3e2b89be	0.16751763
144	0xbd050270	-0.032473028
145	0xbea84149	-0.3286231
146	0x3e30fe06	0.17284402
147	0x3bc70b68	0.006074358
148	0xbbc1894e	-0.0059062606
149	0xbdcb8755	-0.09937922
150	0x3ce7dac3	0.028302556
151	0xbe1407fb	-0.1445617
152	0xbe2a6685	-0.1664067
153	0xbe0a1485	-0.1348439
154	0x3e2c6b5f	0.16837834
155	0xbe155d18	-0.14586294
156	0xbe33bca8	-0.17552435
157	0xbd83583c	-0.06413314
158	0xbbabb129	-0.005239625
159	0x3ee77fab	0.4521459
160	0x3bf4f17d	0.0074750767
161	0x3cd4dde8	0.02598472
162	0x3eb3af52	0.35094696
163	0x3e46a098	0.19397199
164	0xbe94bc7f	-0.2905006
165	0x3de95aeb	0.11394294
166	0xbba15c7c	-0.004924355
167	0xbe0e3b50	-0.13889813
168	0x3d8a6f93	0.06759562
169	0x3e75d323	0.24006324
170	0x3d219794	0.039451197
171	0xba381a32	-0.00070229464
172	0xbe70087e	-0.2344074
173	0xbe0dfba9	-0.13865532
174	0xbdc24a32	-0.09486808
175	0xbda2a712	-0.079420224
176	0xbe4a669c	-0.19765705
177	0x3e3a1dde	0.18175456
178	0xbce5dedc	-0.02806037
179	0x3e328dd0	0.1743691
180	0xbed6e41f	-0.41970918
181	0xbe5208ed	-0.20511217
182	0x3ea29aa3	0.31758603
183	0x3eb4da8e	0.35322994
184	0x3d782a5a	0.060587265
185	0x3cd1fde1	0.025633754
186	0x3ee8ed8b	0.4549373
187	0xbddec59f	-0.10877537
188	0x3ca1b1ba	0.019738067
189	0x3d8b94a4	0.0681546
190	0x3e9104b6	0.28323907
191	0xbe8bf54b	-0.2733558
192	0xbf484c43	-0.78241366
193	0x3e550344	0.20802027
194	0x3f0ac80b	0.5421149
195	0x3f09ad01	0.5377961
196	0xbcca9966	-0.02473135
197	0xbe5c2c1f	-0.21501206
198	0x3dcfbb40	0.10143137
199	0x3edacfd4	0.42736685
200	0xbecbaca6	-0.39780158
201	0x3e96831f	0.29396912
202	0x3eaf9532	0.34293514
203	0xbec223a4	-0.37917817
204	0xbe5a900a	-0.21344009
205	0xbeb0c8d6	-0.34528226
206	0xbed1e99b	-0.4099854
207	0x3e0fff2b	0.14062183
208	0xbf601cf6	-0.8754419
209	0x3e69964e	0.22811243
210	0xbb471d7f	-0.0030382571
211	0xbbcd2bfb	-0.0062613464
212	0x3d660eae	0.056166343
213	0xbe915469	-0.28384712
214	0x3e660793	0.22463827
215	0xbf00fa96	-0.50382364
216	0x3d04ebc5	0.03245141
217	0xbe89fba7	-0.26949808
218	0xbcbccad9	-0.023045944
219	0x3e07ab79	0.13249005
220	0xbd8813c9	-0.06644399
221	0x3ee08848	0.43853974
222	0xbc55913e	-0.013035117
223	0x3efb6d84	0.4910699
224	0x3ca55591	0.020182403
225	0x3e66fade	0.22556636
226	0x3f3f6453	0.7476246
227	0xbdefb72c	-0.11704859
228	0xbece419a	-0.40284425
229	0xbdf1818d	-0.11792288
230	0xbeba92d5	-0.3644015
231	0x3d83a649	0.06428201
232	0x3ea6634c	0.32497633
233	0x3e752e64	0.23943478
234	0x3e4d9bc3	0.2007895
235	0x3dbf5eb7	0.09344237
236	0xbe9fc6e9	-0.31206444
237	0x3e828420	0.25491428
238	0x3d0d2b70	0.034465253
239	0xbe452992	-0.19254139
240	0xbec3dd04	-0.3825456
241	0x3e8eebaa	0.27914172
242	0x3ead17b5	0.3380715
243	0x3e3ce4c4	0.18446642
244	0xbf5c341d	-0.8601702
245	0xbf2e5ec9	-0.6811338
246	0x3ea24a69	0.31697395
247	0x3ede46bd	0.43413344
248	0xbedd9194	-0.4327513
249	0xbdedd3ba	-0.11612649
250	0x3f40dd37	0.7533755
251	0xbdddc683	-0.10828879
252	0x3f0e76c9	0.5565
253	0xbdf997de	-0.121871695
254	0x3ef898f6	0.485542
255	0xbd91a8bb	-0.07112261

lstm.bias_ih_l0 f4 [256]
0	0xbeae2b63	-0.34017476
1	0xbe51b472	-0.2047899
2	0xbd88aa30	-0.06673086
3	0x3e158bf8	0.14604175
4	0x3d47c5f1	0.048772756
5	0xbd59c6ed	-0.053168226
6	0xbdad2f1d	-0.08456252
7	0xbe571ade	-0.21006343
8	0xbe198ac4	-0.14994341
9	0x3de7b802	0.113143936
10	0x3ceaa1eb	0.028641662
11	0x3e003334	0.12519532
12	0xbe76ea35	-0.2411278
13	0xbe42fb3f	-0.19041155
14	0xbd57e186	-0.05270531
15	0xbd933e33	-0.07189598
16	0xbe3d3cb9	-0.18480195
17	0xbe17b408	-0.1481477
18	0xbe48719a	-0.19574586
19	0xbda29206	-0.07938008
20	0xbe344caa	-0.1760737
21	0xbe8116be	-0.25212663
22	0xbdbfec9e	-0.09371303
23	0xbdeed7af	-0.11662232
24	0xbe68b84a	-0.2272655
25	0xbe1c2626	-0.15248927
26	0xbe1a9bd4	-0.15098506
27	0xbd888f4b	-0.06667956
28	0xbd4bd058	-0.04975924
29	0xbea36701	-0.31914523
30	0xbecb94c8	-0.3976195
31	0xbe10d8bd	-0.14145179
32	0xbe0c745e	-0.13716266
33	0xbe419077	-0.18902765
34	0x3d4cae8f	0.04997116
35	0x3d8b2878	0.06794828
36	0xbe68de5a	-0.2274107
37	0xbe976219	-0.2956703
38	0xbe890277	-0.26759693
39	0xbe807af8	-0.25093818
40	0xbe7aee3f	-0.24504946
41	0xbe999a86	-0.30000705
42	0xbe326168	-0.1741997
43	0xbeba2122	-0.36353403
44	0xbd62f4a6	-0.055409096
45	0xbe3fe0f4	-0.18738157
46	0x3d9c2910	0.076250196
47	0xbe2ed7d8	-0.17074525
48	0x3c1bdefa	0.009513611
49	0xbd97df81	-0.07415677
50	0xbe182c15	-0.14860566
51	0xbe114262	-0.1418548
52	0xbd9a9414	-0.07547775
53	0xbde76caa	-0.11300023
54	0xbe25f437	-0.16206442
55	0xbddf12f6	-0.108922884
56	0xbdb27f55	-0.08715693
57	0x3d695658	0.05696711
58	0xbe1d1512	-0.15340069
59	0xbe81786a	-0.2528718
60	0xbd118244	-0.03552462
61	0xbdf1c452	-0.11805023
62	0xbe8441f1	-0.2583156
63	0xbdde7848	-0.108627856
64	0xbe4ea48a	-0.20179954
65	0x3c6ee1c9	0.014580199
66	0x3c03d094	0.008045334
67	0xbea70171	-0.32618287
68	0xbdc14ea7	-0.0943883
69	0xbdd1ea3e	-0.10249756
70	0xbe8ab6a2	-0.27092463
71	0xbca3362a	-0.019923288
72	0xbe8b0d71	-0.27158692
73	0x3e823694	0.25432265
74	0xbe09dd19	-0.13463248
75	0xbd661999	-0.056176756
76	0xbd6b0e68	-0.057386786
77	0xbeaaefa4	-0.33385956
78	0xbc60b9e0	-0.013716191
79	0xb9079e09	-0.00012933476
80	0xbe4ddd56	-0.20103964
81	0xbe67371f	-0.22579621
82	0xbc559d4e	-0.013037993
83	0x3dc8ec30	0.09810674
84	0xbe3d65ba	-0.18495837
85	0xbdc29ea7	-0.09502917
86	0xbe30c650	-0.1726315
87	0xbe623906	-0.22092065
88	0xbe095ca3	-0.13414244
89	0xbaf57a2b	-0.0018728425
90	0xbd53b12e	-0.051682644
91	0x3ed721ea	0.42018062
92	0xbd7f7431	-0.062366668
93	0xbe195dba	-0.1497716
94	0x3d3ca8c5	0.04605939
95	0xbe4d6f49	-0.20061983
96	0xbe8e28b0	-0.27765417
97	0x3d2936c7	0.041312005
98	0xbcce2f44	-0.025169022
99	0xbe81dbdb	-0.2536305
100	0x3c820134	0.015869714
101	0xbd89a7c5	-0.067214526
102	0x3d75ec3c	0.060039744
103	0xbd90c772	-0.07069291
104	0xbe2f2d52	-0.17107132
105	0xbe566d17	-0.20940052
106	0x3d5f3665	0.054495234
107	0x3cce08f8	0.025150761
108	0xbdaf1318	-0.08548564
109	0xbd3574d0	-0.044300854
110	0xbe79aea0	-0.2438302
111	0xbe4e8ec3	-0.20171647
112	0xbc749751	-0.014928655
113	0xbcab3d5c	-0.020903282
114	0xbdb692c9	-0.08914716
115	0x3b0f1965	0.0021835205
116	0xbe21e26e	-0.15809032
117	0xbe22d298	-0.15900648
118	0x3d9c909d	0.0764477
119	0xbd5c95a6	-0.053853653
120	0xbc9b3fd4	-0.018951334
121	0xbc9f9b34	-0.019483186
122	0xbd13e587	-0.036107566
123	0xb987b548	-0.00025884272
124	0x3d832db5	0.06405202
125	0xbe3c3e82	-0.1838322
126	0xbdb5e65b	-0.088818274
127	0xbcadab18	-0.021199748
128	0x3d8c3264	0.06845549
129	0xbc9a66fe	-0.018847939
130	0x3dddc9e6	0.10829525
131	0xbd1fa031	-0.03897113
132	0xba7a6d5a	-0.0009553038
133	0x3c531670	0.0128837675
134	0xbce147c7	-0.027500046
135	0x3d9ed58e	0.07755576
136	0xbd813cff	-0.06310462
137	0x3b812a01	0.003941775
138	0xbdce6772	-0.100783244
139	0xbdfd476c	-0.12367138
140	0xbd3a702d	-0.045517135
141	0x3c235ee8	0.009971358
142	0x3d23caff	0.039988514
143	0xbd2a6346	-0.04159858
144	0xbcdc51c1	-0.026894452
145	0x3c9a10d9	0.018806862
146	0xbe0a083a	-0.134797
147	0x3d58a91c	0.05289565
148	0xbc1ca409	-0.009560593
149	0xbde75a86	-0.11296563
150	0x3db7f1f3	0.08981695
151	0xbd89fbbd	-0.067374684
152	0x3d8bb3f9	0.068214364
153	0x3d286e11	0.041120593
154	0xbd277432	-0.040882297
155	0xbb08c116	-0.0020867041
156	0x3d206556	0.03915914
157	0x3c8ddf3a	0.017318357
158	0xbcf90b8c	-0.030401014
159	0x3c533ede	0.012893407
160	0xbd5fb258	-0.05461344
161	0x3aed864e	0.0018121691
162	0x3c95f1d8	0.018303797
163	0xbd9b9588	-0.0759688
164	0xbd40ba4f	-0.047052678
165	0x3d1e5b66	0.038661383
166	0xbe151e2e	-0.14562294
167	0xbdcebe01	-0.10094834
168	0xbd7c297e	-0.061563008
169	0xbcad0f07	-0.02112533
170	0x3e140449	0.1445476
171	0xbd6487b5	-0.055793483
172	0x3dd7725b	0.105198584
173	0x3d96ecbf	0.073693745
174	0x3c9ed343	0.019387847
175	0xbd791ea0	-0.060820222
176	0xb83cb0a9	-4.498722e-05
177	0xbc75cfe0	-0.015003175
178	0x3c25aa1f	0.010111361
179	0x3dcc0a03	0.09962847
180	0xbdffb1e9	-0.124851055
181	0xbd879f07	-0.06622129
182	0xbd9000f5	-0.070314325
183	0xbcb706b8	-0.022342071
184	0xbd396361	-0.04526079
185	0xbe0076ec	-0.12545365
186	0xbcbf8335	-0.023377994
187	0xbd00c903	-0.0314417
188	0x3cf3ec5c	0.02977579
189	0x3b644a88	0.0034834463
190	0x3d9af344	0.075659305
191	0xbd17c74b	-0.037055295
192	0xbe320eab	-0.17388408
193	0xbe03cc90	-0.12871003
194	0xbd9f0bb1	-0.07765902
195	0x3d7fee52	0.06248314
196	0xbe08b612	-0.13350704
197	0xbd01f7ac	-0.03173034
198	0xbe0d541e	-0.1380162
199	0xbdbbdb35	-0.0917267
200	0xbd4be26c	-0.04977648
201	0xbe374505	-0.17897423
202	0xbe0cb670	-0.1374147
203	0xbd3c6aa3	-0.046000134
204	0xbdbe1cc9	-0.09282834
205	0xbd606851	-0.054786984
206	0xbe921d8a	-0.28538162
207	0xbe78c9ed	-0.24295779
208	0xbe8dd774	-0.2770344
209	0xbd077e7c	-0.03307961
210	0xbe0c719e	-0.13715217
211	0xbdce8abf	-0.100850575
212	0xbea3ef25	-0.3201839
213	0xbdb5d6f7	-0.08878892
214	0xbe218082	-0.15771678
215	0xbe4ee99e	-0.20206305
216	0xbeb52fdc	-0.35388076
217	0xbdcd7f25	-0.100340165
218	0xbde7710a	-0.11300857
219	0xbe646817	-0.22305332
220	0xbda146a2	-0.078748
221	0xbe6ed7d3	-0.23324518
222	0xbe7fe84e	-0.24990961
223	0xbe099e3f	-0.13439272
224	0xbe69f087	-0.2284566
225	0xbe30de52	-0.17272308
226	0xbe83d8f5	-0.25751463
227	0xbdd450a2	-0.10366942
228	0xbe341990	-0.17587876
229	0xbea8f802	-0.33001715
230	0xbe649a9d	-0.22324605
231	0xbda08712	-0.078382626
232	0xbe474238	-0.19458854
233	0xbe579751	-0.21053816
234	0xbdbdb98f	-0.09263908
235	0xbe8b57ca	-0.27215415
236	0xbd8847c0	-0.0665431
237	0xbe496a47	-0.19669448
238	0xbdc75de5	-0.09734706
239	0xbea58d39	-0.32334307
240	0x3c8092ab	0.015694937
241	0xbd1d66d0	-0.038428128
242	0xbc74fbf5	-0.014952649
243	0xbd2505a1	-0.04028857
244	0xbe543645	-0.20723827
245	0xbe11c08d	-0.14233609
246	0xbe5dbf93	-0.21655111
247	0xbe002063	-0.12512355
248	0xbe567029	-0.20941223
249	0xbe3e2ccb	-0.18571775
250	0xbe4652ea	-0.19367567
251	0xbe7436cb	-0.23849027
252	0xbda2c50f	-0.07947742
253	0x3d0b3cfd	0.03399371
254	0xbdafd39f	-0.085852854
255	0xbe1235eb	-0.1427838

lstm.bias_hh_l0 f4 [256]
0	0xbe8fa729	-0.2805722
1	0xbe4bd3fd	-0.19905086
2	0x3d8b6d08	0.068079054
3	0x3deee927	0.11665564
4	0xbdc634a7	-0.096780114
5	0xbe3203e6	-0.173843
6	0xbe4f6185	-0.20252044
7	0xbe99f2ed	-0.3006815
8	0xbd146808	-0.036232024
9	0x3d112365	0.035434145
10	0x3da2437b	0.07923027
11	0xbc655544	-0.01399738
12	0xbcd57cb1	-0.026060434
13	0xbda841b8	-0.0821566
14	0xbe6862c6	-0.22693929
15	0xbe276772	-0.16348055
16	0xbdfca5a7	-0.12336283
17	0xbc48c4ec	-0.012253981
18	0xbe91728f	-0.28407714
19	0x3d318ff6	0.043350182
20	0xbddf0e2a	-0.108913735
21	0xbe92220d	-0.28541604
22	0xbe504fe5	-0.20342977
23	0xbe20cdd6	-0.1570352
24	0xbe3fe174	-0.18738347
25	0xbd60e5d0	-0.054906666
26	0xbca0e4a1	-0.019640269
27	0xbd93f4a1	-0.07224394
28	0x3e16ee52	0.1473935
29	0xbeb81206	-0.3595125
30	0xbe79edd9	-0.24407138
31	0xbe66a6f4	-0.22524625
32	0xbdf5a7e5	-0.11994914
33	0xbe7bbf85	-0.24584778
34	0xbe25ba7a	-0.16184416
35	0xbc70c97e	-0.014696477
36	0xbdccda29	-0.10002548
37	0xbeb16a8c	-0.346516
38	0xbe3dc7d0	-0.18533254
39	0xbd78df2f	-0.06075972
40	0xbd7f3b6c	-0.06231253
41	0xbe476d86	-0.19475374
42	0xbe26ce8d	-0.1628973
43	0xbeb9c076	-0.3627965
44	0xbe44882c	-0.1919257
45	0xbeafe334	-0.3435303
46	0x3d75b4c0	0.05998683
47	0xbe7e769c	-0.24849933
48	0xbd09fe14	-0.033689573
49	0xbd9145db	-0.07093402
50	0xbd5e488f	-0.054268416
51	0xbe208dbb	-0.15679066
52	0xbc122f97	-0.008922479
53	0xbe808039	-0.25097826
54	0xbe84d109	-0.2594073
55	0xbe765d6b	-0.24059074
56	0xbcb999ea	-0.0226564
57	0xbdcbf353	-0.0995852
58	0xbdcd0b6d	-0.10011945
59	0xbe5de695	-0.21669991
60	0xbc28bac1	-0.010298432
61	0x3d38baf7	0.04510018
62	0xbdd7f2e4	-0.105443746
63	0xbdca6b62	-0.09883763
64	0xbde59a1a	-0.11211033
65	0x3d7a9f4b	0.06118707
66	0xbccdeeca	-0.025138278
67	0xbe9aa2ff	-0.3020248
68	0xbe6b0183	-0.22949795
69	0x3bab6023	0.0052299662
70	0xbe939e01	-0.28831485
71	0xba47a0f0	-0.0007615229
72	0xbe39034c	-0.18067664
73	0x3e30c1f9	0.17261495
74	0x3d23cc34	0.039989665
75	0xbe0dbb65	-0.13841017
76	0xbe04fd6a	-0.12987295
77	0xbea9fba3	-0.33199796
78	0xbe3c9d24	-0.1841932
79	0xbe499c2c	-0.19688481
80	0xbe1c5b85	-0.15269287
81	0xbe37927e	-0.17926976
82	0x3cca0adc	0.024663381
83	0x3cb54753	0.022128737
84	0xbdb26e9c	-0.08712503
85	0x3c93bd59	0.018034624
86	0xbe94d3c3	-0.2906781
87	0xbe317f5c	-0.1733374
88	0xbdfa85a3	-0.122325204
89	0xbd6af6a0	-0.057364106
90	0xbdd31e85	-0.103085555
91	0x3eed4ba5	0.46346775
92	0xbd3a8641	-0.04553819
93	0xbe0f756e	-0.1400964
94	0xbdadbc12	-0.08483137
95	0xbc8ff45d	-0.017572576
96	0xbe1410d0	-0.14459538
97	0xbda87a41	-0.08226443
98	0xbd45ff22	-0.048339017
99	0xbe219d56	-0.15782675
100	0x3d17d45b	0.037067752
101	0xbceae484	-0.028673418
102	0xbc230562	-0.009950014
103	0xbc219b08	-0.0098636225
104	0xbe9c3070	-0.30505705
105	0xbe803c61	-0.25046065
106	0xbc96039a	-0.018312264
107	0x3d60ea24	0.054910794
108	0xbe91a5d4	-0.2844683
109	0x3caa4b30	0.020787805
110	0xbe1fe08c	-0.15613002
111	0xbe18339c	-0.14863437
112	0xbe098eb3	-0.13433342
113	0xbe4424f1	-0.19154717
114	0xbe56a668	-0.20961916
115	0x3d9b8be3	0.07595041
116	0xbd40fc3d	-0.047115553
117	0xbe4cdd83	-0.20006375
118	0x3d8940f3	0.06701841
119	0xbe265997	-0.16245113
120	0xbb3a1bea	-0.0028397986
121	0xbd0c8b84	-0.03431274
122	0xbe1215f9	-0.14266194
123	0xbcceea87	-0.025258316
124	0x3da58983	0.08082869
125	0xbe023e55	-0.1271909
126	0xbd2999fa	-0.04140661
127	0x3bb19a9e	0.005420043
128	0xbd869850	-0.0657202
129	0x3e24147a	0.16023436
130	0x3c7be663	0.015374753
131	0x3dcc7f51	0.09985221
132	0xbd6747f1	-0.056465093
133	0x3d2236a4	0.03960289
134	0xbd44a3aa	-0.048007645
135	0x3d3d18eb	0.04616634
136	0x3d34e258	0.04416117
137	0x3d353af4	0.044245675
138	0xbdeeeff4	-0.11666861
139	0x3de39360	0.11112094
140	0x3d88d27b	0.06680771
141	0xbe08ab70	-0.13346648
142	0xbc0e18ef	-0.008672937
143	0xbc7b23ff	-0.015328406
144	0xbd83e0ab	-0.064393364
145	0x3d27c92b	0.040963333
146	0xbb8145cf	-0.0039450894
147	0x3d28c5a1	0.0412041
148	0x3dfbe803	0.12300112
149	0x3dc9a0e2	0.09845139
150	0x3bd513c9	0.0065026027
151	0xbc5107ec	-0.012758236
152	0xbdf8f985	-0.12156967
153	0x3d37d888	0.044884235
154	0x3c58b176	0.013225904
155	0x3e20d6dc	0.15706962
156	0xbc250da1	-0.01007405
157	0x3def4d2c	0.11684641
158	0xbd9c43b9	-0.076301046
159	0x3e0d2d53	0.13786821
160	0xbb4b8b43	-0.0031058348
161	0xbc83a639	-0.016070472
162	0x3d5790c1	0.052628282
163	0x3d609849	0.05483273
164	0xbd0fb62e	-0.03508585
165	0xbd75c7d6	-0.06000503
166	0xbca9f780	-0.0207479
167	0x3d33ac9a	0.043865778
168	0xbd47e5ef	-0.048803266
169	0xbdf45df5	-0.119319834
170	0xbdc25e69	-0.094906636
171	0xbd25978b	-0.040427726
172	0xbc8b1121	-0.016975941
173	0x3deb1072	0.11477746
174	0x3dbf65ba	0.09345575
175	0xbd6c83e1	-0.057742957
176	0xbe0e4763	-0.1389442
177	0xbca54f14	-0.020179309
178	0x3d556f74	0.052108243
179	0xbde22626	-0.110424325
180	0x3cdaf1a3	0.02672655
181	0x3d4761f8	0.048677415
182	0xbbb6b822	-0.0055761496
183	0xbc14b0f3	-0.009075391
184	0x3d384a75	0.044992883
185	0x3c05d2e4	0.008167956
186	0xbdf234e0	-0.11826491
187	0xbdd78faf	-0.10525452
188	0xbc617d88	-0.013762839
189	0x3df3e6e8	0.11909276
190	0x3e0e679d	0.13906713
191	0x3dddd74a	0.10832079
192	0xbeb8179c	-0.35955513
193	0xbe4162e7	-0.18885385
194	0xbd1bcb04	-0.038035408
195	0x3d943a19	0.07237644
196	0xbe06c0fb	-0.13159554
197	0xbe220008	-0.15820324
198	0xbe93a661	-0.28837875
199	0xbe404c60	-0.18779135
200	0xbe1cd9ac	-0.1531741
201	0xbe10f612	-0.14156368
202	0xbe3cc184	-0.18433195
203	0x3d2a5839	0.041588042
204	0xbdfa737e	-0.1222906
205	0xbdf28ee1	-0.11843658
206	0xbe84948b	-0.2589458
207	0xbe3fb512	-0.18721417
208	0xbd6644bc	-0.056217894
209	0xbddf9f02	-0.10919
210	0xbdefa2ea	-0.11700995
211	0xbe3ebe94	-0.18627387
212	0xbeabd5e0	-0.3356161
213	0xbe0f6a91	-0.14005496
214	0xbd9d6565	-0.07685355
215	0xbe359c96	-0.17735514
216	0xbe5b33de	-0.21406505
217	0xbde8a573	-0.11359682
218	0xbe3d3933	-0.18478851
219	0xbc8566f2	-0.01628444
220	0xbdd37779	-0.10325522
221	0xbe8686d3	-0.26274738
222	0xbe3cf6b9	-0.18453492
223	0xbe086e27	-0.1332327
224	0xbe5ec3c4	-0.21754366
225	0xbe3daf73	-0.1852396
226	0xbe773e96	-0.24144968
227	0x3c156624	0.0091185905
228	0xbe0f591a	-0.13998833
229	0xbe310a03	-0.17288975
230	0xbe0901ac	-0.13379544
231	0xbe1726a5	-0.14760835
232	0xbe6adb3e	-0.22935197
233	0xbeb71be6	-0.35763472
234	0xbe6ad76a	-0.22933736
235	0xbdeff90d	-0.117174245
236	0xbe5da2db	-0.21644156
237	0xbe4e4f3f	-0.20147417
238	0x3d245c12	0.040126868
239	0xbe2370d1	-0.15961005
240	0xbe08aa9e	-0.13346335
241	0xbe0b784d	-0.1362011
242	0xbc914ac3	-0.017735844
243	0xbe744e61	-0.23858024
244	0xbe3fe5db	-0.18740027
245	0xbe5f6745	-0.21816738
246	0xbe546b39	-0.20744027
247	0xbe35a693	-0.17739324
248	0x3cdd9d34	0.0270525
249	0xbdc8b0e1	-0.09799362
250	0xbdcaed69	-0.09908564
251	0xbe2cc43c	-0.16871732
252	0x3d9c078b	0.07618626
253	0xbc84fa70	-0.0162327
254	0xbe4485d1	-0.19191672
255	0xbe3cbcac	-0.18431348

fc.weight f4 [48, 64]
0	0x3c7fcd52	0.015612917
1	0xbd709a8c	-0.058741137
2	0x3d01671f	0.031592485
3	0x3cdbe4da	0.026842523
4	0xbd7d86f4	-0.06189628
5	0x3cfb3545	0.03066505
6	0x3e2d7bae	0.16941711
7	0xbe25b075	-0.16180594
8	0x3d41301a	0.047165014
9	0xbc062180	-0.008186698
10	0x3a2708df	0.00063718663
11	0xbd2edde5	-0.042692084
12	0x3e814058	0.25244403
13	0x3e510432	0.20411757
14	0x3d4806c2	0.04883457
15	0xbe040e33	-0.12896042
16	0xbbd3013b	-0.0064393557
17	0xb9c82d5f	-0.00038180777
18	0x3d63c07c	0.05560349
19	0x3d40b9ca	0.047052182
20	0x3dcd2b62	0.1001804
21	0x3eb54bb8	0.3540933
22	0xbb8e60c1	-0.00434503
23	0x3dd6a8bc	0.10481402
24	0xbd0e8750	-0.034797013
25	0xbd43a3e9	-0.04776374
26	0x3c0e38ad	0.008680505
27	0xbd0c071e	-0.034186475
28	0x3d29a021	0.041412476
29	0xbc9de81e	-0.019275721
30	0x3d2ca5e1	0.042150382
31	0xbd70edd4	-0.05882056
32	0x3e00b683	0.12569623
33	0xbd8b0418	-0.0678789
34	0xbd3b8a14	-0.04578598
35	0x3d106695	0.03525408
36	0xbca2d2df	-0.019875942
37	0x3dade06b	0.0849007
38	0xbd8a9af9	-0.0676784
39	0x3e6a2670	0.22866225
40	0xbdc3dfa7	-0.09564143
41	0x3d757e36	0.059934817
42	0x3da8f015	0.08248917
43	0x3cb4a83c	0.022052877
44	0x3db97d90	0.09057152
45	0xbd75e2df	-0.060030814
46	0xbdb606e3	-0.08888032
47	0xbc5ea5cd	-0.013589335
48	0x3eb2928a	0.34877425
49	0xbd32c533	-0.043645095
50	0xbe08186d	-0.13290568
51	0xbd05dbda	-0.03268037
52	0x3e2ad775	0.16683753
53	0xbe47353f	-0.19453906
54	0xbd309b38	-0.043116778
55	0xbd5650ec	-0.052323267
56	0xbe268df5	-0.1626509
57	0x3c2816da	0.0102593545
58	0x3dc10e45	0.0942655
59	0x3cdd1524	0.02698762
60	0x3c56aa28	0.013102092
61	0x3d2c130d	0.042010356
62	0xbe1fbf63	-0.15600352
63	0xbd773ed5	-0.060362656
64	0x3dedcbff	0.11611175
65	0xbc870f96	-0.016486924
66	0x3e5f4908	0.21805203
67	0xbe060fb1	-0.13091923
68	0xbecc0aeb	-0.3985208
69	0xbc1e553b	-0.009663875
70	0x3d27a678	0.04093024
71	0xbe3258a7	-0.1741663
72	0xbda05c1b	-0.07830068
73	0xbd4291dd	-0.047502387
74	0x3e4d7fb7	0.2006825
75	0xbb8f7643	-0.0043781116
76	0x3de123b2	0.109931365
77	0x3e9726a7	0.29521677
78	0x3d02b305	0.031909008
79	0xbd863e75	-0.065548815
80	0xbdaa6282	-0.0831957
81	0xba9ad766	-0.0011813461
82	0x3ccf2579	0.025286423
83	0x3ca26e5c	0.019828014
84	0xbdfec2c7	-0.124394946
85	0xbc28d66f	-0.010305031
86	0x3db5b94d	0.08873234
87	0x3db4a15f	0.088198416
88	0x3c99aca3	0.018759077
89	0xbd9df42f	-0.0771259
90	0xbe246585	-0.16054352
91	0xbdd329b7	-0.10310691
92	0xbd983d87	-0.074336104
93	0x3d2f9e0f	0.042875346
94	0x3de64247	0.1124311
95	0xbd9a2aff	-0.07527732
96	0xbcac5e5e	-0.021041092
97	0xbdd55708	-0.104169905
98	0xbd249502	-0.040181167
99	0x3e0b57c0	0.13607693
100	0xbc4d0923	-0.012514385
101	0x3e25c5cd	0.16188736
102	0xbc00f4ff	-0.007870912
103	0x3da36f4d	0.07980213
104	0x3d32db30	0.043666065
105	0x3d1627f0	0.03665918
106	0xbda5d84f	-0.08097898
107	0xbd9f4cac	-0.07778296
108	0x3e8d715f	0.27625558
109	0xbd89d96d	-0.06730924
110	0x3e1742a6	0.14771518
111	0x3eba7d17	0.3642356
112	0x3e0f4a89	0.13993277
113	0xbe25f3c3	-0.16206269
114	0xbd48a811	-0.048988406
115	0x3d3ba68a	0.04581312
116	0x3b1dace8	0.002405936
117	0x3d4feaeb	0.050761145
118	0xbc0d5568	-0.0086263195
119	0xbe8aed84	-0.27134335
120	0xbd9589e0	-0.07301688
121	0x3d56c9e1	0.05243862
122	0x3eb778bb	0.35834298
123	0x3ce620f5	0.028091887
124	0xbd098277	-0.033571687
125	0xbef8def3	-0.48607597
126	0xbe523cbd	-0.20530982
127	0x3e2883d3	0.16456537
128	0x3d4082dc	0.046999797
129	0xbd4980b6	-0.049195014
130	0x3dbe181a	0.09281941
131	0x3d789633	0.060690116
132	0xbd3da6ab	-0.046301525
133	0xbb547538	-0.00324185
134	0x3df899ff	0.121387474
135	0xbd07a63d	-0.03311752
136	0x3d27e0f4	0.040986016
137	0xbc8d5c3d	-0.017255897
138	0xbc9bf532	-0.019037817
139	0xbd03f8ba	-0.032219626
140	0x3eb4e9ca	0.35334617
141	0x3cab70ee	0.020927873
142	0x3dfa5b2b	0.1222442
143	0xbe0fa810	-0.14028955
144	0xbcafa299	-0.021439837
145	0xbb305200	-0.0026904345
146	0xbc06d367	-0.008229113
147	0x3db0baf3	0.08629408
148	0x3d935c16	0.071952984
149	0x3e80a4c1	0.25125697
150	0xbdb5ee1c	-0.088833064
151	0x3e721e62	0.23644403
152	0xbd407fc5	-0.04699685
153	0xbcce8160	-0.025208175
154	0x3d1fafaa	0.038985886
155	0xbd964cf9	-0.073389
156	0x3d9511e2	0.072788015
157	0x3d708b04	0.058726326
158	0x3d451b38	0.04812166
159	0xbdf1ea92	-0.11812319
160	0x3dbe7c0e	0.09301005
161	0xbd1f666d	-0.03891604
162	0xbd6c095d	-0.057626117
163	0x3d985405	0.074379005
164	0xbd889bfc	-0.06670377
165	0x3d8a7fde	0.0676267
166	0xbd308c0f	-0.04310232
167	0x3e4f52e4	0.20246464
168	0xbddb74a9	-0.107156105
169	0x3db98313	0.090582035
170	0xbd06f3ae	-0.032947235
171	0x3e184ea9	0.14873756
172	0x3d90da65	0.070729055
173	0x3b2ab2ca	0.0026046508
174	0xbd9179d7	-0.07103317
175	0xbc211661	-0.009831996
176	0x3e916430	0.2839675
177	0xbd3ea596	-0.046544634
178	0xbde2b5cf	-0.110698335
179	0x3c582e17	0.013194582
180	0x3dfb601e	0.12274192
181	0xbe56bf09	-0.20971312
182	0xbda59f72	-0.080870524
183	0xbcb90ac6	-0.022588145
184	0xbdeda6ae	-0.11604057
185	0x3c938351	0.018006952
186	0x3e168416	0.14698824
187	0x3d94adef	0.07259738
188	0xbb247c8c	-0.002509865
189	0x3d7d0fb2	0.061782546
190	0xbe399eae	-0.18126938
191	0xbd8be829	-0.068313904
192	0x3d96f769	0.073714085
193	0xbcf7db70	-0.030256003
194	0x3e3ffd6e	0.1874902
195	0x3e26a6e3	0.162746
196	0xbdb3de91	-0.087826855
197	0xbda0d437	-0.07852977
198	0x3e3d9699	0.1851448
199	0xbe676bd2	-0.22599724
200	0xbdb994fc	-0.0906162
201	0xbd9e9611	-0.07743467
202	0x3e1dcbc4	0.15409762
203	0x3ec6c8da	0.38825113
204	0x3e71dfef	0.2362058
205	0xbd9117c6	-0.070846125
206	0x3c41fc4f	0.01183994
207	0x3d490676	0.049078427
208	0xbdd69547	-0.10477691
209	0x3d2420a5	0.040070195
210	0x3d478f1f	0.048720475
211	0x3dde89a0	0.10866094
212	0x3d52a990	0.05143124
213	0x3d816ab5	0.06319181
214	0x3c975d56	0.018477123
215	0x3d84c325	0.06482533
216	0xbc10517b	-0.008808489
217	0xbdbf35f6	-0.09336464
218	0xbd4e7bfe	-0.050411217
219	0xbda19ad7	-0.078908615
220	0xbc4d6e69	-0.012538531
221	0x3e22ac0e	0.15885946
222	0x3d40f3ac	0.047107384
223	0xbe684bfa	-0.22685233
224	0xbdbd7b43	-0.09252026
225	0xbe0f3097	-0.1398338
226	0xbe0dc9da	-0.13846532
227	0x3e297184	0.16547209
228	0xbd7b7610	-0.06139189
229	0x3d9d8c4d	0.07692776
230	0x3d28e14b	0.04123048
231	0x3e5a5de3	0.21324877
232	0x3d33cdac	0.043897316
233	0xbd10c428	-0.03534332
234	0xbdca78da	-0.09886332
235	0x3d4c5ff2	0.049896188
236	0x3e056f38	0.13030708
237	0x3d72ebdb	0.05930696
238	0x3d802bcc	0.062583536
239	0x3e105a70	0.14096999
240	0x3da8427e	0.082158074
241	0xbed8e66f	-0.42363307
242	0xbe125ae0	-0.14292479
243	0xbc3293be	-0.010899482
244	0xbd2a23a8	-0.04153791
245	0x3dd6845d	0.10474465
246	0x3d468dea	0.048475184
247	0xbe2d6a2b	-0.16935031
248	0xbda1af31	-0.07894743
249	0xbbd71695	-0.0065639713
250	0x3e9f9ecb	0.31175837
251	0x3cc9c97e	0.024632212
252	0x3d1785f8	0.036992997
253	0xbec820ba	-0.39087468
254	0xbe0ce691	-0.13759829
255	0x3df2628d	0.11835203

fc.bias f4 [48]
0	0x3d6a0458	0.05713305
1	0x3dfe253f	0.12409448
2	0x3d58e5b7	0.05295345
3	0x3dfcade8	0.123378575
4	0x3d88de7e	0.06683062
5	0x3e0f7593	0.14009695
6	0x3d895f60	0.067076445
7	0x3e1a7d0d	0.15086766
8	0x3d9b4543	0.0758157
9	0x3e20c346	0.15699491
10	0x3da03419	0.07822437
11	0x3e145d9a	0.14488831
12	0x3d9999de	0.07500051
13	0x3e10f3a1	0.14155437
14	0x3da2abcb	0.07942923
15	0x3e206fbf	0.15667628
16	0x3da257c1	0.07926894
17	0x3e29e2a0	0.16590357
18	0x3d9cdb3d	0.07659004
19	0x3e1a99bc	0.15097708
20	0x3d9fe308	0.07806975
21	0x3e12bd3d	0.14330001
22	0x3d964f67	0.073393635
23	0x3e266daa	0.16252771
24	0x3d966f98	0.073455036
25	0x3e252de7	0.16130792
26	0x3d99885c	0.074967116
27	0x3e1d82ea	0.15381971
28	0x3d960daf	0.07326829
29	0x3e1db75c	0.15401977
30	0x3d98cd37	0.074610166
31	0x3e0d5f6d	0.13805933
32	0x3da2fb92	0.079581395
33	0x3e0345c2	0.12819579
34	0x3da1383e	0.078720555
35	0x3e001750	0.12508893
36	0x3da1e0a6	0.079041764
37	0x3e08d020	0.13360643
38	0x3d9f9d09	0.07793624
39	0x3dfedde2	0.124446645
40	0x3da41545	0.08011869
41	0x3df95e70	0.12176216
42	0x3da4709c	0.08029291
43	0x3e024744	0.12722498
44	0x3db003ce	0.08594476
45	0x3e0a03d0	0.13478017
46	0x3d9a6ce9	0.07540304
47	0x3e16c655	0.14724095
